saved/gan/bzmlzfq0/checkpoints/epoch=0-step=10-v1.ckpt (torch, 21906 bytes, 39 tensors)

generator.fc1.weight f4 [16, 7]
000000 5b 67 16 bf 9e 18 29 3f c5 3d a5 be da d7 0e 3f
       -0.5875146 0.6605319 -0.3227369 0.55798113
000010 30 c1 6c 3f 0e 09 ef 3d 52 9b ec 3e be eb d2 be
       0.9248228 0.11671649 0.4621225 -0.41195482
000020 07 ff 60 3f 04 fe 69 be 32 7d 64 be de b4 67 3e
       0.8788914 -0.22850806 -0.22313383 0.22627589
000030 6f bb 59 be c0 75 34 bf 60 9f 1a 3e 5f f0 bf 3d
       -0.21262906 -0.7049217 0.15099859 0.09372019
000040 e9 cf 84 3d 9c e7 12 3e 4e 1f 6e bf ec a4 2d bf
       0.06484968 0.14346164 -0.9301652 -0.67829776
000050 05 e9 12 3f 9c 3d c5 3e a5 99 59 3f 51 42 7f be
       0.5738681 0.38523567 0.8500007 -0.24927641
000060 a1 cb 51 3e c8 16 a4 be a4 07 80 3f 76 fb 13 3e
       0.20487835 -0.3204863 1.0002332 0.14451393
000070 3f c8 07 3f d1 6c 71 3e b8 7e fe 3d 1f b7 24 be
       0.53039926 0.23576666 0.124265134 -0.1608548
000080 b8 3b 46 3e 00 96 ea be c1 f9 29 bf e9 2b 6d bd
       0.19358718 -0.45817566 -0.6639672 -0.057903204
000090 13 c3 b3 be a7 23 aa be 3c b3 d1 be cc 0f 8b 3e
       -0.35109767 -0.33230326 -0.40957057 0.2716049
0000a0 45 05 a2 bf ff 82 84 be 70 c0 63 3f 0d f4 44 3f
       -1.2657858 -0.25881192 0.8896551 0.7693489
0000b0 74 53 4f 3f d2 53 84 bf bf 7a bc be 80 ee aa bc
       0.80986714 -1.033808 -0.36812398 -0.020865679
0000c0 3a db d4 be e6 0d 5d 3e f0 13 86 bf 73 aa c3 be
       -0.41573507 0.21587333 -1.0474834 -0.3821598
0000d0 41 ee 03 3f 9e a7 2c bf 5d 82 11 bf 1e bf 11 be
       0.5153542 -0.67443264 -0.56839544 -0.14233062
0000e0 08 c1 94 bf 15 ed a9 3e 4b 60 ec 3d f2 90 a3 3d
       -1.1621408 0.33188692 0.11541804 0.079866305
0000f0 82 a7 54 3e 6b 97 b9 bc f2 fa c7 3e 5f db e7 3e
       0.20767024 -0.02265521 0.39058644 0.45284554
000100 6e 20 22 bf 9b 73 12 3e 4e e3 a8 be 01 45 2d bf
       -0.63330734 0.14301912 -0.3298592 -0.67683417
000110 e9 96 19 3e 28 c2 21 bf 22 72 e3 be 72 0d fe be
       0.14998974 -0.63186884 -0.44423014 -0.49619633
000120 90 50 13 3f 60 d9 50 bd cd 78 6f 3e a8 97 96 3e
       0.57544804 -0.050988555 0.23385926 0.2941258
000130 7f fb 5b be e0 da 54 be 4a a8 68 3f b9 24 76 3e
       -0.21482657 -0.20786619 0.9088179 0.24037446
000140 ff 3b e9 3e 6f a2 5d 3d 3f c5 83 3e d9 96 f0 be
       0.45553586 0.054109987 0.25736424 -0.46990088
000150 b2 10 c8 be 1c 49 53 be a9 92 6a 3e dd bd 42 3f
       -0.39075238 -0.20633358 0.22907509 0.7607096
000160 eb 91 ef bd 7d 07 32 3f c2 86 55 bf 42 5d 3d 3e
       -0.116977535 0.69542676 -0.8340875 0.18492606
000170 da 1c 9c 3f df 08 d0 bd 37 b8 32 3f 43 58 28 3f
       1.2196305 -0.10157942 0.6981234 0.65759677
000180 b8 74 50 3c f7 e2 ae 3e e2 dc 44 be 5f dd 45 3f
       0.01272314 0.34157535 -0.19224885 0.7729091
000190 30 da 92 3e 1d da 65 3d c0 28 3c 3f e7 2e 83 bd
       0.2868209 0.056116212 0.7349968 -0.0640543
0001a0 95 83 e7 3a a4 e0 bf 3e c7 b3 70 be 5c 9a fc 3d
       0.0017663116 0.37476075 -0.2350608 0.12334129
0001b0 87 dc da 3d 24 37 fa 3e ee d9 0c 3f cb 94 8b 3e
       0.106865935 0.48870194 0.55020034 0.27261958

generator.fc1.bias f4 [16]
000000 3d 64 06 be ea e9 5e be 27 0b 8a 3e 29 0a 56 3e
       -0.13124175 -0.21768919 0.26961634 0.20902313
000010 89 f0 80 3c 72 a5 bb bd 0a 3e 0a be fa 85 81 bd
       0.015739696 -0.091624156 -0.13500229 -0.06324382
000020 de ea dc bd d9 cc 00 bd 4b f7 28 be b1 a6 b0 3e
       -0.10786985 -0.031445358 -0.16500585 0.34502175
000030 97 5b b0 3e 57 bd 8a be 1f 87 1a be 1f 21 58 3e
       0.34444878 -0.2709758 -0.15090607 0.21106385

generator.fc2.weight f4 [8, 16]
000000 03 ff f1 be 35 c5 90 3e ae 80 0b bf d2 5a f9 bd
       -0.4726487 0.28275457 -0.54493225 -0.12175526
000010 4a a0 d4 bd b0 9d 10 be 6e 73 bd 3e db 91 10 3f
       -0.10382135 -0.14122653 0.37002128 0.5647256
000020 7a 8a 2e 3e 2e fe f9 bd cb a5 d5 3c ef d3 94 bc
       0.17045012 -0.12206684 0.026080033 -0.018167464
000030 65 ab 0c 3e 53 03 d1 3d b2 97 95 be ce 09 88 bd
       0.13737257 0.10205712 -0.29217297 -0.06642495
000040 d2 4e 1a bf 64 a7 28 be 85 98 d7 be ce 1a 8a be
       -0.6027652 -0.16470104 -0.4210855 -0.26973575
000050 5e 4e 0d bf de ad 54 3e 4a 93 b1 be 95 01 68 3d
       -0.55197704 0.2076945 -0.34682685 0.056642134
000060 fd 23 19 bd c0 94 58 be c1 cd 89 3e b4 69 7a 3e
       -0.037387837 -0.21150494 0.2691479 0.24454385
000070 13 d1 33 3f f6 7e e7 be 4d 0d 52 bf 73 b5 b5 3e
       0.70240897 -0.4521405 -0.82051545 0.35489997
000080 88 d4 83 3e ef dd e6 3e 63 1c d9 3c 8b cb 27 be
       0.25748086 0.45091197 0.026502794 -0.16386239
000090 8a f0 d5 3e 55 36 da 3e e7 ec b3 be ae a3 e4 bd
       0.4178508 0.42619577 -0.3514168 -0.11164032
0000a0 c3 25 34 3d 1d c9 d6 be d2 ba 58 bf ec 24 c3 3e
       0.043981325 -0.41950312 -0.84660065 0.38114107
0000b0 2b 13 9b be 2f 9f 5e be f5 98 6b 3d a5 1f ae 3b
       -0.30288061 -0.21740411 0.057518918 0.005313831
0000c0 24 88 99 3d 07 fa 42 be f4 e6 a9 bd 9c 3f 98 be
       0.0749667 -0.1904069 -0.08296004 -0.2973603
0000d0 64 77 52 3d ed 54 e0 3e 66 1b 38 3f 0e 19 17 3f
       0.05138339 0.43814793 0.71916807 0.59022605
0000e0 6e 9a 79 3d 34 ed 04 3e c1 fa ee 3d 95 33 f2 bd
       0.06093829 0.12981111 0.11668921 -0.11826245
0000f0 e3 bb db be 2c 0e 10 bf 59 8c e3 bd 30 ca 96 bb
       -0.42916784 -0.56271625 -0.111107536 -0.0046017393
000100 4f d3 54 3e 4c af 81 be b4 30 31 3e 1b 50 98 3e
       0.20783733 -0.25329053 0.17303735 0.29748616
000110 72 e7 4c 3e be 46 33 bf 7a 91 c0 3e 5a b1 96 3e
       0.20010164 -0.7002982 0.3761099 0.29432184
000120 96 19 27 3e 1b b1 f3 3e d6 54 ba bb b0 e9 8b be
       0.16318354 0.47596058 -0.0056863828 -0.27326727
000130 ab bb 11 3e 5a 9f b8 3e 23 d4 bc be 69 c7 d6 be
       0.14231746 0.36059076 -0.36880597 -0.41949013
000140 d2 0c 34 3e 01 7c d7 bd 9d 53 2d 3e 55 5a fd be
       0.17583016 -0.10521699 0.16926427 -0.4948298
000150 56 e8 70 3b d8 39 f3 3c 0f 99 43 be 22 50 ca be
       0.0036759577 0.029690668 -0.19101356 -0.3951426
000160 be 87 bb 3d 1d 04 02 3e de 5e 43 3e a2 ea b7 be
       0.0915675 0.12696882 0.19079158 -0.35921198
000170 9e 6a 66 3e 81 94 a2 be cc d0 13 3f 3d a4 8a be
       0.22501609 -0.31753924 0.57740474 -0.2707843
000180 31 1a 8e bc 16 6b 9a 3e a6 9e 71 3d fc db 9a 3e
       -0.017346473 0.30159825 0.05898919 0.3024596
000190 69 40 3a be 46 23 0b bf 64 c5 67 3d 65 4b 27 3f
       -0.18188633 -0.543507 0.05658473 0.6534942
0001a0 35 ae 83 3e a7 32 93 bd 1f 74 57 3e e2 13 75 be
       0.25718847 -0.071873955 0.2104039 -0.23933366
0001b0 ab 3d 86 be ae 78 a8 be f2 1e b0 3e 0b 04 4a 3c
       -0.26218924 -0.3290457 0.3439861 0.0123300655
0001c0 5e 1e 4c be 8e 8e 12 3e 97 1a 73 3f 75 97 d8 3e
       -0.19933459 0.14312193 0.9496245 0.42303053
0001d0 4d 1b 84 3c aa be 40 be 20 74 45 bb e9 42 1c 3e
       0.0161263 -0.18822733 -0.003012903 0.15259899
0001e0 92 d4 27 3f 2a c0 02 be b3 83 77 be 69 ef ca be
       0.6555873 -0.12768617 -0.24171333 -0.3963578
0001f0 ff ec 99 3e 17 01 89 3d 7b fa 98 3e 94 fa 3a 3e
       0.30063626 0.06689661 0.298786 0.1825965

generator.fc2.bias f4 [8]
000000 ad 9a ab bc 9f 57 75 bd d6 9f fd bd 76 bc a7 bd
       -0.020947779 -0.059898015 -0.12384002 -0.08190243
000010 89 d8 27 3e 87 d0 6f bd 51 28 62 be 32 99 84 bd
       0.16391195 -0.058548477 -0.22085692 -0.06474532

generator.fc3.weight f4 [16, 8]
000000 65 f2 6d 3e ce 5a 3c bf bd 85 1f 3e 00 4e 4a 3d
       0.23236997 -0.73576057 0.15578361 0.049390793
000010 2b bf 8a be f2 bc 7c 3e 3e 9b a6 3e 57 43 d0 3d
       -0.27098975 0.24681452 0.32540315 0.10169094
000020 e8 7d 2f bf 35 07 62 3f c9 e8 aa 3e 12 18 b7 3e
       -0.6855149 0.8829225 0.33380726 0.35760552
000030 2e 95 12 bf 77 67 f5 be 37 ef 09 3f 67 bc cd 3e
       -0.5725888 -0.479305 0.5388064 0.40182802
000040 53 3d 7c bf 38 60 ff bc c6 fe 14 bf b1 39 45 3f
       -0.98531073 -0.03117381 -0.58201253 0.77041155
000050 97 b8 1e 3e ff 25 4b bf 64 95 b2 3e 83 5f e1 3e
       0.15500103 -0.7935485 0.348796 0.44018182
000060 51 25 2a bf 5d 09 80 3d 1e aa 80 be 60 4a f4 3d
       -0.6646319 0.06251786 -0.2512979 0.119282484
000070 34 53 20 3e d8 40 c2 3e 97 80 47 3f 5d 15 d2 3b
       0.1565674 0.37940097 0.7793059 0.006411238
000080 2b 2e 49 3f 8c 7d c6 bc 2b 51 31 be fc 66 e1 be
       0.7858607 -0.024229787 -0.1731612 -0.44023883
000090 ad e9 47 3e 88 1c 7e 3e 65 c5 80 3d a1 37 46 bf
       0.19522734 0.24815571 0.0628765 -0.7742863
0000a0 6d 18 47 3e 62 20 73 bf 48 70 8f 3d 3c ee a6 3b
       0.19442911 -0.9497129 0.07003838 0.0050943177
0000b0 46 8f 04 bf cc 50 3f be e8 74 df 3e 92 c0 d1 be
       -0.5178112 -0.18683165 0.4364388 -0.40967232
0000c0 d1 04 d9 3e db c0 05 3d af 38 1e 3f ce 4b da be
       0.42386487 0.032654624 0.6180524 -0.4263596
0000d0 d8 35 09 be 20 94 6a be 4e 61 07 3f 1e e2 37 bf
       -0.13399446 -0.22908068 0.5288285 -0.718294
0000e0 22 90 1e bf 72 c6 8b be a2 2f 43 3f a6 f1 a5 be
       -0.6193868 -0.2729984 0.76244557 -0.32410926
0000f0 3a 05 0f 3f fa 52 70 3f 1f ab c4 be b6 be 0d bf
       0.5586735 0.9387661 -0.38411805 -0.55369127
000100 18 05 7e 3e 54 30 30 be cb 66 b9 be 0f 9b c9 3e
       0.2480663 -0.17205936 -0.36211237 0.39376113
000110 cd ca 8d 3e 76 19 32 3f 0c 8a fb be b4 3e 56 bf
       0.27693787 0.695701 -0.4912876 -0.8368943
000120 87 aa 10 bf 46 4c 0b 3f 35 c2 e0 be ca c5 a5 3e
       -0.56510204 0.5441326 -0.43898168 0.32377464
000130 fc 5d 27 bf cd 50 1d 3e 2c 8b 2e bb 14 e2 23 3f
       -0.65377784 0.15362854 -0.0026633246 0.6401684
000140 f6 2b e7 bd 6a 68 0d bf 92 dc 06 3e 44 45 12 be
       -0.11287682 -0.5523745 0.13170078 -0.14284235
000150 1d cd 22 bf 49 6e 59 3f 2f 3c 87 3e 6e fc 1f bf
       -0.6359423 0.84933907 0.26413104 -0.6249455
000160 0c 55 21 3e 09 b2 c3 be 5b d9 18 3f 9d e8 21 be
       0.15755099 -0.38221768 0.5970666 -0.15811391
000170 c2 97 fe bb 4c bd e5 3e fd 1d 6a be 11 d8 23 be
       -0.007769556 0.44870985 -0.22863002 -0.16000392
000180 ea b8 70 3e 42 95 02 bf fe 0f 0d 3e d4 3c 64 3f
       0.23508039 -0.51009 0.13775632 0.89155316
000190 2e 5d a3 be 3e a0 0b 3e 10 65 50 3e 87 72 37 bf
       -0.31907028 0.13635346 0.20351052 -0.7165913
0001a0 68 d0 61 3e 7e ee 0e bf 82 59 9d 3f 9f 89 87 3e
       0.22052157 -0.5583266 1.2292941 0.26472184
0001b0 c9 12 31 3f f3 c5 d0 bd 7b 85 37 bf c3 68 26 3f
       0.6916929 -0.10194006 -0.7168805 0.65003604
0001c0 03 73 6a 3f 46 8b 14 3e 47 54 09 be 96 a5 b9 3e
       0.91581744 0.14506254 -0.13411056 0.36259145
0001d0 4d 90 e4 bd ac a0 ff be 8f 4a f2 3d c1 82 07 3f
       -0.11160336 -0.4992727 0.11830627 0.5293389
0001e0 36 fa e1 3c 3b 78 8b be 73 23 08 3f 6a 79 86 3e
       0.02758513 -0.27240166 0.5317909 0.26264507
0001f0 7e a4 04 bd b1 c5 71 be a8 5a 00 bf 14 a8 9f be
       -0.032383434 -0.2361057 -0.5013833 -0.3118292

generator.fc3.bias f4 [16]
000000 33 42 89 be 01 54 19 bd fb 0b 5e 3e 54 21 89 be
       -0.26808318 -0.037433628 0.21684258 -0.2678324
000010 69 4d 3a 3e 43 7a 6f bd f6 d6 19 be 6b 9a 9a be
       0.18193592 -0.058466207 -0.15023407 -0.30195937
000020 b9 a7 54 3e ee f8 cc 3d 76 19 a1 3d 0d 2c b3 3e
       0.20767106 0.10008417 0.078661844 0.34994546
000030 d8 96 4a be 88 5f 9c be 77 77 26 3e 7f db 85 be
       -0.19784105 -0.30541635 0.1625651 -0.26144025

generator.fc4.weight f4 [7, 16]
000000 6a a5 43 be f1 f1 d5 3e 5e ad 8b 3e d8 e2 4c 3f
       -0.19106069 0.4178615 0.27280706 0.80033636
000010 93 20 7c 3d 1f 32 b7 3e bf 25 07 bd d8 e3 32 bf
       0.061554503 0.35780427 -0.03299498 -0.6987891
000020 47 c9 9b 3e ca de 43 3e 79 fa 05 3e 5a 21 91 be
       0.30427 0.19127956 0.13083829 -0.28345758
000030 39 a4 b0 3d db a2 63 3e 54 98 e7 3d 6d 6f 2f bd
       0.08625073 0.22230093 0.11308351 -0.042830873
000040 e0 01 53 be be a8 46 3e 24 29 63 3f 51 fc b5 be
       -0.20606184 0.19400308 0.8873465 -0.35544065
000050 bc be 36 bc af 24 02 3f af 38 60 3e 3e 7d 06 be
       -0.011153873 0.50837225 0.21896623 -0.13133714
000060 56 94 81 3e dd a6 95 3d 6b 08 46 be b8 37 5a 3f
       0.25308484 0.07307217 -0.19339149 0.8524127
000070 5c d1 00 bf 66 1b 86 be 1d 08 fe be a2 33 27 3b
       -0.5031946 -0.26192778 -0.49615565 0.0025512953
000080 0a 95 40 3e e2 2f 38 3c 56 54 df 3e 09 15 81 3e
       0.18806854 0.011241885 0.4361903 0.2521136
000090 c6 13 a8 3d 0d dc 1b be 1e fa a6 be 41 50 ed 3c
       0.082068965 -0.15220661 -0.326127 0.028968932
0000a0 fe a4 c8 3c 96 ac eb be e5 3a cf 3d 82 2f 0b be
       0.024492737 -0.4603011 0.10118655 -0.13592342
0000b0 7b 91 db bc 16 99 86 3e 79 d8 05 be b2 6d db be
       -0.026802769 0.2628867 -0.13070859 -0.42857128
0000c0 c3 69 29 be 65 e8 a3 bd 8e dd aa bd ba 07 80 be
       -0.16544251 -0.0800331 -0.083430395 -0.25005895
0000d0 82 b9 22 3f 8b d1 be be a7 fa 48 be 4d bd 1e 3e
       0.6356431 -0.37269244 -0.19626866 0.155019
0000e0 ae f5 4b 3e 72 fb ab 3d f8 37 ae 3d 27 cb f2 bc
       0.19917938 0.08397569 0.08506769 -0.029637886
0000f0 46 05 a1 be 65 b4 ac 3e b4 0b 12 bf a2 95 f9 3d
       -0.31449336 0.3373138 -0.5704911 0.12186743
000100 97 0e a3 3d 85 60 da 3d dd 95 99 be 29 37 85 3e
       0.07961767 0.10662941 -0.2999715 0.26018646
000110 90 5f f6 be 7b 47 41 be 9a a0 79 3e 5d 3e f3 3d
       -0.48119783 -0.18874924 0.24377671 0.11877129
000120 5d 94 67 bf 44 b7 bd 3e e8 29 1a 3f 22 9d fc 3d
       -0.9046076 0.37053883 0.60220194 0.12334658
000130 8a 77 92 be 15 c5 f1 3e 19 16 1e 3e 4f 9d 5a bd
       -0.28606826 0.47220674 0.15438117 -0.053372677
000140 df 30 ac be 44 06 3c be d7 46 e7 3e 90 a3 92 bd
       -0.33631036 -0.18361765 0.45171234 -0.07160103
000150 a6 4f 81 3e 9d fc 08 3e 2f 91 cb 3d 74 dd ef bd
       0.2525608 0.13377614 0.09939801 -0.11712161
000160 1b 5c 4b bf de e2 13 3f 82 7f 0a 3d 40 8c 8f 3f
       -0.79437417 0.57768047 0.033813007 1.1214676
000170 22 75 03 3e 4d e0 90 be 7b 36 83 be 9e 6b 9a 3c
       0.12837651 -0.28296128 -0.25627503 0.018850144
000180 8d 77 21 be cd b2 14 be 6e 9a 89 3d cd eb f7 3b
       -0.15768261 -0.14521332 0.06718908 0.0075659514
000190 6e a9 ff 3e bb 82 0c 3e 09 2f 30 3e c6 e5 19 bf
       0.49933952 0.13721745 0.17205442 -0.6011623
0001a0 ea 1d 90 3e e4 ac 67 3f a1 68 7b be e5 0b c5 3e
       0.28147823 0.90498185 -0.24551632 0.38485637
0001b0 8b d6 01 be f2 39 1e 3f 28 44 80 be 52 44 19 3d
       -0.12679498 0.6180717 -0.25052 0.03741867

generator.fc4.bias f4 [7]
000000 d2 7b 84 3d cb c1 80 be c3 f4 0f be 5a 28 48 ba
       0.06468929 -0.25147852 -0.14058213 -0.00076354074
000010 96 5a dd bd 91 7a 22 3e e9 35 53 3d
       -0.108082935 0.15867068 0.051565085

generator.layer_norm_hidden_0.weight f4 [16]
000000 53 b8 7e 3f 53 b8 7e 3f 53 b8 7e 3f d9 a3 80 3f
       0.99500006 0.99500006 0.99500006 1.0050002
000010 d9 a3 80 3f 77 be 7f 3f d9 a3 80 3f 53 b8 7e 3f
       1.0050002 0.999 1.0050002 0.99500006
000020 53 b8 7e 3f 53 b8 7e 3f 65 3b 7f 3f d9 a3 80 3f
       0.99500006 0.99500006 0.99700004 1.0050002
000030 d9 a3 80 3f 53 b8 7e 3f d9 a3 80 3f d9 a3 80 3f
       1.0050002 0.99500006 1.0050002 1.0050002

generator.layer_norm_hidden_0.bias f4 [16]
000000 0b d7 a3 bb 0b d7 a3 3b a6 9b 44 bb 0b d7 a3 3b
       -0.0050000004 0.0050000004 -0.003 0.0050000004
000010 0b d7 a3 bb 0b d7 a3 3b 0b d7 a3 3b 0b d7 a3 3b
       -0.0050000004 0.0050000004 0.0050000004 0.0050000004
000020 0b d7 a3 bb 0b d7 a3 bb 6f 12 83 ba 6f 12 83 3a
       -0.0050000004 -0.0050000004 -0.001 0.001
000030 0b d7 a3 bb 0b d7 a3 bb 0b d7 a3 3b 0b d7 a3 3b
       -0.0050000004 -0.0050000004 0.0050000004 0.0050000004

generator.layer_norm_hidden_1.weight f4 [8]
000000 53 b8 7e 3f 4f 62 80 3f 53 b8 7e 3f d9 a3 80 3f
       0.99500006 1.0030001 0.99500006 1.0050002
000010 53 b8 7e 3f d9 a3 80 3f 53 b8 7e 3f d9 a3 80 3f
       0.99500006 1.0050002 0.99500006 1.0050002

generator.layer_norm_hidden_1.bias f4 [8]
000000 0b d7 a3 3b 6f 12 83 3a 0b d7 a3 3b 0b d7 a3 3b
       0.0050000004 0.001 0.0050000004 0.0050000004
000010 0b d7 a3 bb 0b d7 a3 bb 0b d7 a3 3b 0b d7 a3 3b
       -0.0050000004 -0.0050000004 0.0050000004 0.0050000004

discriminator.fc1.weight f4 [8, 7]
000000 2e 71 9c 3e 28 34 14 be 41 bc 8d 3e 8b da d3 be
       0.305551 -0.14473021 0.2768269 -0.41377673
000010 fe 46 9c 3e 69 ab fc be d1 e1 f3 bd ef 66 5e bf
       0.30522913 -0.49349526 -0.119083054 -0.86875814
000020 70 a4 36 3b 4b 10 aa 3e f1 03 ef bd 5a 03 bc 3c
       0.0027869008 0.33215556 -0.11670674 0.022950817
000030 78 88 dd 3d 70 d8 86 3e da ad 9a 3e ec 10 b8 bf
       0.10817045 0.26337004 0.30210763 -1.4380164
000040 7d 65 be be 71 89 44 3f e8 54 66 be 9f b9 8a 3d
       -0.37186804 0.7677222 -0.22493327 0.06773686
000050 2c a2 b9 bd ec 38 d0 be 24 0f 05 3f 20 cb dc be
       -0.09064135 -0.40668428 0.5197623 -0.43123722
000060 20 b4 78 3f 6d 3f 53 3e 83 fe 87 bf 57 60 70 3f
       0.9714985 0.20629664 -1.0624546 0.93897
000070 89 dd 05 bf 6e 10 87 be 91 20 c2 bd a1 4e 2c bf
       -0.5229116 -0.26379722 -0.09478868 -0.6730748
000080 f6 1d 5e 3e 4b 1b 39 3f 91 b4 d3 3e 9c 65 3c 3e
       0.21691117 0.7230727 0.413487 0.18398136
000090 9c 5a 1a bf bb 84 95 3e 51 31 d7 bd f2 9c 5f 3f
       -0.6029451 0.29202828 -0.10507453 0.87348855
0000a0 c9 ac 7c 3f 51 31 0e 3f 1a 40 c8 3f 48 90 17 3e
       0.9870115 0.55544 1.5644562 0.14801133
0000b0 10 1f b7 bd 59 6f f9 bc 10 71 0d 3f 07 39 73 be
       -0.089414716 -0.030448603 0.55250645 -0.23752223
0000c0 ca 48 03 3e 38 a7 1c be 3a 8d 03 3b 51 2d 96 bd
       0.12820736 -0.15298164 0.0020073191 -0.07332862
0000d0 a6 bf ad 3e 7b cf 93 3e 94 1a d9 3e 96 90 a7 3e
       0.3393528 0.28869233 0.4240309 0.32727498

discriminator.fc1.bias f4 [8]
000000 17 de 93 be 95 d1 90 be a2 ac 0a be d8 cb 92 be
       -0.2888038 -0.28284898 -0.13542417 -0.28671145
000010 e2 f2 66 bb cb 5b a2 3e 87 18 96 3e bb 65 d3 bd
       -0.0035239984 0.31710657 0.29315588 -0.10322138

discriminator.fc2.weight f4 [1, 8]
000000 3b 5c 56 3f c7 28 a0 be cd a6 06 be 40 4c 1e bd
       0.8373448 -0.3128111 -0.13149567 -0.038646936
000010 bd e6 90 3e de 95 15 3e f4 e0 52 be ab c1 a2 3f
       0.2830104 0.14607951 -0.20593625 1.2715353

discriminator.layer_norm_hidden_0.weight f4 [8]
000000 76 a4 80 3f ed 61 80 3f 34 ba 7e 3f d0 a3 80 3f
       1.005019 1.0029885 0.99502873 1.0049992
000010 3d 45 80 3f ca 6d 80 3f 87 4f 7f 3f ac b9 7e 3f
       1.002113 1.0033505 0.99730724 0.9950206

discriminator.layer_norm_hidden_0.bias f4 [8]
000000 d8 ff a3 3b 7b fd a3 bb cc 06 a4 bb e6 da a3 bb
       0.005004864 -0.0050045825 -0.005005693 -0.00500046
000010 6e 05 a4 3b 5f f9 a3 3b d2 05 a4 bb a6 01 a4 3b
       0.00500553 0.0050040926 -0.0050055766 0.0050050793

exp_avg f4 [16, 7]
000000 ee ff 5c 3b 5a b1 5d 3b 53 68 28 a1 34 9c 5d 3b
       0.0033721882 0.0033827634 -5.7058686e-19 0.0033815028
000010 f0 a5 5d 3b 24 c4 5d 3b 89 02 5d 3b ed 26 4e 3b
       0.003382083 0.0033838833 0.0033723435 0.0031456307
000020 af 17 4e 3b 13 80 13 21 1a 13 4e 3b 22 16 4e 3b
       0.0031447222 4.997504e-19 0.003144449 0.0031446298
000030 10 18 4e 3b cc d4 4d 3b ac c2 93 bb a9 fc 93 bb
       0.0031447448 0.0031407354 -0.0045092907 -0.0045162034
000040 a5 4f 8f a1 ee 00 94 bb c5 00 94 bb b2 08 94 bb
       -9.711139e-19 -0.0045167124 -0.0045166933 -0.004517638
000050 29 65 93 bb e0 b8 cc ba 01 4a cd ba eb 57 38 20
       -0.004498143 -0.0015619062 -0.0015662314 1.5614496e-19
000060 fe 4d cd ba 50 4d cd ba d7 67 cd ba a8 85 cb ba
       -0.0015663502 -0.00156633 -0.0015671205 -0.0015527504
000070 f3 a2 b9 3a 9a b7 b9 3a 87 3c ae 9f 41 a7 b9 3a
       0.0014162943 0.0014169097 -7.3792e-20 0.0014164225
000080 49 aa b9 3a 4b b4 b9 3a 5b 2b b9 3a 79 6c 98 ba
       0.0014165129 0.0014168111 0.0014127301 -0.0011629007
000090 d7 36 98 ba 9e b2 48 20 1c 31 98 ba 99 2d 98 ba
       -0.0011613023 1.6999758e-19 -0.0011611315 -0.0011610269
0000a0 0e 26 98 ba 5e e3 98 ba 4d f0 b2 3b c6 ed b2 3b
       -0.0011608021 -0.001166444 0.005460775 0.0054604737
0000b0 fb 04 f7 20 33 ea b2 3b 53 eb b2 3b e7 ea b2 3b
       4.1846723e-19 0.0054600476 0.0054601817 0.0054601314
0000c0 3a e5 b2 3b 76 5f e7 3b 4b 53 e7 3b 73 df 9a 21
       0.005459455 0.0070609404 0.00705949 1.0494592e-18
0000d0 92 50 e7 3b db 52 e7 3b b7 51 e7 3b 38 6b e7 3b
       0.0070591653 0.0070594377 0.0070593017 0.007062342
0000e0 a5 5f 89 39 c3 59 88 39 e2 5e 51 1f 58 59 88 39
       0.00026201937 0.0002600682 4.4335957e-20 0.00026006508
0000f0 74 57 88 39 d4 39 88 39 3c 42 89 39 4f e3 05 bb
       0.000260051 0.00025983027 0.00026180025 -0.0020429676
000100 8b d6 05 bb 97 8f 60 a1 33 d6 05 bb 49 dc 05 bb
       -0.0020422067 -7.608419e-19 -0.0020421862 -0.002042549
000110 58 de 05 bb 69 d4 05 bb 31 d9 48 bb ad c8 48 bb
       -0.0020426717 -0.0020420796 -0.0030647034 -0.003063719
000120 2f 71 29 a1 b5 c2 48 bb 35 c6 48 bb 1e ca 48 bb
       -5.7409224e-19 -0.0030633633 -0.0030635719 -0.003063805
000130 17 ce 48 bb 77 9b 9b ba 9e ee 9a ba 7a f3 66 21
       -0.0030640417 -0.0011871894 -0.0011820381 7.824927e-19
000140 04 d4 9a ba f2 d2 9a ba aa ac 9a ba 58 ed 9c ba
       -0.0011812453 -0.0011812134 -0.0011800725 -0.001197259
000150 07 3d 62 bb 20 86 62 bb 16 06 62 a1 79 62 62 bb
       -0.0034521238 -0.0034564808 -7.6579833e-19 -0.0034543558
000160 ab 73 62 bb dc 84 62 bb 64 a5 62 bb f0 e4 2d 3b
       -0.0034553807 -0.0034564054 -0.0034583444 0.0026534162
000170 7d 01 2e 3b c3 ca cc a0 a6 f2 2d 3b c0 f7 2d 3b
       0.002655118 -3.469312e-19 0.0026542335 0.0026545376
000180 bf fb 2d 3b e8 13 2e 3b 00 3c 88 b9 75 ce 87 b9
       0.0026547757 0.0026562158 -0.00025984645 -0.0002590303
000190 16 58 e8 a0 86 82 88 b9 9d 3b 88 b9 3d 11 88 b9
       -3.936062e-19 -0.0002603719 -0.00025984357 -0.00025952785
0001a0 28 ce 85 b9 57 4d 9c bb d3 77 9c bb 9d a7 60 21
       -0.00025521335 -0.004769962 -0.0047750263 7.6115986e-19
0001b0 39 6b 9c bb a8 6f 9c bb 95 77 9c bb ae 5b 9c bb
       -0.004773524 -0.0047740526 -0.0047749975 -0.0047716713

exp_avg f4 [16]
000000 53 68 a8 3b 13 80 93 bb a4 4f 0f 3c ea 57 b8 ba
       0.0051393895 -0.0045013516 0.008747015 -0.0014064286
000010 88 3c 2e 3a 9d b2 c8 ba fb 04 77 bb 73 df 1a bc
       0.0006646593 -0.001531202 -0.0037692178 -0.0094526885
000020 e4 5e d1 b9 98 8f e0 3b 2f 71 a9 3b 7a f3 e6 bb
       -0.00039934285 0.006853055 0.0051709632 -0.0070480676
000030 16 06 e2 3b c3 ca 4c 3b 15 58 68 3b 9f a7 e0 bb
       0.006897698 0.0031248785 0.0035452892 -0.0068559195

exp_avg f4 [8, 16]
000000 df 10 ed 3b 18 09 9a 3a 8f c9 a6 bb 10 62 d2 3b
       0.007234677 0.0011751978 -0.0050899456 0.0064203814
000010 0d 19 b5 39 f5 4c 72 bc e0 89 39 3b e2 21 3a bc
       0.00034541675 -0.014788856 0.002831094 -0.011360617
000020 83 a2 31 3b 3c 93 3e bc 30 2b d1 ba ca aa 8c 3b
       0.0027104921 -0.011631783 -0.0015958305 0.0042928206
000030 1a ac 2f ba 0d b1 14 3c 69 04 bb 3b b4 67 b1 3b
       -0.00067013653 0.009075415 0.005707313 0.0054139737
000040 61 04 77 bb 9c c6 ae 39 09 c4 09 3b d7 ad 94 bb
       -0.003769182 0.00033335842 0.0021021387 -0.004537325
000050 11 ec a6 39 4b 2c 02 3c 39 ce 29 ba 7e 85 c7 3b
       0.0003183787 0.007945131 -0.0006477568 0.0060889116
000060 1f 9c 28 ba f3 04 cd 3b 76 b5 d1 3a 62 90 5c bb
       -0.0006431955 0.0062566935 0.0015999514 -0.0033655395
000070 fe 9d 31 ba 44 4a 9f bb 9b ce 24 bb be f8 70 bb
       -0.0006775557 -0.004861148 -0.002514756 -0.0036769356
000080 cd ba 9f 3a 2e a9 d8 39 b3 d1 9f ba c5 67 0f 3a
       0.0012186408 0.0004132478 -0.0012193233 0.000547048
000090 c7 af 22 39 77 ec fd ba 5b c2 1f 3a 23 3f ba ba
       0.00015515006 -0.001937284 0.000609433 -0.001420949
0000a0 9c 8f 18 3a ab 64 c8 ba 41 7f 05 39 b6 49 19 38
       0.00058197393 -0.001528879 0.00012731274 3.654669e-05
0000b0 fa 27 41 ba e3 a3 d4 3a 74 b1 8f 3a 64 88 e6 39
       -0.00073683227 0.0016223158 0.0010962919 0.00043970637
0000c0 fe de 0c 3a 12 b9 85 3a ae de 07 ba 65 32 d0 b8
       0.00053738046 0.001020225 -0.0005183023 -9.9275996e-05
0000d0 2b f0 39 3a 71 a1 31 bb 87 0f af 3a 50 d6 fe ba
       0.0007092978 -0.0027104283 0.0013356068 -0.0019442532
0000e0 9f 1c ab 3a 8b 74 06 bb 9c 45 82 39 5b 75 da 39
       0.0013054794 -0.0020516242 0.00024847395 0.00041667637
0000f0 a0 6e 59 39 42 3b b3 39 47 68 7d 3a b6 73 80 39
       0.00020735944 0.0003418569 0.00096667226 0.00024500274
000100 44 85 fc 3b 34 f7 bb bb 99 2f 4c bb 4d 3d 35 3c
       0.007706316 -0.005736256 -0.00311563 0.0110619785
000110 b0 20 9c bb 82 3b 8a bb 9f 26 b4 bb 11 3b 8b bb
       -0.004764639 -0.0042185197 -0.005497768 -0.0042489846
000120 82 40 b2 bb 3d 39 88 bb 5f 75 b3 bb 29 7f 86 3b
       -0.005439819 -0.004157214 -0.005476638 0.004104514
000130 84 7d df ba db ea 52 3c 18 a8 0c 3b 46 71 d5 3b
       -0.0017050956 0.012873377 0.0021462496 0.0065137474
000140 38 7a 30 3b 96 dd c5 bb 88 59 47 3a dc a0 cf 3b
       0.0026928317 -0.006038378 0.0007604589 0.0063363146
000150 e8 9d 89 bb 53 23 5b 3b 19 f3 ce bb 74 c0 d8 3a
       -0.004199732 0.0033437803 -0.0063156006 0.0016536848
000160 e5 d8 ca bb df 15 0e 3b 87 be 90 bb 39 7d 04 3b
       -0.0061904066 0.0021680517 -0.004417244 0.002021624
000170 d4 0a 36 39 9d 25 ca 3b c5 41 a3 ba 05 f3 4a 3b
       0.00017360906 0.0061690346 -0.0012455514 0.0030967605
000180 de 80 d5 ba b0 91 b8 3a 0f 2e 23 3a a7 24 2b bb
       -0.0016289016 0.0014081504 0.000622482 -0.0026114376
000190 9f af 91 3a 83 d2 73 3a e1 3f ae 3a 5c 3d 72 3a
       0.0011114961 0.0009301083 0.0013294184 0.00092407106
0001a0 c1 ed aa 3a cc 08 6b 3a b5 b5 a7 3a 06 77 91 ba
       0.0013040827 0.00089658494 0.0012795242 -0.0011098094
0001b0 3f 33 51 39 8a 4d 32 bb e2 d0 bd b9 d2 90 cf ba
       0.00019950884 -0.0027206861 -0.0003620452 -0.0015836006
0001c0 79 df b3 bb 0a 92 3f 3b e7 28 24 3b 8b f5 c2 bb
       -0.0054892865 0.0029231333 0.0025048794 -0.005949681
0001d0 08 9f 21 3b ac 3a 64 3b a8 23 28 3b d3 45 57 3b
       0.002466144 0.003482501 0.0025656018 0.0032848015
0001e0 73 a1 2a 3b e5 bc 47 3b 0b 9b 49 3b b7 51 c7 ba
       0.0026036173 0.003047758 0.0030762579 -0.0015206848
0001f0 bc 90 ee 3a 46 2f 15 bc 2c 97 1a bb 7c f5 5c bb
       0.0018201093 -0.009105509 -0.002358864 -0.0033715656

exp_avg f4 [8]
000000 f0 a6 01 bc a5 fb 43 3b a4 d2 b9 ba 15 25 42 bb
       -0.007913336 0.002990463 -0.0014177156 -0.0029624153
000010 67 30 1a 3c 69 90 44 3c 0f b8 12 bb e5 0b 8f bb
       0.009410954 0.011997321 -0.002238754 -0.0043654316

exp_avg f4 [16, 8]
000000 6a ac cb b9 1a e9 85 bb 58 6e 78 3b 46 92 e5 bb
       -0.00038847636 -0.0040866258 0.0037907567 -0.0070059625
000010 be 72 b8 3b 16 ac 5d ba a3 37 9d 3a a4 ba db 3a
       0.0056289127 -0.0008456124 0.001199473 0.0016763997
000020 63 5a d4 3a 9b 47 cd bb a3 6a e9 3a 34 71 90 bb
       0.0016201254 -0.0062646396 0.001780827 -0.004408026
000030 7a fa ca 3a e1 e1 89 3a 5d bd 4e 3b 88 39 bf 3a
       0.0015486025 0.0010519588 0.0031545975 0.0014589289
000040 13 3b 5c 39 b8 12 eb 3b e2 0b bb bb a6 ca 41 3c
       0.00021002842 0.0071738623 -0.0057082037 0.0118281
000050 99 aa 02 bc 63 25 85 3a 95 e6 42 bb 59 8b 65 bb
       -0.007975244 0.0010158237 -0.0029739488 -0.0035025685
000060 0e 08 40 39 c7 b3 df 3a 1e 86 c2 ba 9a 7d 30 3b
       0.00018313547 0.0017067128 -0.0014840995 0.0026930333
000070 d2 6e 25 bb a1 88 b9 39 17 77 da b9 c8 f7 02 ba
       -0.0025243056 0.00035387746 -0.0004166893 -0.0004996029
000080 ec 33 6d ba e3 6c 19 3b f4 b7 f9 b9 16 27 22 3b
       -0.00090485695 0.0023410849 -0.00047630037 0.0024742535
000090 bf 2c 5b 3a 48 e0 80 ba 90 86 00 bb 59 66 a9 ba
       0.00083608547 -0.0009832466 -0.0019611456 -0.0012924179
0000a0 70 5d 0a 34 cf 00 95 3b 60 30 64 bb b4 8a d5 3b
       1.2886244e-07 0.0045472155 -0.0034818873 0.006516779
0000b0 34 12 a4 bb 61 c3 28 3a 6d c7 ca ba 0b 53 d6 ba
       -0.005007053 0.0006437805 -0.001547081 -0.0016351653
0000c0 15 d4 ba 39 c7 f9 fa 3a 98 1b 0c bb 7b 98 7c 3b
       0.00035634698 0.0019147926 -0.0021378752 0.0038543034
0000d0 53 1f 7a bb fa c9 62 3a 6d 0d b5 b9 e9 e0 31 ba
       -0.0038165643 0.00086513127 -0.00034533013 -0.00067855284
0000e0 71 85 fd ba c8 9b 39 bc eb 63 38 3c af 02 a3 bc
       -0.0019342137 -0.011328645 0.011254291 -0.01989874
0000f0 98 8e 9c 3c 6a 39 68 bb 2e b1 14 3b 7c ec 82 3b
       0.019110963 -0.0035434612 0.0022688615 0.0039954763
000100 5e a9 ac ba c8 81 b6 3b 22 70 2a bb e8 86 d6 3b
       -0.0013173034 0.0055696703 -0.0026006778 0.006546844
000110 ca 46 f3 ba c9 bc 32 ba 6b 6d 54 bb e9 51 1a bb
       -0.0018560525 -0.00068182923 -0.003241385 -0.0023547357
000120 ec 11 53 ba 78 9c ef 3b 14 7f 5e bb d0 ae 01 3c
       -0.0008051682 0.0073123537 -0.0033950256 0.007915214
000130 b5 de 8e bb b6 86 47 ba 47 ac 5e bb e1 14 20 bb
       -0.004360045 -0.0007611321 -0.0033977197 -0.0024426507
000140 ca 7e 99 b8 ab db 13 bb 98 23 09 3b 3b 5d 93 bb
       -7.319225e-05 -0.0022561352 0.0020925757 -0.004497198
000150 bc 08 31 3b c6 89 c0 b9 58 c5 87 3a 6d 63 af 3a
       0.0027013263 -0.00036723743 0.0010358496 0.0013381072
000160 5d 6b 15 3b 45 18 fd 3b 9b 0a 14 bc 7a c1 7d 3c
       0.002279959 0.0077238404 -0.009035732 0.015488023
000170 f7 4e 81 bc d9 94 67 3b f4 76 82 ba eb 80 4f bb
       -0.015784724 0.0035336523 -0.0009953664 -0.0031662534
000180 6e 2a 8f 3a 4d 66 2b bc 06 c9 d2 3b d5 98 82 bc
       0.0010922679 -0.010461402 0.0064326553 -0.015942017
000190 29 7a eb 3b a7 b1 1b 3a 23 6e b7 3b fb 8b b0 3b
       0.0071861935 0.0005939253 0.005597846 0.0053877807
0001a0 f1 ff 1c 3a 13 18 7a 3b 46 42 67 bb 51 f0 ce 3b
       0.0005989066 0.0038161322 -0.0035287305 0.006315269
0001b0 05 3c c7 bb 33 bc 45 3a f0 a1 3b ba 65 37 95 ba
       -0.006080153 0.00075429975 -0.00071576145 -0.0011384307
0001c0 84 99 0f 3b d3 40 85 bc 06 fc 13 3c a7 47 b1 bc
       0.002191157 -0.016266262 0.009032255 -0.021640612
0001d0 fc 9f 1b 3c 82 a3 a5 3a 28 59 0c 3c 45 71 eb 3b
       0.0094985925 0.001263723 0.008566178 0.0071851336
0001e0 fc 01 09 ba f4 e9 32 ba 97 ee bc 3a 72 e6 08 bb
       -0.0005226431 -0.0006825023 0.0014414367 -0.002088931
0001f0 fa 08 1e 3b 6d 6b 2c ba f6 74 6c b9 ea 64 a9 39
       0.0024114237 -0.0006577287 -0.00022550285 0.0003230938

exp_avg f4 [16]
000000 9f 46 43 3a 48 93 9c bb f4 6d cf 3a f3 b2 11 ba
       0.0007449183 -0.0047782995 0.0015825615 -0.00055579765
000010 2a 85 70 3b 65 f7 4c 39 6e bd b0 ba 87 f5 b2 3b
       0.0036700466 0.00019547118 -0.0013484189 0.005461398
000020 ce c3 94 3b bd 30 87 3b bb c3 f7 b9 b1 35 bb bb
       0.0045399433 0.004125683 -0.00047257342 -0.0057131876
000030 b3 d3 d2 bb c0 53 ee ba c8 70 29 bc e0 ed c4 3a
       -0.006433928 -0.0018182918 -0.010341831 0.0015024506

exp_avg f4 [7, 16]
000000 1e e1 89 bb 2c e8 b7 3c ac a5 9a 3c f0 2e 25 ba
       -0.0042077443 0.022449575 0.018877827 -0.0006301245
000010 01 eb 14 bc 4f 47 3d bb 61 5b 49 bc 4d f4 ec bc
       -0.009089232 -0.0028881615 -0.012289853 -0.028925085
000020 9f bb 8d 3c a4 e1 e2 3c 2f 78 bd b8 ff 3f 8d bc
       0.017301379 0.027695484 -9.034608e-05 -0.01724243
000030 d0 c7 85 3c a9 4c 0d bd 6a 1e 06 3c 36 2f 8a ba
       0.01633063 -0.034496937 0.008185962 -0.0010542634
000040 a2 6a 7d bb 0b 95 56 3c 6e 43 37 3c 73 be bf ba
       -0.0038668294 0.013097058 0.01118551 -0.0014628902
000050 86 8f a6 bb 65 0f 45 bb a8 07 d5 bb 0d 9b 64 bc
       -0.0050830273 -0.003006899 -0.006501157 -0.013952983
000060 50 26 1f 3c 2a a6 82 3c 5a 4d bc ba d8 c9 0b bc
       0.009713724 0.015948374 -0.0014366314 -0.00853201
000070 e7 e5 01 3c 9a 00 88 bc 99 c5 7b 3b aa c4 ac ba
       0.007928348 -0.01660185 0.0038417338 -0.0013181169
000080 70 e6 c1 3a 63 7b ae bb 5d 85 69 bb 51 ed 14 3a
       0.0014793407 -0.0053247674 -0.003563247 0.0005681115
000090 53 ab d6 3a 7f 74 a7 3a 4a f7 05 3b 68 68 99 3b
       0.0016377963 0.0012775807 0.0020441585 0.0046816356
0000a0 dd ce 43 bb 1b 1d ca bb b4 3d 19 3a f3 28 37 3b
       -0.0029877939 -0.0061680204 0.00058456813 0.0027947992
0000b0 a4 26 0f bb bb d3 bf 3b 0d 65 a3 ba a3 9a 15 3a
       -0.00218431 0.0058540977 -0.0012466029 0.00057069416
0000c0 bd 39 8c bb 40 42 ec 3a eb 2f 48 3b e0 dc 53 bb
       -0.004279344 0.0018025115 0.003054614 -0.0032327697
0000d0 df 3a 2a ba 9b 4c 82 bb 8b fc 3f ba 19 6b 77 3b
       -0.0006493758 -0.0039764172 -0.00073237036 0.0037753044
0000e0 0f ed 12 3b bf c5 1b 3b 56 6d 7c bb 0c 0e c0 3a
       0.002241913 0.002376899 -0.0038517318 0.0014652624
0000f0 9c 3d 1c ba d6 e2 ae 3b 23 73 92 ba 49 a8 d6 ba
       -0.0005960108 0.0053370995 -0.001117323 -0.0016377057
000100 a2 83 69 3b 48 4c 4d bb b8 f4 e5 bb e8 c7 22 3b
       0.0035631438 -0.0031325985 -0.007017698 0.0024838392
000110 26 7b 21 3b b7 f4 32 3b 1e 19 8f 3b e1 2f 8e 3b
       0.0024640053 0.0027306506 0.004367008 0.0043392037
000120 a5 0a fa bb 19 af e5 bb 49 c1 17 3b 91 94 50 3b
       -0.0076306635 -0.0070093987 0.0023155978 0.0031826834
000130 8c e2 c1 bb 36 d6 a8 3b 3e 26 97 ba ef bb a8 3a
       -0.005916899 0.005152489 -0.0011531783 0.0012873391
000140 9c c2 07 ba c6 89 a3 3b 1c f7 b2 3b 07 df 81 39
       -0.00051788404 0.004990789 0.0054615866 0.00024770966
000150 83 9c 28 bb c0 26 47 b8 7d c1 7f bb 2d 96 21 bc
       -0.0025728054 -4.7481386e-05 -0.003902524 -0.009862465
000160 7c a9 c8 3b 3c 87 01 3c 7b 5c 7f 3a e4 bf b9 bb
       0.0061237197 0.007905778 0.00097412587 -0.005668627
000170 01 df de 3b 53 d3 51 bc d9 73 3f 3b 58 35 7c b8
       0.0068014865 -0.012806731 0.0029213338 -6.0131162e-05
000180 5f 02 ed bb 50 27 5c 3c bd 7e 57 3c 53 df 8b bb
       -0.0072329487 0.013437107 0.013152775 -0.0042685657
000190 5e d0 ae bb 98 6b cb bb 4d d8 e2 bb 97 39 26 bc
       -0.005334898 -0.0062078945 -0.0069227577 -0.010145566
0001a0 6c 35 38 3c 16 32 8c 3c 34 3e 9a bb e3 08 df bb
       0.0112432055 0.017113727 -0.004707122 -0.0068064793
0001b0 2a f6 ec 3b 19 27 31 bc 90 94 34 3b 0a aa 27 bb
       0.0072314935 -0.010812544 0.002755437 -0.002558353

exp_avg f4 [7]
000000 40 95 24 b9 5f 9a 15 3b 34 5d 8f ba ff e0 d0 3b
       -0.00015695859 0.0022827608 -0.0010937811 0.006374478
000010 55 7b 79 bb 3d 2d ba ba d2 b9 fa 3b
       -0.0038067896 -0.0014204156 0.007651546

exp_avg f4 [16]
000000 66 f1 dd 3b 94 ae 44 3c 40 a6 bb 3c 71 66 87 ba
       0.0067731617 0.012004513 0.022906423 -0.0010330213
000010 8b 89 d0 bb a2 f4 95 3a ea fe 29 ba b0 11 bd 3c
       -0.0063640526 0.0011440704 -0.00064848235 0.023079723
000020 11 bf 71 3c d9 87 d2 3c 25 6c df 3a 19 76 56 bc
       0.014755026 0.025699543 0.0017045779 -0.01308968
000030 34 eb 2d ba 35 ad b0 3b 19 58 6f bb e3 f3 ce bb
       -0.0006634474 0.0053917416 -0.0036521016 -0.0063156947

exp_avg f4 [16]
000000 cf 32 6b 3b 91 34 17 bc 03 19 9a 3b e5 88 03 bc
       0.0035888439 -0.009228841 0.0047026887 -0.008028244
000010 96 9e 1f 3c ed 3e 80 bb 29 6f 9c bb 63 d8 66 bc
       0.0097424 -0.0039137513 -0.0047739935 -0.014089677
000020 b5 d6 c1 3b 43 64 58 3c 15 f1 de b8 8c 6b 8a ba
       0.0059154877 0.013207498 -0.0001063069 -0.0010560616
000030 91 a0 3a 3b 41 d3 91 3b c6 2f ae bb 1c 2f 9a bb
       0.0028477053 0.0044502323 -0.0053157536 -0.004705323

exp_avg f4 [8]
000000 b6 05 07 3b af 9a a2 ba a9 88 b8 3b fe 15 c1 bb
       0.002060277 -0.0012405718 0.0056315255 -0.0058925143
000010 24 1b 5a 3b 35 f5 a2 bb 78 8c 7e 3b 5d fd c8 ba
       0.0033280337 -0.0049730786 0.003884105 -0.0015334297

exp_avg f4 [8]
000000 8b ee 49 bc 4a be aa b9 24 36 f4 bb 45 b1 0f bc
       -0.0123249395 -0.00032566703 -0.007452743 -0.008770292
000010 d8 35 f0 3b 59 5b 46 3c e5 bd ff bb 3f 66 0d bc
       0.0073306374 0.01210674 -0.0078046196 -0.008630334

exp_avg f4 [8, 7]
000000 51 fb 3b 3e 09 84 4d 3e a7 b6 fe b7 10 5c 52 3e
       0.18357588 0.20069899 -3.0364214e-05 0.20542932
000010 00 db 3e 3e ba af 49 3e 3a 35 54 3e 62 e1 84 bd
       0.1863823 0.1969594 0.2072343 -0.06488301
000020 99 d6 17 be 43 20 85 bc 60 61 53 be 6b 0b 2e be
       -0.14827956 -0.016250735 -0.20642614 -0.16996543
000030 c2 39 1f be 58 4a 2d be 6f 96 43 bd cd 3c af bd
       -0.15549377 -0.16922891 -0.047750887 -0.08556519
000040 34 f3 e4 bb 27 f9 e7 bd d2 cc ba bd 5d 32 b5 bd
       -0.006987 -0.11326819 -0.091210976 -0.08847497
000050 8a 1d c9 bd 5a 80 8d 3b cb 62 08 bd 22 db f3 ba
       -0.09820087 0.004318279 -0.03329734 -0.0018604735
000060 8e c9 4d bd 79 e6 0f bd 61 86 09 bd cb e8 2f bd
       -0.050241046 -0.035131905 -0.03357542 -0.042946618
000070 54 27 61 3d df 4e 80 3d 01 70 83 3a 3c d7 8a 3d
       0.054969147 0.062650435 0.0010027887 0.06779334
000080 b2 fc 89 3d 45 d6 82 3d bd 94 83 3d cf b6 1e bb
       0.06737651 0.06388525 0.06424854 -0.002421785
000090 81 f6 6c bc 3e 0a b1 ba 3a 25 aa bc db 82 6c bc
       -0.014463068 -0.0013507081 -0.020769704 -0.014435495
0000a0 c6 6f 68 bc 99 da 8c bc 8e 11 87 bc 4b 6f 07 bd
       -0.014186805 -0.01719408 -0.016487863 -0.03306512
0000b0 2a b3 6c 3b 36 3b 0b bd be 4f f5 bc 86 60 fa bc
       0.0036117532 -0.033992015 -0.02994525 -0.030563604
0000c0 a4 be 18 bd 84 33 f7 bd 4b 0b 52 3d 08 01 9c 3c
       -0.037291184 -0.12070373 0.0512803 0.01904346
0000d0 13 4b 1b 3e 41 03 d0 3d 24 52 83 3d 94 81 be 3d
       0.15165357 0.10156871 0.064121515 0.09302059

exp_avg_sq f4 [8, 7]
000000 8d aa 83 3a fc 8a 9b 3a 12 be 44 34 11 16 a2 3a
       0.0010045335 0.0011866982 1.832307e-07 0.0012366195
000010 e9 8c 85 3a 41 8f 95 3a 8f 78 a5 3a ae 1a 32 39
       0.0010189089 0.0011410491 0.001262443 0.00016985342
000020 28 e7 28 3a 99 a8 2c 37 4f 54 a5 3a 6b b8 5f 3a
       0.00064431364 1.0291254e-05 0.0012613627 0.00085342553
000030 20 12 39 3a 5a 3b 5b 3a f9 72 cc 38 9c d7 63 39
       0.0007059891 0.0008363031 9.748893e-05 0.00021728728
000040 8c ac 2f 36 54 8c c9 39 db fe 81 39 e7 06 72 39
       2.6177468e-06 0.0003844226 0.0002479468 0.0002308149
000050 6e 84 94 39 ff 23 c5 37 18 90 21 38 75 65 3a 35
       0.00028327428 2.3500992e-05 3.851959e-05 6.943804e-07
000060 63 7b 9d 38 43 9a 1c 38 4f 31 21 38 eb 55 72 38
       7.509326e-05 3.7336966e-05 3.8431313e-05 5.7777313e-05
000070 dc 5e d2 38 6e bb 01 39 c4 7a 39 33 92 44 14 39
       0.00010031249 0.00012372222 4.3185324e-08 0.00014139924
000080 d2 5c 12 39 96 8e 06 39 5c f8 07 39 d4 32 dc 35
       0.00013958223 0.00012832353 0.00012967124 1.640607e-06
000090 51 9d d9 36 22 9c d5 33 dd 85 5c 37 ee 69 d8 36
       6.485418e-06 9.946986e-08 1.3144189e-05 6.4496335e-06
0000a0 4c db cf 36 8f fa 16 37 a8 73 e6 37 3e 31 24 38
       6.1946103e-06 8.999034e-06 2.7471993e-05 3.9146507e-05
0000b0 31 8a 2e 35 f0 bd 14 38 2a 34 f2 37 03 8f 11 38
       6.5021146e-07 3.5462843e-05 2.8872939e-05 3.4703884e-05
0000c0 f2 2c 46 38 6b 60 5d 3a 0d e3 21 39 e4 ec c1 37
       4.7248737e-05 0.00084448484 0.0001543874 2.3117704e-05
0000d0 17 f3 34 3a 14 b0 9f 39 c2 c4 38 39 40 b8 96 39
       0.0006902678 0.00030458032 0.00017620905 0.00028747506

exp_avg f4 [8]
000000 85 b7 8c be a6 74 45 3e 99 58 0f 3e b1 13 af 3d
       -0.27483764 0.19282779 0.13998641 0.08548678
000010 b0 6c 3a be 74 3a 24 3b 57 10 14 3e b2 c5 76 be
       -0.18205523 0.0025059255 0.14459358 -0.24098852

exp_avg_sq f4 [8]
000000 4d 47 14 3b 5a 64 91 3a 11 a2 1f 3a e8 4c 74 39
       0.0022625506 0.0011092529 0.00060895184 0.00023298303
000010 aa 79 9d 3a 7f cb 3f 36 0a cd 24 3a 54 6d e2 3a
       0.0012014408 2.8579668e-06 0.0006286657 0.0017275014

exp_avg f4 [1, 8]
000000 c8 df ff bd 2a a9 ff 3b ac 89 57 be c6 4f 81 3e
       -0.12493855 0.0078021483 -0.21048611 0.25256175
000010 c2 ad 45 bd 45 e2 0d bc 70 bf bf 3a ee f7 05 3e
       -0.04826141 -0.008659904 0.0014629196 0.13082859

exp_avg_sq f4 [1, 8]
000000 f7 4e ef 39 98 2b b5 38 e2 42 ac 3a 5c bf fe 3a
       0.00045644466 8.6388725e-05 0.0013142491 0.0019435692
000010 0c 8b b0 38 61 f2 d8 37 c3 91 9a 39 70 1c 04 3a
       8.4182335e-05 2.5862073e-05 0.0002948177 0.0005039638

exp_avg f4 [8]
000000 f7 c5 d4 bd 17 62 19 bb 96 df e7 3c ab a1 13 bc
       -0.10389321 -0.0023404413 0.028304856 -0.009010713
000010 c8 79 5d bc 8b 8f 9d ba 80 39 4f b9 cb 54 2b 3e
       -0.013517804 -0.0012020929 -0.00019762479 0.16731565

exp_avg_sq f4 [8]
000000 b4 7c a5 39 d4 cc 0b 37 91 58 c7 37 54 d6 23 36
       0.00031564164 8.332736e-06 2.376389e-05 2.4413648e-06
000010 5a b1 dd 36 83 73 0e 35 66 8f 55 37 18 14 58 3a
       6.6069597e-06 5.3067214e-07 1.2729177e-05 0.00082427403

exp_avg f4 [8]
000000 f2 7f 78 bd d9 9e b9 3c cd a8 1f 3c 77 c9 2b 3b
       -0.060668893 0.022658752 0.009744835 0.0026212612
000010 44 57 a7 bc 35 64 2c bc b3 2f 76 3c 18 a7 bd bd
       -0.020427354 -0.010521938 0.015026021 -0.09260386

exp_avg_sq f4 [8]
000000 8c f8 e1 38 9c 2c 7c 37 77 9e 3a 36 1e 1d 58 34
       0.000107751315 1.5030757e-05 2.7808398e-06 2.012716e-07
000010 9a e5 4c 37 0c 83 59 36 ce c9 dd 36 29 a0 83 39
       1.2212806e-05 3.24118e-06 6.6098064e-06 0.00025105596
