saved/gan/n9ysq7o5/checkpoints/epoch=0-step=10-v1.ckpt (torch, 21266 bytes, 39 tensors)

generator.fc1.weight f4 [16, 7]
00000000: be5a 833e 3747 05bf ab01 34bf 5237 85bf
00000010: 666b 1a3f bf32 f43e 5336 f83e 7fc9 633e
00000020: b1b6 8a3d f7b3 ce3f 34eb d8bd fb99 e93c
00000030: 305b 2b3e f8a2 8ebf 17a3 94bf 6947 4f3f
00000040: 5a18 273e 5bff 59bf 4dc6 d23e c66b 52bf
00000050: 132f 043e 3081 bdbe d5f9 70bf fece 43bf
00000060: aa43 d2bc 01aa 32bf 8ac3 efbe 7974 333d
00000070: e1e1 ac3e c32e 9c3e d164 22bf 45f2 0a3e
00000080: 02bd d4be a1f9 6f3f c84f 98bf 67f5 f63e
00000090: 9c60 cc3d da3d d2bd b43f 093f 2bf6 08bf
000000a0: dd85 413f 112d cebe f10b c9be 38cc 2bbf
000000b0: c703 c03e 7b2f c73e e1d1 5abd 1b4c 48bf
000000c0: 5730 dfbc a0d1 103e 9450 e4bc 0273 a2bd
000000d0: b8fb 4ebd 7836 bbb9 aa0f c2be 267a bebb
000000e0: 3655 2cbe cf6e 5bbe 64c9 82bf f89b 43bf
000000f0: eb5a 00be 5d9a 9c3f a12c 863e 4e1f 2dbd
00000100: 4ca6 e33e 9c33 46bf 8c8b 42bd 2d2e 353f
00000110: 030d 253e 3fd4 89bf f464 f83e f18e 88be
00000120: af04 033f b738 3fbf 6145 d8be b230 89bf
00000130: aa51 8a3e 22c5 80bd 55a8 8ebf f22f 793d
00000140: fd58 a63e 30aa 08be 1926 03bd 2e1d 313f
00000150: 4909 17bf 0f1b 82bf 9819 ffbd 8afc a8be
00000160: 7e91 b9bd 19d4 193f a260 e3be 07df 35be
00000170: 6a43 e7be b517 253f 6cbf 0e3c 0ce6 873d
00000180: 31ef 0b3f 9746 dd3e ee70 8dbe 1680 103e
00000190: 0211 df3e 3bc1 41be c79e 483f 45fa 47be
000001a0: d201 46bf 5064 5dbe 993f 133f 6cf2 523b
000001b0: 3db9 6dbf f7bb 97bf 58da 9a3e 4841 29bf
0.25655168 -0.5206179 -0.70315045 -1.0407507 0.60320127 0.47694966 0.48478946 0.22244833
0.06773127 1.6148671 -0.105917364 0.028515806 0.16734004 -1.1143484 -1.1612271 0.8096834
0.16317883 -0.85155267 0.41166916 -0.821957 0.12908582 -0.37012625 -0.94131213 -0.7648772
-0.02566703 -0.69790655 -0.46828872 0.04381225 0.33766082 0.30504426 -0.63435084 0.13568981
-0.41550452 0.9374028 -1.1899347 0.48234102 0.09979364 -0.102657035 0.5361283 -0.5350062
0.75594884 -0.40268758 -0.39266923 -0.6710849 0.37502882 0.38903412 -0.053422812 -0.7824113
-0.02724473 0.14142466 -0.027870454 -0.07932092 -0.050533026 -0.00035708002 -0.37902576 -0.005812901
-0.1682938 -0.21428989 -1.021771 -0.76409864 -0.12534682 1.2234608 0.26205924 -0.042266183
0.44462812 -0.774225 -0.047496364 0.70773584 0.16118245 -1.0767897 0.4851452 -0.26671556
0.5117902 -0.74695915 -0.42240432 -1.0717986 0.2701543 -0.062876 -1.1145121 0.06083674
0.32489768 -0.13346171 -0.032018755 0.6918515 -0.58998543 -1.0164508 -0.124560535 -0.33005172
-0.090609536 0.6008926 -0.44409662 -0.1776086 -0.4516862 0.644893 0.008712631 0.06635675
0.5466185 0.43217918 -0.2762522 0.14111361 0.43567663 -0.18921368 0.78367275 -0.19529064
-0.7734653 -0.21620297 0.5751892 0.0032187952 -0.92860776 -1.1854237 0.30244708 -0.66115236

generator.fc1.bias f4 [16]
00000000: 2d60 04be 0296 a73d 0158 9a3e 1530 aabe
00000010: 27fd 313d 73fd 763e 8fea 453e 0618 86be
00000020: ac36 ff3b 2ca6 e8ba 5b7f 9c3e 39a2 9cbe
00000030: dac3 823d 9a72 5e3c 5f44 6e3e 78b9 48be
-0.12927313 0.081829086 0.30145267 -0.3323981 0.043454316 0.2412012 0.19327758 -0.26190203
0.0077885 -0.0017749718 0.30565915 -0.30592516 0.06385012 0.013577128 0.23268269 -0.19602

generator.fc2.weight f4 [8, 16]
00000000: 2434 673e 0398 ebbe 4cce f53d 0287 16be
00000010: 63cb 383f 4de8 033f be04 ec3e fb00 b03d
00000020: 116f d7be 2aed b1be 29ad b23e 5403 04bf
00000030: 299b 86be 027c 62bd c591 223f 69ff babe
00000040: 8d40 b2be 4733 883e 3235 f83d 6e89 46bf
00000050: 3a92 3ebe c6e0 86bb fd82 9f3e 0c1c 25bf
00000060: 9c01 9abd 2d6c e93e 4949 e8bd 32ee c1be
00000070: 1ae3 17bf 10d9 b0bb edde b2be a9b8 333d
00000080: 9ca1 c0bd 9043 c03e 0793 b3be 6257 783e
00000090: e4d6 f33e 26d0 19be 4c61 8fbe 6b19 5fbd
000000a0: 555e eabc 7b76 82be 1a15 81be 247d 083e
000000b0: c4d8 c7bd ae8b bdbe db78 55bd 1366 013e
000000c0: 06ca e73e 4697 c43e cb33 09bf b6c1 593f
000000d0: a704 edbd 1a0a 32bf 7a40 973d c1e5 753e
000000e0: 851e 833e 397f d9bd dbd1 07bf 88eb 3ebd
000000f0: 5bdd a1be fe2e 86be 7f3a 47be 4fa4 073f
00000100: 5d02 6a3d b863 38bf 0ac0 f6bd 3aaf 6b3f
00000110: ad7e 2fbe 1288 9fbe 32dd 133e 8163 2ebe
00000120: 3314 843e 7120 bfbe fe24 2bbf 291d a9be
00000130: 3288 b9bd 3248 48be 37e9 4a3c 8afd 01bf
00000140: 0bda 363e 56d9 4dbf 008b 2abf c615 20be
00000150: f672 133d 33e7 863e fa15 7bbe 8a0c a03e
00000160: 26e4 543f aadd b63e 7f21 e7be 0847 3fbf
00000170: a522 d9bd fc53 813e 96e3 24be aef7 173d
00000180: a65c 64be a164 9c3d df96 8fbe 8ab6 0fbf
00000190: 8fc3 0b3f 8623 0b3f 0439 4f3b 3857 42bd
000001a0: 879a 333f ea63 c23d c7d8 13bd f996 6f3d
000001b0: 5a1c 14bf 040f da3e 402a e8be 182d e5be
000001c0: eacc 2bbf 073b 643e 3cf6 b4be a4ad 713e
000001d0: 3ab6 abbe 4020 84be 3928 093e 03b0 033f
000001e0: eb13 7f3e 68ec 84bd 7950 953e 2b77 5f3f
000001f0: 5a6f b83c a8b5 d33e 0524 48be 6901 c6be
0.22578484 -0.46014413 0.12002239 -0.14699939 0.72185344 0.5152634 0.46097368 0.08593937
-0.42076924 -0.34751254 0.34897736 -0.5156758 -0.26290253 -0.055294044 0.63503677 -0.36522987
-0.34814873 0.26601622 0.12119521 -0.7755345 -0.18610469 -0.0041161506 0.31154624 -0.6449592
-0.07519838 0.45590344 -0.11342103 -0.3787704 -0.59330904 -0.0053969696 -0.34935704 0.043877278
-0.094058245 0.37551546 -0.3507311 0.24252084 0.47624886 -0.15020809 -0.2800392 -0.0544676
-0.028609434 -0.25481018 -0.25211412 0.13328987 -0.09758142 -0.3702063 -0.05211721 0.12636594
0.4527132 0.38396662 -0.53594655 0.85061204 -0.11573153 -0.69546664 0.07385345 0.24013425
0.25609222 -0.10619969 -0.5305459 -0.04661134 -0.31614193 -0.26207727 -0.19455908 0.5298509
0.05713116 -0.7202716 -0.12048347 0.9206425 -0.17138167 -0.311585 0.14439848 -0.17030145
0.2579666 -0.37329438 -0.6685332 -0.3303006 -0.0905918 -0.1955879 0.012384704 -0.50777495
0.17856614 -0.80409753 -0.6661835 -0.15633306 0.035998307 0.26348266 -0.24520102 0.31259567
0.83160627 0.3571599 -0.45142743 -0.7471776 -0.10602311 0.25259387 -0.16102442 0.03710144
-0.22300968 0.07636381 -0.28044793 -0.5613791 0.54595274 0.5435108 0.0031619677 -0.04744646
0.70157665 0.09491713 -0.036095407 0.058493588 -0.5785576 0.4258958 -0.45344734 -0.44760966
-0.6710955 0.22288142 -0.35344112 0.23601395 -0.33537465 -0.25805855 0.1339425 0.5144045
0.24909942 -0.064904034 0.29162958 0.8729121 0.022514034 0.4134953 -0.1954499 -0.3867295

generator.fc2.bias f4 [8]
00000000: 9bcd 70be 0758 7b3e 4360 0cbe 4637 dd3d
00000010: 3643 bc3d 0318 4f3e 4bd7 c2bb 8dad 05be
-0.23515932 0.24545299 -0.13708596 0.10801558 0.09192507 0.20224003 -0.005946075 -0.13054486

generator.fc3.weight f4 [16, 8]
00000000: fa6e febd f451 d9bd f3cf 943f 4f6d a8bf
00000010: 6a93 0b3f 1ce0 293f a5c8 0bbe fdc6 393e
00000020: 8abf e9bd c99b cc3e 63a5 173e 422b a43e
00000030: 3d2a 033e bd3a cebe 60e3 57be a47f 2f3f
00000040: c60c c73e bf6a 0f3f 84e8 8c3e f62f 38be
00000050: 7d54 fe3d 1b31 4e3e 0ae1 d93e 0a8a 533f
00000060: c07b 233e e94e f43d 9e63 c3be ace2 fabe
00000070: 75c7 033f c6b0 a23d 9035 3b3b 1ff4 033f
00000080: 56c2 4d3e 2d98 3bbe 1c8c cdbe 8c76 63bf
00000090: 205a 103f 8132 aa3d 84cc 5c3e c779 adbe
000000a0: 40d7 78be 7405 79be 8fed 433f b8d9 dd3e
000000b0: dfe4 483e 91f0 b5be 6952 67be 4fac 09bf
000000c0: 5bcc 7a3f bc24 663b a5f8 59bf 883c e8be
000000d0: 9586 35be 9293 633e 974d 083f aca6 363e
000000e0: e208 be3d 1a25 bfbe 539a a33e e4c2 f73d
000000f0: a3fd 8d3f f6de 91be f0e6 7e3e 35f7 5a3e
00000100: d83e 303e d83a 58be bb57 17bf f019 e73d
00000110: 8cd7 883f f7be 3b3f 2bc5 603f 0718 30bf
00000120: 1f0a 15bf 6902 c3be e6ec ec3e c1df 7bbe
00000130: b206 4bbf 4787 8abc c8fb a13d e7a9 dcbe
00000140: 755c 2b3e a536 1a3f 762d 803f c476 373e
00000150: 6305 7c3e 6f69 703f b6cd cd3d bdd6 d33e
00000160: f354 a83e be4c 57bf a00c 86bd 3d93 aebe
00000170: 010f d93e 5d5b 8dbf fc2f 513c 73d4 073c
00000180: a900 873f 49e5 1f3e 99d8 b23e f6bb a73e
00000190: 2c34 52be f137 b13e 578c 7c3e 377b 8bbe
000001a0: f6c3 06bf 8f3a c2be 5b13 ef3d 7716 3ebf
000001b0: acd6 4a3d d8c2 8cbc 8dfb 7dbe 391f 0dbe
000001c0: 85d2 27bf 3b18 ecbe 1c0a 203d 5581 d53e
000001d0: 3bcb 25bd 90a4 d43e 7df8 7f3e 70a4 e9be
000001e0: 878d 04be 8393 27be 16e1 16bf 382a 70be
000001f0: 0af6 823e 89ed 0dbf 6278 dabe f36e 0fbf
-0.12423511 -0.106113344 1.1625961 -1.3158358 0.5452181 0.6635759 -0.13650759 0.18142314
-0.11413486 0.39962605 0.14809184 0.32064253 0.12809081 -0.4027919 -0.2108283 0.6855414
0.38876933 0.56022257 0.27521145 -0.17987046 0.124184586 0.2013592 0.42554504 0.82632506
0.15965176 0.119291134 -0.3816194 -0.49001062 0.5147622 0.07943873 0.0028565861 0.51544374
0.20093665 -0.18319769 -0.40145957 -0.88852763 0.5638752 0.08310414 0.21562392 -0.3388197
-0.24300861 -0.24318486 0.7653436 0.4333017 0.19618557 -0.355351 -0.2259003 -0.5377855
0.9796807 0.003511711 -0.85145026 -0.45358682 -0.1772712 0.22224262 0.5324339 0.17837018
0.09279038 -0.37332994 0.31953678 0.12097719 1.1093029 -0.28490418 0.24892783 0.21383364
0.17211473 -0.21116197 -0.5911824 0.11284244 1.069078 0.73338264 0.87800854 -0.6878666
-0.5821857 -0.38087776 0.4627449 -0.24597074 -0.7930709 -0.016910208 0.079093516 -0.43098375
0.16734488 0.6023963 1.0013874 0.17916399 0.2461143 0.9391088 0.10049002 0.4137477
0.3287731 -0.84101474 -0.06545377 -0.3409671 0.4239426 -1.1043507 0.012767788 0.008290398
1.0547076 0.15614809 0.34930876 0.3276059 -0.20527714 0.34612992 0.2466291 -0.27242443
-0.5264276 -0.37935302 0.11673614 -0.7425303 0.049521133 -0.017182752 -0.2480299 -0.13781442
-0.655556 -0.46112236 0.03907214 0.41700235 -0.04047702 0.415318 0.24997135 -0.45633268
-0.12944613 -0.16364865 -0.58937204 -0.23453605 0.25578338 -0.55440575 -0.4266997 -0.5602867

generator.fc3.bias f4 [16]
00000000: 23e6 12be 8a8f 933d 19fd 3f3e eb19 80be
00000010: 77f9 a33e 30fa 88be eab0 abbd 2daf 2d3e
00000020: bb01 653e 1cb5 7e3e 2930 b13e 6549 453e
00000030: 7a85 36bc f783 8e3e e7df 29bd 371c 87be
-0.14345603 0.07205112 0.18748893 -0.25019774 0.32026264 -0.26753378 -0.08383353 0.16961356
0.22363941 0.24873775 0.34607056 0.19266279 -0.011140222 0.27835056 -0.041473296 -0.26388714

generator.fc4.weight f4 [7, 16]
00000000: 1466 633d d998 d33e 9aac 9b3e 3b9a 63be
00000010: 20ed 293f 73c0 1bbc 7d68 0abf 6130 2fbe
00000020: 84b9 cd3e ca9e 003f 63f9 9f3e 4aa9 8c3d
00000030: a66c 16bf 3754 2bbf f344 ebbe d589 28bf
00000040: 99db 8b3e c953 cfbe 984f cebe ba6f 7c3c
00000050: 20ef 483d f7a6 c1bc 8a33 17bd 3c93 34bd
00000060: fd5e 093e 4fdd 923e 28b8 dd3d dde5 de3e
00000070: 9f14 bb3e 1a01 f1be aeaf 0bbf 70ef fd3d
00000080: e693 5f3e d907 413e adb1 0b3e 2f2f cfbe
00000090: 88b7 19bd 1d57 a3bd 813e 67be e52c 8fbe
000000a0: 4e51 abbe 459f 9d3d 3f29 313e d33c df3e
000000b0: 9b6e a0be 853d 8fbd adcf 203d 9b09 b33d
000000c0: 5582 c23e a071 a53e 6a5b 5ebe 2ea9 9ebe
000000d0: 63ac 98bd 2818 f83e 6064 47bf bae1 1f3f
000000e0: 1feb 8fbd c3e3 653e 7af1 90be d1c2 ca3e
000000f0: d64f 6a3e 4cc1 8dbe 2d73 f4bd b1b8 20bf
00000100: fad3 663e 73d8 47bf 0223 63bf ea6b 973d
00000110: 991d 0cbf b32c b23c 773c 58be 946f c3be
00000120: dc9b 2ebe c245 66bf 7407 623d fed0 1bbd
00000130: 5001 4a3f b708 95bd 618b acbd fbde 19bf
00000140: a1d0 223c 3f8b a9bc 9060 ccbd b84e 463e
00000150: 0649 f3bd 08e7 f1bd fc2d 0bbd 2cef 4fbe
00000160: c2db 8ebd fe41 0a3e b75f c93e d87c 00be
00000170: 19f8 043f bb7f 113f 6674 9c3c 4906 253e
00000180: d410 eb3d d88b bf3e 292e f53e 1e54 0a3e
00000190: 547d 61be 0dc1 f93c 245d 0a3d 697d 79bf
000001a0: 7b56 193f 3128 2bbf 3dd6 61be 4d35 2f3e
000001b0: d8aa c1bd fd6a 643f b957 1dbf 2bae ec3c
0.05551727 0.4132755 0.30405122 -0.22226803 0.6637745 -0.009506333 -0.54065686 -0.17108299
0.401806 0.5024229 0.31244954 0.06868227 -0.58759534 -0.66925377 -0.45951042 -0.65835315
0.27315977 -0.4049361 -0.402951 0.015407497 0.049056172 -0.023639185 -0.036914386 -0.044085726
0.13415141 0.2868447 0.10826141 0.43534747 0.3653917 -0.47071153 -0.5456494 0.12399185
0.21833763 0.1885065 0.13641997 -0.40465686 -0.037528545 -0.079756 -0.22582437 -0.2796394
-0.33460468 0.07696394 0.1730089 0.43601093 -0.31334385 -0.06994156 0.039260555 0.087420665
0.3799006 0.32313251 -0.21714559 -0.3098845 -0.07454755 0.4845593 -0.77887535 0.62453806
-0.07027268 0.22450165 -0.28309232 0.39601758 0.22882017 -0.27686536 -0.119360305 -0.62781817
0.225418 -0.7806465 -0.8872529 0.0739363 -0.5473266 0.02174983 -0.21116816 -0.38171065
-0.17051643 -0.8995019 0.05518289 -0.038041107 0.7890825 -0.07277053 -0.08425022 -0.60105866
0.009937436 -0.02069628 -0.09979355 0.19365966 -0.118791625 -0.11811644 -0.0339794 -0.2030608
-0.06975509 0.13501737 0.39330837 -0.12547624 0.51941067 0.56835526 0.019098472 0.16115679
0.11477819 0.3741138 0.4788678 0.1350865 -0.22020465 0.030487562 0.033780232 -0.97456986
0.59897584 -0.668582 -0.22054382 0.17110176 -0.09456414 0.8922575 -0.6146198 0.028891644

generator.fc4.bias f4 [7]
00000000: 7f81 44bd 821d 983d e3ce 0f3e 5aa7 eebd
00000010: 92a4 82bd 2d71 34be f91e 2dbe
-0.04797506 0.07427503 0.14043765 -0.116530135 -0.063790455 -0.17621298 -0.16906346

generator.layer_norm_hidden_0.weight f4 [16]
00000000: c520 803f 53b8 7e3f 53b8 7e3f 53b8 7e3f
00000010: 53b8 7e3f 53b8 7e3f 53b8 7e3f 53b8 7e3f
00000020: 53b8 7e3f 4f62 803f 653b 7f3f 53b8 7e3f
00000030: 53b8 7e3f 53b8 7e3f 53b8 7e3f d9a3 803f
1.001 0.99500006 0.99500006 0.99500006 0.99500006 0.99500006 0.99500006 0.99500006
0.99500006 1.0030001 0.99700004 0.99500006 0.99500006 0.99500006 0.99500006 1.0050002

generator.layer_norm_hidden_0.bias f4 [16]
00000000: 0bd7 a33b 0bd7 a3bb 0bd7 a3bb a69b 443b
00000010: 0bd7 a3bb a69b 443b 6f12 83ba a69b 44bb
00000020: 0bd7 a3bb 0bd7 a3bb a69b 443b 0bd7 a3bb
00000030: 0bd7 a33b 0bd7 a33b 0bd7 a33b a69b 44bb
0.0050000004 -0.0050000004 -0.0050000004 0.003 -0.0050000004 0.003 -0.001 -0.003
-0.0050000004 -0.0050000004 0.003 -0.0050000004 0.0050000004 0.0050000004 0.0050000004 -0.003

generator.layer_norm_hidden_1.weight f4 [8]
00000000: d9a3 803f 53b8 7e3f 53b8 7e3f 653b 7f3f
00000010: 53b8 7e3f d9a3 803f d9a3 803f d9a3 803f
1.0050002 0.99500006 0.99500006 0.99700004 0.99500006 1.0050002 1.0050002 1.0050002

generator.layer_norm_hidden_1.bias f4 [8]
00000000: 0bd7 a33b 6f12 83ba 6f12 833a 0bd7 a3bb
00000010: 0bd7 a33b 0bd7 a33b 0bd7 a3bb 0bd7 a3bb
0.0050000004 -0.001 0.001 -0.0050000004 0.0050000004 0.0050000004 -0.0050000004 -0.0050000004

discriminator.fc1.weight f4 [8, 7]
00000000: 564e f0bc e8dc 473f 5fbd a43e 0415 173f
00000010: 80d1 b9be 4a37 a9be 4d86 a5bd dc7b c73d
00000020: 7005 8fbe 6093 113e ff9a 0ebf 7315 2c3e
00000030: 1bcb 203d d7fa 8f3e 50a5 363f 2cd0 34bd
00000040: 6a24 10bf 4713 b63f aaa1 2abf 2847 a7be
00000050: 08df 18bd 0669 48be fae0 9ebe 1461 b6be
00000060: d74d 0f3f 68a9 c7bd 02de 083f d6e7 89be
00000070: 5d3b 133f f53c 3a3e fd5d 8b3e 7139 1b3f
00000080: 4ee8 eb3f 5198 4c3e 0406 13bf 1069 b03f
00000090: ee0d 2a3e 5833 07bf 3ab5 703f 1cde acbe
000000a0: 8587 9bbe 6ed6 8ebf 15fc 0e3f 0899 3fbf
000000b0: ff4f 8e3f 25f1 edbe ab3d 923f 12e5 2b3d
000000c0: 3942 b23d d8b6 77bd 2711 29bf 6d01 bbbe
000000d0: a0bd 21bf afe4 6abe 4bdf ec3d 5c44 1cbe
-0.029334228 0.7807145 0.3217573 0.5901644 -0.36292648 -0.33049995 -0.080822565 0.09740421
-0.27933836 0.14216375 -0.55705255 0.16805057 0.039256196 0.28121063 0.71345997 -0.04414384
-0.56305563 1.4224633 -0.6665293 -0.32671475 -0.037322074 -0.19571313 -0.31031018 -0.3562094
0.5597815 -0.097491086 0.5346376 -0.2693469 0.57512456 0.18187316 0.27220145 0.60634524
1.8430269 0.19979979 -0.57431054 1.3782063 0.16606876 -0.5281272 0.9402653 -0.33763206
-0.3037683 -1.1159189 0.55853397 -0.7484288 1.1118163 -0.4647304 1.142507 0.041966505
0.08704037 -0.060477108 -0.660418 -0.36524525 -0.6317997 -0.22938798 0.11566027 -0.15260452

discriminator.fc1.bias f4 [8]
00000000: 76de 07be a3ff 633e a261 953b 920d 0fbe
00000010: 17f1 d0bd ea7e 94bd ceb5 8e3d d04e b93e
-0.13268456 0.22265486 0.004558758 -0.1397002 -0.10202234 -0.072507694 0.0696827 0.36192942

discriminator.fc2.weight f4 [1, 8]
00000000: 1749 ce3d 0fb4 be3e 66c4 68bd 9658 f43e
00000010: db98 413d f4a2 b13e 8bae 913e e717 a6be
0.100725345 0.3724675 -0.056827925 0.47723836 0.047264915 0.34694636 0.28453478 -0.3244011

discriminator.layer_norm_hidden_0.weight f4 [8]
00000000: 17b7 7e3f bdbb 7f3f 5b92 803f 63be 7e3f
00000010: 0499 803f 88b8 7e3f e086 803f 98c3 7e3f
0.9949812 0.9989584 1.0044664 0.9950926 1.0046697 0.9950032 1.004116 0.995172

discriminator.layer_norm_hidden_0.bias f4 [8]
00000000: e47b a33b 019e a33b 70e4 a3bb 4e9c a33b
00000010: a6f5 a33b fc98 a33b 26b0 a33b 8e98 a3bb
0.004989134 0.004993201 -0.005001597 0.004992998 0.005003649 0.0049926024 0.0049953638 -0.004992551

exp_avg f4 [16, 7]
00000000: a606 9bbb 270a 9bbb a230 3b21 7e0a 9bbb
00000010: 0f09 9bbb 8e07 9bbb 97f0 9abb de50 cdba
00000020: 74e4 cbba ad2e 84a1 d4fb cbba 59f7 cbba
00000030: d406 ccba 4fa4 cbba 4803 0d3b 30d5 0c3b
00000040: 8598 e91f 52d2 0c3b 83d1 0c3b d2ce 0c3b
00000050: 64a7 0c3b 1fae 1fbb 7458 1fbb 1f8f d89d
00000060: 9c61 1fbb 0859 1fbb 1d4f 1fbb 46ce 1ebb
00000070: 6cee 86bb 5708 87bb 6dff a621 06f8 86bb
00000080: e5fb 86bb 03f8 86bb c765 87bb 4547 a4ba
00000090: df76 a4ba e115 a020 f96b a4ba ee6e a4ba
000000a0: 456a a4ba afe4 a4ba d121 a43b bf03 a43b
000000b0: b2eb 0921 f205 a43b 7b04 a43b a303 a43b
000000c0: 3ceb a33b 15b9 b7ba 04be b7ba 3d53 a01f
000000d0: 9cba b7ba c7ba b7ba f7b8 b7ba ee9d b7ba
000000e0: b09d 2ab8 35a6 35b8 da0a 23a0 ff40 38b8
000000f0: 7923 37b8 ee0e 37b8 814d 14b8 71f2 9b3b
00000100: 81dd 9b3b adeb 53a1 d1d5 9b3b a4d8 9b3b
00000110: dbd6 9b3b 1a27 9c3b 39e4 3839 6d1a 3639
00000120: d545 b61e e4b3 3639 975e 3639 1d36 3639
00000130: 1d68 2f39 a73c fbba f2ed faba b39a 1aa1
00000140: 79ef faba 38f2 faba 9af3 faba d92e fbba
00000150: 881c 4fbb 3909 4fbb 6055 5ba0 6911 4fbb
00000160: 950d 4fbb f00a 4fbb 25cd 4ebb dd94 5f3b
00000170: 3577 5f3b d34d 04a1 7b70 5f3b 2472 5f3b
00000180: bb6f 5f3b 76a8 5f3b 20c0 37ba 6424 39ba
00000190: 550c 4721 36d5 38ba 20e4 38ba e7c5 38ba
000001a0: 977a 3aba 77d8 0eb9 b46b 08b9 f0c5 83a0
000001b0: 42c4 08b9 3da6 08b9 42c7 08b9 a5f3 06b9
-0.004731017 -0.004731435 6.342243e-19 -0.0047314754 -0.0047313045 -0.004731125 -0.0047283876 -0.0015664359
-0.0015555755 -8.957023e-19 -0.0015562722 -0.0015561386 -0.0015566 -0.0015536639 0.0021516848 0.0021489374
9.893166e-20 0.0021487665 0.0021487183 0.002148558 0.0021462077 -0.002436526 -0.0024314197 -5.7322708e-21
-0.0024319654 -0.0024314541 -0.002430863 -0.0024231835 -0.0041177776 -0.0041208672 1.1316208e-18 -0.004118922
-0.0041193836 -0.004118921 -0.004132006 -0.0012533447 -0.0012547633 2.7119533e-19 -0.0012544385 -0.0012545267
-0.0012543878 -0.001258036 0.005008914 0.0050053294 4.6729346e-19 0.0050055915 0.005005417 0.0050053163
0.0050024074 -0.0014016951 -0.0014018421 6.790034e-20 -0.0014017406 -0.0014017456 -0.0014016916 -0.0014008859
-4.0678016e-05 -4.3308555e-05 -1.3810228e-19 -4.392955e-05 -4.3663636e-05 -4.3644504e-05 -3.535813e-05 0.004759126
0.00475663 -7.1801495e-19 0.0047557135 0.00475605 0.0047558374 0.0047654035 0.00017632627 0.00017366717
1.9298881e-20 0.00017423887 0.0001739211 0.00017377031 0.00016728086 -0.0019167856 -0.00191444 -5.238197e-19
-0.0019144855 -0.0019145673 -0.0019146085 -0.0019163742 -0.00316027 -0.003159119 -1.857827e-19 -0.003159607
-0.003159379 -0.0031592213 -0.003155538 0.003411583 0.0034098153 -4.482634e-19 0.0034094143 0.0034095133
0.0034093696 0.003412751 -0.0007009525 -0.00070626126 6.7440144e-19 -0.0007050814 -0.0007053036 -0.0007048533
-0.0007113604 -0.00013622815 -0.00013010093 -2.2323247e-19 -0.00013043082 -0.000130319 -0.000130442 -0.0001287

exp_avg f4 [16]
00000000: a130 bbbb ac2e 043c 8298 69ba 0b8f 5838
00000010: 6dff 26bc e015 20bb b3eb 89bb 3d53 20ba
00000020: da0a a33a adeb d33b d145 36b9 b39a 9a3b
00000030: 6055 db3a d34d 843b 550c c7bb efc5 033b
-0.005712584 0.008067768 -0.000891097 5.1631632e-05 -0.010192734 -0.00244271 -0.0042090057 -0.0006115919
0.0012439147 0.0064673037 -0.00017382881 0.0047181486 0.0016733818 0.0040375977 -0.006074468 0.0020106991

exp_avg f4 [8, 16]
00000000: f2af fd3a 58d2 9338 0487 2fbb c78d 1139
00000010: 6bae b73a 8dbc f7ba cc48 faba 53bf 243b
00000020: 4059 a63a 2d99 bf3a b201 4dbb c563 303b
00000030: f61b ceba ced7 283a bcda 32ba b9e1 84b9
00000040: 8897 883b 6596 6eba 3741 9cbb 1130 19bc
00000050: 57f3 8c3b 26fb 503c c376 a9bb 52ed e93a
00000060: b9f8 a33b 3693 943b 1713 d2bb 2f7e e13a
00000070: 5f7f eabb fb81 e23b 482b de39 6bbc 00bc
00000080: 360f a0bb 100a 173a 22cd b13b 9167 103c
00000090: ea55 9abb e648 1bbc 06be b23b 0150 4bbb
000000a0: 2939 a9bb 0c8f a0bb 08b4 ea3b cab5 4fbb
000000b0: bf5e ec3b dc63 cdbb 64b1 bdb9 0b7c f23b
000000c0: cacf c23a b527 e8b8 5371 b9ba 2f1d 39bb
000000d0: 341f b53a e9f5 303b 8dcf c4ba d69a 4d3a
000000e0: 4f36 c93a cc5e c13a 6829 ffba f057 553a
000000f0: 9ffd 09bb 9c28 f23a fb06 4c39 2cf5 17bb
00000100: 1ae7 9b3a f039 06b7 da1c bdba a33e a6ba
00000110: 02ff 8d3a 9128 ee39 b85c a3ba 2762 a23a
00000120: 3fa0 883a 4061 8c3a d30f ecba f890 aa3a
00000130: 74b6 b8ba 7abb 6b3a 17bb b0b6 ed63 8fba
00000140: d427 203a e656 023a a2e6 e9b9 1b65 ff39
00000150: 5b90 003a 4f98 91bb 3bde 12b9 4f6f d73a
00000160: 3445 ef37 396c a039 065e 0aba 3ef0 e43a
00000170: c4eb 9038 5f74 93ba 0c63 ae39 0e3b ff39
00000180: 3783 3139 3abd 89b9 b2a0 6ab9 668a 65ba
00000190: 6b96 0d39 2473 2d3b c46e bfb9 37a7 fdb9
000001a0: 0c99 cd39 aa55 8439 00f7 a5b9 3ab6 09ba
000001b0: c8b1 17ba acd4 833a 0aa0 44b9 c077 4fba
000001c0: 341b 73b9 a3ec 9db9 2be7 0939 f14c 80ba
000001d0: f15d a8b7 74ea 533b 1219 05b9 2d26 64ba
000001e0: cdc3 6439 faf1 0a38 1577 df38 b690 78ba
000001f0: 4a0e d9b9 d421 723a c015 8238 53cf 58ba
0.0019354804 7.048686e-05 -0.0026783356 0.00013881094 0.0014013773 -0.0018900797 -0.0019095181 0.0025138452
0.0012691393 0.0014617793 -0.0031281528 0.0026914936 -0.0015724886 0.0006440849 -0.0006822755 -0.00025345178
0.0041684546 -0.000910139 -0.0047685164 -0.009349839 0.0043014693 0.012755191 -0.005171628 0.0017847216
0.0050040153 0.0045341505 -0.006410967 0.0017203743 -0.007156297 0.0069124675 0.00042375387 -0.007857422
-0.004884626 0.00057616923 0.005426065 0.008813755 -0.004709949 -0.00947783 0.0054547815 -0.0031023028
-0.0051642847 -0.004899865 0.0071625747 -0.0031694048 0.007213443 -0.0062680077 -0.00036181055 0.007400041
0.0014862951 -0.00011070018 -0.0014148153 -0.0028246155 0.0013818503 0.0027002043 -0.0015015468 0.0007843202
0.0015351268 0.0014752983 -0.0019467296 0.0008138409 -0.002105571 0.0018475237 0.00019457556 -0.0023186905
0.0011894435 -8.000512e-06 -0.0014428154 -0.0012683462 0.0010833445 0.00045425122 -0.0012463545 0.0012388871
0.0010423734 0.0010710135 -0.0018010087 0.0013013175 -0.0014092461 0.0008992475 -5.266989e-06 -0.0010939814
0.00061094505 0.00049720553 -0.00044613058 0.0004871272 0.0004904323 -0.0044432054 -0.00014006432 0.0016436371
2.8523245e-05 0.0003059821 -0.0005278293 0.0017466617 6.91037e-05 -0.0011249891 0.00033261662 0.0004868139
0.00016928917 -0.0002627166 -0.00022375843 -0.000875628 0.00013502843 0.0026466334 -0.00036512886 -0.00048380505
0.00039214676 0.00025240827 -0.00031655282 -0.0005253289 -0.00057866843 0.0010057888 -0.00018751636 -0.00079142675
-0.0002318442 -0.00030121682 0.00013151455 -0.0009788555 -2.0070906e-05 0.003233579 -0.00012693208 -0.00087031984
0.00021816716 3.3127122e-05 0.000106556494 -0.0009482013 -0.00041400112 0.0009236608 6.202934e-05 -0.000827064

exp_avg f4 [8]
00000000: 6020 75bb 1ff1 21b9 6985 3e3b b9f3 67ba
00000010: 342a e5ba 8835 74bb a894 bf3a 6e46 043b
-0.003740333 -0.00015443981 0.0029071218 -0.0008848268 -0.0017483891 -0.0037263352 0.0014616447 0.002018358

exp_avg f4 [16, 8]
00000000: 7b53 b0ba 5288 d6ba 3756 b13b 50db 273c
00000010: b194 133c bc9c 2ebc fefa 85bc f18a ab3b
00000020: ea4d 5aba 2f82 d1b9 6688 4a39 da41 ce3a
00000030: 05aa 033b ddfc 98ba 6667 bcba 9655 4438
00000040: 506f e43a 2252 1d3b 8c8f 91bb 91b7 c1bb
00000050: 467e 80bb 8688 b03b da72 163c fc0e 90bb
00000060: 2013 fd3a 3c99 513a 79c3 27bb 84a2 b2bb
00000070: 2055 c7bb 4355 ab3b 4acf 0c3c 5a70 1dbb
00000080: 5a37 faba 6b8f 8cba 20d4 fa39 3b81 0c3b
00000090: 2380 1f3b c621 4fba 7d05 d8ba 9541 b539
000000a0: cf18 0cb9 c463 1839 7392 2b3a 7b0e 8f3b
000000b0: 30a4 ab3b 98a8 8ebb 0b75 d0bb 7b02 d239
000000c0: aba1 193b 53b8 113b fcb9 a8bb 2231 18bc
000000d0: 06d7 04bc a4e5 133c c98b 643c 9f1b a1bb
000000e0: 72f3 a6ba 1c4f 6fba cb3b 3939 6aae 253b
000000f0: 2a19 383b c953 8eba 449d 11bb 6721 2ab8
00000100: 1c96 6eb7 fb25 15ba 5198 5c3b 550a a83b
00000110: edbc 923b 9820 cebb 29db 1abc 77a3 583b
00000120: f5e7 42ba f67a 91b9 33c9 343a 51d3 5f3b
00000130: 2ad7 7d3b f347 3cbb 7979 97bb facd 043a
00000140: 284b 0a39 8c22 54b8 ecdc a4b9 bddf 41ba
00000150: 1630 84ba 20ed 403a 9e01 ca3a 8db4 97b9
00000160: 3f3e caba 5231 57ba 4ed1 d53a 0e8f 0c3c
00000170: 3670 173c 88d7 e7bb 97db 37bc d233 943a
00000180: b8c3 8bbb e35f 9cbb 3469 083c 31a8 443c
00000190: 27fd 0e3c e006 2abc df38 93bc b406 073c
000001a0: 565e 803a 3f78 d539 2187 33ba 5c3c 6cbb
000001b0: 8559 97bb 3cbd 3e3b 4fee a53b 99bf d9b9
000001c0: a90e 213a 659a 5b3a 4794 24bb e7c1 b0bb
000001d0: 5d5c 9dbb 26ea b23b d06b 063c f2c9 1abb
000001e0: 46fe 533b 4496 d53a 2189 2bbb 2412 9ebc
000001f0: 6b68 b1bc f912 823c 0ae5 c73c 1ef7 b6ba
-0.0013452613 -0.0016367531 0.005411889 0.010245159 0.009007619 -0.010657486 -0.016355034 0.005235069
-0.000832765 -0.0003996058 0.00019315034 0.0015736178 0.0020090353 -0.0011672039 -0.0014374077 4.680975e-05
0.0017428193 0.0024005254 -0.004442161 -0.0059117754 -0.003921303 0.0053873686 0.009182656 -0.0043963175
0.0019308068 0.0007995551 -0.0025598689 -0.0054515023 -0.0060831457 0.00522867 0.008594343 -0.0024023266
-0.0019089982 -0.0010723894 0.0004784176 0.0021439332 0.002433785 -0.0007901456 -0.0016481128 0.00034571873
-0.00013360682 0.00014533015 0.0006544955 0.00436574 0.0052380785 -0.004353594 -0.006361609 0.0004005617
0.002344231 0.002223511 -0.005149124 -0.009289058 -0.008107906 0.009026919 0.013949343 -0.004916623
-0.0012737347 -0.00091289147 0.0001766525 0.002528096 0.002809117 -0.001085871 -0.0022218982 -4.0562267e-05
-1.42208555e-05 -0.00056895585 0.0033660124 0.005128185 0.004478088 -0.0062905066 -0.009451666 0.0033056417
-0.0007435077 -0.00027748168 0.0006896436 0.0034153054 0.0038732984 -0.0028729409 -0.004622635 0.0005066093
0.00013188703 -5.0576913e-05 -0.00031445117 -0.00073957053 -0.0010085132 0.0007359553 0.0015411859 -0.00028935485
-0.0015429928 -0.00082089484 0.0016312988 0.008579029 0.009243062 -0.007075254 -0.011221788 0.0011306948
-0.004265275 -0.004772173 0.008325864 0.012002991 0.008727348 -0.010377616 -0.017971454 0.008241344
0.0009793739 0.00040716116 -0.0006848444 -0.003604672 -0.004618826 0.0029104492 0.005063809 -0.00041532217
0.0006143847 0.00083771936 -0.0025112794 -0.0053942087 -0.0048022703 0.0054600416 0.008204415 -0.0023618904
0.0032347604 0.0016295393 -0.0026174264 -0.01929576 -0.021656236 0.015878187 0.024401207 -0.0013959145

exp_avg f4 [16]
00000000: 132e 8bbb b6d0 7c3a f1d3 ca3b 5479 133a
00000010: 19ba 043a 3f2f 1a3b 76d1 8e3b 4103 9a3a
00000020: 4619 53bb ed2e ab3a e67e 67b9 850a 4f3b
00000030: 7530 2fbc 3ee9 e6ba a6ed d53a 0200 19bc
-0.004247436 0.00096441375 0.006189816 0.0005625684 0.0005063131 0.0023526696 0.004358466 0.0011750237
-0.003221111 0.001306025 -0.0002207715 0.0031591963 -0.010692705 -0.0017617119 0.0016321435 -0.009338381

exp_avg f4 [7, 16]
00000000: 25d0 f4ba 9718 783b b098 0abb e24b 8aba
00000010: 6a0a 0fbb 8c94 853b bcae 87bb d11e b63b
00000020: ab9e c2ba d8ed f0ba 4bfc 8bba 9782 823b
00000030: 204a 20bb a0a2 73ba 71f9 61ba 0442 293b
00000040: 2f7f 4cbb 55aa f73b 9ecb 04bb c8e3 0dba
00000050: c955 78bb dc84 c93b 9c14 cbbb 9550 093c
00000060: e58d d3bb a36d 9bbb bf2a f4ba 7c6f 053c
00000070: 2e1a d9ba 71d4 03bb 467f 65bb 35ac b93b
00000080: b4c1 d639 5a12 2b3c becd 28bb 93d6 1b3b
00000090: 47d2 1bbc 0bd2 1c3c e492 82bc 3f2c 2c3c
000000a0: 4057 61bc 2cd6 8dbb e0d0 1d3a 1877 203c
000000b0: 69ce 8abb 3411 b239 036f a2ba 7301 f83b
000000c0: 1565 5abb c05c e83c c941 20bc 31ed 203b
000000d0: 1e8c c2bc 6e6b e93c 6a60 24bd f650 083d
000000e0: 6dcb febc 53e5 55bc e9cf a4ba 33a5 e33c
000000f0: 923c 54bc 5424 c4ba 4ac2 88bb c588 a93c
00000100: be73 353b 8102 713b 8635 b1b9 433c 4c3b
00000110: 16cb d6bb c675 b13b 01f2 1cbc 285a 703b
00000120: cc0d 24bc d324 a9ba 596f f03a deb4 363b
00000130: 2827 85ba b4c8 ce3a 4c3d 943a aeb9 3a3b
00000140: 661c 743b 0686 193b 43c9 543a e494 763b
00000150: 3173 b7bb 32f7 4e3b dd39 03bc f774 423a
00000160: 5725 1abc 7fdb 70b9 f040 273b 2e92 793a
00000170: 98d3 98b8 108b 0b3b a8f7 ba3a 2445 e63a
00000180: a3cf 60b9 55ca 5e3b 4e0e 4d3a 5c5b a53a
00000190: d7fc f0ba a7de ac3a 7c9b 1bbb 2fa7 a63a
000001a0: 6a6c b0bb d7a3 0dbb 966e 49b8 5b09 4b3b
000001b0: b68c 843a bad4 e5b9 ad60 0dbb aa9a 223b
-0.0018677755 0.0037856454 -0.0021148138 -0.0010551179 -0.0021826276 0.004076546 -0.004140703 0.005557873
-0.0014848312 -0.001838143 -0.0010680048 0.0039828527 -0.0024458244 -0.00092939474 -0.00086202385 0.0025826702
-0.0031203737 0.007558147 -0.0020262967 -0.0005412665 -0.0037892929 0.0061498713 -0.006197525 0.008381029
-0.006456124 -0.0047432943 -0.0018628462 0.008144256 -0.0016563588 -0.0020115639 -0.0035018488 0.0056662806
0.0004096158 0.010441387 -0.0025757398 0.002377902 -0.009510583 0.0095715625 -0.015939184 0.010508596
-0.013753712 -0.00432851 0.00060201995 0.009794019 -0.004236032 0.00033963623 -0.0012392703 0.007568532
-0.003332441 0.02836454 -0.009781309 0.002455544 -0.023748454 0.02849361 -0.04013101 0.033280335
-0.03110286 -0.013055163 -0.0012574169 0.027788734 -0.012953894 -0.001496444 -0.0041735517 0.0206951
0.0027687396 0.0036775174 -0.0003379995 0.0031163848 -0.0065549714 0.005415651 -0.009579183 0.003667483
-0.010013055 -0.0012904651 0.0018343731 0.0027878801 -0.0010158764 0.0015776367 0.0011309772 0.0028492021
0.0037248372 0.0023425831 0.00081171485 0.0037625367 -0.0055984487 0.0031580445 -0.008009401 0.0007417942
-0.009408317 -0.00022969952 0.0025520884 0.00095203787 -7.287337e-05 0.0021292605 0.0014264481 0.0017568213
-0.00021439655 0.003399511 0.0007822261 0.0012615728 -0.0018385899 0.0013188914 -0.00237438 0.001271462
-0.0053840177 -0.0021612549 -4.8025126e-05 0.0030980918 0.0010112736 -0.00043836777 -0.0021572516 0.0024811425

exp_avg f4 [7]
00000000: 1b5b eb3a 7ed7 293b 9ed0 57bb c9ba 33bb
00000010: 1058 c3bb 41c7 e1bb 0199 34ba
0.0017956229 0.0025915797 -0.0032930742 -0.0027424565 -0.0059614256 -0.006890208 -0.00068892544

exp_avg f4 [16]
00000000: 1392 81ba 000c fa3b 37ce 8f3a 433f bc3b
00000010: 347b 4a3b 8282 303c 52ed 113d 0dc4 593c
00000020: 9538 a43b 9185 eeb9 222b c23a ff85 6e3c
00000030: 47e0 633b 5117 a03b 1f19 653b d176 61bc
-0.0009885452 0.007630825 0.0010971491 0.005744846 0.0030896189 0.010773303 0.035626717 0.013291371
0.005011628 -0.00045494412 0.001481388 0.014558314 0.003477113 0.004885592 0.00349576 -0.013761238

exp_avg f4 [16]
00000000: c50d d3bb ba47 223c 67f6 c03b a5e1 61ba
00000010: 5bd4 a33b f901 1fbb 3df7 d63a 662c 273b
00000020: 693e 333b 9ffa b63b 59d1 d2b7 3826 ed3b
00000030: f172 e7bb cdb5 afbb 520e 85bb c3e0 683b
-0.0064408504 0.009904796 0.0058887484 -0.00086166925 0.00499968 -0.002426265 0.0016400587 0.0025508641
0.0027350432 0.0055840756 -2.5131436e-05 0.007237222 -0.0070632626 -0.0053622485 -0.004060545 0.003553436

exp_avg f4 [8]
00000000: 249b 33bb cfe2 b13a 0a78 573c e8e4 943a
00000010: 89e5 df3b b6a4 edbb de15 00bc 8a36 01bc
-0.0027405703 0.0013571623 0.013151178 0.0011359723 0.0068327826 -0.007252301 -0.007817714 -0.007886538

exp_avg f4 [8]
00000000: a71b 70bb a0a6 043a e0d3 b4ba 5726 083b
00000010: 4655 61bb b15c c2bb 9cfa 9a3b 687f 663c
-0.0036637576 0.00050602295 -0.0013796054 0.0020774805 -0.0034383102 -0.00593146 0.004729582 0.014068462

exp_avg f4 [8, 7]
00000000: 1748 343b e3e4 cb3a 0e59 47ba 7a73 b03a
00000010: f25d 963b efc5 a63b bcd8 3a3b c710 0f3d
00000020: 770a 233d abe8 cfbb 7d8b db3b 7503 c93c
00000030: c34e bf3c a534 253d b491 393c 5212 0b3c
00000040: 3d06 39bb 487c 4e3b f7f7 9d3c 6844 b03c
00000050: ad58 7a3c b626 70bc e397 25bc 4f08 b83b
00000060: d70a 5e3b 77e1 c7bc 127d e7bc f315 a8bc
00000070: 8253 a3bb 68eb c9bb 4491 53ba 2bf6 f9bb
00000080: 1482 0cbb ca91 93ba b34b 66bb 102b 84bc
00000090: e624 58bc 69a3 893b 1442 79bb 3964 bebc
000000a0: acdc cfbc db71 a5bc 9dc9 3fbc f076 39bc
000000b0: e8df 2239 6379 51bc 13ba 63bc 2ff1 63bc
000000c0: c2e0 43bc cbfd 1dbc 3702 93bc 81e0 8e3b
000000d0: 425a 763c 80b1 b43a 3fa0 383b 3ea1 8bbc
0.002750879 0.0015555884 -0.0007604518 0.0013462149 0.004588836 0.0050895135 0.0028510531 0.03492811
0.039804902 -0.006344875 0.006699978 0.024537781 0.023352986 0.04033341 0.011326242 0.008488255
-0.0028232478 0.0031507183 0.019283278 0.021516994 0.015279931 -0.014657667 -0.010107013 0.005616225
0.0033880973 -0.024399502 -0.02825788 -0.020518279 -0.00498432 -0.006162096 -0.00080706575 -0.0076282225
-0.0021439837 -0.0011258658 -0.0035140335 -0.016133815 -0.013192391 0.004200388 -0.003803377 -0.02324115
-0.02537378 -0.020195892 -0.011705783 -0.011319861 0.00015532936 -0.0127852885 -0.013899344 -0.013912483
-0.011955442 -0.0096430285 -0.017945392 0.004360259 0.015036168 0.0013785809 0.0028171686 -0.01704466

exp_avg_sq f4 [8, 7]
00000000: 845d c934 2dea 8b34 96d5 cb32 635c bf34
00000010: fcae 5035 208f 7235 78e2 de34 fee5 2238
00000020: e71b 5038 9873 ec35 eb91 4e37 4ab6 b237
00000030: 0ad7 a837 5417 5538 6764 b836 3ce6 8a36
00000040: 9d36 8834 d57e 9b36 2b30 5137 4542 7d37
00000050: 4409 0e37 e432 f336 05be 8f36 20fa 8435
00000060: 4ab9 8136 6920 9b37 aead ca37 b903 5c37
00000070: 662c 5f35 2cb8 a335 0abe da32 8c31 0336
00000080: 760f 8234 c751 1134 a47e f734 77f6 1337
00000090: 764e db36 4c05 1035 b7f7 4236 9ea7 8d37
000000a0: e51a a637 0a5a 5a37 7108 9736 6e5f 9236
000000b0: a8f1 7833 f472 f436 99c1 d736 3847 d736
000000c0: 310b 9f36 a567 b836 7f84 5437 8c11 8735
000000d0: 5d8e 9a37 1f96 6b36 902c 6e36 14e4 4237
3.750721e-07 2.6061153e-07 2.3729438e-08 3.5643743e-07 7.7740674e-07 9.03603e-07 4.15155e-07 3.8838007e-05
4.961705e-05 1.7617012e-06 1.2312531e-05 2.1304138e-05 2.0127296e-05 5.0804883e-05 5.4953157e-06 4.1395233e-06
2.537171e-07 4.634125e-06 1.2468586e-05 1.5095405e-05 8.466017e-06 7.247889e-06 4.2838533e-06 9.907562e-07
3.86607e-06 1.8492532e-05 2.4161152e-05 1.3113889e-05 8.313858e-07 1.2198047e-06 2.546496e-08 1.9549361e-06
2.4225636e-07 1.3533928e-07 4.6099478e-07 8.819267e-06 6.5358427e-06 5.365189e-07 2.9052442e-06 1.6886563e-05
1.9801266e-05 1.3014776e-05 4.5011334e-06 4.3622485e-06 5.7961785e-08 7.285149e-06 6.430037e-06 6.4157903e-06
4.739872e-06 5.495693e-06 1.2667034e-05 1.0063391e-06 1.8424524e-05 3.510511e-06 3.5490702e-06 1.1616405e-05

exp_avg f4 [8]
00000000: e441 973c d75c fdbd 560d 863d 1d3a 18bd
00000010: 4690 923c 6023 23bd 4645 36bd ca48 d73d
0.018464036 -0.123712234 0.065455124 -0.037164796 0.01789106 -0.039828658 -0.044499658 0.1051193

exp_avg_sq f4 [8]
00000000: 615e 3b37 3c24 f539 2ed7 0f39 b69e 3438
00000010: a661 3b37 9456 5b38 86d5 8538 92ac b639
1.1168043e-05 0.00046757038 0.00013717703 4.3063155e-05 1.1168804e-05 5.22943e-05 6.381706e-05 0.0003484232

exp_avg f4 [1, 8]
00000000: e27f 123e 601f b1bc 6c1d b03d f115 a63d
00000010: 8edd 14be 4777 fd3d b348 9dbc 883f 7fbe
0.14306596 -0.021621406 0.08599362 0.08109654 -0.14537641 0.12376266 -0.019199705 -0.24926579

exp_avg_sq f4 [1, 8]
00000000: d780 1c3a ad24 5c38 5e64 9039 a6fb 5839
00000010: 4a35 513a 9399 ef39 7ec4 6237 bf31 033b
0.00059701264 5.2486244e-05 0.000275406 0.00020693112 0.0007980658 0.00045700054 1.3516399e-05 0.0020018665

exp_avg f4 [8]
00000000: 6756 733c 4ac5 01bc a8a4 99bb 2272 203d
00000010: 56f7 d2bb f91a 323d 3e4e aebb 9071 a73d
0.014852143 -0.0079205725 -0.004688818 0.039171346 -0.006438176 0.043482754 -0.005319386 0.08175957

exp_avg_sq f4 [8]
00000000: 35eb d736 3f37 f136 625b 5c35 bf58 4a38
00000010: 8c59 ce35 d398 6c38 88fc 8b35 83c0 6139
6.434881e-06 7.188791e-06 8.2089366e-07 4.8243204e-05 1.5374258e-06 5.6409113e-05 1.0429803e-06 0.00021529388

exp_avg f4 [8]
00000000: 58b8 7dbc c0f6 63bd 6430 053c 8b02 93bd
00000010: 5a36 dbbb 673f 56bd cddd 2cbd e35e 483d
-0.0154858455 -0.05565524 0.008129213 -0.071782194 -0.006689829 -0.05230656 -0.042203713 0.048918616

exp_avg_sq f4 [8]
00000000: 2e71 f136 5c1e c238 908d 0336 1287 2139
00000010: 6cdb b135 b199 ab38 a0db 5e38 db18 9638
7.1955355e-06 9.256296e-05 1.9602921e-06 0.00015404474 1.3251388e-06 8.182543e-05 5.3133466e-05 7.157187e-05
