saved/gan/n9ysq7o5/checkpoints/epoch=0-step=10-v2.ckpt (torch, 21266 bytes, 39 tensors)

generator.fc1.weight f4 [16, 7]
0	0x3e976202	0.29566962
1	0x3f0a638f	0.54058164
2	0x3f1cb153	0.61208075
3	0xbee203fc	-0.44143665
4	0x3e8034af	0.25040194
5	0xbf04d507	-0.51887554
6	0xbf0b95cd	-0.5452545
7	0x3ecc27ac	0.39874017
8	0xbdfc1cfa	-0.12310214
9	0x3d87e51a	0.066354945
10	0xbf7a439a	-0.977594
11	0x3ec19021	0.37805274
12	0x3e2bc424	0.1677404
13	0xbee0c258	-0.43898273
14	0xbe52b75a	-0.20577756
15	0xbf094fc3	-0.5363733
16	0x3f950685	1.1642615
17	0x3f071055	0.52759296
18	0x3f4cd5c3	0.80013674
19	0x3e96f9cc	0.29487455
20	0x3eb13920	0.34613895
21	0xbf02eecc	-0.51145625
22	0xbdd235e2	-0.102641836
23	0xbed7edd9	-0.4217365
24	0xbf24d624	-0.6438925
25	0xbe36ad1f	-0.17839478
26	0x3e03b712	0.12862805
27	0x3ec4ec56	0.3846156
28	0x3e1ef847	0.15524398
29	0xbf0a3a2d	-0.5399502
30	0xbe10194d	-0.14072151
31	0xbf4f3b24	-0.80949616
32	0x3de402fd	0.111333825
33	0xbea695c3	-0.32536134
34	0xbf328cd4	-0.69746137
35	0x3db6c6fa	0.089246705
36	0xbe6ef4ab	-0.23335521
37	0xbee8b591	-0.45451024
38	0x3f0db2ce	0.5535096
39	0xbf65cf12	-0.8976909
40	0xbe5f4e87	-0.218073
41	0xbf515f79	-0.81786305
42	0xbee5884c	-0.4483055
43	0xbf1069c2	-0.56411374
44	0x3f045b4b	0.517018
45	0x3ef5f364	0.48037255
46	0xbe89ddfb	-0.2692717
47	0x3f8e0305	1.1094671
48	0x3efa17ea	0.4884637
49	0xbefd11ec	-0.49427736
50	0xbddb1cb7	-0.10698836
51	0xbe41d416	-0.1892856
52	0xbd5cedd5	-0.05393775
53	0xbf5441c5	-0.82912856
54	0xbeabe848	-0.33575654
55	0x3dda2b1e	0.10652755
56	0xbf1f3216	-0.621858
57	0xbe1b9030	-0.15191722
58	0x3f81586f	1.0105113
59	0xbeb15822	-0.34637552
60	0xbf67ff22	-0.90623677
61	0x3e089bea	0.13340726
62	0x3ea758dc	0.32684982
63	0x3f0fa5a2	0.5611211
64	0xbe0a1f9f	-0.13488625
65	0xbdc1e7f0	-0.09468067
66	0x3d9c9e4b	0.076473795
67	0x3d75370d	0.059866954
68	0x3f194d64	0.59883714
69	0xbd9ae9a4	-0.07564095
70	0xbe576f1a	-0.21038476
71	0x3f138c28	0.57635736
72	0x3ea8e1c3	0.32984743
73	0x3f3443d3	0.7041599
74	0x3e207b6c	0.15672082
75	0x3f4e9f52	0.80711854
76	0xbeedf88a	-0.46478683
77	0x3f9c6342	1.2217791
78	0xbe99d80b	-0.3004764
79	0xbf146f52	-0.5798236
80	0xbc4e7282	-0.012600543
81	0xbdc147e1	-0.09437538
82	0xbebbf925	-0.3671352
83	0xbde4a41f	-0.11164116
84	0xbf484194	-0.78225064
85	0x3d017731	0.03160781
86	0xbf11a4f9	-0.56892353
87	0xbdcdef39	-0.10055394
88	0xbfceb8ce	-1.6150148
89	0xbf4f194a	-0.80897963
90	0xbf3da3fa	-0.74078333
91	0x3da0c9ca	0.07850988
92	0xbf2f420f	-0.6846017
93	0x3ec7eb7e	0.39046854
94	0xbea9a247	-0.3313162
95	0xbf0e5da5	-0.5561164
96	0x3f3c928a	0.736611
97	0x3d0fd4d4	0.035115078
98	0xbf53b973	-0.8270485
99	0x3e12890f	0.14310096
100	0xbf44c8c4	-0.76868844
101	0x3dffa617	0.12482851
102	0x3c13b695	0.009015699
103	0x3cc38642	0.02386773
104	0x3e3f66c8	0.18691552
105	0x3e8452db	0.25844464
106	0x3e804eb0	0.25060034
107	0x3f73be14	0.9521191
108	0x3f34b674	0.705909
109	0xbe47a3b8	-0.19496047
110	0x3f1f0712	0.62120163
111	0x3f0aca4d	0.54214936

generator.fc1.bias f4 [16]
0	0xbdbcdc8e	-0.09221755
1	0xbde7292a	-0.11287148
2	0x3eaed809	0.34149197
3	0xbeaf31b1	-0.342176
4	0x3e6ab8d5	0.2292207
5	0xbddbef2a	-0.10738976
6	0x3e3f60fb	0.18689339
7	0xbeb2b215	-0.3490149
8	0xbeb7afed	-0.35876408
9	0x3ebf2621	0.37333778
10	0xbe20c949	-0.15701784
11	0xbe8a3497	-0.26993248
12	0xbebf2fb4	-0.37341082
13	0x3ec3ee05	0.38267532
14	0x3dc3263a	0.095287755
15	0x3ea3ff1b	0.32030568

generator.fc2.weight f4 [8, 16]
0	0x3db6ae15	0.08919922
1	0xbd675b7a	-0.056483723
2	0x3e57bad9	0.2106737
3	0xbc2a45bf	-0.010392605
4	0xbec9ad66	-0.39390105
5	0x3ef401ed	0.4765772
6	0xbf077ad1	-0.5292178
7	0x3ecf2770	0.40459776
8	0x3e985b3a	0.297571
9	0x3f08b6a9	0.5340372
10	0xbd18bbca	-0.037288465
11	0x3e8870b2	0.2664848
12	0x3eb94e54	0.36192572
13	0xbd54ced1	-0.051955048
14	0xbf16f49e	-0.58967006
15	0xbe21eb24	-0.15812355
16	0xbe33a27e	-0.17542455
17	0x3f1128ef	0.56703085
18	0xbed09122	-0.40735728
19	0xbf06cd3f	-0.5265693
20	0x3e55ec9a	0.20891038
21	0x3b234404	0.0024912367
22	0xbf233f53	-0.637685
23	0x3f1f73ed	0.62286264
24	0x3f4e26e3	0.80528086
25	0x3efd4ae4	0.494712
26	0xbbc5773a	-0.006026176
27	0x3ed04aa8	0.40681958
28	0xbefcac2c	-0.49350107
29	0xbe840c23	-0.2579051
30	0x3e1236f0	0.1427877
31	0x3ee2ffda	0.44335824
32	0xbdf5221f	-0.11969399
33	0x3e18edd6	0.14934477
34	0x3cad4c05	0.021154413
35	0xbf1d9558	-0.61556005
36	0xbc996801	-0.01872635
37	0x3ea9836b	0.33108076
38	0x3bf90544	0.0075995047
39	0xbea9891e	-0.33112425
40	0x3c1f0d4b	0.009707759
41	0xbd8054cc	-0.06266174
42	0x3cfe83d1	0.031068714
43	0x3e73ddc3	0.23815064
44	0x3d971d3e	0.073786244
45	0xbf0e01cf	-0.5547151
46	0x3dfc3e88	0.123166144
47	0x3e86dd34	0.2634064
48	0xbdc72b92	-0.09725107
49	0x3e8004c8	0.25003648
50	0xbee1eb4b	-0.44124827
51	0x3f3b823c	0.73245597
52	0xbd17e5b8	-0.03708431
53	0xbde7a9df	-0.11311697
54	0x3dd9c62f	0.10633504
55	0xbe886141	-0.266367
56	0xbee17ad5	-0.44039026
57	0x3e92f11a	0.2869957
58	0x3b341880	0.0027480423
59	0x3e59879a	0.21243134
60	0xbee60381	-0.44924548
61	0xbe24e036	-0.16101155
62	0x3eb8b3c1	0.3607464
63	0x3f46234a	0.77397597
64	0xbedd0fde	-0.43176168
65	0x3c3ec983	0.011644724
66	0xbeafc18c	-0.34327352
67	0xbef56d2b	-0.4793485
68	0xbe3bc89c	-0.18338245
69	0x3f01ab05	0.5065158
70	0x3ef5a8c5	0.47980323
71	0x3eb1ae53	0.3470331
72	0x3d0c30af	0.034226116
73	0x3f23d524	0.639971
74	0xbeba5964	-0.36396325
75	0xbe981bab	-0.2970861
76	0x3eb8b06d	0.36072102
77	0xbd6e749b	-0.058216672
78	0xbe145849	-0.14486803
79	0x3dfc02f4	0.12305251
80	0xbeeca533	-0.46219787
81	0x3e938a9d	0.2881669
82	0x3eaeae57	0.34117386
83	0x3d22dc5d	0.039760936
84	0xbf2ed08d	-0.68286973
85	0xbe438f7b	-0.19097702
86	0x3ee8a0ac	0.45435083
87	0xbf22095d	-0.6329554
88	0x3d80ea72	0.06294717
89	0x3eba98c0	0.36444664
90	0x3eb3b37b	0.3509787
91	0x3e1e0590	0.1543181
92	0x3d97862f	0.0739864
93	0x3e54454b	0.20729558
94	0x3e19484a	0.14968982
95	0xbe9a832e	-0.30178207
96	0xbe55154b	-0.20808904
97	0xbbbe7556	-0.0058123274
98	0x3d6407a6	0.055671357
99	0x3e8193ea	0.25308162
100	0xbb7fe9ce	-0.003904927
101	0x3e1172d7	0.14203964
102	0x3d8ff884	0.070298225
103	0xbe8d13d0	-0.27554178
104	0x3d6414cb	0.055683892
105	0xbe907117	-0.2821128
106	0x3ed7df91	0.42162755
107	0xbe43b815	-0.1911319
108	0x3f1535b8	0.58285093
109	0xbda9f78e	-0.082991704
110	0x3e6cb9b0	0.23117709
111	0xbebf61e1	-0.37379363
112	0xbf0c649f	-0.54841036
113	0x3df0047c	0.11719605
114	0xbf23f039	-0.64038426
115	0x3f043455	0.5164235
116	0x3e8f915f	0.28040597
117	0xbdee24d4	-0.11628118
118	0xbebe5bfd	-0.37179556
119	0x3ee77a65	0.45210567
120	0xbe8700a0	-0.26367664
121	0xbdf1b349	-0.11801774
122	0x3e9a70af	0.30164096
123	0xbdf075e3	-0.11741235
124	0xbefb77ae	-0.49114746
125	0xbeef8cea	-0.46787196
126	0xbe222c92	-0.15837315
127	0x3e816b17	0.25277016

generator.fc2.bias f4 [8]
0	0xbe3e967d	-0.18612094
1	0xbe2a126f	-0.16608594
2	0x3d02e1d9	0.031953666
3	0x3d2247a3	0.0396191
4	0x3dd0cf72	0.10195817
5	0x3d6bea5f	0.05759656
6	0x3e22fc35	0.15916522
7	0xbe5ee077	-0.21765314

generator.fc3.weight f4 [16, 8]
0	0x3d1416e8	0.036154658
1	0xbf479f6a	-0.7797762
2	0xbf4762dc	-0.7788522
3	0xbd8e56e4	-0.06950167
4	0xbf3ac707	-0.7295994
5	0x3f5a83fb	0.85357636
6	0x3f0c7b19	0.5487533
7	0xbf78c0e8	-0.9716935
8	0xbe10d72a	-0.14144579
9	0xbe20b28c	-0.1569311
10	0x3f246f09	0.64231926
11	0xbef49a5b	-0.47774014
12	0x3cfb64f7	0.030687792
13	0x3f763c6d	0.9618595
14	0xbeef8b58	-0.46785998
15	0xbe7f771f	-0.24947785
16	0xbf500f7f	-0.81273645
17	0xbc320946	-0.010866469
18	0x3f4fdbb7	0.81194633
19	0xbe6f30d1	-0.23358466
20	0xbf080ed9	-0.53147656
21	0x3ececde7	0.40391466
22	0x3f4ce422	0.80035603
23	0xbea8574d	-0.32879105
24	0x3a08ed24	0.0005223325
25	0xbf2099ac	-0.62734485
26	0x3f6ff7ea	0.9373766
27	0x3ee2b329	0.44277313
28	0xbf6d2a99	-0.92643124
29	0xbec38780	-0.38189316
30	0x3e6f0cef	0.23344778
31	0x3f4f51bc	0.8098409
32	0x3f4638bc	0.7743032
33	0x3d473d52	0.048642464
34	0x3f0e61d2	0.5561801
35	0xbf8af213	-1.0855125
36	0xbea8ef53	-0.3299509
37	0x3f65ae9f	0.89719576
38	0xbf84fd80	-1.0389862
39	0x3ed3a673	0.41337928
40	0x3eac3d19	0.33640364
41	0x3eefd7a5	0.4684421
42	0x3f4b4362	0.79399693
43	0xbf9fb21e	-1.2476232
44	0x3f3d82ca	0.74027693
45	0x3dbd06f6	0.09229843
46	0x3f1785ef	0.5918874
47	0x3e3ac933	0.18240814
48	0x3f4b06cd	0.7930725
49	0xbf3df697	-0.7420439
50	0xbecf602b	-0.40503058
51	0xbf10affe	-0.5651854
52	0x3d748359	0.059695575
53	0x3f472d8c	0.77803874
54	0xbe56e518	-0.2098583
55	0xbe55569a	-0.20833817
56	0xbe30e06b	-0.17273109
57	0xbf9fabc2	-1.2474291
58	0x3e6ef642	0.23336127
59	0x3e2929ca	0.16519848
60	0xbb5519b0	-0.0032516532
61	0xbdbe335c	-0.0928714
62	0xbe5e6d97	-0.21721493
63	0xbc2e1a06	-0.010626322
64	0x3d98bf1f	0.074583285
65	0x3e159c23	0.14610343
66	0x3f574544	0.84090066
67	0xbf393d88	-0.72359514
68	0xbf02afe0	-0.51049614
69	0x3ebb4a74	0.3658024
70	0xbe076a83	-0.13224225
71	0x3ebaa067	0.36450502
72	0x3eebafe6	0.46032637
73	0xbebd8e21	-0.37022498
74	0xbe2d0b07	-0.16898738
75	0x3e9ab3a5	0.30215183
76	0x3e6980af	0.22802995
77	0x3f331d37	0.69966453
78	0x3f22fc72	0.6366645
79	0x3f1dffce	0.6171845
80	0x3e750c77	0.23930536
81	0xbf7476a1	-0.95493513
82	0x3e6ca1d2	0.23108605
83	0x3ea5977c	0.32342136
84	0xbea96c76	-0.33090562
85	0xbf01e730	-0.5074339
86	0x3f59f01e	0.85132015
87	0x3f3da78c	0.7408378
88	0xbe0e5e28	-0.13903105
89	0x3d42a5c3	0.047521364
90	0xbdf5c791	-0.12000955
91	0x3e063cd7	0.13109146
92	0x3fc521f8	1.5400991
93	0xbeb3e982	-0.3513909
94	0x3d9554f1	0.07291592
95	0xbf284927	-0.6573662
96	0x3e41d373	0.18928318
97	0x3d5ce1b2	0.053926177
98	0xbe81115f	-0.25208566
99	0x3f7ac4ba	0.9795643
100	0x3fbb1247	1.4614953
101	0xbec631db	-0.38709912
102	0xbf257adf	-0.6464061
103	0xbf19f5cc	-0.6014068
104	0x3e5fca2a	0.21854463
105	0xbecf903f	-0.4053974
106	0x3f1d6935	0.6148866
107	0x3e4572a9	0.1928202
108	0x3f849fe1	1.0361291
109	0x3df08c70	0.11745536
110	0xbf620865	-0.8829406
111	0x3e178d85	0.14800079
112	0xbe66fc55	-0.22557195
113	0xbe76bcfb	-0.24095528
114	0x3f863d0c	1.048738
115	0xbe60cbb6	-0.2195271
116	0x3e910108	0.283211
117	0x3da1cc12	0.079002514
118	0xbd543ed0	-0.051817715
119	0xbee9229a	-0.4553421
120	0xbdb23670	-0.087017894
121	0xbd23c6bd	-0.039984453
122	0x3f5c7408	0.8611455
123	0xbea370f3	-0.3192211
124	0x3fc3947a	1.5279686
125	0x3f2158cc	0.6302612
126	0xbf3f2c04	-0.7467654
127	0x3e8f8429	0.28030518

generator.fc3.bias f4 [16]
0	0xbdd9bb80	-0.10631466
1	0xbdad5566	-0.08463554
2	0x3dae712a	0.08517678
3	0xbe9cc7b8	-0.30621123
4	0xbce91c33	-0.02845583
5	0x3d0f3671	0.03496403
6	0xbe93d3d8	-0.2887256
7	0x3e37c799	0.17947234
8	0x3e8f641b	0.28006062
9	0x3d8181dc	0.06323597
10	0x3e058bff	0.13041686
11	0xbd519cb9	-0.051174853
12	0x3e67595f	0.22592686
13	0x3e142537	0.14467321
14	0xbd04b161	-0.032395724
15	0xbe8cbc08	-0.27487206

generator.fc4.weight f4 [7, 16]
0	0x3eee12b3	0.4649864
1	0xbeaa20ab	-0.3322805
2	0xbecbcf80	-0.39806747
3	0x3ebc352f	0.36759326
4	0x3e10d33f	0.14143084
5	0x3e9251ef	0.28578135
6	0xbe38915b	-0.18024199
7	0xbe575c57	-0.21031319
8	0xbc908439	-0.017641174
9	0x3e827536	0.2548005
10	0xbf09f315	-0.5388654
11	0xbe836360	-0.25661755
12	0xbe083883	-0.13302808
13	0xbe282e59	-0.1642393
14	0xbe015fda	-0.1263422
15	0xbe9c0df1	-0.30479386
16	0x3d5cbe7a	0.05389259
17	0x3e6adaa4	0.22934967
18	0xbf175219	-0.59109646
19	0x3f346292	0.70462906
20	0x3efd373c	0.49456203
21	0xbef9dfb3	-0.4880348
22	0xbe7a8851	-0.24466063
23	0x3efa49f0	0.48884535
24	0x3e46db82	0.19419673
25	0x3ed3a30f	0.4133534
26	0xbf19184d	-0.59802705
27	0x3eb7fe38	0.3593614
28	0x3ea6a9e2	0.32551485
29	0x3cb65bf8	0.022260651
30	0xbe58d568	-0.21175158
31	0xbe3e76aa	-0.18599954
32	0xbf1b4ee4	-0.6066725
33	0xbdbfa872	-0.093583
34	0xbdb00fc3	-0.08596756
35	0xbc2d54bd	-0.010579285
36	0xbe08e38e	-0.13368055
37	0xbe666cf0	-0.22502494
38	0x3ed578c7	0.41693708
39	0xbf89923b	-1.0747751
40	0x3e2b9e43	0.16759591
41	0x3d27dd11	0.04098231
42	0x3e62a72e	0.22134086
43	0x3dcd79e7	0.10033017
44	0xbe6e1817	-0.23251377
45	0xbf48c086	-0.7841877
46	0x3d5df01d	0.054184068
47	0xbe06389d	-0.13107534
48	0xbd9bb026	-0.07601957
49	0x3c098771	0.008394108
50	0xbd87f2e4	-0.066381246
51	0xbe45f6a7	-0.19332372
52	0xbf69e25c	-0.9136102
53	0xbec8b2fd	-0.39199057
54	0xbef13b01	-0.4711533
55	0x3f0a601f	0.5405292
56	0x3f30900f	0.68969816
57	0x3c0e3c90	0.008681431
58	0xbea877ef	-0.32904002
59	0xbf258d91	-0.6466914
60	0xbde097c7	-0.10966449
61	0xbcbf5aca	-0.023358721
62	0xbd6270fc	-0.05528353
63	0x3f229d36	0.63521135
64	0xbdaea251	-0.08527053
65	0x3e1c6957	0.15274559
66	0x3de2048f	0.11036026
67	0xbe4b03ed	-0.19825716
68	0xbdbd972c	-0.09257349
69	0x3efb6aaa	0.49104816
70	0xbbb1e720	-0.0054291636
71	0xbf144f9f	-0.5793399
72	0xbe5d9c34	-0.21641618
73	0x3dbfaf9d	0.093596675
74	0x3e572376	0.21009621
75	0xbf391161	-0.72292143
76	0xbeacec9c	-0.3377427
77	0xbdc10096	-0.0942394
78	0x3ce5cac3	0.028050786
79	0xbdb5e9e5	-0.088825025
80	0xbe7b36db	-0.24532644
81	0x3ed78be7	0.42098925
82	0x3df9a7c4	0.12190202
83	0xbde863b5	-0.113471426
84	0xbdc18e58	-0.09450978
85	0x3e701d77	0.2344874
86	0x3ebb7b15	0.36617342
87	0xbdd6e580	-0.104929924
88	0xbe00a00c	-0.12561053
89	0x3ec01693	0.37517223
90	0x3f484345	0.78227645
91	0xbe954835	-0.29156652
92	0xbddb791c	-0.10716459
93	0xbe8021c0	-0.2502575
94	0xbdd7b9ae	-0.105334625
95	0xbe36a2e9	-0.17835583
96	0x3dc56f1b	0.09640332
97	0xbd1886b0	-0.037237823
98	0x3d512737	0.05106279
99	0x3d807d48	0.062738955
100	0x3f09be1d	0.53805715
101	0x3d8cd016	0.06875627
102	0xbe0ba390	-0.13636613
103	0xbd9381bf	-0.072024815
104	0x3f1134c3	0.56721133
105	0x3d2ee413	0.042697977
106	0x3e620bfd	0.22074886
107	0x3e979c26	0.2961132
108	0x3e66a07d	0.22522159
109	0x3ee2c402	0.44290167
110	0xbe016922	-0.12637761
111	0xbe41b812	-0.18917874

generator.fc4.bias f4 [7]
0	0xbdb9f0b2	-0.09079112
1	0x3d09e059	0.03366122
2	0x3e419b0b	0.189068
3	0xbda9b3fa	-0.08286281
4	0xbe31101d	-0.17291303
5	0x3e3ae5cd	0.18251725
6	0xbe055b55	-0.13023122

generator.layer_norm_hidden_0.weight f4 [16]
0	0x3f7eb853	0.99500006
1	0x3f7fbe77	0.999
2	0x3f80a3d9	1.0050002
3	0x3f7eb853	0.99500006
4	0x3f7eb853	0.99500006
5	0x3f7eb853	0.99500006
6	0x3f7eb853	0.99500006
7	0x3f7eb853	0.99500006
8	0x3f7eb853	0.99500006
9	0x3f7eb853	0.99500006
10	0x3f7fbe77	0.999
11	0x3f80a3d9	1.0050002
12	0x3f7eb853	0.99500006
13	0x3f7eb853	0.99500006
14	0x3f7eb853	0.99500006
15	0x3f7eb853	0.99500006

generator.layer_norm_hidden_0.bias f4 [16]
0	0xbba3d70b	-0.0050000004
1	0x3ba3d70b	0.0050000004
2	0x3a83126f	0.001
3	0xbba3d70b	-0.0050000004
4	0xbba3d70b	-0.0050000004
5	0x3a83126d	0.0009999998
6	0x3ba3d70b	0.0050000004
7	0xbba3d70b	-0.0050000004
8	0x3ba3d70b	0.0050000004
9	0x3ba3d70b	0.0050000004
10	0xbb449ba6	-0.003
11	0xbba3d70b	-0.0050000004
12	0xbba3d70b	-0.0050000004
13	0x3ba3d70b	0.0050000004
14	0x3ba3d70b	0.0050000004
15	0xba83126f	-0.001

generator.layer_norm_hidden_1.weight f4 [8]
0	0x3f7eb853	0.99500006
1	0x3f7eb853	0.99500006
2	0x3f80624f	1.0030001
3	0x3f7eb853	0.99500006
4	0x3f80a3d9	1.0050002
5	0x3f80a3d9	1.0050002
6	0x3f7eb853	0.99500006
7	0x3f80a3d9	1.0050002

generator.layer_norm_hidden_1.bias f4 [8]
0	0xbba3d70b	-0.0050000004
1	0x3ba3d70b	0.0050000004
2	0xbba3d70b	-0.0050000004
3	0x3ba3d70b	0.0050000004
4	0x3b449ba6	0.003
5	0x3b449ba6	0.003
6	0xba83126d	-0.0009999998
7	0xbba3d70b	-0.0050000004

discriminator.fc1.weight f4 [8, 7]
0	0x3e5198b5	0.2046841
1	0xbe84540d	-0.25845376
2	0xbe6b6182	-0.22986415
3	0xbdc8f74c	-0.09812793
4	0xbe20bc8c	-0.15696925
5	0xbe9606f8	-0.29302192
6	0xbd99fb72	-0.075186625
7	0x3d9c028c	0.07617673
8	0xbf80246c	-1.0011115
9	0x3f64cf3b	0.8937871
10	0xbec2e07e	-0.380619
11	0x3ea6b367	0.32558748
12	0x3ea6e01d	0.3259286
13	0x3e917818	0.28411937
14	0xbeba64be	-0.36404985
15	0xbf0da801	-0.5533448
16	0x3f5fea9a	0.8746735
17	0xbdda74f7	-0.106668405
18	0xbf620f45	-0.8830455
19	0xbf0620e8	-0.5239396
20	0xbeecbdc7	-0.4623854
21	0xbde08d87	-0.10964494
22	0x3e7161cf	0.23572467
23	0x3d90aa87	0.070637755
24	0x3ebc335a	0.36757928
25	0xbda01117	-0.0781576
26	0x3e1d6374	0.1536997
27	0xbf019d86	-0.50630987
28	0xbd9c45b9	-0.07630486
29	0x3d17f248	0.03709629
30	0xbe2a409f	-0.16626213
31	0x3f52578e	0.8216485
32	0xbe5c810e	-0.21533605
33	0x3edf84b1	0.43655923
34	0xbeb303d9	-0.34963873
35	0x3eaa8b91	0.33309606
36	0xbc5d5d53	-0.01351102
37	0x3e580807	0.21096812
38	0xbe78452b	-0.24245135
39	0xbe1aea12	-0.15128353
40	0x3f4679d6	0.77529657
41	0x3ed19d01	0.40940097
42	0x3f8241bd	1.0176312
43	0xbf12a13c	-0.57277274
44	0xbd3f71bf	-0.046739336
45	0xbe36ebd4	-0.17863399
46	0xbe6ec659	-0.23317851
47	0x3f23274b	0.6373183
48	0x3f86344b	1.0484709
49	0x3ea4ed4e	0.322123
50	0xbed24ca0	-0.41074085
51	0x3f6001f5	0.87502986
52	0xbe09943b	-0.13435452
53	0x3d8712fa	0.06595416
54	0xbdb85881	-0.09001256
55	0x3e850833	0.25982818

discriminator.fc1.bias f4 [8]
0	0xba283a5a	-0.00064173865
1	0xbe4a58a5	-0.19760378
2	0x3d56c06b	0.052429598
3	0xbeaa2337	-0.33229992
4	0xbe7e85b9	-0.24855699
5	0x3dd7e4af	0.10541665
6	0x3ebb4969	0.36579445
7	0x3e0a578d	0.1350996

discriminator.fc2.weight f4 [1, 8]
0	0xbcf7a80a	-0.030231494
1	0x3e6e4973	0.23270206
2	0xbe5e1ebe	-0.21691415
3	0x3d2015b7	0.03908321
4	0xbe9df6b8	-0.30852294
5	0xbea6fa39	-0.3261278
6	0x3ef5d906	0.48017138
7	0xbefc64f1	-0.49295762

discriminator.layer_norm_hidden_0.weight f4 [8]
0	0x3f7ec238	0.99515104
1	0x3f7ebb05	0.9950412
2	0x3f7ebd0b	0.99507207
3	0x3f805238	1.0025091
4	0x3f7ec755	0.99522907
5	0x3f80975c	1.0046191
6	0x3f7f7e61	0.99802214
7	0x3f80a10e	1.004915

discriminator.layer_norm_hidden_0.bias f4 [8]
0	0xbba3e3c8	-0.005001519
1	0x3ba42b44	0.0050100405
2	0xbba42a9a	-0.0050099613
3	0x3ba456e0	0.005015239
4	0xbba42de2	-0.0050103525
5	0xbba43b84	-0.0050119776
6	0x3ba43279	0.0050108996
7	0xbba4399c	-0.0050117504

exp_avg f4 [16, 7]
0	0xbbe50fa4	-0.00699039
1	0xbbe53032	-0.0069942707
2	0xa1635242	-7.701946e-19
3	0xbbe52d29	-0.006993909
4	0xbbe52da1	-0.006993965
5	0xbbe52fb2	-0.006994211
6	0xbbe530fa	-0.006994364
7	0xb8b0501d	-8.407256e-05
8	0xb8af6dbb	-8.365089e-05
9	0x1ff1feba	1.0248888e-19
10	0xb8af9b8a	-8.373622e-05
11	0xb8af8045	-8.368542e-05
12	0xb8af9ec2	-8.374221e-05
13	0xb8b04a97	-8.4062274e-05
14	0xbc4132bb	-0.01179188
15	0xbc416206	-0.011803156
16	0x219a4301	1.0453182e-18
17	0xbc416050	-0.011802748
18	0xbc416099	-0.011802816
19	0xbc41606b	-0.011802773
20	0xbc414eb8	-0.011798553
21	0xbc442005	-0.011970525
22	0xbc443146	-0.011974638
23	0xa1c3e77e	-1.3274989e-18
24	0xbc442f18	-0.011974119
25	0xbc442ef2	-0.011974083
26	0xbc442fcd	-0.011974287
27	0xbc4439ee	-0.011976702
28	0xba30bbb3	-0.00067418366
29	0xba2fe4cb	-0.0006709813
30	0xa158cac4	-7.3452005e-19
31	0xba2fea75	-0.0006710657
32	0xba2ff2d9	-0.00067119073
33	0xba3008af	-0.0006715161
34	0xba31c04f	-0.00067806704
35	0x3c160e22	0.009158643
36	0x3c162416	0.009163877
37	0x211cdccc	5.314708e-19
38	0x3c162191	0.009163276
39	0x3c1621ff	0.009163379
40	0x3c162267	0.009163476
41	0x3c163581	0.00916803
42	0x3c2159ae	0.009848041
43	0x3c21689e	0.009851603
44	0xa060d122	-1.9042734e-19
45	0x3c2169da	0.009851897
46	0x3c2168fe	0.009851692
47	0x3c216bc3	0.009852353
48	0x3c217f38	0.0098569915
49	0x3c0a4d91	0.008441345
50	0x3c0a666e	0.008447273
51	0x21580a1a	7.3197016e-19
52	0x3c0a653e	0.00844699
53	0x3c0a6539	0.008446985
54	0x3c0a66a6	0.008447325
55	0x3c0a6a89	0.0084482515
56	0xbb8c917b	-0.0042898036
57	0xbb8cb58b	-0.0042941025
58	0xa0028573	-1.1055583e-19
59	0xbb8cb275	-0.0042937347
60	0xbb8cb2a4	-0.0042937566
61	0xbb8cb279	-0.0042937365
62	0xbb8cb5d3	-0.004294136
63	0x3c1537c3	0.009107533
64	0x3c154d6f	0.0091127
65	0x21426477	6.586272e-19
66	0x3c154fe7	0.0091132885
67	0x3c154fe8	0.009113289
68	0x3c155584	0.009114627
69	0x3c155568	0.009114601
70	0xbc27472f	-0.010209843
71	0xbc276000	-0.010215759
72	0x20b06fa4	2.9889437e-19
73	0xbc2760b4	-0.010215927
74	0xbc276008	-0.010215767
75	0xbc27621f	-0.010216265
76	0xbc2764cb	-0.010216902
77	0xbbcdccb3	-0.0062805056
78	0xbbcddd6b	-0.0062824986
79	0x20a4544d	2.7838466e-19
80	0xbbcddd5e	-0.0062824925
81	0xbbcddcda	-0.006282431
82	0xbbcdddad	-0.0062825293
83	0xbbcdef0c	-0.0062846
84	0x3a47817d	0.0007610543
85	0x3a473699	0.0007599383
86	0x9f71a98e	-5.1173987e-20
87	0x3a4735c0	0.0007599257
88	0x3a47308e	0.0007598483
89	0x3a473898	0.00075996807
90	0x3a472efd	0.00075982494
91	0xbaeb5a01	-0.00179559
92	0xbaec03d7	-0.0018006515
93	0x219cfa6c	1.0637257e-18
94	0xbaebd13d	-0.0017991435
95	0xbaebe98b	-0.0017998678
96	0xbaebc803	-0.0017988685
97	0xbaec7d20	-0.0018042661
98	0xba7f4bea	-0.000973879
99	0xba7f0acc	-0.0009729087
100	0xa1155479	-5.059496e-19
101	0xba7f313a	-0.00097348134
102	0xba7f1a58	-0.00097314036
103	0xba7f4b8b	-0.0009738735
104	0xba7f24f0	-0.0009732982
105	0x3c34bed1	0.011031822
106	0x3c34efa9	0.011043468
107	0xa1e30671	-1.5383823e-18
108	0x3c34e8ed	0.011041862
109	0x3c34ebee	0.011042578
110	0x3c34e76c	0.011041503
111	0x3c34f690	0.011045113

exp_avg f4 [16]
0	0x3be35243	0.0069372966
1	0xba71feba	-0.00092313776
2	0xbc1a4301	-0.009415389
3	0x3c43e77e	0.0119570475
4	0x3bd8cac4	0.0066159684
5	0xbb9cdccd	-0.0047870637
6	0x3ae0d121	0.0017152169
7	0xbbd80a1b	-0.0065930015
8	0x3a828573	0.0009957984
9	0xbbc26477	-0.0059323865
10	0xbb306fa6	-0.0026922016
11	0xbb24544b	-0.0025074657
12	0x39f1a98e	0.0004609343
13	0xbc1cfa6b	-0.009581189
14	0x3b955478	0.0045571886
15	0x3c630670	0.013856515

exp_avg f4 [8, 16]
0	0xbb030712	-0.0019993228
1	0xba8b861d	-0.0010644827
2	0xbbdca66a	-0.0067337053
3	0xb9583b4a	-0.00020621452
4	0x3c28649d	0.010277894
5	0x3b9757d3	0.0046186238
6	0xbbc166ab	-0.0059021316
7	0x3b92a795	0.0044755437
8	0x3b7a1321	0.0038158374
9	0xbbd61301	-0.006533027
10	0xbbe4e1b7	-0.006984915
11	0xbba367a3	-0.0049867197
12	0x3c99d216	0.018776935
13	0x3b074b72	0.0020644334
14	0xbacb36d4	-0.0015504011
15	0xbc04f75f	-0.0081156185
16	0x3b18b42a	0.0023300746
17	0x3b25b743	0.0025286234
18	0xbc02829f	-0.007965713
19	0x3b62f3f3	0.0034630268
20	0x3b9073e5	0.004408347
21	0x3b844875	0.004036958
22	0xbb95ad57	-0.004567783
23	0x3b9119fb	0.004428146
24	0x3b8a2e69	0.0042169583
25	0xbbf9a0da	-0.007618052
26	0xbbbf5caf	-0.005839906
27	0x3ab348f6	0.001367836
28	0x3c11a121	0.008888514
29	0x3ae36fe3	0.001735207
30	0x3af26710	0.001849385
31	0xbc59a757	-0.013284526
32	0xbb6b2713	-0.0035881444
33	0xbb7eb656	-0.0038866005
34	0x3c1ea7ba	0.009683544
35	0xbba50be1	-0.0050368165
36	0xbb56e940	-0.0032792836
37	0xbb983acf	-0.0046456824
38	0x3ba45af6	0.005015726
39	0xbbbade2d	-0.005702755
40	0xbbb89bb6	-0.0056337966
41	0x3c1bfae3	0.009520265
42	0x3b969c0f	0.0045962404
43	0xbb521743	-0.0032057322
44	0xbbed74e9	-0.007246603
45	0x39351194	0.00017268053
46	0xbb1859c1	-0.0023246857
47	0x3c7f42f6	0.01557993
48	0xb89a3594	-7.353272e-05
49	0xba3d914c	-0.0007231429
50	0x3bf34571	0.0074240495
51	0xbad1d047	-0.0016007506
52	0xbbef65ac	-0.0073058214
53	0xbb90690f	-0.004407055
54	0x3baaea9c	0.005215956
55	0xbb96ddba	-0.0046040686
56	0xbb82445e	-0.003975435
57	0x3bee66b5	0.007275427
58	0x3baff4d0	0.00536976
59	0x3ae850a5	0.0017724229
60	0xbc5cdc4a	-0.013480255
61	0xba88d3dd	-0.0010439117
62	0x38a299e5	7.753427e-05
63	0x3c25c118	0.010116838
64	0x3b0a27b8	0.0021080803
65	0xbae5ffe8	-0.001754758
66	0x3d1fdf82	0.039031513
67	0xbb9eeff3	-0.0048503815
68	0xbd44e4ed	-0.048069883
69	0xbccbcc71	-0.024877759
70	0x3cf348c5	0.029697785
71	0xbcc8b4e8	-0.024500325
72	0xbca96351	-0.02067724
73	0x3d168963	0.036752116
74	0x3d2e1a65	0.04250564
75	0x3c81dd87	0.015852703
76	0xbda86e4b	-0.08224162
77	0xbc8ad9f4	-0.016949631
78	0xb99c0dbb	-0.0002976487
79	0x3d6f9688	0.058493167
80	0x3b84c1b5	0.004051412
81	0x3b9a3b7f	0.0047067995
82	0xbc6df8fa	-0.014524693
83	0x3bccd500	0.0062509775
84	0x3c0935f7	0.008374683
85	0x3bfb1c26	0.0076632677
86	0xbc096eff	-0.00838828
87	0x3c128074	0.008941758
88	0x3c063a32	0.008192586
89	0xbc645d6f	-0.013938292
90	0xbc2d61b0	-0.010582373
91	0x3b08e428	0.0020887945
92	0x3c7eacbd	0.015544114
93	0x3b1f955c	0.00243505
94	0x3b467716	0.0030283383
95	0xbcc3b4f2	-0.023889992
96	0xbb4beea7	-0.003111759
97	0xbad25826	-0.0016047999
98	0xbc3eb0c1	-0.011638821
99	0xba5da93d	-0.00084556994
100	0x3c9971d3	0.018731033
101	0x3c0498cb	0.008093069
102	0xbc24d1e4	-0.010059807
103	0x3bebc0ea	0.007194628
104	0x3bbd9bb1	0.005786382
105	0xbc347a5a	-0.011015499
106	0xbc5ea298	-0.01358857
107	0xbc0a41f3	-0.008438575
108	0x3d011cc5	0.031521577
109	0x3bc16c21	0.0059027825
110	0xbad7b569	-0.0016457263
111	0xbc7bb95d	-0.015364018
112	0xbb50130c	-0.0031749634
113	0xbb43d432	-0.0029881117
114	0x3b85096b	0.0040599606
115	0xbb5e4946	-0.0033918186
116	0x3aa5bfa7	0.0012645618
117	0xbabf99a3	-0.0014617931
118	0x3aacb1c4	0.0013175537
119	0xbb093acc	-0.0020939587
120	0xbb1606f9	-0.002289234
121	0x3b7e352a	0.0038789012
122	0x3aec5dbc	0.0018033306
123	0xbb771238	-0.0037700068
124	0x3a936a8a	0.0011246961
125	0xb915e970	-0.0001429671
126	0xbb1b6d1e	-0.0023716162
127	0x3c06dd10	0.008231416

exp_avg f4 [8]
0	0x3bc71caf	0.0060764174
1	0xbbabefe9	-0.0052471054
2	0x3c01e411	0.00792791
3	0xba4cec54	-0.0007817198
4	0xbc0e8288	-0.008698113
5	0xbc10897c	-0.008821841
6	0x3c13850e	0.009003891
7	0x3c0033e5	0.007824873

exp_avg f4 [16, 8]
0	0xb8d8d8bd	-0.00010340053
1	0x3b57ca23	0.003292688
2	0x3a81bbef	0.0009897928
3	0x3aa9c4d4	0.0012952336
4	0xbb8c559f	-0.004282668
5	0x3abc7fbd	0.0014381331
6	0xbbb7a685	-0.0056045675
7	0x3b43743d	0.0029823922
8	0x3c242b25	0.010020052
9	0x3bdf8a16	0.006821881
10	0xbba09dbd	-0.0049016164
11	0xbca1b1a1	-0.01973802
12	0x3b532590	0.0032218434
13	0xbc6c0ecf	-0.0144078275
14	0x3c471784	0.012151603
15	0x3bdf2716	0.0068100793
16	0x3bb07326	0.0053848205
17	0x3a5be74f	0.00083886547
18	0xbb65124e	-0.0034953537
19	0xbc497bea	-0.01229761
20	0x3bd1bf2f	0.0064009647
21	0xbc12456c	-0.008927684
22	0x3c360202	0.011108877
23	0x3a7ea21c	0.0009713487
24	0xb9695c38	-0.00022254966
25	0xb9c176f4	-0.00036900456
26	0xb8423e7d	-4.63114e-05
27	0x39d03e6a	0.00039719354
28	0x3a142076	0.0005650589
29	0x3a0b95a2	0.0005324726
30	0xb9adf76c	-0.00033181475
31	0xba09335d	-0.0005233789
32	0x3a38a04d	0.00070429296
33	0xba2148a9	-0.000615249
34	0xba277ea8	-0.00063894177
35	0xbac9c572	-0.0015393926
36	0x3ace2eb2	0.0015730469
37	0xbaad1a6f	-0.001320673
38	0x3b1acb87	0.0023619847
39	0xba0ab7c2	-0.0005291664
40	0x3abde0ef	0.0014486591
41	0xba352d91	-0.0006911392
42	0xba4aa50c	-0.00077302824
43	0xbb04c208	-0.0020257253
44	0x3aafb817	0.0013406303
45	0xbaf6f344	-0.0018840809
46	0x3b49b47b	0.003077774
47	0xba03158e	-0.00050004653
48	0x3bbd04bb	0.005768386
49	0xbb1ec4e1	-0.0024226236
50	0xbb7a0c6c	-0.0038154377
51	0xbc48e592	-0.012261765
52	0x3c0dd7b8	0.008657388
53	0xbc286cbe	-0.010279832
54	0x3c8365cd	0.016039753
55	0xbae0af9f	-0.0017142183
56	0xbcb3cd86	-0.021948587
57	0xbba7fe94	-0.0051267836
58	0x3c4acb51	0.012377576
59	0x3d38de0b	0.04513363
60	0xbc936ab8	-0.017995223
61	0x3d0e0db1	0.034681026
62	0xbd276c0a	-0.04087452
63	0xbbca5927	-0.0061751786
64	0xbae3feb3	-0.0017394632
65	0xba7a699a	-0.0009552479
66	0x3a62f3c0	0.00086575374
67	0x3b70d539	0.0036748184
68	0xba56d2f3	-0.0008194886
69	0x3b36261d	0.0027793713
70	0xbb35f184	-0.0027762363
71	0xba864c63	-0.0010246154
72	0x3ba72878	0.00510126
73	0x3ad8cbb7	0.0016540204
74	0xbb24ae9e	-0.0025128494
75	0xbc12dc95	-0.008963724
76	0x3b36c541	0.0027888569
77	0xbbe1d0b3	-0.006891334
78	0x3be9b667	0.0071323398
79	0x3adbca03	0.0016768578
80	0x3bbf11c2	0.0058309743
81	0xbb64ce18	-0.003491288
82	0xbb982e9b	-0.0046442277
83	0xbc5d033d	-0.013489542
84	0x3c3a9d18	0.011389993
85	0xbc322e6a	-0.010875324
86	0x3c94b38e	0.018152025
87	0xbb3e2f08	-0.0029019732
88	0xbbea4550	-0.007149376
89	0x3a55339c	0.00081329956
90	0x3b9301fc	0.0044863205
91	0x3c65181d	0.0139828
92	0xbc00b1f5	-0.007854928
93	0x3c32c63c	0.010911521
94	0xbc7e4770	-0.015519962
95	0x39bb1e10	0.00035689818
96	0x3b8a41cb	0.004219269
97	0x3bdacd47	0.006677303
98	0xba5935bd	-0.00082859007
99	0xbbf839af	-0.007575236
100	0xbb88ac29	-0.0041709137
101	0xbba210a3	-0.004945831
102	0x38b3e08b	8.5772095e-05
103	0x3bd63210	0.0065367296
104	0xbae0fa19	-0.0017164379
105	0xb9e8aa57	-0.000443774
106	0x3a833bc7	0.0010012322
107	0x3b758431	0.0037462825
108	0xbaf7410a	-0.0018863988
109	0x3b37cceb	0.0028045725
110	0xbb471803	-0.0030379302
111	0xb9f28692	-0.000462581
112	0x3b33c0b8	0.0027428102
113	0x3a73b220	0.0009296257
114	0xbae84086	-0.0017719425
115	0xbbcdecee	-0.0062843477
116	0x3b233c8b	0.0024907913
117	0xbb99acb3	-0.004689777
118	0x3bb4b64a	0.0055148946
119	0x3a8ad43b	0.0010591814
120	0xbc08ba89	-0.008345255
121	0xbbb50c5e	-0.005525156
122	0x3b8eb3fb	0.0043549514
123	0x3c880005	0.016601572
124	0xbb63c003	-0.00347519
125	0x3c42a70f	0.01188065
126	0xbc25d7ef	-0.010122283
127	0xbbaf5812	-0.005351075

exp_avg f4 [16]
0	0xbbaed5b9	-0.0053355363
1	0xbc1e4811	-0.009660737
2	0xba5e2e39	-0.00084755156
3	0x39e0aef9	0.00042854974
4	0x3a908c22	0.0011028091
5	0x3aaa1429	0.0012975979
6	0x3b9d358e	0.004797644
7	0x3bac1878	0.0052519403
8	0x3aa653ee	0.0012689808
9	0xbafe9f6b	-0.0019426172
10	0x3bd338ee	0.0064459955
11	0xbb1dddb5	-0.0024088447
12	0xbc266f12	-0.010158317
13	0x3a1cf779	0.0005987804
14	0xba88c4aa	-0.0010434587
15	0x3bfffa02	0.0078117857

exp_avg f4 [7, 16]
0	0xbba95dcd	-0.0051686526
1	0xbc003578	-0.007825248
2	0xbb109d6e	-0.0022066492
3	0x3aafc57d	0.0013410297
4	0x3ba37271	0.0049880077
5	0x3c718bb6	0.014742782
6	0x3bc6a034	0.006061578
7	0xbc211b96	-0.009833237
8	0x3ba327a5	0.004979091
9	0x3b9266d0	0.0044678226
10	0x3c0c427d	0.008560774
11	0x3bbb4429	0.0057149124
12	0xbc3e1ab4	-0.011603046
13	0xbc181438	-0.009282164
14	0xbb187982	-0.0023265784
15	0xbb2bc42e	-0.0026209462
16	0x3b1c3ff1	0.0023841823
17	0x3bbfbba9	0.0058512283
18	0x3a2c4d2f	0.00065727805
19	0x3b121f9d	0.0022296675
20	0x3aa8f78d	0.0012891159
21	0xbc5f5205	-0.013630395
22	0xbac19d10	-0.001477154
23	0x3ba0bd95	0.0049054124
24	0x39167742	0.00014349542
25	0xbb164118	-0.0022926982
26	0xbbdcecc7	-0.0067420932
27	0xbc10fa00	-0.008848667
28	0x3ba58ae8	0.0050519593
29	0x3bcabfd2	0.0061874175
30	0x3aa2cad3	0.0012420065
31	0x3b46cd61	0.0030334818
32	0xbc22cc6e	-0.009936435
33	0xbc813aff	-0.015775202
34	0xbb7dae8d	-0.0038708777
35	0xba81bffa	-0.0009899132
36	0x3ba17884	0.0049276967
37	0x3cfb6352	0.030687008
38	0x3c0c1644	0.00855023
39	0xbc8de6c2	-0.017321948
40	0x3bc3cf4a	0.0059756385
41	0x3bf331b6	0.0074216975
42	0x3c859442	0.016306046
43	0x3c8eaf5b	0.0174176
44	0xbc91aeea	-0.0177836
45	0xbc8bf852	-0.017086182
46	0xbb7c51bd	-0.0038500868
47	0xbb989ec0	-0.0046575963
48	0x3b9ac3a2	0.0047230283
49	0x3c28fcca	0.010314176
50	0x3b04c1dc	0.002025715
51	0x3b274470	0.002552297
52	0x39faf39b	0.00047865216
53	0xbcb21ecb	-0.021743199
54	0xbb6a63dd	-0.003576509
55	0x3c16bdc8	0.009200521
56	0xba7ded08	-0.00096865045
57	0xbb8d8e60	-0.004319951
58	0xbc37839a	-0.01120081
59	0xbc6a82c0	-0.0143134
60	0x3c10248f	0.008797779
61	0x3c2e94f8	0.010655634
62	0x3b2da40a	0.002649548
63	0x3b9a09c1	0.00470087
64	0xbbfcb0d2	-0.0077115083
65	0xbc496ca9	-0.012293973
66	0xbb4d4d40	-0.0031326562
67	0x36f4d38c	7.296394e-06
68	0x3ba825bb	0.005131451
69	0x3cc9b21e	0.024621066
70	0x3bffc72a	0.0078057246
71	0xbc69938a	-0.014256367
72	0x3bbb076b	0.0057076714
73	0x3bcede3c	0.0063131135
74	0x3c5e0929	0.013551989
75	0x3c3f7f2f	0.011688038
76	0xbc8317ef	-0.016002623
77	0xbc652cc8	-0.013987727
78	0xbb552999	-0.0032526015
79	0xbb895553	-0.0041910796
80	0xbbd83989	-0.0065986556
81	0xbc61b38d	-0.013775718
82	0xbb802c10	-0.0039115027
83	0xbb441330	-0.0029918663
84	0x3a8f8a23	0.0010951202
85	0x3cedd31d	0.02903133
86	0x3bd6189b	0.006533695
87	0xbc5ce30e	-0.013481868
88	0x3b2bd5ec	0.0026220037
89	0x3bd1a921	0.0063983356
90	0x3c816546	0.015795361
91	0x3c8bddf5	0.01707361
92	0xbc5b2d60	-0.013377517
93	0xbc6cca2e	-0.0144525
94	0xbb85423b	-0.004066733
95	0xbbc0b270	-0.0058806464
96	0xbb9f779b	-0.004866553
97	0xbbe3e149	-0.0069543463
98	0xbb246fe1	-0.00250911
99	0x39a4df7e	0.00031447032
100	0x3b7e5802	0.003880978
101	0x3c52ca96	0.012865683
102	0x3ba4527f	0.005014717
103	0xbc0c441e	-0.008561162
104	0x3b7e122e	0.003876816
105	0x3b70d3b6	0.0036747283
106	0x3bf16ad3	0.007367471
107	0x3bc586d1	0.0060280343
108	0xbc121d12	-0.008918064
109	0xbbf8f827	-0.0075979414
110	0xbb060477	-0.0020449439
111	0xbaceda02	-0.0015781524

exp_avg f4 [7]
0	0xbbb4e8b0	-0.0055209026
1	0xba317615	-0.000676961
2	0xbbd2aebd	-0.006429522
3	0x39d976e6	0.00041478052
4	0xbbc8cc54	-0.0061278734
5	0xbb09f31a	-0.002104944
6	0xbb8ec0a5	-0.004356461

exp_avg f4 [16]
0	0x3b9f0c66	0.004853773
1	0x38cd88a4	9.800613e-05
2	0xbcba1d3f	-0.022719024
3	0x3b355ddf	0.002767436
4	0x3b32e65e	0.0027297954
5	0x3caef749	0.02135815
6	0x3cb7e008	0.022445694
7	0x3cf130ee	0.029442277
8	0x3c052fc6	0.008129066
9	0x3c9ed62c	0.019389234
10	0x39175ca4	0.00014434993
11	0xbc093a28	-0.008375682
12	0x3c17adc8	0.009257741
13	0x3c8e2ad2	0.017354403
14	0x3aeab413	0.001790645
15	0x3d124907	0.035714176

exp_avg f4 [16]
0	0x3b845944	0.0040389616
1	0xbb67bdfb	-0.003536104
2	0x3abb379e	0.0014283543
3	0x3bc38c3a	0.005967644
4	0x3b810acb	0.003938054
5	0xba19709a	-0.0005853266
6	0xbc493eb9	-0.012283021
7	0x3c4d1a75	0.012518515
8	0xbbcaa611	-0.0061843474
9	0xbc82246e	-0.015886512
10	0x3b873484	0.0041261334
11	0x3b69151a	0.0035565556
12	0x3bdc8542	0.0067297528
13	0xbb76475c	-0.0037579155
14	0xbaf13b19	-0.0018404453
15	0x3b4cacd1	0.0031230936

exp_avg f4 [8]
0	0x3c13b90a	0.009016285
1	0x3bfd993c	0.007739214
2	0xba6f12fc	-0.00091199554
3	0x3c553819	0.013013863
4	0xbcdbc759	-0.026828455
5	0xbcaeca81	-0.021336796
6	0x3d0dc5eb	0.034612577
7	0xbc50eba4	-0.012751494

exp_avg f4 [8]
0	0x3b9e4c84	0.0048308987
1	0xbc2ad915	-0.010427733
2	0x3c29dc2d	0.010367435
3	0xbc35650b	-0.011071454
4	0xbba323c6	-0.0049786298
5	0xbb913478	-0.0044313036
6	0x3b2d5cce	0.002645302
7	0x3cb5a6db	0.02217429

exp_avg f4 [8, 7]
0	0x3bc10e1f	0.005891576
1	0xbc2472f6	-0.010037174
2	0x3c181555	0.00928243
3	0xbc689c96	-0.014197489
4	0x3c085890	0.008321896
5	0x3c8a666d	0.016894544
6	0x3bb89189	0.0056325835
7	0x3cb32fde	0.02187341
8	0x3bd04cd6	0.006356816
9	0x3c10eb7f	0.008845209
10	0x3b091e15	0.0020922471
11	0x3cc0f7e7	0.023555709
12	0x3d0c240c	0.034214064
13	0x3cbdd0ab	0.02317079
14	0x3b9dbfac	0.004814109
15	0x3cba2f9c	0.02272778
16	0xbc1dca67	-0.009630776
17	0x3ce2704d	0.02764144
18	0x3b3704c2	0.002792642
19	0xbc1add67	-0.0094522005
20	0x3b78207e	0.0037861164
21	0x3a23c856	0.0006247809
22	0xbc1414d4	-0.009038169
23	0x3bc72c05	0.0060782456
24	0xbc3262f6	-0.010887852
25	0x3b2c470a	0.002628746
26	0x3bbd8cd6	0.005784611
27	0xb9b6b01f	-0.00034844966
28	0x3c0020e6	0.007820344
29	0x3c3e4563	0.011613223
30	0xbaeefbc3	-0.001823299
31	0x3c451f5a	0.012031401
32	0x3be97b8b	0.007125323
33	0x3bb3158a	0.005465214
34	0x3c01a6ef	0.007913335
35	0x3ca72aa4	0.020406075
36	0x3d518878	0.051155537
37	0xbc8fcac9	-0.01755275
38	0x3d74bc60	0.05974996
39	0x3c863a47	0.01638521
40	0xbb2027d7	-0.002443781
41	0x3ca06b3a	0.01958238
42	0xbc3804e3	-0.011231634
43	0xbd89bd9a	-0.06725617
44	0x3d00b9c9	0.03142718
45	0xbda89a38	-0.0823254
46	0xbb84e885	-0.004056039
47	0x3cfc7a2f	0.03081998
48	0xbc1c7ce1	-0.009551258
49	0xbcbc53ce	-0.02298918
50	0x3ce5f954	0.02807299
51	0xbcebd9eb	-0.028790435
52	0x3d2c1928	0.04201618
53	0xbcf0898a	-0.029362459
54	0xbd7b32f0	-0.061327875
55	0xbccbb62b	-0.024867138

exp_avg_sq f4 [8, 7]
0	0x359233f7	1.0892971e-06
1	0x366ba7a2	3.5115304e-06
2	0x36418258	2.8835111e-06
3	0x36d9f169	6.495208e-06
4	0x361e6272	2.3601137e-06
5	0x3715a939	8.920492e-06
6	0x357ddee4	9.4574193e-07
7	0x3781ea58	1.5487123e-05
8	0x35f31741	1.8111679e-06
9	0x361cd145	2.3367622e-06
10	0x358889fe	1.0172951e-06
11	0x3798c0af	1.8209537e-05
12	0x38182aa6	3.6279343e-05
13	0x378d473c	1.6841681e-05
14	0x3551a5f4	7.810006e-07
15	0x378324c3	1.5633535e-05
16	0x364ee2db	3.082844e-06
17	0x37bf0d95	2.2775299e-05
18	0x3544c1b4	7.3297565e-07
19	0x364f2638	3.086765e-06
20	0x34e7293b	4.3057102e-07
21	0x333a3758	4.3356835e-08
22	0x363889f3	2.7498434e-06
23	0x35c48308	1.4641273e-06
24	0x36823e11	3.8815274e-06
25	0x34c8075d	3.725826e-07
26	0x35a0d506	1.1982927e-06
27	0x3267d7c9	1.34950335e-08
28	0x3601ba80	1.9331055e-06
29	0x3688567e	4.063185e-06
30	0x344d0eea	1.9097538e-07
31	0x36943c94	4.417796e-06
32	0x35e2e1e0	1.690405e-06
33	0x358d1237	1.051062e-06
34	0x36031b73	1.9536499e-06
35	0x37510b9a	1.2460072e-05
36	0x38a53357	7.877376e-05
37	0x371cd1a3	9.347134e-06
38	0x38df170c	0.000106377614
39	0x370b9ce8	8.321578e-06
40	0x35b793c1	1.3677565e-06
41	0x37438ba7	1.1655421e-05
42	0x369682b9	4.4855665e-06
43	0x39131820	0.00014028
44	0x380276b8	3.110498e-05
45	0x39574540	0.00020529795
46	0x36357351	2.7038225e-06
47	0x38078489	3.230994e-05
48	0x366ee1f8	3.5596295e-06
49	0x3795aa59	1.7841508e-05
50	0x37dca62d	2.6303425e-05
51	0x37db4a1c	2.6141344e-05
52	0x3865697d	5.46961e-05
53	0x380059b6	3.0601128e-05
54	0x38f8d7dd	0.00011865769
55	0x37a2b1cd	1.93947e-05

exp_avg f4 [8]
0	0xbc294744	-0.010331932
1	0xbd1bac8f	-0.03800636
2	0xbc646126	-0.013939178
3	0xbbefde07	-0.007320169
4	0x3cfa68c7	0.03056754
5	0x3d376daa	0.04478232
6	0xbd534bae	-0.051585846
7	0x3dfb39e6	0.122669026

exp_avg_sq f4 [8]
0	0x3655c6ba	3.1855147e-06
1	0x3832fc42	4.267344e-05
2	0x36d01535	6.201352e-06
3	0x35e84d41	1.7307831e-06
4	0x37e78674	2.7599956e-05
5	0x3884bb2d	6.329115e-05
6	0x38b0dc44	8.433362e-05
7	0x39e91af8	0.00044461316

exp_avg f4 [1, 8]
0	0xbd96580b	-0.073410116
1	0x3e7d501a	0.24737588
2	0xbe7c772c	-0.24654835
3	0xb8885b00	-6.5019354e-05
4	0xbd09f736	-0.033683024
5	0x3d169560	0.03676355
6	0x3a8b2dce	0.0010618509
7	0x3d8e65c6	0.069530055

exp_avg_sq f4 [1, 8]
0	0x3936046a	0.00017358517
1	0x3af76c02	0.0018876793
2	0x3af64835	0.001878983
3	0x36a4cd5d	4.9114883e-06
4	0x3835d2e8	4.3350185e-05
5	0x384b51f3	4.8475293e-05
6	0x3804938d	3.160867e-05
7	0x3921f754	0.00015446293

exp_avg f4 [8]
0	0x3b20012b	0.0024414759
1	0x3d6f7ace	0.058466725
2	0x3d5e9b52	0.054347344
3	0x37996e80	1.8290477e-05
4	0x3c2db6bb	0.010602648
5	0xbc40fec6	-0.011779493
6	0x3a2bc60c	0.00065526436
7	0xbd0ab661	-0.033865336

exp_avg_sq f4 [8]
0	0x3452ccb2	1.9632242e-07
1	0x38dd8970	0.00010563701
2	0x38bfce1b	9.14598e-05
3	0x31f137c0	7.020361e-09
4	0x368f62e6	4.2732454e-06
5	0x36a7801a	4.991901e-06
6	0x36f52736	7.3061337e-06
7	0x3819da94	3.668161e-05

exp_avg f4 [8]
0	0x3b871afd	0.0041230903
1	0xbcf1e871	-0.029529782
2	0x3ce1a98d	0.027546668
3	0xbb9d2a17	-0.0047962773
4	0x3d1fd54b	0.03902177
5	0x3d264cac	0.040600464
6	0xbd76f125	-0.060288567
7	0x3d7bea92	0.061503

exp_avg_sq f4 [8]
0	0x3507f0e4	5.064196e-07
1	0x37d7f468	2.5743808e-05
2	0x37bbf036	2.2403994e-05
3	0x35355fbf	6.7567083e-07
4	0x383c7c5e	4.493852e-05
5	0x384bb180	4.856428e-05
6	0x38e0ce6e	0.00010719603
7	0x38e9c38f	0.000111467314
