saved/gan/slwee5lf/checkpoints/epoch=0-step=14.ckpt (torch, 21906 bytes, 39 tensors)

generator.fc1.weight f4 [16, 7]
0	0x3ebc86cd	0.36821595
1	0xbf375c6c	-0.716254
2	0xbe46a671	-0.1939943
3	0x3f2a4942	0.6651803
4	0x3ef8e718	0.4861381
5	0xbe6937f0	-0.22775245
6	0x3e859018	0.26086497
7	0xbe18d14e	-0.14923593
8	0x3f213aea	0.6298052
9	0x3eeca099	0.46216276
10	0xbe0661f5	-0.13123305
11	0xbcb29f78	-0.021804556
12	0x3e8da9db	0.27668652
13	0xbef58b99	-0.47958067
14	0xbecef12d	-0.40418378
15	0xbf4704c6	-0.7774166
16	0xbe9b6e6a	-0.30357677
17	0xbedacf07	-0.42736074
18	0xbe932f61	-0.28747085
19	0x3e23f888	0.16012776
20	0xbe0955c4	-0.13411623
21	0x3e9ec8a6	0.31012458
22	0xbe8989fe	-0.26863092
23	0x3f86ccb2	1.0531218
24	0xbe5406f9	-0.20705785
25	0xbf715eec	-0.94285464
26	0x3e762301	0.2403679
27	0x3f4b2f67	0.79369205
28	0xbea8af7f	-0.32946393
29	0xbd9122aa	-0.0708669
30	0x3eecf79c	0.4628266
31	0x3f194419	0.59869534
32	0xbeb9a480	-0.36258316
33	0xbe3ff1e9	-0.18744625
34	0xbf885634	-1.0651307
35	0x3f8a2c78	1.0794821
36	0x3e8c906c	0.27453935
37	0xbe977ccc	-0.295874
38	0xbc8b75d4	-0.017023958
39	0x3d6c3a05	0.05767252
40	0xbd986b99	-0.074423976
41	0xbc6cd9ba	-0.014456207
42	0x3f44a06e	0.76807296
43	0x3eac6ce6	0.33676833
44	0xbe0fceaa	-0.1404368
45	0xbe8f1213	-0.27943477
46	0xbed8cfa0	-0.42345905
47	0xbe570469	-0.20997776
48	0x3e0ab2e8	0.1354481
49	0x3e0570eb	0.13031356
50	0xbe0db666	-0.1383911
51	0x3f6c25f0	0.9224539
52	0xbe3a04c5	-0.18165882
53	0xbf59a5ba	-0.85018504
54	0x3ef546ed	0.47905675
55	0x3eb6b4f5	0.35684934
56	0x3f3497ce	0.70544136
57	0x3dfecb5b	0.12441131
58	0xbf4e909d	-0.8068941
59	0xbe70e64c	-0.23525351
60	0x3d13ae5d	0.036054958
61	0x3f2bd14e	0.6711625
62	0x3e3f06cd	0.18654938
63	0x3f16cafe	0.5890349
64	0xbd8bb2bd	-0.06821201
65	0x3f1dfd8a	0.61714995
66	0xbe1a4db2	-0.15068701
67	0x3ee6727f	0.4500923
68	0x3ea47481	0.32120135
69	0xbea96163	-0.33082113
70	0x3d64659b	0.05576096
71	0xbf3e7e02	-0.7441102
72	0xbf125a61	-0.5716916
73	0xbead0214	-0.33790648
74	0xbe3dbb5b	-0.18528502
75	0xbf8a335c	-1.0796924
76	0xbe88ddb8	-0.26731658
77	0x3eb800ad	0.35938016
78	0xbf0df1fe	-0.55447376
79	0x3e240535	0.16017611
80	0xbd5c4dd2	-0.053785153
81	0xbe8966a4	-0.2683612
82	0x3ebbd2c8	0.3668425
83	0x3f486787	0.7828297
84	0x3df0e42b	0.117622696
85	0xbda45a54	-0.08025041
86	0x3efed962	0.49775225
87	0x3e5869b0	0.21134067
88	0xbe57eb54	-0.21085864
89	0xbe0d82a1	-0.13819362
90	0xbf3d0f35	-0.7385133
91	0xbeb265a9	-0.34843186
92	0xbe4899d4	-0.19589931
93	0xbddc9b9f	-0.1077187
94	0xbf7b9fd8	-0.9829078
95	0xbf3f2e8e	-0.7468041
96	0xbd3e2500	-0.046422005
97	0xbf47f6bd	-0.7811087
98	0xbee04a5a	-0.43806726
99	0x3ed101ae	0.40821594
100	0xbf03b877	-0.51453346
101	0xbe8e9359	-0.27846792
102	0x3eeddfd4	0.4645983
103	0x3e005679	0.12532987
104	0x3f059bfa	0.52191126
105	0xbda0cf98	-0.07852095
106	0x3f59874b	0.84972066
107	0x3e01c374	0.12672216
108	0x3f122fb4	0.5710404
109	0x3eb6adad	0.3567938
110	0x3f44471f	0.7667102
111	0x3d68132f	0.05665892

generator.fc1.bias f4 [16]
0	0xbd75eb6d	-0.060038973
1	0xbeb17ac6	-0.3466398
2	0x3ea6122d	0.32435742
3	0x3c958c8b	0.018255493
4	0xbebded1c	-0.37094963
5	0x3e01805f	0.12646626
6	0x3e558a49	0.20853533
7	0xbe0508f1	-0.12991692
8	0xbdac42f2	-0.08411206
9	0x3e65aa2b	0.22428195
10	0x3e6d40a5	0.23169191
11	0xbd80f75b	-0.06297179
12	0x3dfbc36e	0.12293135
13	0x3d500dbf	0.05079436
14	0xbe8c4501	-0.27396396
15	0xbe827382	-0.2547875

generator.fc2.weight f4 [8, 16]
0	0xbed97022	-0.42468363
1	0x3db5092e	0.088396415
2	0x3e96487b	0.29352173
3	0xbebaa060	-0.3645048
4	0xbeb6d3e9	-0.3570855
5	0x3f019cc8	0.50629854
6	0x3dd088bf	0.10182332
7	0x3e1cf707	0.15328608
8	0xbe80151d	-0.25016108
9	0xbe3ae1ef	-0.1825025
10	0xbefe656a	-0.49686748
11	0xbf1b59e9	-0.60684067
12	0x3d881195	0.066439785
13	0xbe381a5b	-0.17978804
14	0xbe84fa9c	-0.2597245
15	0x3ec8f203	0.3924714
16	0xbe8397b1	-0.2570167
17	0xbe366d77	-0.17815195
18	0xbf0e0b22	-0.5548574
19	0xbe0595a4	-0.13045365
20	0x3ed9b677	0.42522022
21	0x3dc1f87d	0.094712235
22	0x3e5c3844	0.21505839
23	0xbf13642b	-0.5757472
24	0xbed2f7aa	-0.41204578
25	0x3e12bc83	0.14329724
26	0x3ee5ba5d	0.44868746
27	0x3d713760	0.0588907
28	0x3e201d76	0.15636238
29	0xbee11a0b	-0.43965182
30	0xbee19deb	-0.44065794
31	0x3c51de26	0.012809312
32	0xbe50b29a	-0.20380631
33	0xbefe84a8	-0.49710584
34	0xbe92228d	-0.28541985
35	0x3c8d8807	0.017276777
36	0x3edb29a0	0.42805195
37	0xbe2df5d4	-0.16988307
38	0x3ea8aa75	0.32942548
39	0xbdebb58a	-0.11509235
40	0xbec08109	-0.37598446
41	0xbf3fca24	-0.7491782
42	0xbf06443d	-0.52447873
43	0xbebf3205	-0.3734285
44	0xbe9494f9	-0.29019907
45	0xbe661153	-0.22467546
46	0xbe2403a3	-0.16017012
47	0x3dea93f2	0.114539996
48	0x3eaf63de	0.3425588
49	0xbe6261bf	-0.221076
50	0x3dbfc94e	0.09364568
51	0xbd60b78f	-0.054862555
52	0xbe48b1d4	-0.19599086
53	0xbd5200de	-0.05127036
54	0xbe571619	-0.21004523
55	0x3f0a6813	0.54065055
56	0x3eab227d	0.3342475
57	0x3dbd95f3	0.09257116
58	0xbe8186bc	-0.25298107
59	0xbef6691d	-0.4812707
60	0xbf3cdca4	-0.7377417
61	0x3e0cad99	0.13738097
62	0x3f13dd27	0.57759327
63	0x3d87d627	0.06632643
64	0x3dce99c5	0.10087923
65	0x3e4923c0	0.19642544
66	0x3b8e133e	0.00433579
67	0x3e1dfe9b	0.15429156
68	0x3e026ebe	0.12737557
69	0xbe60057d	-0.21877094
70	0xbe424f44	-0.1897555
71	0x3f71c963	0.94447917
72	0xbe179a29	-0.14804901
73	0xbe32c6ae	-0.17458603
74	0x3e5e9c58	0.21739328
75	0x3eb20407	0.34768698
76	0x3e55f062	0.2089248
77	0x3e9ca40c	0.30593908
78	0xbcbbbf7c	-0.022918455
79	0xbee15d80	-0.44016647
80	0x3f35d93a	0.71034586
81	0x3f424582	0.7588731
82	0x3e84d72f	0.25945422
83	0xb996a978	-0.00028736494
84	0xbf2fa21f	-0.6860675
85	0xbcd9be31	-0.026579948
86	0x3e2a8293	0.16651373
87	0xbe04d04d	-0.12970085
88	0x3c140bdc	0.009036031
89	0x3ebded36	0.3709504
90	0x3ed3b983	0.41352472
91	0x3f078d74	0.52950215
92	0x3eb573df	0.35439965
93	0x3e51e508	0.20497525
94	0xbd4aeb96	-0.04954108
95	0x3e680752	0.22659042
96	0xbe32a52c	-0.1744582
97	0x3e964c33	0.2935501
98	0x3ebda58f	0.37040374
99	0xbcf009d4	-0.029301561
100	0x3e1bf571	0.15230347
101	0xbf0e977f	-0.55699915
102	0xbe6b4f62	-0.22979501
103	0x3e20807f	0.15674017
104	0xbe0fde0e	-0.14049551
105	0x3ef349a1	0.47517112
106	0xbc190840	-0.009340346
107	0x3dd05dcb	0.101741396
108	0xbdcb371a	-0.09922619
109	0xbf29bbd1	-0.6630221
110	0x3d8a1403	0.06742098
111	0x3e8fd8cf	0.280951
112	0xbd9d523a	-0.07681699
113	0xbea5cbf7	-0.32382175
114	0xbe3cd101	-0.18439104
115	0xbd85622e	-0.06512867
116	0x3dff59a4	0.124682695
117	0x3e4da899	0.20083846
118	0x3e0698a1	0.13144161
119	0x3d8579fa	0.06517406
120	0x3f3e4bc7	0.7433438
121	0xbecae235	-0.39625707
122	0x3d6c0127	0.057618286
123	0x3f026b7e	0.5094527
124	0xbe3c5014	-0.18389922
125	0x3ea21ab5	0.31661
126	0x3ec54f6b	0.38537154
127	0xbdd39395	-0.103308834

generator.fc2.bias f4 [8]
0	0xbe2e4e49	-0.17022051
1	0xbca792bf	-0.020455716
2	0x3e40ec6b	0.18840186
3	0xbda557d2	-0.08073391
4	0x3d291f23	0.04128946
5	0xbe0cffbd	-0.13769431
6	0x3e208aa5	0.15677889
7	0xbda732b6	-0.08163969

generator.fc3.weight f4 [16, 8]
0	0xbf51a1e3	-0.81887645
1	0x3e347dcc	0.17626113
2	0xbdb7bdd7	-0.08971756
3	0xbe543d2c	-0.2072646
4	0xbe8279f2	-0.25483662
5	0x3e99f0d2	0.30066544
6	0xbf06bea6	-0.52634656
7	0xbdf46507	-0.11933332
8	0x3f30e7ec	0.69103885
9	0x3ed061ff	0.40699765
10	0xbec449a6	-0.3833744
11	0x3ef64c25	0.4810497
12	0xbf163f0e	-0.58689964
13	0xbe8d6931	-0.27619317
14	0xbe8091bb	-0.25111184
15	0xbed4dfa8	-0.41576886
16	0x3f6cdb35	0.92521983
17	0xbf2a95fb	-0.666351
18	0x3f1dd360	0.6165066
19	0xbded4783	-0.115859054
20	0xbf0bc3b4	-0.54595494
21	0x3f65570a	0.89585936
22	0x3f2a5839	0.6654087
23	0xbb11ee94	-0.0022267448
24	0x3e4441ab	0.19165675
25	0x3ed69b46	0.4191534
26	0x3eea6182	0.45777518
27	0xbdc8fa9a	-0.098134235
28	0xbec9f253	-0.3944269
29	0xbf115d64	-0.5678313
30	0x3efa42d5	0.48879114
31	0x3f164a40	0.58707047
32	0xbe1a56bc	-0.15072149
33	0x3ea0a8b6	0.31378716
34	0xbe80ebc7	-0.25179884
35	0x3d6cc9bb	0.057809573
36	0x3eb073e2	0.34463412
37	0xbf371a19	-0.71524197
38	0x3f8bc400	1.091919
39	0xbe88c924	-0.26715958
40	0x3f39a4e7	0.72517246
41	0xbf19af0b	-0.6003272
42	0x3f918b50	1.137064
43	0xbe498b9d	-0.19682164
44	0x3e238a83	0.15970807
45	0xbed6a63b	-0.419237
46	0x3ee3ac86	0.44467562
47	0x3d993ebe	0.0748267
48	0x3e91d528	0.28482938
49	0x3f575957	0.84120697
50	0x3eb8e2d3	0.36110553
51	0x3e7c42c7	0.24634849
52	0xbf8b1f4f	-1.086893
53	0x3f14fb1b	0.58195657
54	0xbd241951	-0.040063206
55	0x3d97b897	0.074082546
56	0xbdcbc9d4	-0.09950605
57	0x3e8b9493	0.2726179
58	0xbf7fb9b7	-0.99892753
59	0x3e8bbeed	0.27294102
60	0x3e9f0581	0.31058887
61	0x3f9bd9a7	1.2175797
62	0x3dcf39e9	0.10118467
63	0x3f246bcb	0.6422698
64	0xbcebfe47	-0.028807772
65	0xbef750ce	-0.48303837
66	0x3e9daaac	0.30794275
67	0xbe91fd3e	-0.2851352
68	0xbe2bf8ff	-0.16794203
69	0x3ee68269	0.4502137
70	0xbeb39dd6	-0.35081357
71	0x3e8500bc	0.25977123
72	0xbec4767c	-0.38371646
73	0x3e7edefd	0.24889751
74	0x3e8db684	0.2767831
75	0x3cc756bf	0.024333356
76	0xbec3223d	-0.3811206
77	0xbc729bf2	-0.014807688
78	0x3eabb089	0.33533123
79	0xbf7506d2	-0.9571353
80	0xbd8b2037	-0.06793254
81	0x3f830e4c	1.0238738
82	0xbea8e033	-0.3298355
83	0xbf35545f	-0.70831865
84	0xbdb7c64b	-0.08973368
85	0x3f197ae0	0.5995312
86	0xbe3b3d09	-0.18285002
87	0xbf422853	-0.7584278
88	0xbe844615	-0.25834718
89	0xbedc6670	-0.43046904
90	0x3e7bc5c8	0.24587166
91	0x3cd5818c	0.02606275
92	0xbf508c5e	-0.81464183
93	0x3f97f798	1.1872435
94	0x3e26a8ab	0.16275279
95	0xbf965602	-1.1744998
96	0x3f1bee47	0.6091046
97	0xbf457f2d	-0.7714718
98	0x3e6b0c01	0.22953798
99	0xbf3b4461	-0.7315121
100	0xbe16ab2a	-0.14713731
101	0xbeed1a16	-0.46308964
102	0xbe0e4e59	-0.13897075
103	0x3e0d0f86	0.13775453
104	0x3ec60227	0.38673517
105	0x3d1a8002	0.037719734
106	0x3e081f57	0.13293205
107	0xbe6a0ab8	-0.22855651
108	0xbf219550	-0.6311846
109	0xbf278376	-0.6543497
110	0x3c6ea09f	0.014564662
111	0x3f04e4d7	0.5191168
112	0xbeb13b2a	-0.3461545
113	0xbe779f94	-0.24181968
114	0xbe0daf63	-0.13836436
115	0xbad1701c	-0.0015978846
116	0xbe9b2045	-0.30298057
117	0x3d5c2113	0.05374248
118	0xbe82f125	-0.25574604
119	0xbe84cda8	-0.25938153
120	0x3c9fc66b	0.019503793
121	0x3ebb6ab6	0.3660485
122	0x3ea6788e	0.3251385
123	0xbe2750d9	-0.16339435
124	0xbe3c912e	-0.18414757
125	0x3e54c259	0.20777263
126	0x3e9da749	0.3079169
127	0x3e14dfb7	0.14538465

generator.fc3.bias f4 [16]
0	0xbda7d58a	-0.08195026
1	0xbead4073	-0.33838233
2	0x3e92ae41	0.2864857
3	0xbe9c907f	-0.30578992
4	0x3e8db7ff	0.2767944
5	0x3e82e48f	0.25565
6	0x3d2d57fd	0.04232024
7	0xbdfcb00a	-0.12338264
8	0x3e8cfa03	0.27534494
9	0x3e261c27	0.16221677
10	0x3e110f95	0.141661
11	0xbd3ef605	-0.04662134
12	0xbc1ecca2	-0.009692343
13	0xbe7187cb	-0.23586957
14	0xbd9957be	-0.074874386
15	0xbe7e407a	-0.24829283

generator.fc4.weight f4 [7, 16]
0	0xbe252c9b	-0.16130297
1	0x3ebaa7af	0.36456057
2	0xbf59f9af	-0.8514661
3	0xbee39505	-0.4444963
4	0x3ebc05da	0.36723214
5	0x3f0331bd	0.5124777
6	0x3e6f9e58	0.23400247
7	0x3d5c0729	0.053717766
8	0x3f621179	0.8830791
9	0xbe9d8372	-0.30764347
10	0xbed78b12	-0.4209829
11	0x3e950144	0.29102528
12	0xbed6afde	-0.4193105
13	0xbef1ea3e	-0.47249025
14	0x3d2d1916	0.042260252
15	0x3f29ec7d	0.6637648
16	0xbe1a93b5	-0.15095408
17	0xbd7b93b2	-0.06142015
18	0x3e2ed6cf	0.1707413
19	0x3f242a82	0.6412736
20	0x3e6da4d3	0.23207407
21	0x3d099ab6	0.03359481
22	0x3dacdac7	0.08440166
23	0x3defd149	0.1170984
24	0x3e6fc680	0.23415565
25	0x3e5252c9	0.20539393
26	0xbd9661e1	-0.07342888
27	0xbe7a974e	-0.2447178
28	0xbd23e260	-0.04001081
29	0xbd2555e9	-0.040365133
30	0xbecf4e90	-0.40489626
31	0x3e1e7117	0.15472828
32	0x3a4fc11c	0.0007925199
33	0x3e59c99d	0.21268316
34	0xbeef82fa	-0.46779615
35	0x3e967a95	0.29390398
36	0xbdfd4340	-0.123663425
37	0x3f1c8eeb	0.61155576
38	0xbd7651db	-0.060136657
39	0xbcda7fd3	-0.02667228
40	0xbed5c0ce	-0.4174866
41	0xbdd523f6	-0.1040725
42	0x3e900bdf	0.28134057
43	0x3e3cef96	0.1845077
44	0xbe37163b	-0.17879574
45	0xbe37e6f4	-0.17959195
46	0xbe5f6c53	-0.21818666
47	0xbdf36cb2	-0.11885966
48	0x3e9c28af	0.3049979
49	0xbe92267a	-0.2854498
50	0xbf0839d7	-0.53213257
51	0xbec25fd5	-0.3796374
52	0xbe755504	-0.23958212
53	0xbdbeff02	-0.09325983
54	0x3e906def	0.28208873
55	0x3df7caa0	0.120991945
56	0xbea9193b	-0.33027062
57	0xbe0dee8b	-0.13860528
58	0xbed307e2	-0.41216952
59	0x3d28558b	0.041097205
60	0x3e991fb8	0.29907012
61	0xbea6a55c	-0.32548034
62	0x3e43f14e	0.19135019
63	0xbf3da149	-0.74074227
64	0xbee23e3a	-0.441881
65	0xbf23e209	-0.6401678
66	0x3ddb74e2	0.10715653
67	0x3f3090a4	0.68970704
68	0x3f08024d	0.5312851
69	0x3e25e8b4	0.1620205
70	0xbe4978de	-0.19675013
71	0xbeeaa6ec	-0.45830476
72	0x3da27389	0.07932193
73	0xbe6901ca	-0.22754589
74	0x3e8a1e4c	0.2697624
75	0xbf3f4b43	-0.74724215
76	0xbf6742d0	-0.9033632
77	0x3e981a38	0.29707503
78	0xbe3e641c	-0.18592876
79	0xbe9e6a49	-0.30940464
80	0xbe027939	-0.12741555
81	0x3e307c9b	0.17235033
82	0x3ddcb62b	0.10776933
83	0x3e4e1d63	0.20128398
84	0xbd7cbc47	-0.061702993
85	0x3e7c1e8c	0.24621028
86	0xbefb2a91	-0.49055913
87	0x3b5c3b50	0.003360469
88	0xbdb96017	-0.09051531
89	0x3da4be52	0.08044113
90	0xbe8843e9	-0.2661431
91	0xbf105089	-0.56372887
92	0xbe6214a7	-0.2207819
93	0xbecb50a1	-0.39709952
94	0xbe90112a	-0.28138095
95	0x3f2c13cf	0.67217726
96	0x3eeb4a2c	0.45955026
97	0x3e4c7b25	0.19968851
98	0xbd330ce3	-0.04371346
99	0xbb2065aa	-0.002447466
100	0xbeaead61	-0.34116653
101	0xbe50dbd6	-0.20396361
102	0x3e6dec66	0.2323471
103	0x3e79c411	0.243912
104	0x3d23a3df	0.0399512
105	0x3d0b87f1	0.03406519
106	0xbf0f5a6c	-0.5599735
107	0xbe48fa28	-0.19626677
108	0x3e7a8d05	0.24467857
109	0x3e66c9b8	0.22537887
110	0xbe6b7cb8	-0.22996795
111	0x3ea7cef1	0.3277507

generator.fc4.bias f4 [7]
0	0x3e12d03f	0.14337252
1	0x3c3cdf9a	0.01152792
2	0x3e6f0d4b	0.23344915
3	0x3e1e738f	0.1547377
4	0xbe19a1e1	-0.15003158
5	0xbe2e66d3	-0.17031412
6	0xbe0b0a89	-0.13578238

generator.layer_norm_hidden_0.weight f4 [16]
0	0x3f7e3541	0.9930001
1	0x3f80a3d9	1.0050002
2	0x3f7e3541	0.9930001
3	0x3f80e563	1.0070003
4	0x3f7e3541	0.9930001
5	0x3f7e3541	0.9930001
6	0x3f7e3541	0.9930001
7	0x3f80e563	1.0070003
8	0x3f7e3541	0.9930001
9	0x3f7e3541	0.9930001
10	0x3f80e563	1.0070003
11	0x3f7e3541	0.9930001
12	0x3f80e563	1.0070003
13	0x3f7eb853	0.99500006
14	0x3f80e563	1.0070003
15	0x3f7e3541	0.9930001

generator.layer_norm_hidden_0.bias f4 [16]
0	0xbb449ba6	-0.003
1	0xbb449ba6	-0.003
2	0xbbe56043	-0.0070000007
3	0xbbe56043	-0.0070000007
4	0x3be56043	0.0070000007
5	0x3be56043	0.0070000007
6	0x3be56043	0.0070000007
7	0xbbe56043	-0.0070000007
8	0x3a83126d	0.0009999998
9	0xbba3d70b	-0.0050000004
10	0x3ba3d70b	0.0050000004
11	0x3a83126f	0.001
12	0xbb449ba6	-0.003
13	0xbbe56043	-0.0070000007
14	0xbbe56043	-0.0070000007
15	0x3be56043	0.0070000007

generator.layer_norm_hidden_1.weight f4 [8]
0	0x3f80e563	1.0070003
1	0x3f7eb853	0.99500006
2	0x3f80a3d9	1.0050002
3	0x3f80e563	1.0070003
4	0x3f7e3541	0.9930001
5	0x3f7e3541	0.9930001
6	0x3f80e563	1.0070003
7	0x3f8020c5	1.001

generator.layer_norm_hidden_1.bias f4 [8]
0	0xbbe56043	-0.0070000007
1	0x3be56043	0.0070000007
2	0xbbe56043	-0.0070000007
3	0x3ba3d70b	0.0050000004
4	0x3a83126f	0.001
5	0x3be56043	0.0070000007
6	0xbbe56043	-0.0070000007
7	0xbb449ba6	-0.003

discriminator.fc1.weight f4 [8, 7]
0	0x3f42106e	0.7580632
1	0x3bade4ff	0.0053068395
2	0x3e982125	0.29712787
3	0xbf7b0f1a	-0.9806992
4	0xbc00b76d	-0.007856232
5	0x3e269c79	0.16270627
6	0x3d60b3a3	0.054858815
7	0xbe1140b2	-0.14184836
8	0x3e88eb6a	0.26742107
9	0xbf9ecedf	-1.2406882
10	0x3d3280f2	0.043580003
11	0x3ec0dc26	0.3766796
12	0x3f06730f	0.52519315
13	0xbf17deeb	-0.5932452
14	0x3e8d53ac	0.276029
15	0xbe816bbb	-0.25277504
16	0x3e5819e6	0.2110363
17	0xbd2e3d7a	-0.042539097
18	0xbe2f772e	-0.17135307
19	0x3ea945ce	0.3306107
20	0x37d5d840	2.5492278e-05
21	0x3f5f0349	0.8711439
22	0xbee02e73	-0.43785438
23	0xbe6a6630	-0.22890544
24	0xbf390c1a	-0.7228409
25	0xbeca9316	-0.39565343
26	0xbeb7da54	-0.3590876
27	0xbed1c46c	-0.4097017
28	0xbe948b90	-0.29012728
29	0xbec6c42f	-0.3882155
30	0x3f992605	1.1964728
31	0xbeed175d	-0.46306887
32	0xbf0eecd2	-0.5583011
33	0xbd9a72e7	-0.07541447
34	0xbd828322	-0.06372668
35	0xbfa1e679	-1.264846
36	0x3e223fbe	0.15844628
37	0x3e7dc0cc	0.24780577
38	0x3e8ffec1	0.2812405
39	0x3f08e526	0.5347465
40	0x3f9a2e25	1.2045332
41	0xbec3a94d	-0.38215104
42	0x3f8c41cb	1.0957578
43	0xbc6c7e9e	-0.014434485
44	0x3ed77076	0.42077988
45	0xbe4f6acf	-0.20255588
46	0xbeaf998f	-0.34296843
47	0xbf85fb54	-1.0467324
48	0xbf047cfa	-0.517532
49	0x3ec98a8d	0.39363518
50	0xbd793363	-0.06084002
51	0xbf12899a	-0.57241213
52	0x3eb7f409	0.35928372
53	0xbd8930f9	-0.06698794
54	0xbe78db66	-0.24302444
55	0xbead3dfe	-0.3383636

discriminator.fc1.bias f4 [8]
0	0x3e1e7440	0.15474033
1	0x3e317a39	0.1733178
2	0x3d009345	0.031390447
3	0xbdfa8fcc	-0.12234458
4	0xbe6369ac	-0.2220828
5	0x3ea0912f	0.31360766
6	0x3df11e93	0.1177341
7	0xbe38939c	-0.18025059

discriminator.fc2.weight f4 [1, 8]
0	0xbe5f7d54	-0.21825153
1	0xbf41dd54	-0.75728345
2	0x3d6594c9	0.056050096
3	0x3e40e01e	0.18835494
4	0xbe37eee5	-0.17962225
5	0xbde8d3c9	-0.1136852
6	0xbd01315d	-0.031541217
7	0xbe9797ca	-0.29607993

discriminator.layer_norm_hidden_0.weight f4 [8]
0	0x3f7e3721	0.9930287
1	0x3f7e3a53	0.99307746
2	0x3f80e5ed	1.0070168
3	0x3f7e4e8d	0.9933861
4	0x3f80ddf9	1.0067741
5	0x3f7e43a4	0.9932196
6	0x3f80e665	1.0070311
7	0x3f80df2b	1.0068105

discriminator.layer_norm_hidden_0.bias f4 [8]
0	0x3bcded19	0.0062843678
1	0x3bcde084	0.006282868
2	0xbbcd8700	-0.006272197
3	0xbbcdefa2	-0.00628467
4	0x3bcdc378	0.006279405
5	0x3bcdfc09	0.0062861484
6	0x3bcd3361	0.0062622284
7	0x3bcdcd90	0.0062806085

exp_avg f4 [16, 7]
0	0x3c6fc64e	0.014634682
1	0x3c6fa2cd	0.014626217
2	0xa1e3fc8e	-1.5448969e-18
3	0x3c6fa626	0.014627015
4	0x3c6fa4d4	0.0146267
5	0x3c6f9e68	0.014625169
6	0x3c6febc5	0.014643614
7	0x3c0db075	0.008648028
8	0x3c0dab7f	0.008646845
9	0xa17b1091	-8.5064033e-19
10	0x3c0dac70	0.008647069
11	0x3c0dac73	0.008647072
12	0x3c0dab90	0.008646861
13	0x3c0def4a	0.008663008
14	0xbbfe9044	-0.0077686626
15	0xbbfe8ec6	-0.0077684848
16	0xa233def0	-2.4377046e-18
17	0xbbfe9671	-0.007769399
18	0xbbfe9034	-0.007768655
19	0xbbfe8adc	-0.007768018
20	0xbbfdf99e	-0.007750704
21	0xbbd8774d	-0.0066060186
22	0xbbd8888a	-0.0066080736
23	0xa0804bcc	-2.1734202e-19
24	0xbbd889de	-0.006608232
25	0xbbd888cf	-0.0066081057
26	0xbbd88996	-0.0066081984
27	0xbbd8d1bf	-0.0066168006
28	0xbca8dc47	-0.020612849
29	0xbca8eb36	-0.02061997
30	0xa13495f8	-6.1184854e-19
31	0xbca8ec12	-0.02062038
32	0xbca8ea5e	-0.020619567
33	0xbca8e989	-0.02061917
34	0xbca90b14	-0.020635165
35	0xbc22d6ef	-0.0099389395
36	0xbc22b1e6	-0.00993011
37	0x22054461	1.806106e-18
38	0xbc22b137	-0.009929947
39	0xbc22b2fe	-0.00993037
40	0xbc22b17c	-0.009930011
41	0xbc22fb70	-0.009947643
42	0xbbcd2026	-0.006259936
43	0xbbccc767	-0.0062493565
44	0x21b8069f	1.2470078e-18
45	0xbbccbfe6	-0.006248462
46	0xbbccc5d9	-0.006249171
47	0xbbccc540	-0.0062491
48	0xbbcd532b	-0.006266018
49	0xbcba320d	-0.022728944
50	0xbcba3ee7	-0.022735072
51	0xa2020105	-1.7618825e-18
52	0xbcba3f96	-0.022735398
53	0xbcba3e0a	-0.02273466
54	0xbcba3d83	-0.02273441
55	0xbcba3860	-0.02273196
56	0xbc302ef9	-0.010753387
57	0xbc301938	-0.0107482
58	0x21bc3639	1.2753728e-18
59	0xbc301d27	-0.010749138
60	0xbc301c9c	-0.0107490085
61	0xbc301970	-0.010748252
62	0xbc305dff	-0.010764598
63	0x3c6ff52e	0.014645858
64	0x3c6fe800	0.014642715
65	0xa1ef3e29	-1.6211724e-18
66	0x3c6fecde	0.014643876
67	0x3c6fec52	0.0146437455
68	0x3c6fe59f	0.014642148
69	0x3c70680b	0.014673243
70	0x3c8fbf0a	0.01754715
71	0x3c8fb927	0.017544342
72	0x2211303b	1.9676697e-18
73	0x3c8fbaeb	0.017545184
74	0x3c8fb943	0.017544394
75	0x3c8fb83e	0.017543908
76	0x3c8fa2ac	0.017533623
77	0x3c6bb5b8	0.014386587
78	0x3c6b94af	0.014378711
79	0xa1cbe015	-1.3815129e-18
80	0x3c6b99e6	0.014379954
81	0x3c6b97ff	0.0143795
82	0x3c6b94bc	0.014378723
83	0x3c6c015b	0.01440462
84	0x3c3f0b03	0.01166034
85	0x3c3f0ba0	0.011660486
86	0x214b8408	6.8953817e-19
87	0x3c3f0d51	0.01166089
88	0x3c3f0c1a	0.0116606
89	0x3c3f0b8f	0.011660471
90	0x3c3f2c5f	0.011668294
91	0xbb8586e7	-0.0040749195
92	0xbb859e41	-0.004077703
93	0x9fe4469e	-9.667858e-20
94	0xbb85a1a9	-0.0040781093
95	0xbb859fb9	-0.0040778783
96	0xbb859fcc	-0.004077887
97	0xbb85ba39	-0.0040810374
98	0xbc63af73	-0.013896811
99	0xbc63a21c	-0.01389363
100	0x21ac0ea5	1.165905e-18
101	0xbc63a79f	-0.013894944
102	0xbc63a560	-0.013894409
103	0xbc63a189	-0.013893493
104	0xbc640063	-0.013916108
105	0x38002dbd	3.0560175e-05
106	0x380c27ef	3.3415792e-05
107	0xa09cd9e3	-2.6571613e-19
108	0x380c72da	3.3485565e-05
109	0x380cdbd8	3.3583347e-05
110	0x380f60cf	3.4184017e-05
111	0x37f64684	2.9358322e-05

exp_avg f4 [16]
0	0x3c63fc8d	0.013915193
1	0x3bfb1090	0.0076618865
2	0x3cb3def0	0.02195689
3	0x3b004bcb	0.0019576426
4	0x3bb495f7	0.0055110413
5	0xbc854461	-0.016267957
6	0xbc38069f	-0.011232047
7	0x3c820105	0.015869627
8	0xbc3c363a	-0.011487538
9	0x3c6f3e2a	0.014602223
10	0xbc91303b	-0.017723193
11	0x3c4be015	0.012443562
12	0xbbcb8407	-0.0062108072
13	0x3a6446a0	0.0008708034
14	0xbc2c0ea6	-0.010501539
15	0x3b1cd9e3	0.0023933582

exp_avg f4 [8, 16]
0	0xba2463c8	-0.0006270972
1	0xbb258504	-0.0025256285
2	0x3ae9633a	0.0017806061
3	0xbae9a7f1	-0.001782654
4	0xba2b192f	-0.0006526885
5	0x3ab59c1f	0.0013855732
6	0xb9185de5	-0.00014530828
7	0xbb06328a	-0.00204769
8	0x398ddcc4	0.000270581
9	0x3a96750a	0.0011478972
10	0x3b2b8f32	0.002617788
11	0xba89f74d	-0.0010525972
12	0xba020628	-0.0004960024
13	0x3b2318aa	0.0024886527
14	0xbaf1b1ad	-0.0018439792
15	0x3abc28be	0.0014355404
16	0x3c2a8ea7	0.0104099875
17	0x3c917a22	0.017758433
18	0xbcd7a075	-0.026321629
19	0x3c44cc0a	0.012011537
20	0xbadb5c34	-0.0016735853
21	0x3b60fe55	0.0034331281
22	0x3bd601e6	0.006530988
23	0x3c59dec7	0.013297743
24	0x3c00287c	0.007822152
25	0x3b412ede	0.0029477398
26	0xbd107765	-0.035270113
27	0x3c3d785b	0.0115643395
28	0xbb351d82	-0.0027635996
29	0xbd2352dd	-0.039873946
30	0x3c7a45ce	0.015275432
31	0x3ba9c6db	0.005181176
32	0xbc114720	-0.008867055
33	0xb8920723	-6.963152e-05
34	0x3c9d9d54	0.019240059
35	0x3abcffaf	0.0014419461
36	0x3c387039	0.011257225
37	0xbc73baba	-0.014876062
38	0xbb859d61	-0.004077599
39	0x3aef6cb2	0.0018266647
40	0xbc7e4810	-0.015520111
41	0xbc2831cb	-0.010265778
42	0x3cc53521	0.024073185
43	0xbbd6d1ee	-0.0065557873
44	0x3c0939ba	0.0083755795
45	0x3cde2f10	0.02712205
46	0xbbd2396d	-0.006415537
47	0xbcd933b6	-0.026513916
48	0xbb9dac7d	-0.004811822
49	0x3b8f7e2e	0.0043790555
50	0x3c1aaff1	0.009441362
51	0x3b7e79c7	0.003882991
52	0x3c14adb9	0.009074622
53	0xbc4bf550	-0.012448624
54	0xbb3d73f6	-0.002890823
55	0x3b99e984	0.0046970267
56	0xbc30a271	-0.010780917
57	0xbc15a255	-0.009132941
58	0x3c39ac2a	0.011332551
59	0xbb295c5f	-0.002584241
60	0x3bcad4ea	0.006189932
61	0x3c66b438	0.014081053
62	0xba1e973c	-0.00060497574
63	0xbca0b85e	-0.019619163
64	0xbb8103f8	-0.0039372407
65	0xbb430dae	-0.0029762792
66	0x3c0c12b1	0.008549378
67	0xbb0ffb42	-0.002196983
68	0x3b89173c	0.004183678
69	0xbb9162cb	-0.004436826
70	0xbb7d1d54	-0.0038622217
71	0xbb06e417	-0.002058273
72	0xbb9ec2fd	-0.0048450218
73	0xbb94e0f5	-0.0045434185
74	0x3c4bdee6	0.01244328
75	0xbb72b794	-0.003703569
76	0x3b0d5eb4	0.002157134
77	0x3c7e9402	0.0155382175
78	0xbb840c2a	-0.0040297704
79	0xbbce7089	-0.0063000363
80	0x3ccacd14	0.024755992
81	0xbb4eaa91	-0.003153477
82	0xbd56acf2	-0.052411027
83	0xbba6e145	-0.005092772
84	0xbd100b6d	-0.035167146
85	0x3d3a9651	0.04555351
86	0x3c828473	0.015932297
87	0xbbe2c351	-0.006920256
88	0x3d352cae	0.044232063
89	0x3d0f75c4	0.03502442
90	0xbd8b499a	-0.06801148
91	0x3c91355b	0.017725637
92	0xbcc37ca4	-0.023863144
93	0xbda26d9e	-0.07931064
94	0x3c79a799	0.015237712
95	0x3d995c86	0.074883506
96	0xbb716a2f	-0.0036836972
97	0xbc09d95d	-0.00841364
98	0x3c28f969	0.01031337
99	0xbbc331d8	-0.0059568696
100	0xba81b644	-0.0009896238
101	0x39b1c50e	0.00033906888
102	0xbb3a777e	-0.002845257
103	0xbbdde000	-0.0067710876
104	0xbac5b2c3	-0.0015083182
105	0xb9a054ff	-0.00030580905
106	0x3c635405	0.013875012
107	0xbb974d8c	-0.0046173986
108	0x39410e6f	0.00018411291
109	0x3c797088	0.015224583
110	0xbbd446fc	-0.0064781886
111	0x3ac17efe	0.0014762578
112	0xbb4e62bb	-0.0031491953
113	0x3b0dd7a9	0.0021643436
114	0x3bb8dd92	0.0056416476
115	0x3af3de7a	0.0018605732
116	0x3bd94b8b	0.00663132
117	0xbbec54f4	-0.0072122756
118	0xbb151c57	-0.0022752488
119	0x3b266677	0.0025390664
120	0xbbd9a384	-0.006641807
121	0xbbb731fe	-0.0055906763
122	0x3c0104e5	0.007874702
123	0xbafd3282	-0.0019317421
124	0x3b6259c9	0.003453838
125	0x3c1fa431	0.009743736
126	0xba86f417	-0.0010296133
127	0xbc440c18	-0.011965774

exp_avg f4 [8]
0	0x3b8c8210	0.0042879656
1	0xbcfe1623	-0.031016415
2	0xb98555aa	-0.00025431562
3	0xbbf60bd1	-0.007508733
4	0x3bc9c3ae	0.00615736
5	0x3b7ec206	0.0038872971
6	0x3c746b57	0.01491817
7	0xbb5a6f54	-0.0033330517

exp_avg f4 [16, 8]
0	0x3c21b3d1	0.009869532
1	0x367c8491	3.762809e-06
2	0x3b404cd0	0.0029342659
3	0x3c14e0ff	0.009086846
4	0xbd141724	-0.03615488
5	0x3b8643dd	0.0040974454
6	0x3bf10472	0.0073552663
7	0x3b46c5dd	0.0030330338
8	0xbc26e3cc	-0.010186147
9	0x3a93da97	0.0011280355
10	0x3b76a19f	0.0037632955
11	0xbb8be846	-0.0042696325
12	0x3bc613e0	0.0060448498
13	0x3a58e474	0.0008273788
14	0x3ac9199e	0.0015342718
15	0x3a93d709	0.0011279295
16	0x3c24b970	0.010053977
17	0xbaf97c75	-0.0019034283
18	0xbb25e38d	-0.0025312633
19	0x3bc40cd4	0.0059829745
20	0xbc191521	-0.009343416
21	0xbb049321	-0.0020229297
22	0xb9764ae4	-0.00023488287
23	0x3884e389	6.336632e-05
24	0xbc0d2020	-0.008613616
25	0x3a9afff0	0.0011825543
26	0xba1361c8	-0.00056221755
27	0xbbf05c6f	-0.0073352377
28	0x3cb67433	0.022272205
29	0xbb0439f6	-0.002017615
30	0xbb46f7e4	-0.0030360157
31	0xbb04531d	-0.002019114
32	0xbc3f4729	-0.011674681
33	0x380ab983	3.3074535e-05
34	0xbb6c7b13	-0.00360841
35	0xbc37a72b	-0.01120929
36	0x3d2cc5c6	0.0421808
37	0xbb6f1876	-0.0036483086
38	0xbc0db565	-0.008649205
39	0xbb71d287	-0.0036899166
40	0xbccc0e2e	-0.024909105
41	0x3b747042	0.0037298356
42	0x3b4a6fe6	0.003088945
43	0xbc8f977e	-0.017528292
44	0x3d2e3d10	0.042538702
45	0xba8b0d57	-0.0010608834
46	0xbb76b0e9	-0.0037642068
47	0xbb18669b	-0.0023254517
48	0xbc192621	-0.00934747
49	0x3a02119d	0.0004961731
50	0x3ae52ef9	0.0017485312
51	0xbba66793	-0.005078265
52	0x3c596acc	0.013270091
53	0xb8c9e219	-9.626541e-05
54	0xba9acf0d	-0.0011810974
55	0x38fe3e29	0.00012123242
56	0x3bf1c05d	0.007377668
57	0xb70e3971	-8.477234e-06
58	0x3b27a7fc	0.0025582304
59	0x3bedd2ed	0.0072578103
60	0xbcde27e1	-0.027118625
61	0x3b0389ad	0.0020071075
62	0x3bb210f3	0.0054341494
63	0x3b2dfbb1	0.0026547725
64	0xbca5e4be	-0.020250674
65	0x3a96a106	0.001149208
66	0x3b013840	0.0019717366
67	0xbc5fa23d	-0.01364952
68	0x3d29e37d	0.041476715
69	0xbb860a98	-0.0040906183
70	0xbbaf7937	-0.005355026
71	0xbabc9d23	-0.0014390092
72	0x3bca4645	0.0061729276
73	0xb9b51852	-0.0003454113
74	0xbacb9012	-0.0015530607
75	0x3b3ba480	0.0028631985
76	0xbbdfe674	-0.006832892
77	0xb77a80fa	-1.4931191e-05
78	0x39557896	0.00020358185
79	0xb9effb31	-0.00045772785
80	0x3c29acac	0.01035611
81	0x399f80e0	0.00030422863
82	0x3b0ce6a7	0.0021499784
83	0x3c0a0c7d	0.008425829
84	0xbd03d222	-0.03218282
85	0x3b213e58	0.002460381
86	0x3bcb896b	0.00621145
87	0x3b20b9a2	0.0024524708
88	0x3c38fffc	0.0112915
89	0xb9c84fc3	-0.000382064
90	0xbb061857	-0.0020461285
91	0x3bc8b526	0.00612511
92	0xbca471b3	-0.020073747
93	0x3b74915c	0.0037318086
94	0x3ac2ad7a	0.0014852725
95	0xb7fb0beb	-2.9927081e-05
96	0x3cdb4ea6	0.026770901
97	0xbaf1acbf	-0.0018438323
98	0xbb75a303	-0.0037481196
99	0x3c8b3fe4	0.016998239
100	0xbd4050d5	-0.046952087
101	0x3b66e33f	0.0035230664
102	0x3b8d4c0e	0.004312045
103	0x3a9bb154	0.001187841
104	0x3c22bac0	0.00993222
105	0xba755f7a	-0.00093602354
106	0xbb23d141	-0.0024996551
107	0x3ba6b8a3	0.0050879284
108	0xbc325e68	-0.010886766
109	0xb991ceb0	-0.0002781055
110	0x380f62c8	3.4185854e-05
111	0xb9cf0c67	-0.00039491357
112	0x3bf8b677	0.007590111
113	0xba94d69f	-0.0011355466
114	0xbb29bf01	-0.00259012
115	0x3b8196cf	0.0039547454
116	0xbc115856	-0.008871159
117	0x3af2a702	0.0018512907
118	0xb9a8d52e	-0.00032202288
119	0xb9e5ac14	-0.00043806492
120	0xbbd677d5	-0.006545047
121	0xba5a0f2a	-0.00083182997
122	0x3ad26260	0.0016051047
123	0xbb0b7ea5	-0.0021285203
124	0x3c17c0d7	0.009262285
125	0xbaefcb78	-0.0018294891
126	0xb9e5ba61	-0.00043817147
127	0x3a6417eb	0.0008701074

exp_avg f4 [16]
0	0xbc396635	-0.011315872
1	0xbc18b07e	-0.009319423
2	0x3bf6b425	0.007528799
3	0x3b4bd5ac	0.00311027
4	0x3c502d33	0.012706089
5	0xbbb3d0f8	-0.0054875575
6	0xbb5814a1	-0.003297128
7	0xbc0f463f	-0.008744775
8	0x395e410d	0.00021195803
9	0x3b657d5a	0.0035017342
10	0xbc0ae492	-0.008477347
11	0x3ad5e1d4	0.0016317912
12	0x3b899449	0.004198585
13	0x3bc3034d	0.005951321
14	0x3b9fc15a	0.004875344
15	0xbb12994b	-0.0022369202

exp_avg f4 [7, 16]
0	0x3c84d61e	0.01621538
1	0xbce1aa64	-0.027547069
2	0xbd00a427	-0.031406548
3	0x3aecbc0f	0.0018061417
4	0x3cc65e01	0.024214746
5	0x3b6eab83	0.0036418147
6	0xbcf6ef8f	-0.030143527
7	0x3c71e118	0.014763139
8	0x3c130c9f	0.008975177
9	0x3bd26f22	0.0064219395
10	0x3c77f4dc	0.015134063
11	0xbc26ccec	-0.010180693
12	0x3ac55a7d	0.0015056875
13	0xbc47e2d5	-0.012200077
14	0x3c1ad951	0.009451226
15	0x3c1baeb4	0.009502102
16	0x3bda0658	0.0066535883
17	0xbc43c8b2	-0.011949705
18	0xbc66e4f7	-0.014092675
19	0xbb1db2f4	-0.0024062963
20	0x3caa38dc	0.020779066
21	0x3b41ad50	0.0029552765
22	0xbc81f9fe	-0.015866276
23	0x3bfbd90e	0.007685787
24	0x3b7526f5	0.0037407253
25	0x3ab13e08	0.0013522515
26	0x3c3c9ac4	0.011511508
27	0xbc0b7c26	-0.008513486
28	0x3ad2db95	0.0016087169
29	0xbbf36df4	-0.007428879
30	0x3b317e14	0.0027083205
31	0x3aaa9c31	0.0013016519
32	0x3aaeaec5	0.0013327232
33	0xbadd0784	-0.0016863202
34	0xbb0fb828	-0.0021929834
35	0x3b72ad2c	0.0037029488
36	0xbc19496a	-0.009355882
37	0xbb1ef5fa	-0.00242555
38	0x3afb717f	0.0019183605
39	0xba82c3e2	-0.000997659
40	0xb9b336a3	-0.00034182248
41	0x3b364324	0.0027811015
42	0xbb096b7e	-0.0020968611
43	0x3b9a5157	0.0047094035
44	0xbade5115	-0.001696142
45	0x3a2113c5	0.00061446085
46	0x3af19906	0.0018432445
47	0x3b814b0a	0.003945713
48	0x3bff1cbc	0.007785408
49	0xbc57f8a5	-0.01318184
50	0xbc75a994	-0.014994044
51	0xbbb2b3ce	-0.0054535633
52	0x3caa746f	0.020807473
53	0x3a8b4fdf	0.0010628662
54	0xbc883c02	-0.016630176
55	0x3c44f5de	0.01202151
56	0x3b945297	0.004526447
57	0x3a63720d	0.00086763577
58	0x3c8a4b8f	0.016881732
59	0xbbd969ac	-0.0066349115
60	0x3a14b226	0.0005672298
61	0xbc26fad7	-0.010191641
62	0x3b155750	0.0022787638
63	0x39af1006	0.0003339054
64	0x3c62b588	0.013837226
65	0xbcce4a6e	-0.025181975
66	0xbcee1d02	-0.029066566
67	0xbb6d287c	-0.003618746
68	0x3d23222c	0.03982751
69	0x3bbbc108	0.005729798
70	0xbd031a67	-0.0320076
71	0x3c76d3db	0.015065159
72	0x3bf4c32e	0.0074695563
73	0x3b63c78d	0.0034756393
74	0x3cb6b232	0.022301767
75	0xbc848dd5	-0.016180912
76	0x3b3da042	0.0028934632
77	0xbc6a37b8	-0.014295511
78	0x3bc83936	0.0061103357
79	0x3b74f6c4	0.003737853
80	0x3c386ecf	0.011256888
81	0xbca3b72c	-0.019984804
82	0xbcbcbbe6	-0.023038816
83	0xba5b2145	-0.00083591446
84	0x3ce1bdb3	0.027556276
85	0x3b8897bc	0.004168479
86	0xbccaacba	-0.024740566
87	0x3c305fb0	0.010765001
88	0x3bc5d9a5	0.006037908
89	0x3b742783	0.0037254996
90	0x3c5e7f3f	0.0135801425
91	0xbc37612d	-0.011192602
92	0x3b0bd7ca	0.0021338337
93	0xbc29a617	-0.01035454
94	0x3bc6ba0c	0.006064659
95	0x3ba2446e	0.004952005
96	0xb954041f	-0.00020219431
97	0x3a1fdc93	0.0006098237
98	0x3996598a	0.0002867694
99	0x3ba9c93c	0.0051814597
100	0xbbeb6feb	-0.0071849725
101	0x395236ee	0.00020047624
102	0x3b3a5b39	0.002843572
103	0xbb9de538	-0.004818585
104	0xb9d364ae	-0.00040320068
105	0x3af31ab7	0.001854739
106	0xbc13205d	-0.008979884
107	0x3ab625df	0.0013896785
108	0x38c05146	9.170412e-05
109	0x3b7208b1	0.003693145
110	0x3afc7b0d	0.0019262746
111	0x3b66cff8	0.0035219174

exp_avg f4 [7]
0	0xbc094bf0	-0.008379921
1	0x3b3da638	0.0028938185
2	0xbc023879	-0.007948034
3	0x3ba5ee65	0.0050638192
4	0x3b6bef45	0.003600077
5	0xbaa11a78	-0.0012291213
6	0xbbfbcec4	-0.0076845605

exp_avg f4 [16]
0	0x3bf30b91	0.0074171503
1	0xbb441ce9	-0.0029924458
2	0x3cea74a9	0.028620081
3	0xbb441213	-0.0029918
4	0x3d78fdd3	0.06078894
5	0x3ba7cc92	0.005120822
6	0x3c347ff2	0.011016833
7	0xbc435a1a	-0.011923337
8	0x3b58ce56	0.003308197
9	0x3caa67ea	0.020801503
10	0xbd82c9a0	-0.06386113
11	0x3cf5ecf1	0.030020209
12	0xbc9ca45b	-0.01912134
13	0x3bb0e281	0.005398095
14	0xbc2e5446	-0.01064021
15	0x3ce23384	0.027612455

exp_avg f4 [16]
0	0x3b022eeb	0.001986439
1	0x3bd83380	0.006597936
2	0x3d0cfea2	0.034422524
3	0x3bde1382	0.006777228
4	0xbc39bcb0	-0.0113364905
5	0xbc972cb9	-0.018453943
6	0xbc344121	-0.011001856
7	0x3c9a6763	0.018848127
8	0xba9c14bf	-0.0011908038
9	0x3ba5fe9e	0.005065753
10	0xbbd8a247	-0.006611142
11	0xbaec2af2	-0.001801817
12	0x3b8fe22b	0.004390975
13	0x3beb9955	0.0071899095
14	0x3c2451da	0.010029281
15	0xbc130fef	-0.008975967

exp_avg f4 [8]
0	0xbc6acacc	-0.014330577
1	0x3ae010ae	0.0017094815
2	0xbb0f0c70	-0.0021827482
3	0xbc747b1a	-0.014921928
4	0x3d021e72	0.031767316
5	0x3c08e4c4	0.008355323
6	0xbc80786e	-0.015682425
7	0xba7e20bd	-0.00096942094

exp_avg f4 [8]
0	0x3bd130a8	0.006383974
1	0xbcacbc35	-0.021085838
2	0x3c54c763	0.012986991
3	0xbb2f45ec	-0.0026744558
4	0xb79f53c0	-1.8993276e-05
5	0xbcc8e896	-0.024524968
6	0x3cd3870e	0.025821235
7	0x39e8664b	0.00044326702

exp_avg f4 [8, 7]
0	0x3bd632ff	0.006536841
1	0x3c13b8bf	0.009016215
2	0xbb50c27c	-0.0031854203
3	0x3c021f21	0.007941992
4	0x3afd86e4	0.0019342569
5	0x3c405047	0.01173789
6	0x3c988ea9	0.018622713
7	0x3e068572	0.13136843
8	0x3e1b1964	0.15146405
9	0xbd36eb38	-0.044657916
10	0x3deb8d74	0.115015894
11	0x3dc15675	0.094403185
12	0x3e4ff9ac	0.20310086
13	0x3e85ae6d	0.2610964
14	0xbda5123b	-0.08060118
15	0xbdc31447	-0.09525352
16	0x3cb7765e	0.022395309
17	0xbd84ebe2	-0.064903036
18	0xbdabfb4a	-0.08397539
19	0xbdf687c0	-0.12037611
20	0xbe0ad8cf	-0.13559268
21	0xbc8373bc	-0.016046397
22	0xbcc42794	-0.023944654
23	0x3d038961	0.032113437
24	0x3cc84a6c	0.02444955
25	0xbc79c423	-0.015244517
26	0xbda47f88	-0.08032137
27	0xbdae29d1	-0.085040696
28	0x3d151e89	0.036406074
29	0x3c21c01e	0.009872464
30	0x3b7614da	0.003754905
31	0x3aa9da06	0.0012958653
32	0x3d2ad032	0.041702457
33	0x3d22f3fb	0.03978346
34	0xbc23fe6e	-0.010009391
35	0xbdea5833	-0.11442604
36	0xbdd6b0e6	-0.104829594
37	0x3bcd87e6	0.006272304
38	0xbdd40369	-0.10352213
39	0xbdcf5764	-0.1012409
40	0xbdf36009	-0.118835516
41	0xbdf156c8	-0.1178413
42	0xbc93705d	-0.017997915
43	0xb967302f	-0.00022047826
44	0x3a862137	0.0010233287
45	0xbb83a872	-0.004017883
46	0x3abd09e7	0.0014422507
47	0xbcbbee68	-0.02294083
48	0xbc42b92e	-0.011884971
49	0x3c0bd28c	0.008534085
50	0x3ca473ec	0.020074807
51	0xbc57aaa5	-0.013163243
52	0x3b9e3df5	0.004829163
53	0x3b99a48f	0.0046888064
54	0x3d045717	0.032309618
55	0x3d51d1b6	0.051225387

exp_avg_sq f4 [8, 7]
0	0x35c47f1a	1.4640129e-06
1	0x361539f8	2.2236472e-06
2	0x349e14f8	2.944505e-07
3	0x35e2993f	1.6882913e-06
4	0x355345a2	7.8704954e-07
5	0x367a4342	3.7292052e-06
6	0x37123052	8.713529e-06
7	0x3a0c5fda	0.0005354859
8	0x3a228552	0.0006199676
9	0x3880119e	6.106797e-05
10	0x39d16d18	0.00039944868
11	0x39c05ca9	0.0003669013
12	0x3a8fbf98	0.0010967134
13	0x3ae2e60e	0.0017310993
14	0x394780c6	0.00019026091
15	0x397a1ffd	0.00023853774
16	0x37780645	1.4783412e-05
17	0x3905baee	0.00012753505
18	0x395ac301	0.00020862745
19	0x39c585b5	0.00037674388
20	0x39f405ee	0.00046543725
21	0x380000e8	3.0518422e-05
22	0x378b0af8	1.6575199e-05
23	0x37f11531	2.8739307e-05
24	0x37b8b18b	2.2017184e-05
25	0x383eedc6	4.5520974e-05
26	0x39369510	0.00017412403
27	0x393fc7d4	0.00018289621
28	0x383e9da3	4.544634e-05
29	0x36921789	4.353879e-06
30	0x35929534	1.0921271e-06
31	0x3600712b	1.9139359e-06
32	0x385ab2b8	5.2141695e-05
33	0x385b33ba	5.2261843e-05
34	0x36754ae2	3.6551432e-06
35	0x39bd2a60	0.0003608046
36	0x399dc7c6	0.00030094216
37	0x359248be	1.0899018e-06
38	0x399b2ccc	0.0002959728
39	0x39989ccf	0.0002910853
40	0x39c8207e	0.0003817118
41	0x39c30f69	0.0003720478
42	0x377f88b1	1.523101e-05
43	0x35d0c6d8	1.5555079e-06
44	0x358fe78e	1.0721722e-06
45	0x357b1dcc	9.3548147e-07
46	0x378b7dfe	1.6628761e-05
47	0x37a3d625	1.9530833e-05
48	0x370c7a32	8.373101e-06
49	0x366291d6	3.3761512e-06
50	0x37302372	1.049867e-05
51	0x369cba1e	4.670829e-06
52	0x360440c2	1.9707227e-06
53	0x36483548	2.9833336e-06
54	0x37df25f2	2.6601341e-05
55	0x388b523a	6.6433524e-05

exp_avg f4 [8]
0	0x3c018294	0.007904667
1	0x3e5c095e	0.21487948
2	0xbdd5af84	-0.104338676
3	0x3cc5a631	0.024127098
4	0x3c09d3c0	0.008412302
5	0xbe1b5bab	-0.15171687
6	0x3b578a50	0.0032888837
7	0xbc146a36	-0.009058526

exp_avg_sq f4 [8]
0	0x36035527	1.9570086e-06
1	0x3ab49f14	0.0013780319
2	0x39a857aa	0.00032108772
3	0x3836f964	4.3624445e-05
4	0x36547b5c	3.1662266e-06
5	0x3a2401cd	0.0006256372
6	0x37ba6be2	2.2223165e-05
7	0x366431ca	3.4003629e-06

exp_avg f4 [1, 8]
0	0xbe27d02a	-0.16388002
1	0xbe9b9be6	-0.3039238
2	0xbde637c3	-0.112411045
3	0x3dca9062	0.0989082
4	0x3ebd5d43	0.36985216
5	0xbe8fc0ed	-0.28076878
6	0x3eb235f5	0.3480679
7	0x3d489795	0.048972685

exp_avg_sq f4 [1, 8]
0	0x3a38d49f	0.0007050726
1	0x3b21fae5	0.0024716195
2	0x39a7109d	0.000318651
3	0x39aae311	0.00032594104
4	0x3b8768bb	0.004132358
5	0x3b158917	0.0022817308
6	0x3b46ddd2	0.0030344618
7	0x388a2822	6.587828e-05

exp_avg f4 [8]
0	0x3d158fdd	0.03651415
1	0x3e6db294	0.23212653
2	0xbbc0ff5b	-0.0058898157
3	0x3c9c6973	0.01909325
4	0xbd84c165	-0.064821996
5	0x3d078d68	0.03309384
6	0xbc1fd545	-0.009755437
7	0xbc698a8c	-0.014254224

exp_avg_sq f4 [8]
0	0x381340ef	3.5108005e-05
1	0x3abcff84	0.0014419411
2	0x35694788	8.6903356e-07
3	0x374d1c6b	1.2225569e-05
4	0x39044cf0	0.00012617162
5	0x380686e1	3.2073705e-05
6	0x361e5b1e	2.3596872e-06
7	0x36bb689c	5.5852124e-06

exp_avg f4 [8]
0	0xbc06554f	-0.00819905
1	0xbce6d032	-0.028175447
2	0x3b00db67	0.0019662024
3	0x3be809dd	0.007081254
4	0xbbd6bab8	-0.0065530203
5	0xbb8d878e	-0.004319138
6	0xba8a976e	-0.0010573694
7	0xbc3208d3	-0.010866362

exp_avg_sq f4 [8]
0	0x3617b0e0	2.2603708e-06
1	0x37e00f38	2.6709968e-05
2	0x340c5942	1.3070988e-07
3	0x35e23f6d	1.6856771e-06
4	0x35c23bce	1.4471532e-06
5	0x35283dd4	6.267485e-07
6	0x33232153	3.7981703e-08
7	0x368570eb	3.9768543e-06
