saved/gan/slwee5lf/checkpoints/epoch=0-step=16-v7.ckpt (torch, 21906 bytes, 39 tensors)

generator.fc1.weight f4 [16, 7]
0.2018326 0.33457798 -0.8890786 -0.3927739 0.7254569 0.23032692 -0.08876928 -0.2576933
0.47944266 1.1535103 0.5084863 0.01495193 -0.006602984 -0.21404694 -0.30281496 0.42928576
0.19708754 0.5721102 -0.013420834 -0.19170085 0.53467375 -0.73394316 0.108038 -0.85511374
0.051621646 -0.5828236 0.81457067 0.20845568 -0.22352152 -0.8205401 0.24875349 0.25320154
-0.24086413 -0.4626178 0.67988664 -0.56975937 -1.3108103 -1.2179022 -0.90819424 0.50514805
1.0994099 -0.6520911 0.5653541 0.33726615 0.28931853 0.04857174 0.24861076 0.6954361
0.46814966 -0.17130736 0.3315053 -0.34252495 0.3933845 0.7778133 0.9195972 -0.18430308
-0.34015378 0.14620723 -0.6880955 0.20052916 -0.22608232 0.6435215 -0.5088268 -0.10738712
-0.020824594 -0.50024205 0.37658462 -0.1902679 -0.19509897 -0.43562767 -0.4184733 1.3667519
0.104347445 -0.5044222 0.37269324 0.3822043 -0.36590135 -0.1171989 -0.4089191 0.27150667
0.7798549 0.0025460809 0.4333824 0.6772297 -0.81998205 -0.3820625 -0.6330301 -0.87555647
-0.046333548 0.41510397 0.33550274 -0.325424 0.3249545 -0.08531412 -0.066169806 -0.98102224
0.3055148 -0.3101082 0.07575399 -1.0418104 -0.013578927 0.92646134 0.3763069 0.30812693
-0.8220093 -0.30919895 -0.126762 -0.31781372 -1.0793804 -0.24709629 -1.1672395 0.09488431
00000000: 35ad 4e3e ce4d ab3e a89a 63bf a919 c9be
00000010: 8bb7 393f d2da 6b3e abcc b5bd 60f0 83be
00000020: 8279 f53e 3aa6 933f 282c 023f f1f8 743c
00000030: d85d d8bb 1f2f 5bbe 900a 9bbe 58cb db3e
00000040: 51d1 493e d075 123f 0fe3 5bbc 3a4d 44be
00000050: 61e0 083f b3e3 3bbf 0743 dd3d bce8 5abf
00000060: 3871 533d ed33 15bf b487 503f 6875 553e
00000070: d3e2 64be ea0e 52bf 3cb9 7e3e a2a3 813e
00000080: 16a5 76be 3edc ecbe 0d0d 2e3f c0db 11bf
00000090: a2c8 a7bf 38e4 9bbf 6b7f 68bf 6251 013f
000000a0: 77b9 8c3f 71ef 26bf 0cbb 103f 26ae ac3e
000000b0: 8f21 943e 29f3 463d d293 7e3e 1a08 323f
000000c0: 50b1 ef3e 326b 2fbe 10bb a93e 6e5f afbe
000000d0: b169 c93e c61e 473f b96a 6b3f f2b9 3cbe
000000e0: a328 aebe 59b7 153e 0727 30bf 8457 4d3e
000000f0: 2082 67be d3bd 243f 7942 02bf c7ed dbbd
00000100: 5798 aabc dd0f 00bf b3cf c03e 97d5 42be
00000110: 06c8 47be 970a dfbe 2242 d6be baf1 ae3f
00000120: 1db4 d53d d021 01bf a6d1 be3e 48b0 c33e
00000130: 6c57 bbbe fa05 f0bd d85d d1be ec02 8b3e
00000140: 92a4 473f 26dc 263b 4ce4 dd3e ed5e 2d3f
00000150: 58ea 51bf b29d c3be 430e 22bf 7824 60bf
00000160: 3fc8 3dbd 8288 d43e 04c7 ab3e f99d a6be
00000170: 7060 a63e 2bb9 aebd 0984 87bd 4624 7bbf
00000180: 706c 9c3e 81c6 9ebe e824 9b3d 0b5a 85bf
00000190: 267a 5ebc 922c 6d3f 4cab c03e d0c2 9d3e
000001a0: 346f 52bf 534f 9ebe e6cd 01be 7bb8 a2be
000001b0: 2329 8abf cf06 7dbe 1b68 95bf b552 c23d

generator.fc1.bias f4 [16]
0.2061122 0.108558595 0.19249085 0.031538993 -0.15414362 0.33001205 -0.11315498 0.34036222
0.035920613 0.2516455 -0.047843367 -0.05155325 0.1692653 -0.07755095 0.024615664 -0.26123768
00000000: 140f 533e f853 de3d 521c 453e 082f 013d
00000010: d3d7 1dbe 57f7 a83e ccbd e7bd f543 ae3e
00000020: 7e21 133d aed7 803e 68f7 43bd 8029 53bd
00000030: e253 2d3e 08d3 9ebd caa6 c93c f2c0 85be

generator.fc2.weight f4 [8, 16]
0.34765145 -0.07050066 -0.41942525 0.40467775 -0.8513159 0.1911044 0.32318628 0.27508566
0.16277196 -0.41028652 -0.1451058 0.39877313 -0.0157166 -0.23032963 -0.5350937 0.11051275
-0.14110687 0.25260127 -0.6998928 -0.38832358 0.047564983 -0.2621363 0.31534463 0.45317632
-0.11454325 0.4805582 -0.2838636 0.04666099 0.4933325 -0.28901705 -0.19126286 -0.18901198
-0.4199786 0.21052794 0.06276251 0.037484106 -0.22088385 -0.077110015 -0.3066566 0.40222287
-0.12904589 -0.12151207 -0.5054068 0.22187746 0.040211238 0.035231102 0.19752079 0.55621564
0.10585237 0.1234141 0.39343873 -0.49423486 -0.12214762 -0.6522641 0.080427 1.0548998
-0.7185762 -0.16793251 -0.73502165 -0.023673983 -0.100478575 -0.6509417 -0.23652822 0.73136276
-0.46213248 -0.124338634 0.4230964 0.31723732 0.09038301 -0.7540743 0.0880499 -0.14064293
-0.45980096 0.3792796 -0.1956254 0.21468823 -0.31864145 -0.9231197 -0.122691974 0.5576903
-0.23482433 0.18551272 0.38224417 0.10320111 0.32541373 0.13914002 -0.39588803 -0.10208328
0.6946331 -0.50542206 -0.11991216 0.025294269 0.4723103 -0.045406975 -0.14708711 -0.72875637
-0.3451457 -0.0018476476 -0.2550558 0.2820194 0.0329226 0.31262445 -0.0567879 -0.27509502
0.43587968 -0.23892222 -0.32218093 -0.17615028 -0.5499362 0.30417198 -0.053768333 0.27583092
-0.17284456 -0.13089775 -0.12433529 -0.8579165 -0.09720319 -0.13958184 -0.6041412 0.26191947
-0.074915424 -0.3907809 0.23300068 0.8224788 0.116662085 -0.19394596 0.12514107 -0.04984989
00000000: 5fff b13e a662 90bd e8be d6be ec31 cf3e
00000010: d7ef 59bf dfb0 433e ac78 a53e 07d8 8c3e
00000020: b1ad 263e 1311 d2be 9d96 14be fe2b cc3e
00000030: 19c0 80bc 88db 6bbe e7fb 08bf 8254 e23d
00000040: 527e 10be f454 813e 2d2c 33bf 59d2 c6be
00000050: 80d3 423d bb36 86be da74 a13e ba06 e83e
00000060: a795 eabd b90b f63e 9256 91be 981f 3f3d
00000070: 1496 fc3e 0bfa 93be 69da 43be 5b8c 41be
00000080: 6f07 d7be a394 573e a189 803d ef88 193d
00000090: 602f 62be dbeb 9dbd 1802 9dbe 28f0 cd3e
000000a0: 9b24 04be 52db f8bd 5762 01bf d833 633e
000000b0: 8ab4 243d 7d4e 103d e442 4a3e 2664 0e3f
000000c0: 21c9 d83d 88c0 fc3d cd70 c93e 5a0c fdbe
000000d0: 8828 fabd c8fa 26bf e9b6 a43d f506 873f
000000e0: 9cf4 37bf 80f6 2bbe 612a 3cbf f1ef c1bc
000000f0: b6c7 cdbd 1ea4 26bf 7434 72be 973a 3b3f
00000100: a19c ecbe 41a5 febd 17a0 d83e ee6c a23e
00000110: ba1a b93d 030b 41bf 8253 b43d b304 10be
00000120: 086b ebbe f030 c23e 0652 48be 3bd7 5b3e
00000130: f924 a3be 9351 6cbf ee45 fbbd cbc4 0e3f
00000140: ca75 70be 0cf7 3d3e 82b5 c33e 1b5b d33d
00000150: a19c a63e b97a 0e3e d6b1 cabe 0a11 d1bd
00000160: 7ad3 313f 5763 01bf 8294 f5bd ed35 cf3c
00000170: a8d2 f13e aafc 39bd 019e 16be c78f 3abf
00000180: f0b6 b0be c42c f2ba ac96 82be d964 903e
00000190: d9d9 063d 5010 a03e 6e9a 68bd 41d9 8cbe
000001a0: 9f2b df3e 07a8 74be e6f4 a4be bd60 34be
000001b0: 9ec8 0cbf 6ebc 9b3e 2f3c 5cbd b639 8d3e
000001c0: 2afe 30be 0f0a 06be 80a3 febd 6aa0 5bbf
000001d0: 7712 c7bd 8bee 0ebe ffa8 1abf 4f1a 863e
000001e0: 426d 99bd 6f14 c8be bb97 6e3e f88d 523f
000001f0: 88ec ee3d c599 46be fb24 003e 662f 4cbd

generator.fc2.bias f4 [8]
0.05756234 -0.047674567 -0.029878635 0.039378017 -0.097994775 -0.028676957 0.032843642 -0.08714104
00000000: 7dc6 6b3d 6846 43bd 0ac4 f4bc d84a 213d
00000010: 7cb1 c8bd f0eb eabc 0e87 063d 0077 b2bd

generator.fc3.weight f4 [16, 8]
-0.74453104 -0.34073517 -0.11129817 0.02119647 0.2678088 -0.40174848 -0.07328648 -0.92785263
0.19345099 0.10313621 0.5831788 0.18921937 0.5843169 -0.04510904 1.0083449 0.1481622
0.48821735 0.7740146 0.95203376 0.7927294 0.5807072 0.42401317 0.73101324 0.8323843
-0.19307284 0.21978404 1.3496174 -0.45761815 0.22553688 0.27243775 -0.30085227 0.45221898
-0.13462771 -0.29660496 -0.5925376 0.9279804 -0.10939381 0.34324652 0.1981812 0.90799665
-0.15181608 -0.5247756 -0.3354723 -0.35012802 0.12324233 0.10268935 -0.11105903 -0.27018517
-0.6511793 -0.24781188 -0.22170043 0.37761658 0.86679155 0.20797847 -1.1711274 0.1328608
1.1025285 0.6516281 -0.5505129 -0.12611884 0.695675 -0.72397 -0.32836747 1.0440074
0.4452684 0.48653206 0.0007824956 -0.044323355 -0.1448561 0.18708435 -1.4898071 0.1676455
-0.057413746 -0.06290587 -0.26569355 0.2369539 0.37194455 0.31452557 0.8427763 -0.23226465
-0.3873343 -0.5878445 0.5687588 -0.008831734 0.1037862 0.0270767 -0.120067686 -0.43192756
0.7239964 -0.48985356 -0.2912242 0.50180805 0.25096822 -0.10626692 -0.016769528 -1.207532
0.6550807 0.32544437 -0.4001183 -1.0693892 0.1897178 -0.09847776 -0.8674681 0.31696773
0.4581736 -0.4236855 0.6418357 0.12998955 0.42785332 -0.16761848 0.7311287 -0.70149
-0.1628609 0.1648325 -0.20603095 0.26048583 -0.15653816 0.24038671 -0.24916314 -0.86320037
0.20860738 0.15943708 -0.10190979 -0.2850198 -0.6164529 -0.036448985 0.5344945 0.25465158
00000000: 9699 3ebf d774 aebe 4cf0 e3bd 38a4 ad3c
00000010: 3c1e 893e fab1 cdbe 3917 96bd c087 6dbf
00000020: 0418 463e 1439 d33d 354b 153f b9c2 413e
00000030: cb95 153f 42c4 38bd 7211 813f d5b7 173e
00000040: a0f7 f93e d225 463f 7cb8 733f 50f0 4a3f
00000050: 3aa9 143f 4118 d93e af23 3b3f 2317 553f
00000060: e3b4 45be 110f 613e 43c0 ac3f ed4c eabe
00000070: 24f3 663e f67c 8b3e 4f09 9abe 3f89 e73e
00000080: d9db 09be 9bdc 97be 8bb0 17bf 2090 6d3f
00000090: dd09 e0bd 02be af3e 03f0 4a3e 7872 683f
000000a0: ad75 1bbe b257 06bf 06c3 abbe fb43 b3be
000000b0: 7a66 fc3d cb4e d23d eb72 e3bd b655 8abe
000000c0: b0b3 26bf 66c2 7dbe 7005 63be f656 c13e
000000d0: 0de6 5d3f 4ff8 543e 81e7 95bf a90c 083e
000000e0: a71f 8d3f 19d1 263f 6aee 0cbf 4c25 01be
000000f0: c217 323f 1956 39bf c81f a8be 09a2 853f
00000100: 38fa e33e bb1a f93e 6420 4d3a 688c 35bd
00000110: 2855 14be 0a93 3f3e 00b2 bebf 43ab 2b3e
00000120: ad2a 6bbd cbd4 80bd fc08 88be 0ba4 723e
00000130: 846f be3e 7f09 a13e 30c0 573f c9d6 6dbe
00000140: ae50 c6be fa7c 16bf 2d9a 113f fab2 10bc
00000150: dc8d d43d f5cf dd3c 0ce6 f5bd 9c25 ddbe
00000160: d457 393f 16ce fabe 571b 95be 7e76 003f
00000170: e87e 803e 79a2 d9bd 4060 89bc 6990 9abf
00000180: 5eb3 273f a5a0 a63e 4edc ccbe bfe1 88bf
00000190: 6245 423e b5ae c9bd 6412 5ebf 9849 a23e
000001a0: bb95 ea3e 4eed d8be 584f 243f fb1b 053e
000001b0: 970f db3e 2ea4 2bbe 402b 3b3f d994 33bf
000001c0: 02c5 26be dac9 283e c7f9 52be 665e 853e
000001d0: 8a4b 20be ef27 763e 9f24 7fbe b3fa 5cbf
000001e0: 2c9d 553e 7943 233e 14b6 d0bd 1dee 91be
000001f0: dbcf 1dbf 884b 15bd a2d4 083f b161 823e

generator.fc3.bias f4 [16]
-0.082532376 0.03282432 -0.15216209 0.16027084 -0.23108417 -0.076482 0.22135833 0.24262771
0.120073676 0.22073975 0.14916304 0.21795663 -0.061126895 0.21778384 0.15937725 -0.027688324
00000000: bc06 a9bd cb72 063d 61d0 1bbe 0a1e 243e
00000010: 54a1 6cbe 98a2 9cbd c2ab 623e 6673 783e
00000020: 30e9 f53d 9a09 623e 32be 183e 0630 5f3e
00000030: 3260 7abd ba02 5f3e ca33 233e a0d2 e2bc

generator.fc4.weight f4 [7, 16]
0.103816606 -0.061706115 0.2779475 0.17470574 0.73280185 0.37832376 -0.23473889 0.040912695
0.5947812 0.08158938 0.19675112 -0.69901186 -0.29944053 -0.21399066 0.72087395 -0.5595709
-0.24684605 0.42670068 0.18744127 0.4903577 0.6731556 -0.26898223 0.19531311 0.25241876
0.7073164 0.019483529 0.12937215 -0.36396396 0.051040884 -0.08749916 0.5825033 -0.407256
-0.09973107 -0.2338811 -0.23279211 0.25725198 0.20879386 0.23774064 0.06835124 0.15500653
0.19164361 0.44670862 -0.53929037 -0.091769055 0.03130146 -0.0346679 -0.18494166 0.41478285
0.083965756 0.0039760172 -0.2965635 -0.4921888 0.017115647 0.56370795 -0.18552016 0.3555013
-0.8111139 -0.58867633 -0.17528978 0.9058928 -0.1473965 -0.25548223 0.34283656 0.37946826
-0.19211882 -0.034309633 -0.033628054 0.09747328 -0.72967327 -0.036390767 -0.005727277 -0.15983593
0.16234985 0.045678664 0.16974747 0.93689644 -0.35831508 -0.32935238 0.13744502 -0.13161616
-0.6467909 -0.32010186 -0.004913602 0.037426114 0.35453767 -0.14709784 0.34037888 -0.001145723
-0.5783003 -0.19891426 -0.041038424 -0.14155494 0.21575633 0.19294183 -0.23074576 -0.08614457
0.5277507 0.21842456 0.6580913 0.061744858 0.21557692 0.34218293 0.76944184 0.09043774
0.28338844 0.13703299 0.068195954 -0.3762506 0.26971343 -0.5424689 -0.5892876 -0.36776882
00000000: cd9d d43d 8dbf 7cbd 224f 8e3e 10e6 323e
00000010: e798 3b3f a7b3 c13e 645f 70be 1294 273d
00000020: 9543 183f 5518 a73d 2079 493e 71f2 32bf
00000030: 4550 99be 5e20 5bbe 328b 383f 0a40 0fbf
00000040: 36c5 7cbe 8378 da3e 9bf0 3f3e 2a10 fb3e
00000050: ed53 2c3f 0ab8 89be 2900 483e 083d 813e
00000060: b012 353f ec9b 9f3c 227a 043e 7c59 babe
00000070: 3f10 513d c232 b3bd f01e 153f dc83 d0be
00000080: ce3f ccbd 877e 6fbe 0e61 6ebe 88b6 833e
00000090: 0fce 553e 4872 733e bcfb 8b3d 08ba 1e3e
000000a0: 393e 443e feb6 e43e ef0e 0abf 6af1 bbbd
000000b0: f635 003d eeff 0dbd 5961 3dbe 6b5e d43e
000000c0: 3df6 ab3d 4049 823b 2cd7 97be 2c00 fcbe
000000d0: 1d36 8c3c 2a4f 103f fff8 3dbe 4404 b63e
000000e0: 29a5 4fbf 7eb3 16bf 2a7f 33be 97e8 673f
000000f0: 1cef 16be 91ce 82be 4688 af3e aa49 c23e
00000100: ccba 44be 4288 0cbd 92bd 09bd 12a0 c73d
00000110: decb 3abf 7c0e 15bd e2ab bbbb 08ac 23be
00000120: 0a3f 263e 8d19 3b3d 48d2 2d3e 72d8 6f3f
00000130: 1375 b7be e0a0 a8be 63be 0c3e 63c6 06be
00000140: 1794 25bf 64e4 a3be 4802 a1bb 204c 193d
00000150: f685 b53e d1a0 16be 2446 ae3e 162c 96ba
00000160: 7d0b 14bf 2eb0 4bbe e817 28bd c7f3 10be
00000170: 3aef 5c3e 8b92 453e 9e48 6cbe 906c b0bd
00000180: ab1a 073f b0aa 5f3e ac78 283f 2de8 7c3d
00000190: 32c0 5c3e 9a32 af3e 24fa 443f 6c37 b93d
000001a0: 4a18 913e 6052 0c3e 52aa 8b3d eba3 c0be
000001b0: e117 8a3e 3edf 0abf 8ddb 16bf 324c bcbe

generator.fc4.bias f4 [7]
-0.1683206 0.015647873 -0.18537933 -0.23710778 0.23874018 -0.21709862 0.13699925
00000000: 3c5c 2cbe f82f 803c 14d4 3dbe 62cc 72be
00000010: 4e78 743e 1a4f 5ebe 8849 0c3e

generator.layer_norm_hidden_0.weight f4 [16]
1.0020001 1.0040002 0.9920001 0.9940001 0.9920001 0.99600005 0.9920001 1.0080004
1.0080004 0.99600005 0.9920001 0.9920001 0.9920001 0.9920001 0.998 1.0080004
00000000: 8a41 803f 1483 803f b8f3 7d3f ca76 7e3f
00000010: b8f3 7d3f dcf9 7e3f b8f3 7d3f 2806 813f
00000020: 2806 813f dcf9 7e3f b8f3 7d3f b8f3 7d3f
00000030: b8f3 7d3f b8f3 7d3f ee7c 7f3f 2806 813f

generator.layer_norm_hidden_0.bias f4 [16]
0.008 0.008 -0.008 -0.008 0.008 2.3283064e-10 -0.004 0.008
0.008 0.008 0.004 -0.008 0.008 0.0060000005 -0.0060000005 -0.008
00000000: 6f12 033c 6f12 033c 6f12 03bc 6f12 03bc
00000010: 6f12 033c 0000 802f 6f12 83bb 6f12 033c
00000020: 6f12 033c 6f12 033c 6f12 833b 6f12 03bc
00000030: 6f12 033c a79b c43b a79b c4bb 6f12 03bc

generator.layer_norm_hidden_1.weight f4 [8]
1.0080004 1.0080004 0.9920001 0.9920001 0.9940001 0.9920001 1.0080004 0.9920001
00000000: 2806 813f 2806 813f b8f3 7d3f b8f3 7d3f
00000010: ca76 7e3f b8f3 7d3f 2806 813f b8f3 7d3f

generator.layer_norm_hidden_1.bias f4 [8]
-0.008 0.008 0.008 -0.008 -0.0060000005 0.008 -0.008 0.008
00000000: 6f12 03bc 6f12 033c 6f12 033c 6f12 03bc
00000010: a79b c4bb 6f12 033c 6f12 03bc 6f12 033c

discriminator.fc1.weight f4 [8, 7]
-0.19821815 -0.032876227 -0.119071245 0.08750318 0.58975095 1.0747097 0.173367 0.34611616
0.08246636 0.514919 -0.61870986 0.37718767 0.8269432 -0.123031124 0.31638888 0.37084717
0.68609023 -0.75082546 -0.9967033 0.05629821 0.40126714 0.31241325 0.55174345 0.15098271
0.57691485 -0.65911114 0.31361336 0.5871424 -0.75694275 0.2759474 -0.0035248082 0.008924607
-0.42308527 -0.54356104 0.39777043 -0.37073994 1.3679663 -0.034974642 -0.22356439 -0.2046856
-0.2723805 -0.63737327 0.95933896 0.78611803 -0.731492 0.0995233 -0.9954535 0.84416527
-1.0174047 0.21327174 1.0298271 0.020731281 0.20209578 -0.067668095 0.23560554 -0.27060685
00000000: b3f9 4abe 39a9 06bd a0db f3bd de34 b33d
00000010: ebf9 163f 1690 893f 1e87 313e 2336 b13e
00000020: 1fe4 a83d bbd1 033f c563 1ebf be1e c13e
00000030: 8db2 533f bef7 fbbd b9fd a13e aedf bd3e
00000040: 9ca3 2f3f 1936 40bf f327 7fbf f498 663d
00000050: e372 cd3e a1f4 9f3e 0f3f 0d3f 369b 1a3e
00000060: b1b0 133f 82bb 28bf ee91 a03e f74e 163f
00000070: 00c7 41bf fa48 8d3e 7800 67bb 8438 123c
00000080: a29e d8be d126 0bbf 91a8 cb3e a0d1 bdbe
00000090: 8519 af3f 9241 0fbd 10ee 64be 1a99 51be
000000a0: 7575 8bbe e52a 23bf 3d97 753f 083f 493f
000000b0: 0f43 3bbf dfd2 cb3d 0ad6 7ebf 371b 583f
000000c0: 513a 82bf e863 5a3e 60d1 833f a6d4 a93c
000000d0: 32f2 4e3e 9295 8abd 9442 713e fb8c 8abe

discriminator.fc1.bias f4 [8]
0.36504164 -0.26382717 0.24154715 -0.105276994 -0.12167535 0.2829491 0.13422626 0.33623967
00000000: bde6 ba3e 5b14 87be 2358 773e 779b d7bd
00000010: ed30 f9bd b4de 903e 9c72 093e 9b27 ac3e

discriminator.fc2.weight f4 [1, 8]
-0.79435855 0.98645866 1.4089935 -0.28122896 0.81956226 0.40784234 -0.008919704 -0.2379111
00000000: 155b 4bbf 8e88 7c3f e659 b43f 3efd 8fbe
00000010: d5ce 513f b6d0 d03e f323 12bc f89e 73be

discriminator.layer_norm_hidden_0.weight f4 [8]
0.99209845 0.9924339 0.9931193 0.991991 0.9919788 0.99198705 1.0028548 0.9920184
00000000: 2afa 7d3f 2610 7e3f 113d 7e3f 1ff3 7d3f
00000010: 53f2 7d3f ddf2 7d3f 8c5d 803f ebf4 7d3f

discriminator.layer_norm_hidden_0.bias f4 [8]
-0.0058428245 0.0058425753 0.005842233 -0.0058447258 0.005842809 0.0058438233 -0.0058320086 -0.0058452548
00000000: 2a75 bfbb 1373 bf3b 3470 bf3b 1d85 bfbb
00000010: 0975 bf3b 8b7d bf3b 6f1a bfbb 8d89 bfbb

exp_avg f4 [16, 7]
-0.00032366105 -0.00032477762 -6.188432e-19 -0.00031931212 -0.00032185094 -0.00032163112 -0.00040420805 -0.002747601
-0.0027418286 4.354782e-19 -0.002744084 -0.002742999 -0.0027430924 -0.0027198256 0.014415967 0.014398133
-4.272263e-18 0.014397079 0.0143980635 0.0143992845 0.014380762 0.00018180926 0.00017794855 -3.4595824e-18
0.00018064675 0.00018195901 0.00018267024 0.000112886264 0.005500052 0.005504443 9.974374e-19 0.0055037965
0.0055037276 0.005503884 0.0055072675 -0.0018332138 -0.0018334982 -6.318953e-19 -0.0018320164 -0.0018319777
-0.0018322836 -0.0018453461 0.0034579413 0.0034537874 -6.385266e-19 0.0034538014 0.0034547462 0.0034557127
0.0034293802 -0.004880315 -0.0048823715 2.9582264e-19 -0.004881985 -0.0048827697 -0.004882824 -0.004890331
-0.0010930555 -0.0010893635 5.5332926e-21 -0.0010894134 -0.0010886354 -0.0010889841 -0.0010761154 0.0032793724
0.003289463 2.1059144e-18 0.0032872271 0.003287738 0.0032879594 0.0033088434 -0.003659511 -0.0036590623
9.583117e-19 -0.0036590917 -0.0036598092 -0.0036600668 -0.0036629906 -0.0071266466 -0.0071288683 1.5260073e-18
-0.007128578 -0.007129856 -0.0071305367 -0.007121331 -0.005112249 -0.005103738 2.413287e-18 -0.00510719
-0.005106669 -0.005107496 -0.0050399383 -0.00056395715 -0.0005655656 -1.1336998e-19 -0.0005664331 -0.00056589104
-0.00056586164 -0.000559763 0.0015635457 0.001564411 1.278548e-18 0.0015605653 0.0015615249 0.0015613053
0.0016194072 0.0021120436 0.0021014719 -9.464946e-19 0.0021006688 0.0021015902 0.0021018193 0.0021089828
00000000: 0db1 a9b9 ea46 aab9 78a6 36a1 5969 a7b9
00000010: 1abe a8b9 99a0 a8b9 e3eb d3b9 1811 34bb
00000020: 40b0 33bb cd87 0021 17d6 33bb e3c3 33bb
00000030: 74c5 33bb 1a3f 32bb f330 6c3c 26e6 6b3c
00000040: 629e 9da2 bae1 6b3c dbe5 6b3c faea 6b3c
00000050: 4a9d 6b3c 0da4 3e39 b397 3a39 aa45 7fa2
00000060: fe6b 3d39 40cc 3e39 2b8b 3f39 5abd ec38
00000070: c839 b43b 9d5e b43b 1f32 9321 3159 b43b
00000080: 9d58 b43b ed59 b43b 4f76 b43b 7348 f0ba
00000090: fe51 f0ba a980 3aa1 4520 f0ba f91e f0ba
000000a0: 3c29 f0ba 8adf f1ba a19e 623b f058 623b
000000b0: b575 3ca1 2c59 623b 0669 623b 3d79 623b
000000c0: 74bf 603b 0deb 9fbb 4dfc 9fbb 749f ae20
000000d0: 0ff9 9fbb a4ff 9fbb 1900 a0bb 123f a0bb
000000e0: db44 8fba f9c8 8eba b90a d11d a6ca 8eba
000000f0: 8bb0 8eba 3ebc 8eba 710c 8dba bdea 563b
00000100: 0894 573b 9963 1b22 856e 573b 1777 573b
00000110: ce7a 573b 2ed9 583b 68d4 6fbb e1cc 6fbb
00000120: fe6b 8d21 5fcd 6fbb 69d9 6fbb bbdd 6fbb
00000130: c90e 70bb a586 e9bb 4899 e9bb ed32 e121
00000140: d996 e9bb 91a1 e9bb 47a7 e9bb 0e5a e9bb
00000150: a784 a7bb 423d a7bb b411 3222 375a a7bb
00000160: d855 a7bb c85c a7bb 1126 a5bb 86d6 13ba
00000170: 7742 14ba f9d7 05a0 af7c 14ba 4e58 14ba
00000180: 5556 14ba 0fbd 12ba e3ef cc3a ec0c cd3a
00000190: 2eae bc21 e28b cc3a 15ac cc3a b6a4 cc3a
000001a0: 4a42 d43a 366a 0a3b d9b8 093b 8ead 8ba1
000001b0: 60ab 093b d5ba 093b adbe 093b dc36 0a3b

exp_avg f4 [16]
0.0055740434 -0.0039224387 0.038481124 0.031161146 -0.008984117 0.0056916075 0.0057513355 -0.0026645334
-4.9838887e-05 -0.01896839 -0.008631705 -0.013745052 -0.021736959 0.001021146 -0.011516138 0.008525265
00000000: 77a6 b63b cd87 80bb 629e 1d3d a945 ff3c
00000010: 1e32 13bc aa80 ba3b b375 bc3b 749f 2ebb
00000020: 190a 51b8 9963 9bbc ff6b 0dbc ed32 61bc
00000030: b511 b2bc f9d7 853a 2fae 3cbc 8ead 0b3c

exp_avg f4 [8, 16]
-0.0037128858 -0.0029886942 -0.0039328323 -0.001090401 -0.0002438522 0.011743795 -0.006714344 -0.0056209476
-0.0012911037 0.0037209974 -0.0037991651 -0.004687131 0.0070539187 0.0025968668 -0.0010967687 0.010104408
-0.010677797 -0.00055078213 -0.010586306 0.008661968 0.012149859 0.0010452579 -0.017566042 -0.028291889
0.008582422 0.0022686159 0.00074015657 -0.0058888844 0.0055002877 0.010756981 0.009046605 0.014593273
-0.0044951043 -0.0028482906 -0.0044856477 -0.0005009649 0.0029951874 0.009030081 -0.008047525 -0.0075621093
-0.0007845621 0.0017385661 -0.0033783377 -0.0048744576 0.0064749364 0.004162487 -0.0003842981 0.012993166
0.005908128 0.00062541576 0.0057456843 -0.004187369 -0.0064224484 -8.0067955e-05 0.008325196 0.0147719225
-0.004111939 -0.00043503588 -0.00050431903 0.0026642603 -0.0027163087 -0.0059238137 -0.004405613 -0.009146189
0.0070413365 0.001922797 0.0072124363 -0.0036143158 -0.00568128 -0.009449124 0.015161783 0.01671225
-0.0034439752 -0.0047154916 0.00292521 0.0071549877 -0.007818039 -0.0067475615 -0.003739247 -0.012850762
-0.002097326 -0.0010576341 -0.002234903 0.00038583978 0.00053677754 0.0053684916 -0.003885169 -0.004403285
0.000284518 0.002180218 -0.0013608724 -0.0021971068 0.003626921 0.001334188 0.00036634773 0.003149591
0.007364944 0.0030717317 0.0072773634 -0.0015078528 -0.006193965 -0.008008639 0.01161813 0.014533369
-0.0012789698 -0.0014401345 0.002914243 0.0059047593 -0.0071966057 -0.0072780773 -0.0018496173 -0.017921763
-0.006248972 0.00019822497 -0.006138284 0.0057310825 0.008127334 -0.0020472337 -0.010469653 -0.017130002
0.0057327067 0.00044070717 0.0010898431 -0.0030134695 0.0020333608 0.0069728764 0.0060280636 0.00855414
00000000: e353 73bb f8dd 43bb fdde 80bb c9eb 8eba
00000010: 94b2 7fb9 0c69 403c 0004 dcbb ed2f b8bb
00000020: 403a a9ba fadb 733b 6afb 78bb 8196 99bb
00000030: 8f24 e73b 3230 2a3b 73c1 8fba f58c 253c
00000040: edf1 2ebc 5d62 10ba 3072 2dbc edea 0d3c
00000050: 3410 473c 0901 893a a9e6 8fbc 64c4 e7bc
00000060: 499d 0c3c 0fad 143b 1107 423a 8bf7 c0bb
00000070: c23b b43b 0c3e 303c 3638 143c a018 6f3c
00000080: ab4b 93bb 63aa 3abb 57fc 92bb 2f53 03ba
00000090: e84a 443b e8f2 133c c4d9 03bc 92cb f7bb
000000a0: 12ab 4dba 99e0 e33a 1a67 5dbb eab9 9fbb
000000b0: b42b d43b 7965 883b 9e7b c9b9 4ae1 543c
000000c0: f898 c13b f1f2 233a 4b46 bc3b 3236 89bb
000000d0: 6773 d2bb 28ea a7b8 6766 083c ef05 723c
000000e0: 72bd 86bb 8715 e4b9 4734 04ba df9a 2e3b
000000f0: 1904 32bb 8d1c c2bb f65c 90bb e6d9 15bc
00000100: 03bb e63b 5c06 fc3a 4d56 ec3b 28de 6cbb
00000110: 082a babb 80d0 1abc 2169 783c 21e8 883c
00000120: 51b4 61bb 6984 9abb e1b4 3f3b 6374 ea3b
00000130: 3b17 00bc a61a ddbb 280e 75bb 018c 52bc
00000140: 4b73 09bb 50a0 8aba 7377 12bb 8a4a ca39
00000150: 88b6 0c3a 2cea af3b 529e 7ebb 6f49 90bb
00000160: 5c2b 9539 fde1 0e3b 4d5f b2ba 56fd 0fbb
00000170: a3b1 6d3b ecdf ae3a 5c12 c039 5e69 4e3b
00000180: a155 f13b 1b4f 493b f376 ee3b 25a3 c5ba
00000190: bff6 cabb ab36 03bc f859 3e3c 5e1d 6e3c
000001a0: 1ba3 a7ba e5c2 bcba e2fc 3e3b b67c c13b
000001b0: 81d1 ebbb f07c eebb dc6e f2ba a9d0 92bc
000001c0: 2dc4 ccbb 9cda 4f39 a923 c9bb cecb bb3b
000001d0: 8228 053c e22a 06bb e888 2bbc 3854 8cbc
000001e0: 6ed9 bb3b b70e e739 11d9 8e3a a17d 45bb
000001f0: 2242 053b ba7c e43b 1087 c53b aa26 0c3c

exp_avg f4 [8]
0.004511581 -0.017393988 0.0027116982 0.008272357 0.0058043273 0.00014644292 0.0014170831 -0.011949141
00000000: e2d5 933b d67d 8ebc bfb6 313b c888 073c
00000010: 3a32 be3b 798e 1939 6bbd b93a 54c6 43bc

exp_avg f4 [16, 8]
0.005760916 0.003780235 -0.017717103 0.0059249518 0.009069405 0.006335651 -0.019449448 0.006212613
0.0012518999 0.0008909911 -0.0058282637 0.0015514294 0.0035980123 0.0027292788 -0.0064993473 0.0022717745
0.0018276665 -2.1994838e-05 -0.005727957 0.004977552 0.0032302504 0.0007496897 -0.006843913 0.001772104
-0.00034800216 0.00034406697 -0.0026093996 -0.0014454407 0.0024966414 0.0028804264 -0.002893983 0.0015522755
0.002383873 0.0005356754 -0.0039676903 0.005423147 0.00066546357 -0.0007930744 -0.004946111 0.0006858529
0.0032077783 0.000653963 -0.00429184 0.008461066 -8.128323e-05 -0.0022712387 -0.0055022463 -0.00018292527
0.0032929757 0.00026931916 -0.0031036232 0.008450012 -0.00080140954 -0.003376732 -0.004201276 -0.0005274625
0.0025306775 0.0005043911 -0.0021546273 0.007204945 -0.001310733 -0.0027146458 -0.0030907025 -0.0009639755
-0.019208627 -0.0023923814 0.016533583 -0.054047268 0.008165044 0.021351544 0.023243306 0.006321278
0.0014429429 0.0023858661 -0.008451372 -0.001463656 0.0053178044 0.005879846 -0.009083512 0.0039225505
-0.0031924916 -0.0024302108 0.010937728 -0.0030286459 -0.0056980145 -0.0045407424 0.012061981 -0.0040550358
0.007575037 0.00069227215 -0.0013862813 0.023373906 -0.007991501 -0.012523519 -0.003816953 -0.0058650277
6.270859e-05 -0.0018334024 -0.00019211731 0.0018477158 0.0013000557 -0.0018375652 6.500032e-05 0.0005766237
-0.0019817566 -0.0005632458 0.0061694784 -0.004308666 -0.0032154121 -0.0012239654 0.007047357 -0.0018922748
-0.0016717454 0.0010432227 0.004763921 -0.0027961608 -0.004162631 0.00022127754 0.0049130837 -0.0022800132
0.00072418485 -0.00078993826 -0.0006856247 0.0019465716 0.0005414641 -0.0017007821 -0.00032656375 0.00029094296
00000000: 11c6 bc3b d2bd 773b 7523 91bc 1926 c23b
00000010: d797 143c 4b9b cf3b 7354 9fbc 2d93 cb3b
00000020: ca16 a43a 6791 693a 05fb bebb 5559 cb3a
00000030: a1cc 6b3b b3dd 323b 7af8 d4bb 0de2 143b
00000040: 508e ef3a 8e81 b8b7 96b1 bbbb bc1a a33b
00000050: 9cb2 533b d386 443a e742 e0bb f145 e83a
00000060: 0f74 b6b9 e363 b439 7602 2bbb f174 bdba
00000070: b19e 233b 89c5 3c3b faa8 3dbb b975 cb3a
00000080: c13a 1c3b 916c 0c3a 6603 82bb a8b4 b13b
00000090: 8172 2e3a 52e6 4fba fc12 a2bb cfca 333a
000000a0: 9739 523b b76e 2b3a 90a2 8cbb 48a0 0a3c
000000b0: 9a76 aab8 10d9 14bb 304c b4bb a1cf 3fb9
000000c0: f7ce 573b 6833 8d39 2866 4bbb eb71 0a3c
000000d0: af15 52ba 2a4c 5dbb dcaa 89bb 6945 0aba
000000e0: b9d9 253b 1d39 043a a634 0dbb 7617 ec3b
000000f0: e7cc abba 33e8 31bb 628d 4abb 4db3 7cba
00000100: 695b 9dbc 80c9 1cbb 7071 873c ab60 5dbd
00000110: adc6 053c 6fe9 ae3c bf68 be3c b922 cf3b
00000120: 2121 bd3a 315c 1c3b a077 0abc 25d8 bfba
00000130: fa40 ae3b b9ab c03b 03d3 14bc bd88 803b
00000140: 1f39 51bb 2c44 1fbb 2834 333c 3f7c 46bb
00000150: 69b6 babb 82ca 94bb 9d9f 453c 1be0 84bb
00000160: 0438 f83b 9979 353a e2b3 b5ba a27a bf3c
00000170: c9ee 02bc 722f 4dbc d825 7abb 6b2f c0bb
00000180: 6b82 8338 c74e f0ba 1973 49b9 0e2f f23a
00000190: a166 aa3a 75da f0ba c850 8838 9028 173a
000001a0: 5ce0 01bb c9a6 13ba 5629 ca3b b62f 8dbb
000001b0: aab9 52bb 776d a0ba 84ed e63b 3506 f8ba
000001c0: 781e dbba bfbc 883a aa1a 9c3b cb3f 37bb
000001d0: ae66 88bb bd06 6839 effd a03b 466c 15bb
000001e0: 39d7 3d3a dc13 4fba 7fbb 33ba 1b24 ff3a
000001f0: 0af1 0d3a c7ec deba a536 abb9 b489 9839

exp_avg f4 [16]
-0.011578291 -0.0047420613 -0.0028204308 -0.003986851 0.0004837156 0.0023530538 0.0037932214 0.0036597908
-0.026650915 -0.008855626 0.007946759 0.017810643 -0.000367365 0.003218654 0.0032925599 0.00022488658
00000000: dfb2 3dbc 4b63 9bbb fad6 38bb 21a4 82bb
00000010: 359b fd39 b135 1a3b b297 783b 1ad9 6f3b
00000020: 0553 dabc 3017 11bc 2033 023c a0e7 913c
00000030: e59a c0b9 0ef0 523b fdc7 573b 88cf 6b39

exp_avg f4 [7, 16]
-0.002628124 -0.007945848 -0.0030800519 -0.008215864 0.0076875826 -0.0027448912 0.0075130532 0.007952529
0.010755807 -0.004198873 -0.0053251805 0.011147984 -0.0015650082 -0.008152248 0.005343997 -0.0064930334
0.004629863 0.0061478475 0.0047622686 0.008707139 -0.007939141 0.005800192 -0.008564355 -0.013545159
-0.009446609 0.0051172986 0.0056591104 -0.01632313 0.006832905 0.004682615 -0.002925272 0.0062892023
0.0008907452 -0.013028641 0.002654319 -0.006241751 0.0052823834 0.009367299 0.007566024 0.005786621
0.0060031107 -0.0012937066 -0.0074694147 -0.0030937602 0.014420781 -0.020159291 0.0027604206 -0.0035961925
-0.008206132 -0.011371496 -0.009287872 -0.016052056 0.015120748 -0.012080954 0.014871415 0.021249387
0.019787535 -0.0096788285 -0.0098092295 0.030497901 -0.013172835 -0.007955452 0.008338771 -0.012027239
-0.00033615975 0.014596509 -0.0019118264 0.008688349 -0.0075139767 -0.009017089 -0.009845736 -0.01040432
-0.00722416 0.0021186194 0.008686118 0.0003084441 -0.013769071 0.021810917 -0.0018691574 0.0058252118
-0.0067408765 0.004739851 -0.008648487 -0.004255198 0.0054619554 -0.017146973 0.0031527765 0.008757157
0.007321284 -0.0055836025 0.00070486753 0.02337818 -0.02285794 0.013869799 0.0027952597 -0.004632442
-0.003452837 -0.020759705 -0.0030293928 -0.018496437 0.016424678 0.002300148 0.019109866 0.020185681
0.018635545 -0.007321502 -0.013425201 0.016976126 0.0057854205 -0.026018798 0.007431692 -0.014363201
00000000: 9b3c 2cbb 4d2f 02bc b2da 49bb d59b 06bc
00000010: 1ee8 fb3b a2e3 33bb 0f30 f63b 534b 023c
00000020: 2039 303c b396 89bb da7e aebb 09a6 363c
00000030: f620 cdba 0291 05bc b21c af3b 83c3 d4bb
00000040: 1bb6 973b e273 c93b ce0c 9c3b 63a8 0e3c
00000050: 2c13 02bc 890f be3b 8251 0cbc 84ec 5dbc
00000060: f3c5 1abc 03af a73b 0f70 b93b 16b8 85bc
00000070: 90e6 df3b 9f70 993b ecb5 3fbb a715 ce3b
00000080: e680 693a 1576 55bc 15f4 2d3b 9a87 ccbb
00000090: d817 ad3b 4d79 193c 69ec f73b b29d bd3b
000000a0: beb5 c43b 9791 a9ba fec1 f4bb afc0 4abb
000000b0: 2445 6c3c 1925 a5bc 2ce8 343b 19ae 6bbb
000000c0: 0373 06bc 834f 3abc 292c 18bc 9a7f 83bc
000000d0: 04bd 773c 32ef 45bc 3ca7 733c 3213 ae3c
000000e0: 7819 a23c f393 1ebc e4b6 20bc bcd6 f93c
000000f0: e0d2 57bc 9657 02bc 579f 083c e60d 45bc
00000100: 993e b0b9 3226 6f3c 4096 faba 9459 0e3c
00000110: ce37 f6bb 6abc 13bc 0350 21bc e276 2abc
00000120: a5b8 ecbb 89d8 0a3b 3850 0e3c abb6 a139
00000130: ab97 61bc cfac b23c 84fe f4ba 6be1 be3b
00000140: 92e2 dcbb c150 9b3b 62b2 0dbc 306f 8bbb
00000150: 34fa b23b cf77 8cbc d09e 4e3b 2e7a 0f3c
00000160: 62e7 ef3b a7f6 b6bb dcc6 383a 9983 bf3c
00000170: 9340 bbbc 273e 633c ad30 373b bdcb 97bb
00000180: fe48 62bb 4210 aabc c788 46bb d785 97bc
00000190: 0c8d 863c 14be 163b 4b8c 9c3c 715c a53c
000001a0: 92a9 983c 36e9 efbb 60f5 5bbc 8411 8b3c
000001b0: a093 bd3b 6025 d5bc 8d85 f33b a253 6bbc

exp_avg f4 [7]
0.0029989972 -0.007986587 -0.01559478 0.01659185 0.015356056 0.026047241 -0.006338021
00000000: d38a 443b 2cda 02bc 4081 7fbc a2eb 873c
00000010: f897 7b3c 0661 d53c 2caf cfbb

exp_avg f4 [16]
-0.000702215 -0.0009055752 0.012875595 0.00091765984 0.012757081 0.0039007568 0.014850916 -0.0025022174
-0.0120165 0.00209728 0.007610775 0.012061707 0.016971583 0.01731494 0.0005553969 -0.015261166
00000000: da14 38ba 1f64 6dba 29f4 523c 1c8f 703a
00000010: 1303 513c d7a3 7f3b 4251 733c 3efc 23bb
00000020: dbe0 44bc 8572 093b cf63 f93b 779e 453c
00000030: fd07 8b3c 10d8 8d3c 0e98 113a f809 7abc

exp_avg f4 [16]
-0.015440046 -0.012204653 0.010390752 0.003360875 -0.014146359 -0.00047026132 0.001075761 -0.0024416528
-0.039503396 -0.027599737 -0.0014757124 0.023386873 -0.019698074 -0.0041630836 0.0029715572 0.014690375
00000000: 3ff8 7cbc 06f6 47bc f93d 2a3c 2042 5c3b
00000010: 21c6 67bc 688d f6b9 8d00 8d3a 2304 20bb
00000020: 50ce 21bd d818 e2bc b16c c1ba d495 bf3c
00000030: db5d a1bc 7a6a 88bb 75be 423b e6af 703c

exp_avg f4 [8]
-0.0053175176 -0.0017342803 0.0077583287 0.020087682 0.0029474532 0.0071069566 -0.042944424 0.009168317
00000000: 923e aebb ca50 e3ba 9439 fe3b ec8e a43c
00000010: 0f2a 413b 79e1 e83b 7ee6 2fbd b536 163c

exp_avg f4 [8]
0.0075026453 -0.026156902 -0.010282307 0.00873876 0.0037282854 -0.008471291 0.022354968 -0.022937674
00000000: c0d8 f53b 0047 d6bc 1f77 28bc 042d 0f3c
00000010: 4056 743b 2bcb 0abc c421 b73c cae7 bbbc

exp_avg f4 [8, 7]
0.36288157 0.23312525 0.20787598 0.2860262 -0.0016232188 0.11513158 0.41038528 -0.22066988
-0.17571211 -0.06411593 -0.21999553 -0.10505461 -0.1606184 -0.256938 -0.2034748 -0.13227233
-0.09962563 -0.19674125 -0.018272312 -0.10447679 -0.25897828 0.07444341 0.04663422 0.035401326
0.05904136 0.0038912077 0.035539065 0.09049518 -0.28759402 -0.17579842 -0.18790555 -0.23536779
0.03399518 -0.07373666 -0.3464913 0.11004639 0.085906476 0.04416644 0.114683226 0.039899055
0.06422819 0.12679598 0.14163427 0.107906274 0.0496631 0.1364984 0.057038777 0.093810275
0.1691604 0.032412156 0.0034228652 0.04137578 0.04071465 -0.041020375 -0.003129912 0.060192008
00000000: 9dcb b93e 63b8 6e3e 71dd 543e 0772 923e
00000010: 2fc2 d4ba 1bca eb3d 051e d23e 49f7 61be
00000020: e0ed 33be 364f 83bd 8246 61be df26 d7bd
00000030: 2679 24be 618d 83be b35b 50be 6672 07be
00000040: 8608 ccbd 8a76 49be d1af 95bc edf7 d5bd
00000050: cd98 84be c975 983d 8603 3f3d fb00 113d
00000060: 5ad5 713d a203 7f3b 6991 113d 8955 b93d
00000070: 863f 93be 8004 34be 506a 40be 4104 71be
00000080: 883e 0b3d 3f03 97bd 4f67 b1be 0060 e13d
00000090: bcef af3d dee7 343d 0adf ea3d 316d 233d
000000a0: 128a 833d ced6 013e 9308 113e f7fd dc3d
000000b0: 896b 4b3d 3dc6 0b3e 7ea1 693d 9a1f c03d
000000c0: 6238 2d3e 9cc2 043d 2652 603b a679 293d
000000d0: 68c4 263d fb04 28bd 361f 4dbb e58b 763d

exp_avg_sq f4 [8, 7]
0.0032079874 0.0013180561 0.0010618713 0.0020067072 3.4089442e-06 0.00031349843 0.0041445587 0.0011666385
0.0007410366 0.00010043174 0.0012005771 0.00029406932 0.00066395546 0.0016058733 0.0010258526 0.00044174405
0.00024755858 0.00094754447 1.2265235e-05 0.00026346886 0.001630867 0.00013819228 5.6629055e-05 3.085793e-05
8.8213244e-05 2.4995315e-06 3.1935673e-05 0.00020292202 0.0020095753 0.00075095217 0.0008557433 0.0013522939
3.6288136e-05 0.00012966285 0.0029324307 0.00029897923 0.00018372858 5.0480798e-05 0.00032307656 4.233985e-05
0.00010627421 0.00039656504 0.00051931234 0.0002924752 7.117229e-05 0.00049537217 8.243471e-05 0.00022400719
0.0007648815 3.856645e-05 1.4666339e-05 4.170335e-05 4.182394e-05 4.4554454e-05 5.9708924e-07 9.014908e-05
00000000: 193d 523b a0c2 ac3a 7d2e 8b3a f682 033b
00000010: 37c5 6436 0c5d a439 14cf 873b e4e9 983a
00000020: 2042 423a e19e d238 af5c 9d3a 512d 9a39
00000030: 4c0d 2e3a 2b7c d23a e775 863a e299 e739
00000040: c0ca 8139 a264 783a c8c6 4d37 3122 8a39
00000050: d1c2 d53a b5e7 1039 fc84 6d38 736d 0138
00000060: 20ff b838 a0bd 2736 abf2 0538 77c7 5439
00000070: 14b3 033b 8cdb 443a f653 603a 743f b13a
00000080: 1734 1838 1bf6 0739 062e 403b 50c0 9c39
00000090: 44a7 4039 58bb 5338 9a62 a939 1196 3138
000000a0: 88df de38 0fea cf39 7622 083a 5b57 9939
000000b0: 5542 9538 dddb 013a cce0 ac38 79e3 6a39
000000c0: 5482 483a 69c2 2138 720f 7637 a2ea 2e38
000000d0: 1d6c 2f38 fbdf 3a38 a947 2035 6b0e bd38

exp_avg f4 [8]
-0.011107903 -0.0706548 -0.24703439 0.10543857 0.16718684 -0.02997031 0.09719678 -0.059300654
00000000: ecfd 35bc 77b3 90bd 95f6 7cbe 2df0 d73d
00000010: 0733 2b3e 4c84 f5bc 1b0f c73d 3ee5 72bd

exp_avg_sq f4 [8]
0.0002902387 0.00017728264 0.0023265583 0.00050021487 0.0006661356 6.638911e-05 0.00027821923 9.6319476e-05
00000000: 2e2b 9839 f2e4 3939 2c79 183b da20 033a
00000010: 9a9f 2e3a 623a 8b38 f4dd 9139 20ff c938

exp_avg f4 [1, 8]
-0.38224527 0.066800356 0.08101682 -0.47758514 0.4212695 0.6364413 -0.006887365 -0.33889067
00000000: a7b5 c3be a0ce 883d 26ec a53d 0a86 f4be
00000010: a3b0 d73e d1ed 223f 68af e1bb 1483 adbe

exp_avg_sq f4 [1, 8]
0.0038965342 0.00016970937 0.00030524735 0.0054555996 0.0042589805 0.009754135 7.771408e-06 0.0028310248
00000000: ff5c 7f3b 03f4 3139 9b09 a039 e3c4 b23b
00000010: eb8e 8b3b cfcf 1f3c f161 0237 b788 393b

exp_avg f4 [8]
0.306379 0.06640966 0.11483489 0.13669255 0.34833598 0.2631107 7.523914e-05 0.082294025
00000000: b5dd 9c3e ca01 883d 8e2e eb3d 22f9 0b3e
00000010: 1859 b23e 72b6 863e b5c9 9d38 c589 a83d

exp_avg_sq f4 [8]
0.0025050046 0.00016814987 0.0006151175 0.00044775647 0.002912798 0.0016691338 5.3474136e-10 0.00016752623
00000000: 012b 243b 6351 3039 d63f 213a dbc0 ea39
00000010: a4e4 3e3b d6c6 da3a 14fd 1230 fba9 2f39

exp_avg f4 [8]
0.019940209 -0.024706533 -0.035194293 0.007185042 -0.020570174 -0.010332948 0.00016960085 0.006107394
00000000: a659 a33c 5b65 cabc e427 10bd 8070 eb3b
00000010: c882 a8bc 864b 29bc e2d6 3139 8920 c83b

exp_avg_sq f4 [8]
0.00010293626 0.00015831548 0.0003220238 1.3164606e-05 0.00010956299 2.7422957e-05 1.1242882e-08 9.472315e-06
00000000: 7cdf d738 7d01 2639 4ed5 a839 8ddd 5c37
00000010: 2fc5 e538 5a0a e637 b826 4132 48eb 1e37
