saved/gan/slwee5lf/checkpoints/epoch=0-step=20-v2.ckpt (torch, 21906 bytes, 39 tensors)

generator.fc1.weight f4 [16, 7]
00000000: 9c81 13bf 3d0d 56bf 3089 77bf 3252 fa3d
00000010: b8a1 9a3f ed8a 32bf a7fb 98be c30d 0abe
00000020: eec1 b1bf 6f80 1dbf 87dc c83e 48d3 9ebf
00000030: e335 053e a31e ec3e 748d 6f3e 7b7f ab3e
00000040: 8d8b 8a3f fcd6 8cbe 5376 9b3e 7e78 4a3f
00000050: ac28 da3e 0efb d33e e193 7fbe e356 44bf
00000060: b291 e0be f09c c23d 703f 343e af3d cfbe
00000070: 8a97 61bd 2f70 e7bc a8a8 08bf 1c9a 25be
00000080: 96bf 61be 3057 dd3d 44b6 003c 4105 00bf
00000090: 9032 b6be 4771 34bf 7f26 bd3e de19 7a3e
000000a0: 8492 5dbf 4d13 a23d a43f 073e eabb db3d
000000b0: a197 2fbf f5d8 11bf c4f9 9cbd be8c 07bf
000000c0: 2e28 8abf 61e3 cf3e 2757 14be 7a1f 063e
000000d0: 9fd3 253f 97dd bd3e 7054 50be a2d0 043f
000000e0: 815f 31bf af28 95be 246b a73a db2f 30bf
000000f0: 56c1 76bf fb81 c73e 72f7 9c3e 0665 c1be
00000100: 3936 9cbe 302b 29be 98ab a73f 88fb 613f
00000110: 6602 033f ec51 9abe b28b 63bf 9ad9 85bf
00000120: aa17 90be d663 ce3e 3b69 d3be 2c7c 9dbe
00000130: 645e 213f 2221 b83d 739d 913f 9925 3d3f
00000140: 6c73 d5be c61a 9f3f 790e 15bf ce38 263f
00000150: cd9d b63e 27b2 82be d0e9 c33e 6c8c 0dbe
00000160: 3d7b 063e a3c4 1abf e2e7 733e 7051 143f
00000170: 6f85 fcbd 9e44 30be 027a 82bf 9c5e 223f
00000180: a573 8a3d f432 90bf 822c 713f 6bc5 91bd
00000190: f363 c3be 6024 5abf af55 a4be 7998 1bbf
000001a0: b3d4 393f 452c f63e 26ed 37be 5a97 843d
000001b0: 6ec8 58be 42e6 6abd e1a3 d4be 4566 84bf
-0.57619643 -0.8361395 -0.96693707 0.12222709 1.2080603 -0.69743234 -0.29879496 -0.13481812
-1.3887308 -0.615241 0.3923075 -1.2408228 0.13008837 0.46117124 0.23393804 0.33495697
1.0823838 -0.2750777 0.30363712 0.79090106 0.42609155 0.41402477 -0.24958755 -0.7669508
-0.43861157 0.0950259 0.17602324 -0.40476748 -0.05507616 -0.028251735 -0.5338235 -0.1617207
-0.2204574 0.10807645 0.0078559555 -0.50008017 -0.3558545 -0.7048535 0.36943433 0.2442393
-0.8655169 0.079138376 0.1320787 0.10729201 -0.6859074 -0.56971675 -0.076648265 -0.5294913
-1.0793512 0.40603164 -0.14486371 0.13097945 0.64776033 0.37083122 -0.2034471 0.5188085
-0.6928635 -0.29132602 0.0012773019 -0.6882302 -0.9638876 0.38966355 0.30657536 -0.37772387
-0.3051012 -0.16520381 1.3099241 0.8827443 0.51175535 -0.30140626 -0.88885033 -1.0457032
-0.28143054 0.40310544 -0.41291222 -0.30758798 0.63034654 0.089906946 1.1376175 0.73885494
-0.41689622 1.2430046 -0.5822521 0.6493043 0.35667267 -0.25526544 0.38264322 -0.13823098
0.13132949 -0.60456294 0.23818925 0.57936764 -0.12330138 -0.17213675 -1.0193484 0.6342561
0.06760339 -1.126555 0.9420854 -0.071177326 -0.38162193 -0.85211754 -0.3209662 -0.6077953
0.7259018 0.4808065 -0.17961559 0.064741805 -0.21170208 -0.057348497 -0.4153128 -1.034371

generator.fc1.bias f4 [16]
00000000: 465b 84be ad29 9a3e dc41 fb3c f874 cabd
00000010: 9a53 aebc a441 3c3e 5092 fa3d 7739 953e
00000020: a268 19be 9fa7 873e 540f d83d 28c0 983d
00000030: 2acc 51bd 164c 733d fa80 99be f645 3dbd
-0.25850886 0.3010992 0.030671053 -0.09885591 -0.021280099 0.18384415 0.12234938 0.29145405
-0.1498132 0.26495072 0.105497986 0.07458526 -0.051220097 0.059398733 -0.29981214 -0.046209298

generator.fc2.weight f4 [8, 16]
00000000: 9efa 86be c2aa 66be 3b2c 14bf fe36 7e3e
00000010: 97c4 cdbe 8a94 963e 74e4 3fbe bbd3 bb3e
00000020: f86d 813e c0c1 393f d804 10be cc3a b5bd
00000030: 0b5e 033f 886f c93d 5ea6 fd3e 8977 493e
00000040: 5f91 babe 9b6c 963e 7e94 18be 2645 78bf
00000050: b4e2 c13d 242a 3aba 2794 bcbe bb13 303f
00000060: e0af fb3d 90e2 59bf 0a33 993d 5a25 b53e
00000070: c93a 863c a776 323e 05d6 26be a7c7 c5be
00000080: 42b8 29be d2e1 25bf 00d6 2fbe e4ce d4bd
00000090: 4c61 cd3b 3456 0dbd dc0a 6bbe a62f 17be
000000a0: 7406 0c3f 38de 70bb 6e1c 42be 6273 bbbe
000000b0: 6ce0 293f da9a acbe 5ccf adbe 5977 c8be
000000c0: 48a2 873e fb4b 13be 75db 0ebe 2310 703e
000000d0: de75 2f3c b548 253f 10f1 10bf 48ba 85be
000000e0: f152 ce3d 5c6d 96bd 3f6d 80bf e416 3bbd
000000f0: 4231 62be 1326 53bf d027 c6bd 5893 d13e
00000100: 6a77 2dbd 9100 f23e 46dc 08be 531a e8bb
00000110: 08d2 60bd 670d b2be 3c5e 953d c3bd 00bf
00000120: 665b bbbd 5df1 1fbe edf3 6ebe 43a4 2bbe
00000130: f4e0 293d d7a3 34bd 94d4 14bb 8e7b 5fbe
00000140: d4a9 3c3f a74e 9c3e 178d 8b3e 9a4f b83e
00000150: 6f89 053f b151 473e 1284 f53e 4bf8 56be
00000160: 6a76 0b3f 80c6 0fbe 3bda eebe 0f6a 9f3d
00000170: d877 95be b85a d13e 475a 89be b8b4 713d
00000180: 1a8e 04bd 8146 54be 640b 97bd b23f a4bd
00000190: 64cf 033e 7879 d83b 8626 c83e d187 a3bc
000001a0: 759b a43d c47e 13bf c6c4 8fbe c9c9 ae3e
000001b0: 47d2 9ebd fee3 acbd 50f7 413e 7883 adbd
000001c0: 837d 5fbf 0253 b4bd 66be e03d e375 80be
000001d0: 9919 643e 5714 1c3f 75fa a53e be71 ffbe
000001e0: 780e 0f3f d66f 87bd 78a5 37be 033a 123e
000001f0: f908 9cbe 74bb 64be a226 1f3d 717f 6a3e
-0.2636308 -0.22526076 -0.5787999 0.24825665 -0.4018905 0.294102 -0.18739492 0.36684975
0.25279212 0.72561264 -0.14064348 -0.08849105 0.51315373 0.09835726 0.4954099 0.19674505
-0.36439034 0.29379734 -0.14900395 -0.9698051 0.09467068 -0.00071016164 -0.3683178 0.68780106
0.12289405 -0.8511133 0.07480438 0.3538006 0.016385453 0.17428075 -0.1629258 -0.38628885
-0.16574195 -0.647977 -0.17171478 -0.10391024 0.006267702 -0.034506038 -0.22953361 -0.1476427
0.54697347 -0.0036753546 -0.18956158 -0.36611468 0.66358066 -0.33711892 -0.33947265 -0.39153555
0.26490998 -0.14384453 -0.13950904 0.23443656 0.010709254 0.6456407 -0.5661783 -0.26118684
0.100744136 -0.073450774 -1.0033339 -0.045676127 -0.22089103 -0.8247997 -0.096755624 0.40932727
-0.04235021 0.47266057 -0.13365278 -0.007083216 -0.0548878 -0.3477585 0.072933644 -0.50289553
-0.09148292 -0.15619417 -0.23335238 -0.1676188 0.041474298 -0.044101562 -0.0022709714 -0.21824476
0.7369664 0.30528757 0.2725608 0.3599823 0.5216283 0.19464757 0.47952324 -0.20993154
0.5447756 -0.14040565 -0.46650872 0.07783901 -0.29192996 0.40889525 -0.2682669 0.059010237
-0.03236208 -0.2073002 -0.073752195 -0.080199614 0.12872082 0.006606277 0.3909189 -0.019962223
0.080374636 -0.57615304 -0.28079814 0.34138325 -0.07754951 -0.084419236 0.18941998 -0.08472341
-0.8730089 -0.08804895 0.109738156 -0.2508994 0.2227539 0.60968536 0.32417646 -0.49891466
0.5588145 -0.06613128 -0.17934215 0.14279942 -0.30475596 -0.22337133 0.038855202 0.22900178

generator.fc2.bias f4 [8]
00000000: 7442 2ebe d48a cabd f451 d33d 4e14 7abd
00000010: d41b 62bd 92c4 383e 388b c2bd 34cd 3b3c
-0.17017537 -0.098897606 0.10318366 -0.06105452 -0.05520232 0.18043736 -0.0949921 0.011462498

generator.fc3.weight f4 [16, 8]
00000000: 4188 09be fdf3 043e 5826 b33e 51a4 c4be
00000010: d6f0 c93e e29b 5bbf 0a82 813e be0f 9abe
00000020: e629 123f cf2e 013f 475a 3abf bb22 253e
00000030: c961 afbe 474c d6be 1b76 e0be eec5 1f3d
00000040: 78c5 8a3e 2dc7 5e3e b3d7 d73e 5237 85bc
00000050: 5b46 0c3d b25e cf3e 562a f43d a6f3 9a3f
00000060: 03b0 d03e 2a6c 2dbf 5690 053f b769 b43e
00000070: f61a c23d 33dc 33bf b61a a63f 81ca 0ebf
00000080: f675 123f a09a 53be 3f27 45be 16b0 bc3e
00000090: 0956 d83e 82eb babd a7ef a8be 6efd 2d3e
000000a0: 4b9d 3a3f 1bd1 25bf 20aa 0cbe b6cf 50bf
000000b0: 7433 6fbe 7d87 1a3e 0cfa 153f d07d 0e3e
000000c0: b0bb 5e3e aac6 c2be 821c 84be f8be 7abe
000000d0: 501a 703e e120 28be fdd5 0fbe ba94 1c3f
000000e0: c3a7 2f3f 5ef7 fbbe 9150 05bf 0b52 46bd
000000f0: 1bbc 25be 9e5f 86be 9ab9 01be 1807 d8be
00000100: 5285 14be 0e34 b8be 3f8d be3e d833 0fbf
00000110: 5cfd d33d 81fa c43d 1002 db3e ad28 aebe
00000120: 7167 fd3d 1509 8c3f a765 12bd 15be 1d3e
00000130: 72a9 c2be 134a 1b3f 242d 8dbe 1923 2e3f
00000140: ca94 dcbe 083b 65be 8c11 9dbe dee5 543d
00000150: 7911 5b3f 4d18 e0bf 2198 aa3e 0e69 bb3e
00000160: bd05 45bf 5e37 0e3f 84e4 e13e d117 8abe
00000170: 05ed 473f f6a6 6b3e 119f 30bf e7d7 dabd
00000180: c7ed 16bf bb44 b7bd 6c2b 3f3f 4e18 ff3d
00000190: 0187 b6bd 16d7 e5be 964e 8a3e f7bf 663f
000001a0: f0eb 013e c188 1b3e 44d1 80bf 2455 b5be
000001b0: 7c4d 37bd ce40 2e3f 9642 4f3f 27d2 f7be
000001c0: de1f 493d 9988 233e 478c 793e 22f6 68bf
000001d0: a70f 893f 63a4 ab3d e75e 17bf 37fc 72bf
000001e0: 95e3 ccbd 128d c63e e41f 783e b17c 483d
000001f0: 5d70 14bf f61f 323e 3bdd a6bf 5604 1b3d
-0.13430883 0.12983699 0.3499019 -0.38406613 0.39441556 -0.85784733 0.25294524 -0.30090135
0.5709518 0.5046205 -0.72794 0.1612653 -0.34254292 -0.4185507 -0.43840107 0.03900712
0.27103782 0.21755667 0.42156753 -0.01626173 0.034246784 0.40501934 0.119221374 1.2105606
0.40759286 -0.6774317 0.52173364 0.35236904 0.09477799 -0.7025787 1.2976902 -0.55777746
0.57211244 -0.20664454 -0.19253252 0.36853093 0.4225314 -0.09126951 -0.3299534 0.16991207
0.7289626 -0.64772195 -0.13736773 -0.8156694 -0.23359472 0.15090747 0.58584666 0.13915181
0.21751285 -0.38042194 -0.25803 -0.24486911 0.23447537 -0.16418792 -0.14046474 0.6116444
0.6861536 -0.49212164 -0.5207606 -0.048418086 -0.16185038 -0.26244825 -0.12668458 -0.42192912
-0.14503983 -0.35977215 0.37217137 -0.5593848 0.10351059 0.09618092 0.4277501 -0.34015408
0.123732455 1.0940272 -0.035741474 0.15404542 -0.38019902 0.60659903 -0.27573502 0.68022305
-0.43082267 -0.223858 -0.3067745 0.05197703 0.85573536 -1.7507416 0.3331919 0.36603588
-0.7696188 0.55553234 0.44119656 -0.26971295 0.7809604 0.2301291 -0.68992716 -0.10685711
-0.5895657 -0.08948656 0.7467563 0.124558076 -0.08912469 -0.4489066 0.2701308 0.90136665
0.1268766 0.15188886 -1.0063863 -0.3541652 -0.04475163 0.68067634 0.8096098 -0.4840252
0.049102657 0.15970077 0.24369918 -0.9100057 1.0707902 0.08380964 -0.59129184 -0.949161
-0.10004345 0.38779503 0.24230915 0.04894704 -0.5798395 0.17395005 -1.3036264 0.037845932

generator.fc3.bias f4 [16]
00000000: b42c 93bd dab1 593d c49d d0bd 143c 11bc
00000010: 7cce 653e 5dad 99be 5f6f 38be 3ca9 e53d
00000020: 5765 b13e e5e8 a23e 084f c9bd 4e8e f2bc
00000030: 2bbe 20be d47e b4be b158 a43e 1125 e9bc
-0.07186261 0.053148128 -0.101863414 -0.008864421 0.22442049 -0.30015078 -0.18011235 0.112139195
0.3464763 0.3181831 -0.09829527 -0.029608872 -0.15697543 -0.35253012 0.32098916 -0.028460057

generator.fc4.weight f4 [7, 16]
00000000: 1c02 06bf 312a 46be 31ed 1a3d 7ee1 27bf
00000010: 4622 2abe a86e 463f eda1 643e 67cd 033f
00000020: ddd8 1d3e 937e e1bd 8c95 ffbb 00cd f63d
00000030: cf66 cc3d 0f62 053e c7a2 4ebe a797 cf3d
00000040: c66c 313e b933 e9be c32f 7dbd 6e01 df3e
00000050: 30c5 1ebf 401d 063f 081f 0c3e 883c 3d3e
00000060: 62dc 1c3e 709f e63e a399 093f 8dae f0bd
00000070: c870 1b3f cae5 48be 4fa7 1cbe 4991 183f
00000080: f5fa af3e 9946 b93d e695 76be cf12 f0be
00000090: 081d 483f 3b46 eabe 5db4 2a3f 5ffd 763e
000000a0: 402a 24bc b0c2 aebd ef77 58bf c02e 5abd
000000b0: 9fef 153f d6f0 2ebe ec93 053f b4df 543d
000000c0: 7ae8 4a3e 792a 0dbf bc53 913d 8cee 223e
000000d0: efad b63e be25 ac3d 182b 83be d88d 7b3e
000000e0: 8276 ce3e 8dfc 453d 21fe 13be 6390 913e
000000f0: 9c35 0bbf 8e63 b53e 9dd2 6ebe 2d25 853e
00000100: 206a 7cbe 7a72 293f 7b0e 6c3e f082 dd3e
00000110: f7bc 523e 9957 9e3d 53bd 04bd a7cb bc3d
00000120: 4bfc 013f 6996 053e 73be 64bd d1a1 353e
00000130: 7af1 a9be c893 b0bd c7c9 9cbe 87ba eabe
00000140: 70a2 78bc ac41 d13e be48 0fbd 8b15 0a3e
00000150: 1097 ea3d 56b1 c2be 415a 303e c01f 0bbf
00000160: b852 6c3e 3982 fb3c eb60 fbbe 5a5f 75be
00000170: 88b3 66be bab5 6e3e cd76 753d 75e3 f9be
00000180: 6996 bfbe 859c 08be 6b68 e8be 1766 923e
00000190: 5559 d63d 24a5 6e3e 1982 983e e77e 3c3f
000001a0: c89a 253f 90e8 833d 84b8 00be b721 fc3d
000001b0: e6c8 f2be 89b3 7abe 527a 7a3e 246d 33be
-0.5234697 -0.19352032 0.03782386 -0.6557845 -0.16614637 0.775126 0.22327395 0.51485294
0.15414758 -0.1101047 -0.00779981 0.120508194 0.09980547 0.13025688 -0.20179282 0.10136347
0.1732665 -0.45547274 -0.061813127 0.43555778 -0.62019634 0.5238838 0.13683712 0.18480122
0.15318444 0.45043516 0.53750056 -0.11752043 0.60718966 -0.19618908 -0.15298198 0.5959669
0.34371153 0.090466686 -0.24080619 -0.4688935 0.781693 -0.45756707 0.6668146 0.24120091
-0.010019839 -0.085332274 -0.84558004 -0.05326724 0.5856876 -0.17084059 0.52178836 0.051971152
0.19815245 -0.55142933 0.07096049 0.15911311 0.35679576 0.08405636 -0.25618815 0.24565828
0.4032479 0.048336554 -0.14452411 0.2843047 -0.54378676 0.35427517 -0.2332253 0.26004925
-0.24649858 0.661903 0.23052399 0.4326396 0.20579897 0.07731552 -0.032407116 0.09218531
0.50775594 0.13045658 -0.05584569 0.1773751 -0.33192044 -0.08621937 -0.30622694 -0.45845434
-0.015175447 0.40870416 -0.03498148 0.1348478 0.11454594 -0.38025922 0.17221929 -0.5434532
0.2307843 0.030701743 -0.4909738 -0.23962155 -0.22529423 0.2331151 0.05992775 -0.48806348
-0.3741944 -0.13340957 -0.45392165 0.28593513 0.104662575 0.23305184 0.29786757 0.7363114
0.646893 0.06440842 -0.12570387 0.12311118 -0.47418898 -0.2448255 0.24460724 -0.17522103

generator.fc4.bias f4 [7]
00000000: 66d1 05be cc90 cc3d 3c13 ecbd 98d7 353e
00000010: 0844 ee3d 7a7e 1f3e d2ca 04be
-0.1306816 0.09988555 -0.11527106 0.17758024 0.1163407 0.1557559 -0.12967995

generator.layer_norm_hidden_0.weight f4 [16]
00000000: a670 7d3f b247 813f b8f3 7d3f a670 7d3f
00000010: a670 7d3f b8f3 7d3f a670 7d3f b8f3 7d3f
00000020: a670 7d3f 8a41 803f a670 7d3f b247 813f
00000030: a670 7d3f a670 7d3f 1483 803f 8a41 803f
0.9900001 1.0100005 0.9920001 0.9900001 0.9900001 0.9920001 0.9900001 0.9920001
0.9900001 1.0020001 0.9900001 1.0100005 0.9900001 0.9900001 1.0040002 1.0020001

generator.layer_norm_hidden_0.bias f4 [16]
00000000: 0bd7 233c 0bd7 23bc 6f12 03bc 0bd7 233c
00000010: 0bd7 23bc a79b c43b 0bd7 233c 0bd7 233c
00000020: 0bd7 233c 0bd7 233c 0bd7 233c 0bd7 23bc
00000030: 0bd7 233c 0bd7 233c 0bd7 23bc 6f12 033c
0.010000001 -0.010000001 -0.008 0.010000001 -0.010000001 0.0060000005 0.010000001 0.010000001
0.010000001 0.010000001 0.010000001 -0.010000001 0.010000001 0.010000001 -0.010000001 0.008

generator.layer_norm_hidden_1.weight f4 [8]
00000000: b247 813f b247 813f a670 7d3f b247 813f
00000010: b247 813f a670 7d3f dcf9 7e3f a670 7d3f
1.0100005 1.0100005 0.9900001 1.0100005 1.0100005 0.9900001 0.99600005 0.9900001

generator.layer_norm_hidden_1.bias f4 [8]
00000000: 6f12 833b 0bd7 23bc 0bd7 233c 0bd7 23bc
00000010: 0bd7 23bc 0bd7 233c 6f12 833b 0bd7 23bc
0.004 -0.010000001 0.010000001 -0.010000001 -0.010000001 0.010000001 0.004 -0.010000001

discriminator.fc1.weight f4 [8, 7]
00000000: 25b8 bcbe 5080 9bbc 4b10 0bbf d60d d9be
00000010: 7ef3 40bf 4d31 57bf 956e 8c3f d3da c63e
00000020: ba8d c0be 4294 c1be 3c4a 14be 105d ee3d
00000030: fe58 eb3e ed8f 4cbf e80c f5be 6c64 793d
00000040: f573 33be f1e2 013f 3ae0 55be d8b7 db3e
00000050: c9bd 02bf 7e2a 5fbf b683 36bf 9129 afbe
00000060: 3c7a 803e 135b 4a3e 4d92 22bf 7e44 dd3d
00000070: e14a 01bd 9026 b73e aed6 963e b312 633f
00000080: d822 c2ba 016d e43e 2c53 373f ef75 823e
00000090: c5a5 fe3e fd45 99be 598b ac3e dd67 aebf
000000a0: d389 09bf 8ba5 afbe 8977 ad3e 292c 053e
000000b0: 3953 37bf 2252 9d3f 7b10 a33e ce49 73be
000000c0: bead 2d3f fde9 093c 4c26 8c3e bfdb 5dbe
000000d0: 19c0 513e 1d24 dc3e 1bb7 16be d4eb c13e
-0.3685924 -0.018982083 -0.54321736 -0.42393368 -0.7537154 -0.840596 1.0971247 0.38838825
-0.3760813 -0.37808424 -0.14481443 0.11638844 0.45966333 -0.79907113 -0.4786141 0.060886785
-0.17524703 0.5073691 -0.20886317 0.429137 -0.5107084 -0.8717421 -0.71294725 -0.342114
0.25093257 0.19761305 -0.6350449 0.108040795 -0.03156555 0.35771608 0.29460663 0.8870041
-0.001481141 0.44614413 0.71611285 0.254806 0.49735847 -0.2993621 0.33700064 -1.3625447
-0.5372593 -0.34305987 0.3388026 0.13005127 -0.7161136 1.229069 0.3184851 -0.23758623
0.67843235 0.008417604 0.27372968 -0.21665858 0.20483436 0.42996302 -0.14718287 0.37875235

discriminator.fc1.bias f4 [8]
00000000: c294 aa3d 522b 8b3e 536b a63e 1bcf be3d
00000010: beb3 b5be ad56 1e3e a0fa fb3d 4981 b3be
0.083291546 0.27181488 0.32503757 0.09316846 -0.35488695 0.15462752 0.12303662 -0.35059574

discriminator.fc2.weight f4 [1, 8]
00000000: ecef b9bd 1e6b b0be c63b 73bd 548e 0cbf
00000010: 77ce 883e e3cc e13e 22c9 23be f6f9 713f
-0.090789646 -0.34456724 -0.059383176 -0.54904675 0.2672002 0.4410163 -0.15994695 0.94522035

discriminator.layer_norm_hidden_0.weight f4 [8]
00000000: 6099 7d3f 39d2 803f a592 7d3f 79df 7d3f
00000010: ef76 7d3f 7afe 7f3f 31fd 803f a774 7d3f
0.99062157 1.0064155 0.99051887 0.9916912 0.99009603 0.99997675 1.0077268 0.9900612

discriminator.layer_norm_hidden_0.bias f4 [8]
00000000: a6b5 19bc 209d 1abc 2d59 19bc c954 1abc
00000010: 752d 1a3c 9e73 1a3c 5acb 1abc 215e 1a3c
-0.009381687 -0.009436876 -0.00935964 -0.009419628 0.009410252 0.009426979 -0.009447897 0.009421856

exp_avg f4 [16, 7]
00000000: b63c b73c a088 b73c d978 3f22 ec4e b63c
00000010: 74e1 b43c 13d2 b73c 7b33 d63b ca2e b23c
00000020: 9cac b23c e168 b621 e722 b23c 16bc b13c
00000030: 18c0 b23c c928 333b 6811 a0ba 84d3 a5ba
00000040: e7f9 ab20 ad5b a5ba 058d b1ba 5a73 a4ba
00000050: df97 5039 a1a4 123b 6942 143b 401d 9d1f
00000060: cd94 133b edbc 143b 1423 143b 89fc e339
00000070: f9e1 ddba 7590 e1ba b442 e320 52a1 e3ba
00000080: 746d ebba 1c5a e0ba 8724 5f3a 1d77 b2bc
00000090: 3417 b3bc 9c9b d1a1 b69a b2bc ce8a b2bc
000000a0: c51c b3bc bc02 30bb 09f1 d1bb a363 d3bb
000000b0: a08f 8520 d6de d3bb d562 d6bb 5ffc d2bb
000000c0: 5a86 323a 6403 c23a 17cc c43a abe8 81a0
000000d0: 6ab9 cb3a c68a d93a e236 c23a c6d1 10bb
000000e0: a474 21bc 9c16 22bc 298d 8aa0 6cbe 21bc
000000f0: a4dc 21bc 6316 22bc bb3a 83ba a81a 8139
00000100: 4ce9 a739 3de2 8aa1 d0c9 bd39 a39e 113a
00000110: 15f4 9839 02ca 2abb 92c3 04bb 75bb 03bb
00000120: 3fc4 22a1 f32a 00bb d10a f7ba dbac 04bb
00000130: 517e 39bb d94f 60bb fa2d 63bb bf2e b720
00000140: 6c6d 66bb 1aa6 6ebb 95b2 61bb 78ec 2e3b
00000150: ab93 103c 74ea 103c 4448 4821 92c1 103c
00000160: 86c8 103c 7bea 103c 3ebb bc39 4f49 2d3c
00000170: caf1 2d3c abdd 9421 ace6 2c3c 395c 2c3c
00000180: fd19 2e3c d573 253b aa91 77bb 93ae 77bb
00000190: 1b30 64a1 e7c8 78bb a19c 79bb 9e58 77bb
000001a0: 9daa 753a 3eea 45bc c04b 46bc 585c c8a1
000001b0: acfe 44bc 988e 43bc 2a97 46bc 5979 60bb
0.022367816 0.022404015 2.5949303e-18 0.02225443 0.02208016 0.022439038 0.0065368987 0.021750826
0.021810822 1.2360561e-18 0.021745158 0.021696132 0.021820113 0.0027337542 -0.0012212219 -0.0012651538
2.9133898e-19 -0.0012615822 -0.0013546055 -0.0012546584 0.00019893002 0.0022375959 0.0022622591 6.6540476e-20
0.0022519112 0.0022695616 0.0022603916 0.00043484967 -0.0016928307 -0.0017209189 3.8499436e-19 -0.0017366803
-0.0017961697 -0.0017116698 0.0008512218 -0.021785313 -0.02186165 -1.420358e-18 -0.021802288 -0.021794703
-0.021864304 -0.0026857099 -0.0064069075 -0.0064510866 2.262612e-19 -0.006465773 -0.0065425434 -0.0064387764
0.0006810181 0.0014802036 0.0015014437 -2.2007417e-19 0.0015542929 0.0016597144 0.0014817382 -0.002209769
-0.009854469 -0.009893086 -2.3471521e-19 -0.00987206 -0.009879265 -0.009893033 -0.001001201 0.00024624658
0.00032026542 -9.411129e-19 0.0003619925 0.000555495 0.00029173555 -0.0026060347 -0.002025817 -0.0020100747
-5.5147465e-19 -0.001955685 -0.0018847828 -0.0020244631 -0.002830405 -0.003422728 -0.0034664855 3.103234e-19
-0.0035160435 -0.0036414922 -0.0034438719 0.002669124 0.008824269 0.0088449605 6.785828e-19 0.008835213
0.008836871 0.008844967 0.0003599766 0.01057656 0.010616729 1.0087545e-18 0.010553043 0.0105200345
0.010626313 0.0025246043 -0.0037776032 -0.0037793263 -7.731307e-19 -0.0037961544 -0.0038087743 -0.003774203
0.00093714317 -0.0120797735 -0.012103021 -1.357697e-18 -0.012023609 -0.0119358525 -0.012121001 -0.0034252016

exp_avg f4 [16]
00000000: d978 bfbc e268 36bc e7f9 2bbb 421d 1dba
00000010: b442 63bb 9b9b 513c 9d8f 05bb abe8 013b
00000020: 298d 0a3b 3de2 0a3c 3fc4 a23b bf2e 37bb
00000030: 4548 c8bb aadd 14bc 1a30 e43b 595c 483c
-0.023373054 -0.011133404 -0.0026241483 -0.00059934345 -0.003467721 0.012793447 -0.002037979 0.0019822519
0.0021141267 0.008476791 0.004967242 -0.0027951447 -0.006112131 -0.009086052 0.006963742 0.012229049

exp_avg f4 [8, 16]
00000000: a569 4939 2a58 f33a 9556 4dbb f7b8 2639
00000010: f546 8239 87fa ca3a dd7d 1d3b dba2 feba
00000020: 10c4 833a 84eb 64bb e39b b23a c851 4cbb
00000030: 84ff 8b39 7661 a33a 133d 1a39 deec a83a
00000040: 1aa7 e0ba d223 5fbc 5456 3f3c 738b 083b
00000050: d71a 61b9 8bb9 ccbb b5b7 cfbb 075c 2c3c
00000060: bbf2 3fbc 4a59 973c 18d3 4ebc bc66 493c
00000070: 2614 26ba 503e 2c3b 9ce5 27bb 8fa7 01bb
00000080: 7a7a 873b 0b99 76ba 2892 78bb 0d63 833b
00000090: 8098 6d3b 0a67 683a 6be3 9539 a109 b2bb
000000a0: e789 173b 2bbc 34bc bbc5 c939 943a 9bbb
000000b0: e4a6 663b fa3a 9fb8 9f62 8e3b 54ea 103b
000000c0: fe8a 63bb 7ea1 b0ba 49be cc3b c290 4bbb
000000d0: 351a 48bb 2cd5 eeba d174 dfba 7f53 c73b
000000e0: 4951 61bb bfcf 483c b8b1 3dbb 5bc6 e33b
000000f0: 10d3 53bb b2b6 26ba 0bbe 8abb 56a9 1ebb
00000100: 0718 22bc 0525 62bd 20be 3d3d f512 033c
00000110: 22d6 d4ba 894a cebc ec9d c9bc c786 3f3d
00000120: a7ed 53bd 078a 9b3d f0b9 57bd e524 4d3d
00000130: 6e4a 27bb d312 6a3c 30d9 21bc 2860 fcbb
00000140: d305 bf3b 69f5 44bc 4661 ff3a 6458 0b3c
00000150: c8f5 c43b 206d 82bb cbc4 c2bb 5f9c 55b9
00000160: 3f8c 98bb fdfc 9cbb 4559 0ebc edcb 8a3a
00000170: e8f5 d03b e1e6 f13a 01c4 eb3b 8a1f 9e3a
00000180: b391 783b c6c7 af3c 26b8 95bc bc9b 14bb
00000190: 91d7 cc3a 2c83 1a3c ec73 f03b 177b 8cbc
000001a0: 13dd a13c 8178 12bd a02d ad3c 20c4 97bc
000001b0: b83a 433b 235e e0bb e379 103c 3fdb 1c3b
000001c0: 07ff 273b 2c5d 303d 1f55 f0bc 5b5c 32bc
000001d0: 5df6 42bb c4ef 8e3c 94a3 8a3c 16c8 edbc
000001e0: a73e 173d b42f 38bd 81c1 243d 1915 febc
000001f0: 5b76 0abb de5b 45bc e61c 393b 0e97 213b
0.0001920821 0.0018565704 -0.0031332124 0.00015899898 0.000248484 0.001548604 0.002403132 -0.0019427197
0.0010052938 -0.0034930417 0.001362678 -0.0031176675 0.0002670252 0.0012464959 0.00014709336 0.0012887975
-0.0017139644 -0.01361938 0.011678297 0.0020835071 -0.00021467671 -0.0062477044 -0.0063390383 0.010519988
-0.011715586 0.018475194 -0.012623571 0.01229256 -0.00063354 0.0026282258 -0.0025619036 -0.001978371
0.0041344734 -0.00094069605 -0.0037928913 0.0040096105 0.0036254227 0.00088654517 0.00028588934 -0.0054332768
0.0023122968 -0.011031191 0.00038485028 -0.0047372077 0.003519469 -7.592696e-05 0.0043452526 0.0022112327
-0.0034720297 -0.0013475863 0.0062482697 -0.0031061624 -0.0030533199 -0.0018221489 -0.0017048364 0.0060829516
-0.0034380725 0.012256562 -0.002894504 0.006951136 -0.0032321848 -0.0006359621 -0.0042340807 -0.0024209819
-0.009893424 -0.055211086 0.046323895 0.008000125 -0.0016238133 -0.025182026 -0.024611436 0.046759393
-0.051740315 0.07594686 -0.05266756 0.050084013 -0.0025526541 0.014286715 -0.009878442 -0.0077018924
0.0058295517 -0.012021401 0.0019483946 0.008504961 0.0060107447 -0.003980294 -0.0059438697 -0.00020371516
-0.0046553905 -0.0047909007 -0.008688276 0.0010589339 0.0063769706 0.0018455648 0.0071949963 0.0012063843
0.003792864 0.021457564 -0.018276285 -0.0022675833 0.0015628209 0.009430688 0.0073380377 -0.017148538
0.019758737 -0.035759453 0.02113992 -0.018526137 0.0029789638 -0.0068471595 0.008818123 0.0023934392
0.0025634186 0.043057606 -0.029337464 -0.010886277 -0.0029748895 0.017448314 0.016923703 -0.029026072
0.036924984 -0.04496737 0.040223602 -0.03101592 -0.0021127674 -0.012045829 0.0028245985 0.0024656686

exp_avg f4 [8]
00000000: 887f abba 78d5 b439 6646 0cbc 5193 fd3b
00000010: 57db 0b3a 9032 70bc f5d7 5ebb 5e7a 243c
-0.0013084272 0.00034491322 -0.008561706 0.0077385087 0.00053351134 -0.014660493 -0.0034003232 0.01003894

exp_avg f4 [16, 8]
00000000: 71d3 0dba 9b2e b93b 0f2f 78ba 8a37 90ba
00000010: dcca 25ba c2b2 c5ba b767 52ba 5bae cbb8
00000020: a831 a53c eaf6 c93b 54c8 cdbb b6d7 cabb
00000030: 09d2 77bb 4952 a0bb 93d6 29bc adc2 ab3b
00000040: 78f1 afbb f4b1 f03b fd68 91bb 5515 dfbb
00000050: f8f8 6e3b 827b 4a3a cf3e a3bb 6b44 203c
00000060: a20e 66bc 3461 c43a e0a5 853a 4975 023a
00000070: d7b8 413b 9c98 2c3b 4af8 7e3b 840d c53a
00000080: 72fb 2b3d 69ca 59bb 50a4 1dbb 6a13 a038
00000090: 1817 2cbc 2b69 0cbc 8c91 20bc 0dec efbb
000000a0: 1935 4dbd 6800 503b c2b4 2a3b bb58 2eb9
000000b0: a8b2 4d3c 0031 373c 5e32 413c eeb7 0f3c
000000c0: 4a50 3e3c 6bf0 4fbb 6c19 6a3a f6c9 e93a
000000d0: 0ecf 53bb 2949 06bb a075 3bba eb70 a6bb
000000e0: 2659 48bc 0f25 40bb ce11 1a3b da28 e83a
000000f0: 9337 223b 2ad4 6c3b 69bb af3b 6837 eeb9
00000100: 8084 bb3b 5779 34bb 2d83 8538 bc2e cdb9
00000110: f09b 64ba 9c56 9ab9 1753 0aba 03eb 74ba
00000120: b225 89bc 829c 65bb 1709 5e3b 8224 3b3b
00000130: 7935 8b3b 51e4 7e3b cdf1 ce3b ed41 07ba
00000140: 40b8 8bbb 24a9 373b 234d ccb7 a623 14ba
00000150: 9209 183a 4225 76b9 7d82 103a 34f0 983a
00000160: 77c4 503c 635c a8bb ebce 1d3b aab9 8d3b
00000170: e74c 94bb 2dc6 20bb b11d 913a 56c5 09bc
00000180: d4a2 1ebc 39c7 9a3b fcb8 6dbb 5db5 bbbb
00000190: b39c 963b daad 1e3b ba81 4cbb 41b2 293c
000001a0: fb68 bd37 c07b 5f3b 6b43 e5ba e6a1 19bb
000001b0: 2008 a039 2709 89b9 1874 e4ba fdaf 1a3b
000001c0: 2c6f 283d 38aa 20bc 35a5 423b 6e55 023c
000001d0: 136c 52bc c4fa 0ebc 1c89 36bb a705 91bc
000001e0: 3821 21bd a3a3 663a 1d00 813b 839b 2e3b
000001f0: 6a3d 143c 8cea 023c 7587 333c 5691 743b
-0.00054102304 0.0056513078 -0.00094674615 -0.001100288 -0.0006324479 -0.0015083181 -0.0008026319 -9.7122705e-05
0.02016528 0.0061634677 -0.0062799845 -0.0061902655 -0.00378144 -0.0048926217 -0.0103661 0.005241713
-0.0053693615 0.0073454324 -0.0044375644 -0.006807963 0.0036464315 0.00077240926 -0.0049818526 0.009781937
-0.014041575 0.0014982582 0.0010196529 0.00049765833 0.0029559636 0.002633608 0.0038905316 0.0015033935
0.041987844 -0.0033232218 -0.0024054237 7.633011e-05 -0.010503553 -0.008569996 -0.009800326 -0.0073218406
-0.050099466 0.0031738523 0.0026047681 -0.00016626988 0.012554802 0.011181116 0.011791794 0.00877188
0.011615822 -0.0031728994 0.000893018 0.0017836678 -0.003231946 -0.0020490384 -0.00071510114 -0.005079379
-0.012228286 -0.0029318964 0.0023509148 0.001771237 0.0024752363 0.0036137202 0.005362917 -0.00045436178
0.0057225823 -0.0027538144 6.3663676e-05 -0.00039135467 -0.0008720746 -0.00029437698 -0.00052766636 -0.0009342881
-0.016741607 -0.0035035913 0.003387993 0.0028555696 0.004248318 0.0038893411 0.006315446 -0.0005159665
-0.0042639077 0.00280244 -2.4354615e-05 -0.0005651064 0.0005799766 -0.00023474268 0.00055126083 0.0011668266
0.012742153 -0.0051379665 0.0024079632 0.0043251114 -0.004525769 -0.0024532184 0.0011071471 -0.008408865
-0.009682376 0.004723456 -0.003627359 -0.0057284073 0.0045963167 0.002421251 -0.0031205253 0.01035744
2.2579441e-05 0.003410086 -0.0017491406 -0.0023442446 0.00030523632 -0.00026137495 -0.0017429618 0.0023603432
0.041121647 -0.009806208 0.0029700522 0.007954938 -0.01284315 -0.008726779 -0.002785272 -0.01770289
-0.03933832 0.00087981875 0.003936781 0.0026642985 0.009047845 0.007990491 0.010957588 0.0037318072

exp_avg f4 [16]
00000000: c61d 2c3b 1b20 8d3c b367 f93b 6910 bbbb
00000010: c0d5 803c e048 9cbc ac64 923a 5da8 09bc
00000020: c907 6d3a a149 31bc bf5c 38b9 4785 d0ba
00000030: 8806 8d3b cb59 5c3b 7f16 9e3b 6f32 92bc
0.0026262864 0.017227223 0.007611239 -0.0057087434 0.015726924 -0.019077718 0.0011168919 -0.008401957
0.00090419926 -0.010820777 -0.00017582158 -0.001590886 0.004303757 0.0033622857 0.004824459 -0.017846314

exp_avg f4 [7, 16]
00000000: 797f d3ba a19d adbc a732 873c 87b7 59bc
00000010: 4485 47bc e57c 01bc 3874 0f3c 5270 b0bc
00000020: 2235 a93a 13a8 2d3c e221 063c 215b 993c
00000030: 0c53 503c 3410 6d3a 0be4 a63a 64a2 a9ba
00000040: 71a3 813c 62a4 69bd 4ee5 c03c 465e 32bc
00000050: e686 19bd cd7c d6bc 5a08 103c 3b61 80bd
00000060: 8fe5 883c db4f 463c b9bf dc3c b10b 1d3d
00000070: ca88 0d3d 3e86 913c 44da fe3a 9a4b 4ebb
00000080: b235 02bb 5c20 8a3b efcf e4ba af73 7c3a
00000090: a1dd 933b 0e6a 723b ad7b 9f39 4b7b dc3b
000000a0: ff2e 84ba 6cca 4fbb 195a 46bb 18a0 98bb
000000b0: 35c7 55bb f11c a7ba c3d5 a138 6c67 a9b9
000000c0: fb36 bf3b 552b 93bc 0640 ab3b 33f0 e3ba
000000d0: c09e 37bc 1bb7 d2bb 696e 053b 9889 96bc
000000e0: 3f5c ce3b f34b 933a f04b 023c 3170 2b3c
000000f0: a206 213c a753 da3b acb2 cc3a bc65 caba
00000100: c06a b4bb 3bbd e93a 8c77 cd3b 29ff 1bbc
00000110: a063 b2ba d884 10bb ed73 2d3b 2682 ddba
00000120: 00aa bfbb 4843 3a3c 7f52 e9b9 3c68 0a3c
00000130: 0c9c 7bb8 4f83 cfbb 80a1 b83a 9fec c13a
00000140: d499 083b 767a c0bc afa3 7f3c 2ed5 4fbc
00000150: 40d5 86bc 1631 54bc 282b da3b e693 e6bc
00000160: 6997 363b a7fa 603c c8d5 2a3c 2893 ba3c
00000170: 0a79 6b3c 548f 4a3b e49a 1a3b 4ce7 4bb9
00000180: 87ea 853a d778 943c 3e58 b5bc c08a e13c
00000190: bce6 b43c 9ca6 c93c 9640 cabb c606 183d
000001a0: 2902 ad3b c7b4 16bd 5b87 3bbc c0f0 1abd
000001b0: 8aec 79bc 37c1 863b 8474 8dbb 1d7b d4bb
-0.0016136012 -0.021193327 0.016503645 -0.013288385 -0.012177769 -0.007903312 0.008755736 -0.021537933
0.0012909512 0.010599154 0.008186789 0.018720211 0.012715112 0.0009043247 0.0012732757 -0.0012942073
0.015825005 -0.057041533 0.023546841 -0.010886734 -0.037482165 -0.026182557 0.008791054 -0.06268545
0.016711025 0.012104 0.02694689 0.038341228 0.03455428 0.017764207 0.001944371 -0.0031478168
-0.001986843 0.0042152833 -0.0017456989 0.00096302753 0.004512504 0.0036989483 0.0003041899 0.006728565
-0.0010084807 -0.0031706346 -0.0030266105 -0.0046577565 -0.0032619957 -0.0012749714 7.7168945e-05 -0.00032311247
0.0058354116 -0.017964998 0.005226138 -0.001739031 -0.011207283 -0.0064305193 0.002036 -0.018376157
0.0062976177 0.0011237845 0.007952675 0.01046376 0.009828242 0.006662804 0.0015617213 -0.0015441696
-0.0055058897 0.0017832884 0.0062703546 -0.009521284 -0.0013610013 -0.0022051837 0.0026466802 -0.0016899749
-0.005849123 0.01136858 -0.00044502688 0.008447703 -5.9988393e-05 -0.006332792 0.0014086217 0.001479525
0.0020843642 -0.023495894 0.01560299 -0.012685103 -0.016459107 -0.012951156 0.0066579767 -0.028146695
0.0027861244 0.013731635 0.010426946 0.022775248 0.01437212 0.0030908184 0.0023590857 -0.00019445753
0.0010216989 0.018124027 -0.022136804 0.027531981 0.022082679 0.024615578 -0.00617225 0.037115835
0.0052797985 -0.036793496 -0.0114458455 -0.037827253 -0.015254149 0.0041123885 -0.0043168683 -0.006484403

exp_avg f4 [7]
00000000: ceb0 0dbb 967c dabc 1d2c e63a 7daa 1fbc
00000010: 0083 133c 583d 9abb 9784 ddbb
-0.0021620276 -0.026670735 0.0017560754 -0.009745237 0.009003401 -0.00470702 -0.0067601907

exp_avg f4 [16]
00000000: 93de de3b 805e 27bc d691 943b 80eb 103c
00000010: 745a e93c 4b49 ee3b 1879 173c ead3 813c
00000020: 0119 023d 8fae 5aba 9d12 973c 7091 9bbc
00000030: 98f5 af3c 3166 933b ba3f 2abb 7624 bcb9
0.0068014353 -0.010215402 0.0045339866 0.00884521 0.028485514 0.007271921 0.00924518 0.015848119
0.031762127 -0.00083420513 0.018441493 -0.018990248 0.021479413 0.004498266 -0.0025977925 -0.0003588532

exp_avg f4 [16]
00000000: b4a3 a9bc bfcc c23c 054c 833b d9c1 89bc
00000010: 7af2 233c c6d5 06bc 36d3 35bc 13e4 4bbc
00000020: 05f4 86bc 62ca 27bc 2ba9 44bc 9481 7c3b
00000030: 132f 82bc d9ed 35bc 7683 fe3b 0675 39bc
-0.020707943 0.023779271 0.004006865 -0.016816067 0.010006541 -0.0082296785 -0.01109772 -0.012444514
-0.01647378 -0.010241123 -0.012003223 0.0038529383 -0.015891587 -0.011104071 0.007767136 -0.0113194045

exp_avg f4 [8]
00000000: a564 3bbc 9252 b4ba 7597 683b c162 00bc
00000010: d238 fabc 62d5 b93b 1539 af3a ed18 113d
-0.01143757 -0.0013757518 0.0035490666 -0.007836045 -0.030544672 0.005671189 0.0013368452 0.03542416

exp_avg f4 [8]
00000000: 4e99 81ba abc9 083c c0ad 3dbc 6b7d 553c
00000010: 59e1 cb3c 7b2e 66bc 62d8 55ba 1186 c03b
-0.0009887607 0.008348863 -0.01157707 0.01303039 0.024887728 -0.014049168 -0.0008157549 0.005875357

exp_avg f4 [8, 7]
00000000: 306c 103c 55fd 9d3d aad4 f5bc 1362 223d
00000010: 108f 0cbc 9ca4 113d 5112 26bd fa62 6ebd
00000020: 05c0 76ba afcc 23bd 8ff5 eb3c a768 1b3c
00000030: 9617 3e3c be43 0c3d 4c89 14bd 53a3 64bc
00000040: 2708 67bc 5ee7 05bc aea1 79bc 6e43 25bc
00000050: 547b 523c 1454 1abe f3bf d43d 4dfe eabd
00000060: 9cea 17bd 4c71 62be 39c1 61bd 414a 66be
00000070: 9941 883c d0eb e3bd 6150 703d b8de 1cbd
00000080: 32fd 4c3d 6a3c 00bd 2845 c63d c9ec 093e
00000090: 50a9 be3d 6879 0a3d 2455 5a3d f74d 7a3d
000000a0: c976 943d d3d1 d8bc bdeb 0ebd 9e95 733d
000000b0: fb16 25bd 2d4c 3a3c 7e18 4ebd f0c6 c73b
000000c0: e910 99bd 0e3f e73d 5899 b3be eb4e 513e
000000d0: c882 c8bd 24af 5e3e 3dd9 94bd 7271 b13e
0.008814856 0.07714335 -0.030008633 0.039644312 -0.008579031 0.035557374 -0.04054481 -0.05819986
-0.00094127684 -0.039990123 0.028803615 0.0094854 0.011602303 0.03424429 -0.03626375 -0.013954955
-0.014101065 -0.008172838 -0.015236301 -0.010086877 0.0128467865 -0.15071136 0.10388174 -0.11474285
-0.037088975 -0.22113532 -0.055115912 -0.22489263 0.016632842 -0.11128962 0.058670405 -0.03829834
0.050046153 -0.031307615 0.09681159 0.13469233 0.093096375 0.03380719 0.053303853 0.06110951
0.07249219 -0.02646724 -0.034892786 0.059468858 -0.04030512 0.011370701 -0.050316326 0.0060967132
-0.074739285 0.112913236 -0.3507793 0.20440261 -0.097905695 0.21746498 -0.072679974 0.34656864

exp_avg_sq f4 [8, 7]
00000000: 05d1 ac36 f287 1539 4338 d137 b4f4 2238
00000010: 0c54 1937 93a5 fc37 d9bf 6738 9dfa e038
00000020: 4519 3538 e94c 1338 caaa 3238 ba19 4637
00000030: faec b537 6e21 4d38 4ce8 0938 4094 1c37
00000040: 751f 9a36 935a 7736 fe76 f436 22fc 8036
00000050: d4ad 0137 9b34 0e3a 745e cb39 33e3 cc39
00000060: 0e62 2738 bb52 9e3a c182 a438 8b6a ae3a
00000070: 1240 2a37 9f21 b839 41ab ef38 72f6 2438
00000080: 5846 af38 3094 c037 311b 9039 b4b6 ec39
00000090: ab79 8439 2a72 d437 641f 9838 a064 d938
000000a0: 55c7 0d39 0160 e037 3da0 f437 3e5b dc38
000000b0: 944a 3d38 cca7 1137 0536 7b38 4397 7236
000000c0: 8754 2139 822f ad39 69c0 623b cd76 9f3a
000000d0: 1d6e a839 33a3 a23a 726b 2239 91cc 5c3b
5.1503325e-06 0.00014260391 2.494094e-05 3.8851707e-05 9.139079e-06 3.0117842e-05 5.5253364e-05 0.00010727833
4.3177297e-05 3.511916e-05 4.2597567e-05 1.180771e-05 2.1687232e-05 4.8906943e-05 3.287969e-05 9.332842e-06
4.5932197e-06 3.685859e-06 7.285619e-06 3.8440494e-06 7.729472e-06 0.0005424709 0.0003878955 0.0003907919
3.9907223e-05 0.0012079099 7.844484e-05 0.0013306899 1.0147707e-05 0.00035120265 0.000114283066 3.9330167e-05
8.357753e-05 2.2957189e-05 0.0002748608 0.00045149552 0.00025267652 2.5325531e-05 7.253772e-05 0.00010366109
0.00013521065 2.6747586e-05 2.9161683e-05 0.00010507413 4.5130568e-05 8.681742e-06 5.9893373e-05 3.6148856e-06
0.00015385645 0.00033032527 0.0034599549 0.0012166143 0.00032125498 0.0012408256 0.0001548955 0.0033691267

exp_avg f4 [8]
00000000: dc41 2abd d437 f93d 0e51 2cbc 1001 bd3d
00000010: 4bef 7d3c f9d2 4cbe ae34 313d 36df 293b
-0.041566715 0.121688515 -0.010517372 0.09228718 0.015498946 -0.20002355 0.04326313 0.0025920398

exp_avg_sq f4 [8]
00000000: 602c 5238 5d90 b639 ce7d b337 1291 b739
00000010: 1078 a137 f3f6 8c3a a723 5c38 18f4 8c37
5.010923e-05 0.00034821304 2.1397045e-05 0.00035012566 1.9248604e-05 0.0010754749 5.248529e-05 1.6802966e-05

exp_avg f4 [1, 8]
00000000: 5e08 89be 32f8 163d 56a0 16be 0a5b 2fbe
00000010: 4de8 4d3e dace f93c 1575 c73d e26e 633e
-0.26764196 0.03685779 -0.14709601 -0.17124572 0.20108147 0.030494142 0.097391285 0.22210267

exp_avg_sq f4 [1, 8]
00000000: 9d69 003b d554 7a39 8200 323a 49a2 823a
00000010: dd41 823a e62a f738 16ca 8839 aa6e 9d3a
0.00195942 0.0002387346 0.0006790237 0.0009966578 0.0009937842 0.00011785868 0.00026090507 0.001201113

exp_avg f4 [8]
00000000: ac74 d13c 6a7d 4bbc ccae 1b3c 8e21 c33d
00000010: 6e87 613d b81b 5f3c 1a57 77bc 9b85 593e
0.025568329 -0.012420038 0.009502124 0.095278844 0.055060796 0.0136174485 -0.01509645 0.21242373

exp_avg_sq f4 [8]
00000000: e8f6 9737 cbd2 e737 0524 4036 c5bd a139
00000010: 72e9 9c38 94f7 c137 3f30 d136 8bed 8f3a
1.8115577e-05 2.7635504e-05 2.8631196e-06 0.00030849702 7.482142e-05 2.312268e-05 6.234302e-06 0.0010980828

exp_avg f4 [8]
00000000: 2d0b d93b ee1f c33c d99c 913b e39d 1d3d
00000010: d105 9bbc 7cf4 fbbc 51c2 313c cf65 87bd
0.0066236467 0.023818936 0.0044437465 0.03848065 -0.018923672 -0.030756228 0.010849551 -0.06611215

exp_avg_sq f4 [8]
00000000: 85d3 a135 600c 7e37 c093 1335 862d 2738
00000010: df90 2237 9ee8 d437 bb6d 5136 c575 f638
1.2056995e-06 1.5142461e-05 5.497677e-07 3.98583e-05 9.689683e-06 2.538069e-05 3.1207298e-06 0.000117521304
