saved/gan/slwee5lf/checkpoints/epoch=0-step=22.ckpt (torch, 21906 bytes, 39 tensors)

generator.fc1.weight f4 [16, 7]
000000 00 1d 54 3f a3 21 60 be fa 96 ff 3e ed 35 77 be
       0.8285675 -0.21887831 0.49919873 -0.24141665
000010 2c 87 ee 3e d3 6c f0 3d fa be da 3e 59 27 c5 be
       0.46587503 0.117395066 0.4272383 -0.38506582
000020 cc 82 06 3c 8d 95 7a bf cd 35 1e bd e2 2b f1 bc
       0.008209895 -0.97884446 -0.038625527 -0.02943987
000030 8d 8b b6 be 0a 3f 4f be 5d a2 7d be 8f 38 09 be
       -0.35653344 -0.20238891 -0.24768968 -0.13400482
000040 39 70 6a 3f d1 bc 94 3e d9 90 c0 3d 52 3d 95 3e
       0.9157749 0.29050305 0.094026275 0.29148346
000050 69 ec 80 be 70 49 91 3e 9c e8 cd be 01 c0 3a be
       -0.25180367 0.2837634 -0.4021653 -0.18237306
000060 cf 0f c3 be e0 19 d6 bc 81 c7 9b bd 9b 87 3a bf
       -0.38097998 -0.026135385 -0.07606412 -0.7286317
000070 4a be a3 3e b3 fb d1 bf 7c fd 0e bf a7 2f e1 3e
       0.31981117 -1.6404938 -0.55855536 0.43981668
000080 28 e7 71 3d 87 24 07 c0 0b c2 30 3e e0 98 1a bf
       0.05905834 -2.1116045 0.17261522 -0.6038952
000090 05 6a d6 be 39 20 b0 3d c0 d6 c9 be 23 84 b4 3c
       -0.4187776 0.08599896 -0.39421654 0.022035664
0000a0 0b 07 99 be 8b 91 aa 3e b3 35 45 bd 53 d4 e2 be
       -0.29888186 0.33314165 -0.048146915 -0.44302616
0000b0 c5 11 66 bb 44 c9 4f be c6 52 22 3e 8a 0b ef be
       -0.0035105806 -0.2029162 0.15851888 -0.4668849
0000c0 93 9b 49 bf 56 20 49 be d1 e5 00 3e c7 9b 66 3f
       -0.7875301 -0.19641241 0.12587668 0.9008145
0000d0 92 18 25 be 21 01 36 bd 29 99 8c 3d 9e ad e2 3e
       -0.16122654 -0.04443467 0.068651505 0.44273084
0000e0 59 61 db bd 84 66 18 bf 23 19 8d 3e 81 83 0c 3f
       -0.10711927 -0.59531426 0.2755824 0.5488816
0000f0 80 6e 68 3e 17 e0 4e 3f 4c c0 88 3b ac 66 01 bf
       0.22698402 0.80810684 0.004173314 -0.5054729
000100 e4 a2 08 bf 6c 36 11 bf 5a fb 40 3f f0 7e 94 be
       -0.5337355 -0.56723666 0.7538353 -0.29003096
000110 27 4e 4b be 74 2b 2e be 4a 04 e3 be 07 ee 75 bf
       -0.19854032 -0.17008764 -0.4433921 -0.96066326
000120 b9 5b d0 3e 6e f8 2a 3f 4d 78 e9 be 29 a6 b1 3e
       0.4069498 0.66785324 -0.45599595 0.34697083
000130 9c fc dd 3e 05 3c 6e be 62 16 8a 3f 96 01 26 bc
       0.43356788 -0.23265083 1.0788081 -0.010132214
000140 df 37 52 bf 09 25 59 3e fe 37 0d 3f 07 c6 6e be
       -0.821165 0.21205534 0.5516356 -0.23317729
000150 49 98 42 bc 88 49 8f be e2 df bf 3e 7b 00 77 3f
       -0.011877128 -0.27985787 0.37475497 0.9648511
000160 42 23 3b 3f b4 3c 34 be a6 62 44 3f f6 e6 95 be
       0.73100674 -0.17601281 0.76713026 -0.29277772
000170 c2 0a 0a 3f ef 83 58 3f 92 b9 1c bf cd f6 ad 3d
       0.53922665 0.84576315 -0.6122066 0.08494339
000180 c6 44 a3 3c 86 81 10 3f 61 40 3b 3e ea ad 11 be
       0.019930255 0.5644764 0.18286277 -0.14226499
000190 9a 90 8b 3f 79 f5 3f 3c ad b3 be be b7 c7 41 be
       1.0903504 0.01171624 -0.37246457 -0.18923841
0001a0 7c f4 68 3f b0 56 0a bf 61 db e9 be cc 31 6a bf
       0.90998054 -0.54038525 -0.45675185 -0.91482234
0001b0 72 dd a0 3e bb 6e aa be 23 59 67 bf 1c 3f 83 be
       0.3141895 -0.33287606 -0.90370387 -0.25634086

generator.fc1.bias f4 [16]
000000 ff 33 3c 3e c6 03 c5 bc 92 39 9d bd bf 30 08 3d
       0.1837921 -0.02404965 -0.07676996 0.033249613
000010 5e ab 90 be 81 f4 5f 3d 6d 66 0d 3e dd f4 a5 3e
       -0.28255743 0.054676536 0.13808604 0.32413378
000020 42 79 da bd 57 14 00 3e 9d ca bb 3e 24 c3 1a be
       -0.10667659 0.12507759 0.3667802 -0.15113503
000030 a7 96 bd 3e 93 6c 4b be 2f b9 2f 3e 73 5b 0c 3e
       0.37029 -0.19865637 0.17160486 0.1370676

generator.fc2.weight f4 [8, 16]
000000 53 35 e3 be bc be 4c 3e 8c ef 4b bf ef 7c 11 be
       -0.4437662 0.19994634 -0.79662395 -0.14207815
000010 d6 04 b4 3e b5 c4 ec 3e de 03 bb 3e ed 7e 38 3d
       0.3515994 0.46243826 0.36526388 0.04504292
000020 36 fc ca 3e 10 e5 0f 3f 16 18 63 bd 98 ec d8 3e
       0.39645547 0.56208897 -0.055442892 0.42368007
000030 b8 09 45 be 81 ff cf bd 86 2b 7a 3d 85 8c 3d bf
       -0.19241989 -0.101561554 0.061076663 -0.7404254
000040 c1 66 46 be e7 8f 9d 3e c9 36 25 bd 8e c5 a2 bd
       -0.19375135 0.3077385 -0.04033545 -0.07947837
000050 45 66 c3 bd e3 f1 db 3d 29 ca 0f 3f 16 1f 1f be
       -0.09540991 0.107394956 0.56167847 -0.15539202
000060 22 6d f2 3d 0d 28 db be 92 20 1b 3e fe 8a 56 3f
       0.11837222 -0.42803994 0.15149143 0.83805835
000070 e0 83 b5 3d ef 7b 26 be d6 03 a5 3e fa e2 d3 3e
       0.08863044 -0.16258214 0.3222949 0.41384107
000080 48 75 78 3e 7d ee bb be a8 71 1d 3e 8a 90 84 3e
       0.24263489 -0.3670539 0.15375388 0.25891525
000090 0e f3 1f bf eb 8e c4 bd d8 69 f7 bd 29 3e 17 3f
       -0.6248025 -0.09597572 -0.12080735 0.59079224
0000a0 11 3c f8 3c 87 f8 35 bf 4c 87 b0 bd 7e af 07 3f
       0.03030208 -0.7108235 -0.08619556 0.53002155
0000b0 90 eb 2f be ae e6 76 be 0f da 95 3e 27 69 71 be
       -0.17179704 -0.24111435 0.29267928 -0.23575269
0000c0 23 95 c1 bb 29 36 e8 3e 6f 6a ef be f3 6b be 3d
       -0.005907671 0.4535382 -0.4676089 0.092979334
0000d0 20 69 e8 3d e0 4f ba 3e 57 51 f8 be 44 bb fd bd
       0.11348176 0.36389065 -0.48499557 -0.12389234
0000e0 f3 70 b9 be b3 86 72 be f5 33 a8 be 6f 1b 6e 3e
       -0.36218986 -0.23684196 -0.3285214 0.23252653
0000f0 ea dd a3 be f5 2e 35 3e 9e 88 2f bf 59 bb 1d 3e
       -0.32005244 0.17693694 -0.68567836 0.15403499
000100 af 87 4d 3e b1 db 91 3d dd af c2 bd 47 17 16 be
       0.2007129 0.07121981 -0.095061995 -0.14657317
000110 c0 d2 10 be c8 57 dd 3e ed a2 c0 bc 85 dd 0a 3e
       -0.14142895 0.43231034 -0.023515189 0.13561065
000120 35 9c 9b be f2 c7 27 be 68 42 e7 3e cc 2a 33 be
       -0.30392614 -0.16384867 0.4516785 -0.17496794
000130 5d 53 69 bf 26 e3 21 3e 68 54 08 be 52 5a 60 3e
       -0.9114283 0.15809307 -0.13313448 0.21909454
000140 62 aa a4 be cf 7b 3f 3e ab fd 1f 3f 46 91 32 3c
       -0.32161242 0.18699573 0.6249644 0.010898894
000150 c8 6a ab be 55 54 0e 3f bb 5c 20 be c2 c6 b2 3e
       -0.33479905 0.5559743 -0.15660374 0.34917265
000160 97 d2 90 3d 51 08 d2 be d0 42 22 3e 4d 6d 51 3e
       0.07071417 -0.4102197 0.158458 0.20451851
000170 62 bb 19 3f ca 36 0a 3e 36 f8 78 3f 2a 17 23 3e
       0.6005155 0.13497463 0.9725374 0.15926805
000180 5d bb ef 3c e7 65 a7 bd a1 c0 3a bf b8 07 83 be
       0.029264146 -0.08173733 -0.7295018 -0.25591826
000190 55 ba e6 bd 48 18 c2 3e ee b6 2c bf 23 f0 00 3e
       -0.11266009 0.3790915 -0.6746663 0.12591605
0001a0 00 cd a4 bd ac e8 c1 be 1e e6 18 bf d1 b6 ca be
       -0.08046913 -0.37872827 -0.5972613 -0.39592603
0001b0 b0 45 4e 3d 33 1e a5 3e 78 e3 2d 3e a2 81 3d be
       0.050359428 0.32249603 0.16981304 -0.18506482
0001c0 a3 98 09 be 51 a3 37 3e d9 21 54 3e 2f 95 45 3d
       -0.13437133 0.17933394 0.20716037 0.048237976
0001d0 c2 41 8d 3e 92 ab 27 3d fb 83 14 be 3d fe c5 be
       0.27589232 0.040935107 -0.14503472 -0.3867053
0001e0 60 0e c9 be 9e e6 a1 3e c0 fe 28 b8 bd 67 28 3e
       -0.3926878 0.3162126 -4.0291576e-05 0.16445823
0001f0 e9 fb 95 be 92 bc 07 3f a3 54 37 3f f5 be 50 bd
       -0.29293755 0.5302211 0.7161352 -0.05096336

generator.fc2.bias f4 [8]
000000 11 0e 59 3d d3 e8 35 be ab 22 76 3e 4b 6d 83 3e
       0.05299193 -0.17764597 0.24036662 0.2566932
000010 3d 0f 3c be 4d c4 a5 3c 23 a0 13 be df 35 6a 3e
       -0.18365188 0.020235205 -0.14416556 0.22872113

generator.fc3.weight f4 [16, 8]
000000 9e e5 20 3d 50 3f 11 be 17 58 97 be 28 3d 88 3e
       0.03928148 -0.14184308 -0.29559395 0.2660916
000010 65 3f 9a 3f a1 75 ca bd 71 e1 59 3e 59 7d 2a bf
       1.2050596 -0.09885717 0.21277405 -0.66597515
000020 e2 31 ce 3e 35 57 00 bf c2 bb a5 bd b2 35 18 be
       0.40272433 -0.5013307 -0.080924526 -0.14864233
000030 f0 7f 21 bf a8 29 ef bb 87 70 05 3f 85 74 f9 3e
       -0.6308584 -0.007298667 0.5212483 0.4872171
000040 24 ff f7 3a e6 ed 75 3f 29 7d 11 be ca e5 be 3e
       0.0018920642 0.9606613 -0.14207901 0.3728469
000050 b7 86 46 bf 48 04 e3 bd d2 7d 0c 3e e9 48 53 3e
       -0.7754931 -0.11084801 0.13719872 0.20633282
000060 a3 c6 58 3f 57 8b f1 3e 9f 28 21 bf 92 44 06 be
       0.84678096 0.4717662 -0.6295261 -0.13112095
000070 28 c5 9c 3e f5 3c 0e be db bb e3 bd ce cf d4 3e
       0.30619168 -0.13890441 -0.11119815 0.41564792
000080 17 f6 a3 be b1 29 2d be 6a 61 25 3f 61 ee 65 bd
       -0.3202369 -0.16910435 0.6460177 -0.05613554
000090 c5 50 e2 be 69 34 35 3f fc 91 b5 be b0 b8 f3 3d
       -0.44202247 0.70783097 -0.3546294 0.11900461
0000a0 ec 82 2b 3f 1f 48 5c 3e ff a7 a1 3d a0 34 0f bf
       0.66996646 0.21511887 0.07893371 -0.55939674
0000b0 aa 48 a0 be c0 6a 39 3f a9 5f 1b bf 31 b1 e8 3d
       -0.31305438 0.7242851 -0.6069284 0.113619216
0000c0 f4 97 5b 3e 75 ca 6f be 49 d8 d5 bd d0 68 dc 3e
       0.21444684 -0.23417075 -0.10441644 0.43048716
0000d0 9e 38 77 3e ea 16 ad 3e 10 4f 3b bf 0f 57 ff 3e
       0.24142691 0.33806545 -0.73167515 0.49871108
0000e0 bd ef 84 bf 1f b7 7d be 70 c9 9d bf 22 72 fe be
       -1.0385662 -0.24776886 -1.2327099 -0.4969645
0000f0 c5 33 bd bd 89 1d e9 3c ad 17 0b 3c 50 3d 8b 3f
       -0.0923839 0.028456466 0.008489531 1.0878086
000100 60 b9 82 3e b6 cc 08 3c 43 2c 5d 3e de 47 5a 3f
       0.25532055 0.008349588 0.21598916 0.8526591
000110 21 0b 02 3f 1b 76 ad be 02 62 32 3e b4 6f d2 3e
       0.5079823 -0.3387917 0.174202 0.41100848
000120 e4 9a b0 be 13 f6 65 bd eb 35 64 bd 62 3a bd be
       -0.34493172 -0.056142878 -0.055715483 -0.36958605
000130 23 1c 04 3e ad 4c 46 3f e0 2a 01 3e 6f 0c b5 be
       0.12901358 0.7746075 0.12614012 -0.3536105
000140 52 8d bb 3e ee 05 2f 3e 23 1f 13 bf 0b 5c b0 3c
       0.36631256 0.17092106 -0.57469386 0.021528265
000150 43 34 17 3f 73 0f 89 3e ee 40 4b be c5 c1 48 bf
       0.5906412 0.267696 -0.19848987 -0.7842067
000160 f5 50 d0 3e f3 b2 01 bf 20 9f f2 3e 95 4a 35 bf
       0.40686765 -0.5066368 0.47387028 -0.7081693
000170 22 67 4f 3f 2f 26 bf 3e 0d d6 8f 3e ec ba 33 be
       0.81016743 0.3733382 0.28092995 -0.17551774
000180 5e 27 e4 3e be e0 42 3e 27 90 42 be 2c 86 10 3f
       0.44561285 0.19031045 -0.19000302 0.5645473
000190 a1 73 50 bf 55 07 9a 3d fe 91 53 bf c8 c6 f0 3c
       -0.81426436 0.0752093 -0.8264464 0.029391661
0001a0 a8 94 2b be 3e 8b 6b bf c3 7e 38 bf 23 ef f9 be
       -0.16755927 -0.9200934 -0.72068423 -0.4881526
0001b0 ef 02 d2 3e 11 fa 1c 3e 68 5d d1 bd d9 9b ba be
       0.41017863 0.15329768 -0.10222894 -0.36447027
0001c0 dc 9e 2c 3f b7 b1 bc bd 27 f7 05 bf 56 1f 0e bf
       0.674299 -0.09213584 -0.5233025 -0.55516565
0001d0 2c fe e2 be ee dc e4 bd 1a b7 0a be a3 67 0f bf
       -0.44334543 -0.111749515 -0.1354641 -0.5601751
0001e0 dc 96 0a 3f c4 4a 35 be dc e9 fd bb fe c0 7a be
       0.54136443 -0.17704302 -0.0077488255 -0.24487683
0001f0 08 a3 3e 3d 5d 2e 8c be 8a 8e 21 be a3 df 6f be
       0.046542197 -0.27379122 -0.1577703 -0.23425154

generator.fc3.bias f4 [16]
000000 2e 97 45 be 41 ba 29 bd 2a d8 da 3d 79 68 40 be
       -0.19295952 -0.04143739 0.10685761 -0.18789853
000010 5b 97 97 be ad d3 2b 3e 35 c1 76 be 77 05 57 be
       -0.29607663 0.16779967 -0.2409714 -0.20998178
000020 7d b5 97 3e 3d 4c 63 be 2c 43 8d be 15 38 8f 3e
       0.29630652 -0.22197051 -0.2759031 0.27972475
000030 1c 7f 21 be e6 cd 43 3c 05 b3 ae 3e 29 65 0d be
       -0.15771145 0.0119509455 0.34120956 -0.13808121

generator.fc4.weight f4 [7, 16]
000000 54 c0 8a 3e 4d 2c 05 bf 21 01 c1 3d da 69 bd 3e
       0.2709986 -0.5202072 0.094240434 0.3699482
000010 fa e6 00 bd 7b 7c 85 3e ba b3 45 bf f6 9b b2 3e
       -0.031470276 0.26071534 -0.77227366 0.34884614
000020 20 db 28 bf c4 6c 04 bf 8d b4 9b 3e 2c ce 3c 3f
       -0.6595936 -0.51728463 0.30411187 0.73752093
000030 73 69 b1 bc ea a8 9e be 5c 93 82 be 90 e0 55 bf
       -0.021656727 -0.30988246 -0.2550305 -0.8354578
000040 c9 ff 3d 3f dd ca 4c 3f 99 69 81 be a6 03 06 bd
       0.7421842 0.79997045 -0.25275877 -0.032718323
000050 b6 43 ed 3d de 3f b2 3e ad 6b fc be 5e 28 03 3f
       0.115851805 0.34814352 -0.493009 0.5123347
000060 50 07 c5 3d 2a a4 af bd 84 97 f3 bd b7 25 90 3e
       0.096205354 -0.08576234 -0.11894134 0.28153774
000070 fb 69 49 bf d0 94 a2 3e ac b6 2b 3f e2 42 3c bf
       -0.7867734 0.3175416 0.6707561 -0.73539555
000080 a6 e9 07 3f ef 0b 59 bd d1 dd c2 bb d4 24 8d be
       0.53090894 -0.052989896 -0.0059468527 -0.2756716
000090 2e 15 20 3e 39 bf 89 3d e9 18 3a 3e 66 37 e2 3d
       0.1563308 0.06725926 0.18173565 0.11045723
0000a0 31 77 0e bf be 4f da 3d a9 f3 89 be 2a 45 44 be
       -0.5565062 0.10659741 -0.2694371 -0.19167009
0000b0 08 ff 3c 3e 49 04 18 3f d4 bf db 3e 17 25 f4 be
       0.18456662 0.5938154 0.4291979 -0.47684547
0000c0 e2 49 2e 3e eb 98 6c 3d 5f cc b7 be c3 c9 24 3e
       0.17020372 0.05776302 -0.3589811 0.16092591
0000d0 52 db ab bd 08 4e 60 3d 64 8d c1 be 60 71 71 3f
       -0.083914414 0.054761916 -0.37803185 0.9431362
0000e0 b6 ef 00 3e ee cb a0 3d 8e e0 8b 3d 60 84 25 3e
       0.12591442 0.078513965 0.0682994 0.16163778
0000f0 3d 1e 8d 3e 20 54 ef 3d 83 97 66 3f 69 ef 7e bc
       0.27562132 0.116859674 0.9007494 -0.0155600095
000100 f8 67 5d bd d3 b7 29 bc 85 c7 28 3d 6e 67 49 3d
       -0.05405423 -0.0103587685 0.0412059 0.049170904
000110 df 36 16 3f 44 40 26 be e1 94 d3 3d 63 6a 44 be
       0.58677477 -0.16235453 0.10331131 -0.19181208
000120 cc d6 48 bf 89 38 eb bd e0 02 a0 bc 28 89 7e be
       -0.78452754 -0.114853926 -0.01953262 -0.24857008
000130 2e a1 b1 bd 07 07 04 3e 9f 58 37 3f 37 f9 b4 be
       -0.08673321 0.12893306 0.716196 -0.35346386
000140 77 92 3d 3f 43 d8 53 be d2 2d 19 bf 91 ae b7 be
       0.7405161 -0.20687966 -0.5983554 -0.3587537
000150 e6 af 56 be 2f 51 41 be 4a 6e 6e 3e f6 68 12 3f
       -0.20965537 -0.18878625 0.2328426 0.5719141
000160 bc a6 f4 3d 13 30 6b be 76 1c 46 bf 33 98 31 bf
       0.119458646 -0.22967558 -0.7738718 -0.6937286
000170 e6 2c fe be 15 02 4b 3f db 2a aa be 1b cb 0f bd
       -0.4964363 0.7930005 -0.3323582 -0.035105806
000180 2a 18 d5 3d 2e d4 43 3e 98 33 10 3e ca 1b d4 be
       0.104049996 0.19123909 0.14082181 -0.4142745
000190 1e 9f c5 3d 36 be 58 be a8 9e 81 bd 4d fe ff 3d
       0.0964949 -0.2116631 -0.063290894 0.12499676
0001a0 e3 cf 2c be de 14 82 be 0e ca f4 be f3 a1 91 3e
       -0.16876177 -0.25406545 -0.47810405 0.2844387
0001b0 64 4b 5b be 8c 80 a7 3e 18 31 79 bd c4 5d f5 bd
       -0.21415478 0.3271526 -0.060837835 -0.11980775

generator.fc4.bias f4 [7]
000000 ed d1 d5 3c b2 1a a5 bd 32 cb f0 bd 52 dd 85 bd
       0.026101077 -0.08061732 -0.117575064 -0.06536354
000010 89 68 1c be 03 71 55 3e 8c bc ca 3b
       -0.15274252 0.20843892 0.0061870273

generator.layer_norm_hidden_0.weight f4 [16]
000000 1d 2f 7d 3f 77 68 81 3f 77 68 81 3f 77 68 81 3f
       0.98900014 1.0110005 1.0110005 1.0110005
000010 2f b2 7d 3f 53 b8 7e 3f 77 68 81 3f 1d 2f 7d 3f
       0.9910001 0.99500006 1.0110005 0.98900014
000020 1d 2f 7d 3f 1d 2f 7d 3f 77 68 81 3f 1d 2f 7d 3f
       0.98900014 0.98900014 1.0110005 0.98900014
000030 1d 2f 7d 3f 77 68 81 3f 77 68 81 3f 1d 2f 7d 3f
       0.98900014 1.0110005 1.0110005 0.98900014

generator.layer_norm_hidden_0.bias f4 [16]
000000 59 39 34 bc 59 39 34 3c 59 39 34 bc 59 39 34 3c
       -0.011000001 0.011000001 -0.011000001 0.011000001
000010 bd 74 13 3c 59 39 34 3c 59 39 34 3c 43 60 e5 3b
       0.009000001 0.011000001 0.011000001 0.0070000007
000020 59 39 34 3c 6d 12 83 ba 43 60 e5 3b 59 39 34 3c
       0.011000001 -0.0009999998 0.0070000007 0.011000001
000030 59 39 34 3c 59 39 34 bc a6 9b 44 bb 59 39 34 bc
       0.011000001 -0.011000001 -0.003 -0.011000001

generator.layer_norm_hidden_1.weight f4 [8]
000000 77 68 81 3f 1d 2f 7d 3f 1d 2f 7d 3f 77 68 81 3f
       1.0110005 0.98900014 0.98900014 1.0110005
000010 1d 2f 7d 3f 77 be 7f 3f 77 68 81 3f 41 35 7e 3f
       0.98900014 0.999 1.0110005 0.9930001

generator.layer_norm_hidden_1.bias f4 [8]
000000 59 39 34 3c 59 39 34 3c 59 39 34 3c 59 39 34 3c
       0.011000001 0.011000001 0.011000001 0.011000001
000010 59 39 34 bc 59 39 34 3c 59 39 34 bc 59 39 34 bc
       -0.011000001 0.011000001 -0.011000001 -0.011000001

discriminator.fc1.weight f4 [8, 7]
000000 3b 6c 0e bf 9f f2 4a 3e 9f 9e 8e 3f 67 4a 30 bf
       -0.55633897 0.19819115 1.1142157 -0.6886353
000010 84 16 f7 3c d1 e6 b4 3d ad 22 bf 3e bc 06 2f 3f
       0.030162103 0.08833087 0.37331143 0.6836965
000020 35 0d eb be 51 7f a9 bd 65 22 b9 3e f1 9e 5e 3f
       -0.45908514 -0.08276237 0.36159053 0.86961275
000030 1c 49 6e bf 5e a7 81 bf 1e 0c e6 3c 60 4d 3b be
       -0.93080306 -1.0129201 0.02808195 -0.18291235
000040 48 94 dd 3e 75 a1 86 bf d7 11 05 bd e2 ac f3 3d
       0.43277192 -1.0518023 -0.032487717 0.11898209
000050 53 ca aa bd 1d c7 52 bf 0a 6a fe 3e 82 be a1 3e
       -0.083393715 -0.8233507 0.49690276 0.31590658
000060 aa c9 6c bf 66 55 13 3f 15 5c ec 3e e3 c2 c5 be
       -0.92495215 0.5755218 0.46164003 -0.3862525
000070 0f 1a 3f bf 27 27 2f bf 13 80 94 3f 1a bc 94 bd
       -0.7464914 -0.68419117 1.1601585 -0.0726244
000080 15 ec ac 3e bc 64 16 bf d5 2e bd 3e 64 2c 73 bd
       0.33773866 -0.5874746 0.36949793 -0.059368506
000090 09 db d0 be 43 e7 b3 3e bf 8d 06 3f 6d fd 6d be
       -0.4079211 0.35137376 0.5256004 -0.23241206
0000a0 e3 96 e4 bd 95 66 38 be ff 34 ad be c7 1e ed bd
       -0.11161592 -0.18007882 -0.33829495 -0.11578136
0000b0 00 10 fe bd aa ab 13 bf 5a 01 00 3e 92 41 c2 be
       -0.124053955 -0.57683814 0.12500516 -0.3794065
0000c0 80 41 6e be f4 9b 4e bc f3 a1 6c bf df 9a 8e 3e
       -0.23267174 -0.012610424 -0.92434615 0.27852532
0000d0 43 d7 53 3f 25 6b 01 3e 65 e0 16 3d 86 0f 8f 3e
       0.8275034 0.12638529 0.036835093 0.2794153

discriminator.fc1.bias f4 [8]
000000 cc b2 e6 3a 54 8f 85 3e 16 99 8b 3e b5 6d a2 be
       0.0017600893 0.26085913 0.27265233 -0.31724325
000010 4b ed b5 be f1 6c 8d 3e 63 94 4a be a5 e5 b8 be
       -0.35532603 0.27622178 -0.19783168 -0.36112705

discriminator.fc2.weight f4 [1, 8]
000000 32 57 13 3e e7 6d 52 3f 44 81 52 3f 83 d6 1b bf
       0.14388731 0.8219895 0.82228494 -0.60874194
000010 8b c6 47 3d fe 4f 45 3f 9f b5 dd 3e a0 bb 3e be
       0.04877333 0.77075183 0.43302628 -0.18626261

discriminator.layer_norm_hidden_0.weight f4 [8]
000000 3e 5b 7d 3f a7 39 7d 3f 8c 25 7d 3f c9 71 7d 3f
       0.9896735 0.98916095 0.98885417 0.9900175
000010 39 c3 80 3f 9f 51 81 3f 7a 47 7d 3f 65 30 7d 3f
       1.0059577 1.0103034 0.9893719 0.9890197

discriminator.layer_norm_hidden_0.bias f4 [8]
000000 6a 52 36 bc 20 88 36 bc fc 87 36 bc 18 85 36 3c
       -0.0111280475 -0.011140853 -0.01114082 0.01114013
000010 84 e8 36 bc b7 9f 36 bc 03 7e 36 bc ec 5f 36 3c
       -0.0111638345 -0.011146477 -0.011138442 0.011131268

exp_avg f4 [16, 7]
000000 2c 24 14 bc e5 16 14 bc 00 00 00 00 32 1a 14 bc
       -0.009041827 -0.009038662 0.0 -0.009039449
000010 87 19 14 bc 50 18 14 bc 95 2c 14 bc c1 b6 a4 3c
       -0.009039289 -0.009039 -0.009043832 0.020106675
000020 7c bc a4 3c 00 00 00 00 c7 bf a4 3c d8 bd a4 3c
       0.020109408 0.0 0.020110978 0.020110056
000030 93 be a4 3c 22 b8 a4 3c 3b f6 80 bc 45 fc 80 bc
       0.020110404 0.020107333 -0.015742412 -0.015745291
000040 00 00 00 00 64 fd 80 bc 20 fc 80 bc 7d fd 80 bc
       0.0 -0.015745826 -0.015745223 -0.015745873
000050 39 d9 80 bc 24 e7 2f bc 7e 07 30 bc 00 00 00 00
       -0.01572858 -0.010736261 -0.010743974 0.0
000060 76 09 30 bc e9 05 30 bc 98 0c 30 bc 63 e1 2f bc
       -0.010744443 -0.010743597 -0.01074519 -0.010734889
000070 4c 42 e8 3b f7 1e e8 3b 00 00 00 00 8a 25 e8 3b
       0.0070879813 0.0070837694 0.0 0.007084553
000080 77 20 e8 3b 0f 20 e8 3b be 5c e8 3b 68 3f 52 3b
       0.0070839482 0.0070839 0.007091134 0.003208125
000090 c3 1b 52 3b 00 00 00 00 fb 2f 52 3b 0d 1d 52 3b
       0.0032060004 0.0 0.0032072056 0.0032060773
0000a0 08 3e 52 3b 6d 8b 51 3b b7 ca 6f 3d 91 dd 6f 3d
       0.003208043 0.0031973973 0.058542933 0.05856091
0000b0 00 00 00 00 aa df 6f 3d 3a dd 6f 3d 1f e0 6f 3d
       0.0 0.058562912 0.058560587 0.058563348
0000c0 50 bc 6f 3d 34 90 8d bb 94 a0 8d bb 00 00 00 00
       0.0585292 -0.004320169 -0.004322121 0.0
0000d0 c4 a8 8d bb bb a4 8d bb b0 a1 8d bb bb 35 8e bb
       -0.004323097 -0.004322616 -0.004322253 -0.0043399013
0000e0 05 e7 84 3c 09 e1 84 3c 00 00 00 00 fc e1 84 3c
       0.01622344 0.016220586 0.0 0.016221039
0000f0 5a e1 84 3c 42 e3 84 3c bc c3 84 3c 55 09 8d bb
       0.016220737 0.016221646 0.016206615 -0.004304091
000100 24 3a 8d bb 00 00 00 00 ec 31 8d bb 45 3e 8d bb
       -0.0043099094 0.0 -0.0043089297 -0.0043104016
000110 0f 3a 8d bb 5e 27 8d bb c0 41 e2 bc 0a 38 e2 bc
       -0.0043098996 -0.0043076715 -0.027619243 -0.027614612
000120 00 00 00 00 b9 39 e2 bc a1 39 e2 bc 2b 38 e2 bc
       0.0 -0.027615415 -0.02761537 -0.027614674
000130 a0 42 e2 bc f9 75 d1 3c a5 83 d1 3c 00 00 00 00
       -0.02761966 0.025568949 0.025575468 0.0
000140 ea 84 d1 3c f4 83 d1 3c bd 84 d1 3c a6 8f d1 3c
       0.025576074 0.025575615 0.02557599 0.025581192
000150 6f e1 16 3c b1 d2 16 3c 00 00 00 00 36 cf 16 3c
       0.009209021 0.009205506 0.0 0.009204676
000160 5b d4 16 3c 17 cf 16 3c 0c 07 17 3c fc 61 6f bc
       0.009205903 0.0092046475 0.009217989 -0.014610764
000170 f2 64 6f bc 00 00 00 00 5f 65 6f bc 06 64 6f bc
       -0.01461147 0.0 -0.014611571 -0.01461125
000180 0d 64 6f bc 45 6f 6f bc db d8 47 bc c5 ec 47 bc
       -0.014611256 -0.014613931 -0.0121976985 -0.012202446
000190 00 00 00 00 7b ed 47 bc 21 ea 47 bc 75 ed 47 bc
       0.0 -0.012202616 -0.012201817 -0.01220261
0001a0 84 56 47 bc 27 ba 15 bd 65 b5 15 bd 00 00 00 00
       -0.012166623 -0.03655448 -0.036549944 0.0
0001b0 de b6 15 bd fe b4 15 bd d2 b6 15 bd 8f b1 15 bd
       -0.03655135 -0.03654956 -0.036551304 -0.036546286

exp_avg f4 [16]
000000 aa 5a d0 3c ac 5e a1 bc b4 04 7b 3c 65 13 a4 3c
       0.025433857 -0.019698463 0.0153209455 0.02002878
000010 3e 54 06 bb 64 fc 0d bc df 52 aa bd 4b d2 0a b9
       -0.002049699 -0.008666132 -0.08316588 -0.00013239046
000020 b3 98 43 bc 95 ae 31 3c e2 51 be 3c 9f e0 b6 bc
       -0.011938262 0.010844846 0.023232404 -0.022323905
000030 cd b2 a8 bc d7 e6 8b 3c c4 96 b4 bb 43 ce 5e 3d
       -0.020593071 0.017077846 -0.0055111367 0.054395925

exp_avg f4 [8, 16]
000000 b0 e8 8a 3d 58 09 69 bc 3c 7d 45 3d 03 19 43 bd
       0.06782663 -0.014223419 0.048215136 -0.047631275
000010 63 a9 d6 bd 27 6c 3e bd 37 4d a6 bd cd 57 00 3d
       -0.10481527 -0.04648986 -0.08120196 0.031333733
000020 ca 44 83 3d 21 46 f7 bc a3 a2 8f bc d4 1a 74 3d
       0.06409605 -0.030184807 -0.017533606 0.059595898
000030 2e 7b 9f 3d b5 a5 61 3d e0 15 46 3d ef 95 e4 bd
       0.077871665 0.05508967 0.048360705 -0.1116141
000040 a4 4c 83 3d 2f e8 65 bc 78 bc 40 3d d1 db 39 bd
       0.064111024 -0.014032408 0.047054738 -0.04537565
000050 46 e5 d3 bd 22 60 37 bd c8 82 9f bd 63 98 00 3d
       -0.10346465 -0.044769414 -0.077886164 0.031395327
000060 fe f3 7a 3d 9d 89 e4 bc 43 16 72 bc 93 5a 6a 3d
       0.061267845 -0.02789765 -0.014775815 0.057215285
000070 35 f8 92 3d b0 0e 5b 3d 3c 85 40 3d 97 22 da bd
       0.07176248 0.053480804 0.047002062 -0.10651129
000080 f6 a6 de 3b 80 c3 c7 ba 1a b5 1e 3b 63 2b 80 bb
       0.0067948056 -0.0015240759 0.0024216832 -0.003911422
000090 8f c8 eb bb e2 a7 7a bb d5 2e ca bb a4 e6 fe 3a
       -0.0071955393 -0.0038247039 -0.0061701336 0.0019447398
0000a0 c4 8c aa 3b 1a bf 3f bb f0 50 0b bb e1 3d 87 3b
       0.005204769 -0.0029258193 -0.002125796 0.0041272496
0000b0 55 0f 15 3c b6 4d 4d 3b 68 5a 55 3b 26 37 09 bc
       0.009097894 0.0031326837 0.0032555107 -0.008374965
0000c0 8e f9 9a 3c 60 90 ab bb cd 00 4d 3c cd 69 63 bc
       0.018917825 -0.0052357167 0.012512398 -0.013880205
0000d0 0d 62 0f bd 60 8a 58 bc 32 53 b2 bc af 72 4b 3c
       -0.035005618 -0.013216585 -0.021768186 0.012417479
0000e0 e4 4e 8e 3c ae e1 f9 bb d7 9f 68 ba ff 0e 83 3c
       0.017371602 -0.00762578 -0.00088739156 0.015998362
0000f0 d7 c9 b6 3c 5f 7e 69 3c da 0f 67 3c f2 48 fa bc
       0.022313042 0.014251321 0.0141029 -0.030552361
000100 8f d0 69 bd a9 39 61 3c db b2 1c bd 37 ff 22 3d
       -0.057083663 0.013746657 -0.038256507 0.039794173
000110 47 b1 be 3d ac 2f 20 3d 89 2c 88 3d f1 f2 f5 bc
       0.09311157 0.039107963 0.066491194 -0.03002307
000120 d3 cf 55 bd 90 0e c4 3c 14 fe 21 3c fa 7e 44 bd
       -0.05220015 0.023932725 0.009887237 -0.047972657
000130 f1 d1 86 bd 80 f2 32 bd 99 57 26 bd 39 f8 b9 3d
       -0.06583012 -0.043688297 -0.040610883 0.09080548
000140 94 8f 78 bc 12 ff bf 3b 52 fe f3 3a dd e4 ee 3b
       -0.01517095 0.005859264 0.0018615222 0.007290466
000150 7a 2c 69 3c a4 2d eb 3b 8b ec 07 3c 18 e1 d2 bb
       0.014231795 0.0071770716 0.008296142 -0.0064355247
000160 fb e5 c7 bb f0 62 a0 3b d6 e2 8b b9 46 69 1d bb
       -0.006100414 0.004894607 -0.00026681152 -0.0024019047
000170 49 3d d0 bc 31 9b 8e 3a d6 02 aa bb 09 42 2a 3c
       -0.025419848 0.0010879991 -0.0051883264 0.010391721
000180 41 0a 34 bc 12 2d eb 3a 80 44 1f bc b2 ba 03 3c
       -0.010988773 0.0017942509 -0.0097209215 0.008040117
000190 52 a7 93 3c 47 a5 02 3c a0 30 6c 3c 52 70 8c bb
       0.01802412 0.0079739755 0.01441589 -0.0042858506
0001a0 e5 fa 4a bc 60 cf aa 3b 77 8b 90 3b 8a 8e 43 bc
       -0.0123889195 0.0052127093 0.0044111568 -0.011935839
0001b0 6e dd 35 bc 8a 39 38 bc 16 0e 06 bc c3 83 a5 3c
       -0.011100156 -0.011244187 -0.008182069 0.02020443
0001c0 d5 88 2f bd c7 b3 0d 3c c9 ca 03 bd 93 f6 fc 3c
       -0.042855103 0.008648819 -0.032175813 0.030879294
0001d0 3e 94 8c 3d 1c 6d f4 3c bf 0f 57 3d 62 9e a7 bc
       0.068642125 0.029837184 0.05250525 -0.020461265
0001e0 5f 9b 2b bd 38 28 9f 3c b3 55 39 3c a9 95 21 bd
       -0.04189622 0.019428357 0.011311936 -0.039449368
0001f0 64 6b 46 bd a5 d7 15 bd 12 90 01 bd a5 7c 95 3d
       -0.04844226 -0.036582608 -0.031631537 0.07299165

exp_avg f4 [8]
000000 b9 73 70 bd e5 c4 6e bd f0 51 ec ba 14 6e 87 bc
       -0.05870411 -0.058293242 -0.001802979 -0.016531982
000010 4b f0 40 3d 7c 9c d3 bb c5 48 49 3c 5a a6 23 3d
       0.04710416 -0.0064578634 0.012285416 0.039953567

exp_avg f4 [16, 8]
000000 39 82 33 3c b5 e3 92 bb 21 c5 01 bd 37 be fb 3c
       0.0109563405 -0.004482711 -0.031682137 0.03073035
000010 d9 14 13 3d 8e 72 cd bc 86 6b a7 bc bd b4 8e 3b
       0.035908554 -0.025079038 -0.020437013 0.004355042
000020 31 80 63 bb 9c cf b3 bb b5 27 09 3c 50 4d 1f 3a
       -0.003471386 -0.0054873955 0.008371283 0.0006076889
000030 49 d7 41 ba 56 b5 86 3b 33 2b 1d 3b 80 6a b9 bb
       -0.0007394446 0.0041109724 0.0023982048 -0.0056584477
000040 20 fc 03 bc 34 39 24 bb 75 b3 b4 3c be a7 60 bc
       -0.008055717 -0.002505851 0.022058228 -0.013711868
000050 67 9b 87 bc 33 df 75 3c 78 6e 32 3c e7 a0 ea bb
       -0.016553594 0.015006828 0.010890596 -0.0071602943
000060 e5 46 2c bc d5 3f bc 3b 4a bc f2 3c ec d9 01 bd
       -0.010514949 0.005744914 0.029630799 -0.031701967
000070 11 b5 07 bd 97 b6 cc 3c 91 b0 97 3c 16 39 7a bb
       -0.033131663 0.02498941 0.01851681 -0.0038180999
000080 b6 39 57 3b f9 41 f9 3a 05 cf 1c bc 6f 23 94 3b
       0.0032840795 0.0019016854 -0.009570842 0.0045208256
000090 fc c2 d9 3b 4e ce be bb 57 ad 97 bb de a2 6e 3b
       0.0066455584 -0.0058229333 -0.004628818 0.0036412994
0000a0 15 69 1c 3a cb e5 51 39 3b 73 21 bb 88 84 97 3a
       0.0005966586 0.00020017398 -0.0024635333 0.0011559883
0000b0 bf 01 5b 3b 84 82 ca ba 89 4b de ba dc a8 d1 39
       0.0033417789 -0.0015450274 -0.0016959767 0.00039989396
0000c0 57 5f af 3a 85 58 bd ba 8c 55 ac ba 6a 41 9c 3b
       0.0013379854 -0.0014445937 -0.0013148054 0.00476854
0000d0 0d d8 a6 3a 77 fc 1c bb 9f a6 98 ba 62 3d 78 ba
       0.0012729183 -0.0023954192 -0.0011646337 -0.0009469596
0000e0 ef 00 5b 3c ce e4 79 bb 4f 83 28 bd 94 7f 12 3d
       0.013366922 -0.0038130763 -0.04114085 0.0357662
0000f0 34 7d 2f 3d 6f 4f 00 bd eb 20 c5 bc c9 3f 0c 3c
       0.042844012 -0.031325754 -0.024063548 0.008560129
000100 f1 99 fe 3a 20 f6 70 3a 0b e4 5e bb 02 7e 2a 3b
       0.001942454 0.0009191949 -0.0034010436 0.0026015048
000110 2a 57 f8 3a 2a 78 38 bb 4d 10 d2 ba 8a 89 08 3a
       0.0018946875 -0.0028147795 -0.0016026587 0.0005208483
000120 bb e2 79 3b 3a 35 09 3b 32 d0 0e bc 0b 23 ad 3b
       0.0038129527 0.0020936267 -0.00871663 0.0052837185
000130 53 26 20 3b 7c 99 e2 bb 70 a7 11 bb 9b 26 8a 3b
       0.0024436906 -0.0069152694 -0.0022225045 0.004216028
000140 78 85 92 bc fb b2 12 3c 25 aa 56 3d 4a 8b 59 bd
       -0.017885908 0.008953805 0.052408356 -0.053111352
000150 72 05 80 bd 73 79 31 3d 09 e7 0a 3d c0 62 b6 bb
       -0.062510386 0.043328714 0.03391174 -0.005565971
000160 53 dc 7a bb ce 4d 96 3a 11 cf 49 3c 7f 12 32 bc
       -0.0038278296 0.0011467279 0.012317435 -0.010868668
000170 21 00 84 bc bc 00 2f 3c c3 62 ed 3b 61 46 31 ba
       -0.016113343 0.010681327 0.0072444393 -0.00067625014
000180 85 6b 57 bc f7 ad ed 3b f6 92 0d 3d 8e 33 1f bd
       -0.013148193 0.0072534042 0.03456398 -0.038867526
000190 8e 0d 10 bd 58 db ec 3c d4 36 b0 3c 12 23 b2 bb
       -0.035169177 0.028913185 0.02151052 -0.0054363096
0001a0 08 d2 90 3c 7e 05 0b bc e5 e1 4a bd 6b 88 52 3d
       0.017678276 -0.008485196 -0.049531836 0.05139963
0001b0 3f 74 62 3d b8 51 28 bd 51 06 00 bd 27 1a d4 3b
       0.055286642 -0.041093558 -0.031256024 0.006472844
0001c0 81 01 90 3a bf 98 f3 ba 26 97 ae bb c0 4b a9 3b
       0.0010986776 -0.0018584951 -0.005328077 0.005166501
0001d0 c4 c6 d5 3b 85 62 54 bb 36 fb 51 bb 34 a9 5f 3a
       0.006523939 -0.0032407355 -0.0032040603 0.0008531988
0001e0 31 e3 2a 3b fc 10 6e b9 6a 38 4a bb 63 5a b1 3b
       0.0026075358 -0.00022703776 -0.003085638 0.0054123863
0001f0 96 ba 15 bb bd 43 5e bb 31 3c 2b ba 1b 93 e0 3a
       -0.002284681 -0.0033914887 -0.00065321015 0.0017133685

exp_avg f4 [16]
000000 4d cd 95 3c 7e dd 4a 3c 4a 3f 2d 3b 18 a9 a4 bc
       0.018286372 0.012381909 0.0026435428 -0.020100161
000010 25 21 5c bb c6 04 a9 38 f4 56 8b 3b 79 6d 8a 3c
       -0.0033589092 8.059437e-05 0.004252309 0.016897904
000020 71 15 29 ba 67 43 85 bb a8 a0 0c bd 1f 8b e0 bb
       -0.00064500334 -0.004066873 -0.0343329 -0.006852522
000030 f8 50 c3 bc 57 f7 00 3d f1 de 94 3b 20 c5 67 39
       -0.02384232 0.03148588 0.0045431782 0.00022103311

exp_avg f4 [7, 16]
000000 1e 0f 72 bc 60 cf 92 3b 4b d2 ed 3b 80 f0 a8 bb
       -0.014774112 0.0044802874 0.007257735 -0.005155623
000010 71 50 89 3b 20 f2 05 3c b0 d5 ed bb 8d 09 b0 3b
       0.0041904976 0.008175403 -0.0072581396 0.0053722323
000020 1e a3 a2 bc b5 77 eb 3b 2a 7d 49 bb 21 2d 9a 3b
       -0.019853171 0.007185901 -0.003074477 0.004705087
000030 27 4b ca 3a 15 8d b0 ba 31 74 9f 3b 40 f4 68 3b
       0.0015433774 -0.001346978 0.004866146 0.0035545975
000040 25 0e e3 3c 71 32 4b bc bb 0f 6f bc a9 dd c9 3b
       0.027716706 -0.012402163 -0.014591153 0.006160457
000050 67 94 04 bc 5f 93 30 bc 84 0d 09 3c 55 b1 fe bb
       -0.0080920225 -0.0107773235 0.008365039 -0.0077726045
000060 6a 8c cf 3c 0c f7 06 bc 1c ce 06 3c c5 39 d5 3a
       0.02533551 -0.0082376115 0.008227851 0.0016267827
000070 4e bb d8 bb 8a 84 e4 3b 60 8a 16 bc 2c a8 d7 bb
       -0.0066141253 0.0069738077 -0.009188265 -0.006581327
000080 16 b6 01 bc 4d 07 9d 3b 95 c7 91 3a ed 3f 0c bc
       -0.007916948 0.00479213 0.0011122102 -0.008560163
000090 67 b7 55 3c 6f ba c1 3b 52 d8 de bb 82 0d 02 bb
       0.013044215 0.005912117 -0.0068006897 -0.0019844477
0000a0 5f ba 3f bc be 6e 1c 3c 2a 3a 87 bb 54 00 36 3c
       -0.011702149 0.009547887 -0.0041268067 0.011108477
0000b0 0e 4f 5e bb 12 66 b5 ba 20 4f 64 3a 21 27 23 ba
       -0.0033921632 -0.0013839623 0.00087093003 -0.0006223787
0000c0 af 75 6c 3c 96 7e 26 bc e7 ea 85 3b 67 5a 9d 3c
       0.014432355 -0.010162016 0.0040868404 0.019208146
0000d0 6f 86 24 bd ef e2 38 bc 3d 0c 58 3c fc d3 6c 3c
       -0.04016727 -0.011284574 0.013186512 0.014454838
0000e0 11 ab 5c 3c c3 79 be bc fe 29 44 3c 80 0f f8 bc
       0.01346852 -0.02325142 0.011972902 -0.030280828
0000f0 72 46 10 3c 7e 97 eb 3b 65 37 0f 3b 38 19 cc 3b
       0.008805858 0.00718969 0.0021853086 0.0062285922
000100 37 16 f1 ba 5b e3 2d 3a 65 1f da ba 44 c6 0d bb
       -0.0018393461 0.0006633305 -0.0016641436 -0.0021633068
000110 9e 94 de 3b 90 2c d4 3a 4e 15 0c ba c2 ec 09 bb
       0.006792619 0.0016187597 -0.0005343751 -0.002104566
000120 c9 96 3f 3a c2 99 54 3b 43 4a 2e bb b2 b8 69 3b
       0.00073085405 0.003244028 -0.0026594556 0.0035663066
000130 86 1b 9f ba 01 ee b9 ba dc 8e 9b ba 37 1c f4 ba
       -0.001213894 -0.001418531 -0.0011868137 -0.0018624131
000140 ce 91 a6 3d 19 7f 2f bd bb 1e a3 bc e3 33 53 3d
       0.08133279 -0.04284582 -0.019912114 0.051563155
000150 b1 f5 be bd 66 b8 37 bd 9f 04 37 3d 90 ec 06 3c
       -0.09324206 -0.04485359 0.04468214 0.008235112
000160 d7 cf a5 3d 12 f7 82 bd ad 64 21 3d e4 c0 74 bd
       0.08096283 -0.06394781 0.039402653 -0.059754267
000170 cd 01 0f 3c 06 82 c2 3c bd 1e 56 bc b3 fa cb b9
       0.008728457 0.02374364 -0.013068852 -0.00038905963
000180 d1 eb e3 39 6b a3 96 b8 99 e3 51 bb 5c 01 84 bb
       0.0004347251 -7.182996e-05 -0.0032026528 -0.0040284824
000190 b4 4c fb 3b d1 5c b3 3a 6b 6a e2 ba 42 ac 4e bb
       0.007669056 0.0013684278 -0.0017274147 -0.003153578
0001a0 d3 28 de 37 b2 8a 97 3b bf 01 08 bb e8 68 00 3c
       2.6483473e-05 0.004624688 -0.0020752994 0.007837512
0001b0 03 cf 48 bb 30 92 84 b8 75 3e 07 bb 03 07 27 bb
       -0.0030640967 -6.32148e-05 -0.0020636593 -0.0025486357

exp_avg f4 [7]
000000 3a 7e 49 bc f1 fc a2 3c c7 d2 47 b8 6c 45 6f bc
       -0.012298161 0.019896002 -4.76416e-05 -0.014603954
000010 47 1d 83 3b 9a dd 4a 3c 26 47 c1 3b
       0.004001293 0.0123819355 0.005898374

exp_avg f4 [16]
000000 c8 e4 14 3d 5e c2 0f bc bd f9 c7 bc 44 26 21 bc
       0.036350995 -0.008774368 -0.024411077 -0.009835783
000010 c7 b9 aa 3b ba df 18 3b 6f 20 96 bd d7 1e 6d 3c
       0.0052101347 0.002332671 -0.07330405 0.014472685
000020 be ee c3 3d cd 85 03 3c b4 e2 e0 bc f1 67 03 3e
       0.09567021 0.008027506 -0.02745185 0.12832619
000030 84 2e 42 3d 39 02 9b bc 4a 5c 68 bc 8b 1f 67 3d
       0.047407642 -0.018921958 -0.01418216 0.056426566

exp_avg f4 [16]
000000 a4 9d 78 3d 5e b6 e1 bb 7d 8b 1b 3d eb 01 20 bc
       0.060697213 -0.006888195 0.037974823 -0.009766082
000010 a8 62 a6 bb 9a 35 84 bc 15 00 4e bd 84 7a a3 bb
       -0.0050776787 -0.01613884 -0.050293047 -0.0049889702
000020 12 b2 52 bd cf b4 13 39 0d a7 a3 bb b8 03 d0 bd
       -0.051439352 0.00014086369 -0.0049942792 -0.10156959
000030 89 e5 99 bd f4 d4 82 3d b0 cb ce 3b fa ed 88 3c
       -0.075144835 0.06388274 0.0063109025 0.016715039

exp_avg f4 [8]
000000 59 6e 1e bd ba 43 80 3c 5e 13 28 3d 74 e1 53 bd
       -0.038679454 0.015657295 0.041034095 -0.05172868
000010 ee 82 27 3d 32 a1 ca 39 ef 6d 95 bc 76 7b 73 3a
       0.04089635 0.00038648542 -0.018240897 0.00092881115

exp_avg f4 [8]
000000 f7 26 58 bd c7 4d 6c bd 15 dd b7 bc d9 ca cd bc
       -0.052771535 -0.05769136 -0.022444287 -0.02512114
000010 af bc 3d 3c d6 b6 53 bc 41 0a f8 3c c4 13 b0 3c
       0.01158063 -0.012922009 0.030278327 0.0214938

exp_avg f4 [8, 7]
000000 48 48 e0 bd fa 03 2e be 37 a6 d5 bc ea aa 20 3e
       -0.109512866 -0.16993704 -0.026080234 0.15690199
000010 51 f5 dc bd 27 d4 85 3e 8d da 10 be 19 b0 69 bd
       -0.10788978 0.26138422 -0.1414587 -0.057052705
000020 f6 fb 9c bc e8 55 a2 bc 7a 85 0a be 51 40 c6 bd
       -0.019163113 -0.019816354 -0.1352748 -0.09680236
000030 b6 b8 67 bd 97 99 31 bd 1c 3b 31 3d a8 dd 0d 3e
       -0.05657264 -0.043359365 0.04326926 0.13854086
000040 38 1d 5d bd 18 f3 9b be 9d a3 f7 bd dc 66 00 be
       -0.053982943 -0.30458903 -0.12091754 -0.12539238
000050 f1 8f f6 3c fc 21 e0 3d 85 11 57 3b e2 1e 04 3e
       0.030097933 0.10943982 0.003281684 0.12902406
000060 59 bf b8 3e 3b 36 a9 3e 4d da 8c bd b8 fa f5 3d
       0.36083487 0.33049187 -0.06877575 0.120107114
000070 6b fb 5e bd 73 39 da bd f1 45 32 bc b9 6c e8 3d
       -0.05443899 -0.10655489 -0.010880933 0.11348862
000080 07 ea a0 bd ba 88 3e 3e 9f 87 bf bd 69 76 2f bd
       -0.07857137 0.18606845 -0.093520395 -0.042837534
000090 5e cc 98 bb de 1e 61 bd b9 40 30 be d6 cd 1f be
       -0.0046630343 -0.054961078 -0.1721219 -0.15605864
0000a0 6e 0b 25 3c 46 63 71 bd a6 a3 d9 3b 2a 6f 81 3c
       0.010073526 -0.058932565 0.006641823 0.015800077
0000b0 54 88 8e bb b8 12 a7 bd 56 61 83 bc f0 3a a5 bd
       -0.0043497477 -0.08157867 -0.016037624 -0.08067882
0000c0 4f 6e 64 3b c1 fe 5f 3e 71 17 64 3e ba 2b e9 3c
       0.0034855788 0.21874525 0.22274567 0.028463233
0000d0 60 0e 76 3e 44 5a 8e 3e ef 33 13 3e 8a 30 76 3e
       0.24028921 0.27803242 0.1437528 0.24041954

exp_avg_sq f4 [8, 7]
000000 74 3d ac 39 f0 ac 34 3a 5b 9f c1 37 64 f1 1d 3a
       0.00032852183 0.0006892225 2.3081599e-05 0.0006025045
000010 85 d2 8c 39 45 99 cd 3a ea 6f 02 3a 78 a4 bf 38
       0.0002685973 0.0015685937 0.0004975783 9.1382244e-05
000020 3f 2f 33 38 a2 c6 b5 37 c1 7c f2 39 1c 3a 6a 39
       4.2720927e-05 2.1669377e-05 0.00046250786 0.00022337626
000030 40 bd 9a 39 59 c8 a7 38 7d 35 be 38 c1 cb 11 3a
       0.0002951417 8.000498e-05 9.069869e-05 0.0005561673
000040 5c 34 a4 38 f3 35 0c 3b 80 22 db 39 bf 53 eb 39
       7.829882e-05 0.002139446 0.0004179664 0.0004488509
000050 bb 52 da 38 eb eb b3 39 e5 41 97 39 a6 2e d8 39
       0.0001041046 0.00034317313 0.0002885006 0.00041233486
000060 40 94 43 3b e8 7f 29 3b 4f f0 40 3a 30 bc 11 3a
       0.0029843003 0.0025863592 0.00073600275 0.0005559353
000070 ba d6 96 38 02 04 8e 39 fe ee 59 36 eb c9 b6 39
       7.192553e-05 0.00027087337 3.2474632e-06 0.00034864186
000080 f1 49 1c 39 db eb 5f 3a 08 53 69 39 2f c8 97 38
       0.00014904865 0.000854192 0.00022251543 7.237528e-05
000090 29 57 08 38 a5 26 9a 38 31 af 34 3a 95 f0 16 3a
       3.25061e-05 7.35049e-05 0.00068925606 0.00057578954
0000a0 d4 78 2e 38 cd 1f cb 38 19 93 8f 36 0d 62 4b 37
       4.1597363e-05 9.685718e-05 4.2788565e-06 1.2122572e-05
0000b0 46 c0 49 36 3c 5a 1c 39 e3 d2 27 37 7a 14 31 39
       3.0063252e-06 0.00014910934 1.0003077e-05 0.00016887664
0000c0 fc f1 de 36 dd cc 9e 3a 62 37 9b 3a 57 04 b7 37
       6.6442863e-06 0.0012115497 0.0011842067 2.181732e-05
0000d0 0c 0e bf 3a 1e 97 ed 3a ba 11 39 3a e2 ba b4 3a
       0.001457633 0.0018126701 0.00070598314 0.0013788606

exp_avg f4 [8]
000000 9b 8a 01 be 1a 31 48 bb 06 24 7c 3e 48 14 82 be
       -0.1265053 -0.0030546845 0.24623117 -0.25406098
000010 39 e2 95 bd eb fa ad 3d 1b ed 1a 3d 5d 6d f2 3d
       -0.07318539 0.084951244 0.037823778 0.11837266

exp_avg_sq f4 [8]
000000 4c aa c9 39 bb ad af 37 17 61 af 3a 8c 4b b5 3a
       0.0003846459 2.0942525e-05 0.0013380375 0.0013831719
000010 6a 8c 10 39 ed ed 35 39 70 cb 0c 38 19 81 00 3a
       0.00013785218 0.0001735014 3.3568067e-05 0.00049020495

exp_avg f4 [1, 8]
000000 81 d3 14 3e de b6 90 3e 40 1c f1 3e ac a1 ab bd
       0.14533807 0.28264517 0.47091866 -0.08380446
000010 5a ee 19 be 17 5d 6b be 2d c0 18 3e 6b 17 19 bf
       -0.1503233 -0.2298473 0.14917059 -0.5980136

exp_avg_sq f4 [1, 8]
000000 a3 a5 43 3a d4 07 fe 3a 28 60 9d 3b a2 86 4c 39
       0.00074633415 0.0019380995 0.0048027225 0.0001950511
000010 28 a0 1f 3a 55 86 05 3b d0 c3 23 3a 45 f1 0a 3c
       0.0006089234 0.0020374258 0.0006247135 0.008480375

exp_avg f4 [8]
000000 72 00 b6 3c 41 ea 72 3e 12 c5 c9 3e 98 f9 59 3d
       0.02221701 0.23722173 0.39408165 0.053216547
000010 dc 82 df bb b8 3c 31 be f8 e9 88 3d 16 ac ec 3d
       -0.0068210196 -0.17308319 0.06685251 0.1155626

exp_avg_sq f4 [8]
000000 e1 11 92 37 ca 51 b2 3a 3b 45 5c 3b e0 85 a2 38
       1.7412882e-05 0.0013604697 0.00336106 7.749698e-05
000010 a6 bc a9 35 60 65 99 3a 19 5d 02 39 10 31 a7 39
       1.2646385e-06 0.0011703186 0.00012432448 0.00031889277

exp_avg f4 [8]
000000 b4 f7 6b 3d e4 c6 a4 3e 23 e1 a4 3e 73 52 74 be
       0.057609275 0.32182992 0.32203016 -0.23859577
000010 f1 77 91 3c cd e4 98 3e 96 62 2e 3e dc 23 98 bd
       0.017757388 0.2986206 0.17029795 -0.07428715

exp_avg_sq f4 [8]
000000 2f 00 97 38 88 77 12 3b 66 a7 12 3b e6 0b a1 3a
       7.200275e-05 0.0022349078 0.002237761 0.0012286871
000010 17 fd e1 36 25 9d fb 3a ad 36 24 3a 3a c4 fa 38
       6.734986e-06 0.0019196613 0.0006264251 0.00011957479
