saved/gan/slwee5lf/checkpoints/epoch=0-step=20.ckpt (torch, 21906 bytes, 39 tensors)

generator.fc1.weight f4 [16, 7]
0	0xbee8c243	-0.4546071
1	0x3e15159b	0.14559023
2	0xbdb4c71c	-0.088270396
3	0xbe2dc000	-0.16967773
4	0x3efb1e21	0.49046424
5	0x3d9a1e77	0.07525342
6	0x3e3bf5d1	0.1835549
7	0x3ee3b80d	0.44476357
8	0xbf0723e6	-0.5278915
9	0x3f0b24f7	0.5435328
10	0xbd9a88f3	-0.07545652
11	0x3eaed844	0.34149373
12	0xbea1962a	-0.3155988
13	0xbfaa67c6	-1.3312919
14	0xbd9724ab	-0.07380041
15	0xbc30a84a	-0.010782311
16	0xbf75ca30	-0.9601164
17	0x3f8c7aa5	1.0974928
18	0x3e7a5e6a	0.24450079
19	0x3e242dd2	0.16033104
20	0x3f249bee	0.6430043
21	0xbeb933d6	-0.3617236
22	0x3ed770c2	0.42078215
23	0xbeeaeec3	-0.45885286
24	0xbce48912	-0.027897391
25	0xbf01ca74	-0.50699544
26	0xbe4f6145	-0.20251949
27	0x3e3d5581	0.18489648
28	0x3f064210	0.52444553
29	0x3f26ba64	0.6512816
30	0x3e7305cb	0.23732679
31	0xbf46e39e	-0.77691066
32	0xbf024e07	-0.5090031
33	0xbf638323	-0.88871974
34	0x3f3b3d42	0.73140347
35	0xbef5ea48	-0.48030305
36	0x3dbf8ba0	0.09352803
37	0xbfa2fbf7	-1.2733144
38	0xbf3279dc	-0.6971719
39	0xbe79e654	-0.2440427
40	0x3ec6f888	0.3886149
41	0x3e1e6902	0.15469745
42	0xbe80924d	-0.2511162
43	0xbe908043	-0.28222856
44	0xbf4e90db	-0.8068978
45	0xbd077431	-0.033069793
46	0x3e9a4d39	0.3013704
47	0x3ec157e3	0.37762365
48	0x3ea90366	0.33010405
49	0xbee0722f	-0.43837115
50	0x3f45b106	0.7722324
51	0x3f2499f9	0.64297444
52	0xbf1ed143	-0.6203806
53	0x3f415e90	0.75534916
54	0xbea59a4e	-0.32344288
55	0x3e229ce5	0.15880163
56	0xbe9759eb	-0.2956079
57	0x3ecf7328	0.40517545
58	0xbf3cbd9e	-0.7372683
59	0x3efb206f	0.49048182
60	0xbe8976fe	-0.26848596
61	0x3df05cbf	0.1173644
62	0xbf0963b3	-0.53667754
63	0xbf107882	-0.5643388
64	0x3f1f0bb1	0.62127215
65	0x3f142faa	0.5788523
66	0xbf6682b0	-0.90043163
67	0xbe857e8c	-0.2607311
68	0x3f636c71	0.88837343
69	0x3e0443e9	0.1291653
70	0x3f17e273	0.5932991
71	0x3ed78b18	0.42098308
72	0x3eb25752	0.34832245
73	0x3db7c9ac	0.08974013
74	0xbf0a55a3	-0.5403692
75	0x3e88b243	0.26698503
76	0x3d68b123	0.056809556
77	0xbd1189b8	-0.03553173
78	0xbea66bd8	-0.32504153
79	0x3ee3b39f	0.44472978
80	0xbec51e59	-0.38499716
81	0x3f3896e2	0.7210523
82	0xbbf2af14	-0.007406125
83	0xbf85d3fa	-1.0455315
84	0xbe9e0395	-0.30862108
85	0x3f65fff2	0.89843667
86	0x3eceb55e	0.40372747
87	0xbebb4e72	-0.36583287
88	0xbf66d69e	-0.9017123
89	0xbeeb3c83	-0.45944604
90	0xbe31eb52	-0.17374924
91	0xbe1b6a98	-0.15177381
92	0xbeace34b	-0.3376716
93	0xbf217407	-0.6306767
94	0xbd16770b	-0.036734622
95	0xbe22fc04	-0.15916449
96	0x3e6199d7	0.22031341
97	0xbecf6bed	-0.40512028
98	0x3eb14858	0.34625506
99	0xbc6e8461	-0.014557929
100	0x3e520777	0.2051066
101	0xbf03239d	-0.51226217
102	0xbe1d2c24	-0.1534887
103	0x3f6eb3b6	0.9324297
104	0xbd7ceccf	-0.061749276
105	0x3f9c2267	1.2197999
106	0x3dcc168c	0.09965238
107	0xbdf269ca	-0.11836584
108	0xbe5405f6	-0.20705399
109	0xbfaf0f90	-1.3676624
110	0xbf17d3ef	-0.5930776
111	0x3e88e7f5	0.2673947

generator.fc1.bias f4 [16]
0	0x3c1caa4b	0.009562085
1	0xbe5aedc3	-0.21379761
2	0xbaf6207c	-0.0018777992
3	0x3e01dfdc	0.12683052
4	0x3ead3113	0.33826503
5	0x3cd847bb	0.026401391
6	0xbe098420	-0.13429308
7	0x3e0aefa0	0.13567972
8	0x3e9db315	0.3080069
9	0xbea33b14	-0.3188101
10	0x3e11174e	0.14169046
11	0xbe09406e	-0.13403484
12	0x3c36de6c	0.011161428
13	0x3e7a28aa	0.24429575
14	0xbe2810fc	-0.16412729
15	0xbda4a768	-0.08039743

generator.fc2.weight f4 [8, 16]
0	0xbbde66d8	-0.0067871623
1	0x3e4636a2	0.19356778
2	0x3f31a909	0.6939855
3	0xbd5a5ecd	-0.053313065
4	0x3b535f62	0.0032252898
5	0xbf0ab9c8	-0.5418973
6	0x3ea5cb7b	0.32381806
7	0x3f404edd	0.75120336
8	0x3ecafa71	0.39644197
9	0x3e87f801	0.265564
10	0xbf12b326	-0.5730461
11	0xbeb6fdcd	-0.3574051
12	0x3f1b47d0	0.6065645
13	0x3d9873d6	0.07443969
14	0x3dd75d4b	0.10515841
15	0xbea82024	-0.3283702
16	0xbda313d3	-0.079627655
17	0xbdfeafdc	-0.12435886
18	0xbefd21ac	-0.49439752
19	0x3eb556f8	0.35417914
20	0x3e7aa39c	0.24476475
21	0x3dc29688	0.09501368
22	0xbd8e1290	-0.06937134
23	0xbf04ae9c	-0.5182893
24	0x3ea3774d	0.31926957
25	0xbe65d140	-0.22443104
26	0x3bd1c003	0.0064010634
27	0xbe583958	-0.21115625
28	0xbed0da7b	-0.40791687
29	0xbf3ca892	-0.7369472
30	0xbe984c02	-0.2974549
31	0xbe3b901d	-0.18316694
32	0xbe03fdb5	-0.1288975
33	0x3e9f5445	0.3111898
34	0x3d1f05bc	0.038823828
35	0x3ecd63ac	0.40115106
36	0x3e82cf28	0.25548673
37	0xbdeeb502	-0.11655618
38	0xbe1ec9f1	-0.15506722
39	0xbea5310e	-0.32263988
40	0xbe5621ad	-0.20911284
41	0x3ea92a86	0.33040255
42	0x3e2a686b	0.16641395
43	0x3f51b1fb	0.819122
44	0xbf1da2e4	-0.61576676
45	0xbf339e58	-0.7016349
46	0x3e927e32	0.28611904
47	0x3f3233f4	0.69610524
48	0xbe16f75a	-0.14742795
49	0x3eb81b94	0.3595854
50	0x3dfde00a	0.12396248
51	0x3f10f4e5	0.5662368
52	0xbdb1c202	-0.08679582
53	0x3e73bfdb	0.23803656
54	0xbea39705	-0.31951156
55	0xbf19df15	-0.6010602
56	0xbe382061	-0.17981102
57	0x3dede4f4	0.11615935
58	0xbeb06217	-0.34449837
59	0xbe6bc1ec	-0.23023194
60	0xbe880377	-0.26565143
61	0xbe187895	-0.14889748
62	0xbec47894	-0.38373244
63	0xbeab4936	-0.33454293
64	0x3e87324d	0.26405564
65	0xbde5c5cc	-0.112193674
66	0x3e293c8c	0.16527003
67	0x3da4e8da	0.080522254
68	0xbe28d2d4	-0.16486675
69	0xbdb05dd4	-0.08611646
70	0xbd5f551e	-0.054524533
71	0xbdfb6202	-0.12274553
72	0xbe631e9f	-0.2217965
73	0xbf271c61	-0.6527768
74	0x3f0d7861	0.5526181
75	0x3da95355	0.082678474
76	0xbe37c227	-0.17945157
77	0xbd752b6b	-0.05985586
78	0x3ebf590f	0.37372634
79	0x3c945e4f	0.018111376
80	0x3f043e61	0.5165768
81	0xbd8e8511	-0.06958974
82	0xbdac85bb	-0.084239446
83	0xbec486c8	-0.3838408
84	0xbe0b8b72	-0.13627413
85	0xbda2d143	-0.0795007
86	0xbf03db7d	-0.5150679
87	0x3f097691	0.5369654
88	0xbdc29b8d	-0.09502325
89	0xbeeb54e6	-0.4596321
90	0x3dd56d92	0.104212895
91	0xbdb55776	-0.088545725
92	0xbdefb778	-0.11704916
93	0xbedeb6b6	-0.43498772
94	0x3e77fb08	0.24216855
95	0x3f3c4c7d	0.7355421
96	0xbef98741	-0.48736003
97	0x3e076788	0.13223088
98	0xbdb18d84	-0.0866957
99	0xbf11260d	-0.56698686
100	0xbe726222	-0.23670247
101	0xbf6a4c4c	-0.9152267
102	0xbf045182	-0.5168687
103	0xbecdff85	-0.40234008
104	0xbe7fabe3	-0.24967913
105	0x3ef64014	0.48095763
106	0x3d4ee2e2	0.05050934
107	0xbe677d49	-0.22606386
108	0xbde6bacc	-0.112660974
109	0x3f1eedab	0.620814
110	0x3e834d11	0.25644735
111	0xbf124c8e	-0.57148063
112	0xbe8f03b5	-0.27932516
113	0xbdfcfc46	-0.12352805
114	0xbf0159b0	-0.5052748
115	0xbe07c14d	-0.13257332
116	0xbd894e5e	-0.067044005
117	0xbe404f3b	-0.18780224
118	0x3eab8db6	0.33506554
119	0xbea15097	-0.31506798
120	0x3eac08f2	0.33600575
121	0x3e47c05a	0.1950697
122	0x3ddae48e	0.106881246
123	0xbf23b0c8	-0.6394162
124	0x3ed56993	0.4168211
125	0x3e76fab9	0.2411908
126	0x3db5bc9d	0.08873866
127	0xbd2c4c20	-0.042064786

generator.fc2.bias f4 [8]
0	0x3df617cc	0.12016258
1	0x3e0b166e	0.13582775
2	0xbd2210cf	-0.03956681
3	0xbe655026	-0.22393855
4	0xbe09dbb6	-0.1346272
5	0x3db1ac80	0.0867548
6	0xbe534804	-0.2063294
7	0x3e1fb7c8	0.1559745

generator.fc3.weight f4 [16, 8]
0	0xbf5c8e9b	-0.861551
1	0x3e29d85e	0.16586444
2	0x3cdd446b	0.027010163
3	0x3f3acc02	0.7296754
4	0xbf1eaf05	-0.6198581
5	0x3eb20097	0.34766075
6	0x3f1bb4f7	0.60823005
7	0x3e8aad76	0.27085465
8	0xbe80a7d1	-0.25128034
9	0x3e0a7add	0.13523431
10	0x3f5b97e7	0.8577866
11	0xbde7317e	-0.11288737
12	0x3f2a52f6	0.6653284
13	0x3eff8a3f	0.4991016
14	0x3e949bea	0.29025203
15	0xbe0e13ae	-0.13874695
16	0x3e924b53	0.28573093
17	0x3d532edd	0.051558364
18	0xbec4cf4a	-0.384394
19	0x3d822e89	0.06356532
20	0xbf42178d	-0.75817186
21	0x3e11f055	0.14251836
22	0x3e0821ce	0.13294145
23	0xbe49fa65	-0.19724424
24	0x3de5f1c8	0.11227757
25	0xbf6b15bc	-0.9183004
26	0x3e16d846	0.1473094
27	0xbe06e6ac	-0.13173932
28	0xbeb59904	-0.35468304
29	0x3f13d359	0.57744366
30	0xbd0c6c2e	-0.034282856
31	0x3f626f35	0.8845094
32	0xbc02e0ec	-0.007988196
33	0x3f4c995e	0.7992152
34	0xbf90235c	-1.1260791
35	0xbe053be4	-0.13011128
36	0x3e3c8d1b	0.18413202
37	0x3eac64d3	0.33670673
38	0xbf744ced	-0.9542988
39	0xbf401649	-0.75034004
40	0x3e92c50f	0.2866597
41	0x3c0e2a3e	0.0086770635
42	0xbe655c48	-0.22398484
43	0x3f2921a7	0.66066974
44	0xbe895934	-0.2682587
45	0x3ed818ae	0.4220633
46	0xbf5e7657	-0.8689932
47	0x3ea39218	0.31947398
48	0xbf484c57	-0.78241485
49	0x3df32d76	0.11873905
50	0xbf603ac4	-0.8758967
51	0x3ebd1713	0.36931667
52	0x3eb1611d	0.34644404
53	0xbf186d0c	-0.5954139
54	0xbd5f3b95	-0.05450018
55	0x3ec09ea7	0.37621042
56	0x3eccbb42	0.39986616
57	0xbea4cff9	-0.3218992
58	0x3e341734	0.17586976
59	0x3deff186	0.11715989
60	0x3e69b368	0.22822344
61	0x3f0b6d10	0.5446329
62	0x3ea19d3d	0.31565276
63	0xbd6b226d	-0.057405878
64	0x3d3d5461	0.046223048
65	0xbf049d48	-0.5180249
66	0x3f45a92d	0.77211267
67	0x3e71cbd9	0.23612918
68	0x3e849245	0.25892845
69	0xbe1c20e6	-0.15246925
70	0x3f99f9b9	1.2029334
71	0x3c88e3d9	0.016710209
72	0xbe118932	-0.14212492
73	0xbd494ad3	-0.049143624
74	0x3f12f475	0.5740426
75	0x3ee1b56f	0.44083735
76	0xbf107c25	-0.5643943
77	0xbe77851f	-0.24171875
78	0x3d5ef5ad	0.054433513
79	0xbf376b33	-0.7164795
80	0x3e486053	0.19567995
81	0x3db4992c	0.08818278
82	0x3ebc7165	0.36805263
83	0xbca69708	-0.02033569
84	0x3e48d38c	0.19611949
85	0xbf2f01b6	-0.68361986
86	0x3f67cf29	0.90550476
87	0xbf545714	-0.8294537
88	0x3f1a5575	0.6028665
89	0xbfa00e5a	-1.250438
90	0xbedf2a5d	-0.43587008
91	0xbf6e6a81	-0.9313126
92	0x3d8fd468	0.07022935
93	0xbf2a6d43	-0.6657297
94	0xbea25644	-0.3170644
95	0xbda4a809	-0.08039863
96	0xbe011e9c	-0.12609333
97	0x3ee31ff2	0.4436031
98	0x3d6794bc	0.05653833
99	0x3e11d6a3	0.14242034
100	0x3f7f2c49	0.9967695
101	0x3f8ebfb5	1.1152254
102	0x3f5b01f0	0.8554983
103	0x3e4d4971	0.20047547
104	0xbf038d7d	-0.5138777
105	0x3f3e033d	0.7422369
106	0x3e5593e4	0.20857197
107	0xbf80888c	-1.0041671
108	0x3e51b877	0.20480524
109	0x3ef6f4c8	0.48233628
110	0x3ea9b7e2	0.33148104
111	0x3e9f8f32	0.31163937
112	0xbeda1235	-0.42592016
113	0x3e4846d9	0.19558276
114	0xbf1c61ba	-0.6108662
115	0x3e934aab	0.28767905
116	0x3ea45be2	0.3210135
117	0x3e4d9297	0.20075451
118	0x3dc0c533	0.09412613
119	0x3ebb5d63	0.36594686
120	0x3d783ad8	0.060602993
121	0x3f2bfc56	0.6718191
122	0x3d4906c9	0.049078736
123	0xbf002b31	-0.50065905
124	0xbe95f1a0	-0.29285908
125	0xbd83258e	-0.06403647
126	0xbed51a3d	-0.4162158
127	0x3ee4f934	0.44721377

generator.fc3.bias f4 [16]
0	0xbe37424b	-0.17896383
1	0x3d3e7062	0.046493895
2	0x3e1dbed4	0.15404826
3	0xbd4f0e58	-0.05055079
4	0x3e49d326	0.19709453
5	0x3ea11fd1	0.31469586
6	0x3dc9ec84	0.09859565
7	0xbc6f8674	-0.0146194585
8	0x3e68e968	0.22745287
9	0xbdfed0e6	-0.12442188
10	0xbe4844cf	-0.19557498
11	0xbd923da7	-0.071406655
12	0xbd3f8f1e	-0.046767347
13	0x3e3d989c	0.18515247
14	0xbe17badd	-0.14817376
15	0x3dea2ae0	0.11433959

generator.fc4.weight f4 [7, 16]
0	0x3e0bbe9a	0.13646927
1	0x3d30f99f	0.043206807
2	0x3ee006ef	0.4375529
3	0xbe27a611	-0.16371943
4	0x3dc6d343	0.09708264
5	0x3eaf3199	0.34217528
6	0x3dea1716	0.114301845
7	0xbed6959d	-0.4191102
8	0xbea2865e	-0.3174314
9	0xbef6516b	-0.48108992
10	0xbd034f99	-0.032058332
11	0x3e61a022	0.22033742
12	0x3e93f306	0.2889635
13	0xbe4edff4	-0.20202619
14	0xbedebfba	-0.4350565
15	0x3e5d714e	0.21625254
16	0x3dd4bc10	0.103874326
17	0x3bfeebf7	0.007779594
18	0x3ed11c73	0.40842018
19	0xbdadc62c	-0.08485064
20	0x3e42b38c	0.19013804
21	0x3ef18f02	0.4717942
22	0x3e3127ad	0.17300291
23	0x3e3b4fa5	0.182921
24	0xbe6bc75d	-0.2302527
25	0xbe08bb6c	-0.13352746
26	0x3e8e3367	0.27773592
27	0xbe8e2a22	-0.2776652
28	0x3ec58c9a	0.38583833
29	0x3f0e0fdc	0.5549295
30	0xbd770e53	-0.060316395
31	0x3e3b62eb	0.18299453
32	0x3ee6487a	0.4497717
33	0x3f2356ae	0.6380414
34	0xbe138631	-0.14406659
35	0x3ec655de	0.38737386
36	0x3ead6123	0.33863172
37	0x3e187a74	0.14890462
38	0x3df75d76	0.12078373
39	0xbf0435e2	-0.5164472
40	0x3e9284de	0.28616995
41	0xbcb9f833	-0.022701358
42	0xbe79b083	-0.2438374
43	0x3e6871e5	0.22699697
44	0x3f1efdad	0.6210583
45	0x3f13e566	0.5777191
46	0xbe18059e	-0.14845893
47	0x3e917aea	0.28414088
48	0xbe4fb3da	-0.20283452
49	0x3e8362df	0.2566137
50	0xbe061c4d	-0.13096733
51	0x3efad76e	0.48992485
52	0x3f3c2e5f	0.73508257
53	0xbf0225c0	-0.5083885
54	0x3e7c2d54	0.24626666
55	0xbbee401c	-0.007270826
56	0xbe986c95	-0.29770342
57	0xbd368e5a	-0.04456935
58	0xbd2ce8c6	-0.042214178
59	0xbf3e6c7e	-0.74384296
60	0xbef80d7c	-0.48447788
61	0xbd444b51	-0.04792339
62	0x3dbc5ded	0.091976024
63	0x3e50eed6	0.20403609
64	0xbf1db529	-0.61604553
65	0x3f047c2b	0.51751965
66	0x3eb635f9	0.35588053
67	0x3f02b1e5	0.51052696
68	0x3cc73221	0.024315896
69	0x3eed243c	0.46316707
70	0xbe53dc6c	-0.20689553
71	0x3e3509f6	0.17679581
72	0x3e472ed8	0.19451463
73	0xbe277ff3	-0.16357403
74	0x3f0946f7	0.5362391
75	0xbd8b7641	-0.068096645
76	0xbeb29708	-0.34880853
77	0x3f140423	0.5781881
78	0x3f0bb018	0.5456557
79	0xbe7c11a5	-0.24616106
80	0xbd7b25fe	-0.06131553
81	0xbf23a994	-0.6393063
82	0xbeb62c91	-0.35580876
83	0xbf454513	-0.77058524
84	0x3e30a980	0.17252159
85	0x3dbe91de	0.09305166
86	0xbdbfc913	-0.09364524
87	0x3e99de0b	0.30052218
88	0xbe00891c	-0.12552303
89	0xbe5b6cef	-0.21428274
90	0x3e104f14	0.14092666
91	0xbf2c296e	-0.67250717
92	0x3e850c43	0.25985917
93	0x3ef501f2	0.47853047
94	0x3ab87ac1	0.001407467
95	0xbebf504d	-0.37365952
96	0x3e57cf4b	0.2107517
97	0x3e9deb75	0.30843702
98	0xbe4ff0cd	-0.20306702
99	0x3d7566cd	0.05991249
100	0x3e43cbf7	0.19120775
101	0x3f045351	0.5168963
102	0xbd23a2db	-0.039950233
103	0xbcb72495	-0.02235631
104	0x3f564dc2	0.837124
105	0x3efd2e23	0.49449262
106	0x3cbb96dd	0.022899086
107	0xbcd2a210	-0.025712043
108	0x3d5da76b	0.05411474
109	0x3e98a4b4	0.2981316
110	0x3ed1d856	0.40985364
111	0x3e89e5ba	0.2693308

generator.fc4.bias f4 [7]
0	0x3ded3f94	0.11584392
1	0x3e56642c	0.2093665
2	0xbe4d0b4e	-0.20023844
3	0xbd526e88	-0.051374942
4	0x3a1cf002	0.00059866917
5	0xbce03ada	-0.027371813
6	0x3c851948	0.016247407

generator.layer_norm_hidden_0.weight f4 [16]
0	0x3f810628	1.0080004
1	0x3f810628	1.0080004
2	0x3f7d70a6	0.9900001
3	0x3f7d70a6	0.9900001
4	0x3f7d70a6	0.9900001
5	0x3f7d70a6	0.9900001
6	0x3f7d70a6	0.9900001
7	0x3f808314	1.0040002
8	0x3f7d70a6	0.9900001
9	0x3f7e76ca	0.9940001
10	0x3f8147b2	1.0100005
11	0x3f7d70a6	0.9900001
12	0x3f8147b2	1.0100005
13	0x3f8147b2	1.0100005
14	0x3f7f7cee	0.998
15	0x3f7d70a6	0.9900001

generator.layer_norm_hidden_0.bias f4 [16]
0	0xbb03126e	-0.0019999999
1	0x3b03126e	0.0019999999
2	0x3b03126e	0.0019999999
3	0x3c23d70b	0.010000001
4	0xbb83126f	-0.004
5	0xbb03126e	-0.0019999999
6	0xbb83126f	-0.004
7	0x3c23d70b	0.010000001
8	0xbc23d70b	-0.010000001
9	0x00000000	0.0
10	0xbb83126f	-0.004
11	0xbc23d70b	-0.010000001
12	0xbc23d70b	-0.010000001
13	0x00000000	0.0
14	0x3b83126f	0.004
15	0xbb03126e	-0.0019999999

generator.layer_norm_hidden_1.weight f4 [8]
0	0x3f7e76ca	0.9940001
1	0x3f7d70a6	0.9900001
2	0x3f8147b2	1.0100005
3	0x3f810628	1.0080004
4	0x3f8147b2	1.0100005
5	0x3f8147b2	1.0100005
6	0x3f7d70a6	0.9900001
7	0x3f8147b2	1.0100005

generator.layer_norm_hidden_1.bias f4 [8]
0	0xbc23d70b	-0.010000001
1	0x3c03126f	0.008
2	0xbc23d70b	-0.010000001
3	0x3c23d70b	0.010000001
4	0x3bc49ba7	0.0060000005
5	0xbc23d70b	-0.010000001
6	0xbc23d70b	-0.010000001
7	0xbc03126f	-0.008

discriminator.fc1.weight f4 [8, 7]
0	0xbf18cc1a	-0.59686434
1	0x3ecb8f47	0.3975775
2	0xbf5a16f5	-0.8519128
3	0xbda41e6c	-0.08013615
4	0x3cd23750	0.02566114
5	0x3d031850	0.032005608
6	0x3fbe6b28	1.4876451
7	0x3d8464c9	0.06464536
8	0xbf37498b	-0.7159659
9	0xbec439a1	-0.38325217
10	0xbc0b8cbf	-0.008517443
11	0x3e5cea7d	0.21573825
12	0xbe2cd797	-0.16879116
13	0xbeadc7a0	-0.33941364
14	0x3f73f79f	0.95299715
15	0xbf6697f4	-0.9007561
16	0xbef366a7	-0.47539255
17	0xbe23c288	-0.15992177
18	0xbe623f2b	-0.22094409
19	0x3d86a07b	0.06573578
20	0xbeabd545	-0.3356115
21	0xbec89211	-0.3917394
22	0x3fb9a676	1.4503925
23	0xc00c09e0	-2.1881027
24	0xbe641d51	-0.22276808
25	0xbfb31a02	-1.3992312
26	0xbe8d6a39	-0.27620104
27	0xbeaf3ede	-0.3422765
28	0xbec3fa7c	-0.38277042
29	0xbd96ceae	-0.0736364
30	0xbdb46e3f	-0.0881009
31	0x3e977fa1	0.2958956
32	0x3da55241	0.08072329
33	0x3f406922	0.7516042
34	0xbf999bb7	-1.2000645
35	0xbe66b936	-0.2253159
36	0xbf1ac7b0	-0.6046095
37	0xbf00114a	-0.5002638
38	0xbe235d59	-0.15953578
39	0x3e235c61	0.15953209
40	0x3e735ef4	0.2376669
41	0x3f5626f6	0.836532
42	0x3dc1d2d2	0.09464039
43	0xbdb284a0	-0.087167025
44	0x3ea88ecd	0.32921448
45	0xbf1ad666	-0.60483396
46	0xbe22686e	-0.1586015
47	0xbfbdcf03	-1.48288
48	0x3de04fbb	0.109527074
49	0x3ef7d279	0.48402765
50	0x3f55cac6	0.8351253
51	0x3e2baa33	0.16764145
52	0xbf12bc7b	-0.5731885
53	0x3d23d7b8	0.040000647
54	0x3daa67cf	0.08320581
55	0x3da96cd2	0.08272709

discriminator.fc1.bias f4 [8]
0	0xbec49825	-0.38397327
1	0xbd39b879	-0.045341942
2	0xbeacbe6a	-0.33739024
3	0x3dc57b79	0.09642691
4	0xbe8b8f54	-0.27257788
5	0x3deb2e37	0.11483424
6	0x3d915272	0.07095803
7	0xbe8cc3d0	-0.27493143

discriminator.fc2.weight f4 [1, 8]
0	0xbf08690d	-0.53285295
1	0x3e9c6840	0.30548286
2	0x3e8f7776	0.2802083
3	0x3f7e3d23	0.9931204
4	0x3eea2fec	0.45739686
5	0xbf3ad9ae	-0.729884
6	0x3e06f964	0.13181072
7	0xbf6acf5b	-0.9172265

discriminator.layer_norm_hidden_0.weight f4 [8]
0	0x3f7d72c8	0.9900327
1	0x3f7ede70	0.9955816
2	0x3f7d7f0f	0.99022
3	0x3f7d6dd1	0.9899569
4	0x3f813a87	1.0095986
5	0x3f7d6f0e	0.9899758
6	0x3f7de625	0.991793
7	0x3f7de511	0.9917765

discriminator.layer_norm_hidden_0.bias f4 [8]
0	0x3c23e578	0.01000344
1	0xbc23e996	-0.010004422
2	0xbc23da96	-0.010000845
3	0xbc23eb2b	-0.010004799
4	0xbc23ffc2	-0.010009708
5	0x3c23e8d3	0.01000424
6	0xbc23c560	-0.009995788
7	0x3c23ebaf	0.010004922

exp_avg f4 [16, 7]
0	0xbd3c5e60	-0.04598844
1	0xbd3e0e2a	-0.046400227
2	0x22950266	4.038907e-18
3	0xbd3e56f5	-0.046469647
4	0xbd418703	-0.047247898
5	0xbd3d9784	-0.046287075
6	0x3b943f9b	0.004524184
7	0x3cba1896	0.022716802
8	0x3cbafcfa	0.022825707
9	0x223044b4	2.3888819e-18
10	0x3cba0d68	0.02271147
11	0x3cb9ec27	0.022695614
12	0x3cbb1260	0.02283591
13	0x3bc69894	0.006060669
14	0x3c6307ec	0.013856869
15	0x3c67f09d	0.014156488
16	0xa143ccb8	-6.6339513e-19
17	0x3c69f0d2	0.014278607
18	0x3c7352b0	0.014851257
19	0x3c666364	0.0140617825
20	0xbbccbf6a	-0.0062484043
21	0xbc47ac43	-0.0121870665
22	0xbc47daa7	-0.012198127
23	0xa1e8c0ff	-1.5772017e-18
24	0xbc43df51	-0.011955098
25	0xbc3d82c5	-0.011566822
26	0xbc4920d0	-0.0122758895
27	0xbc28c471	-0.0103007415
28	0xbcf2fc95	-0.029661456
29	0xbcf3e80a	-0.02977373
30	0xa2b90287	-5.0147026e-18
31	0xbcf1c018	-0.029510543
32	0xbcef9dd3	-0.029250061
33	0xbcf460d2	-0.029831324
34	0xbc4f063a	-0.012635762
35	0xbcb10d32	-0.021612737
36	0xbcb19030	-0.0216752
37	0xa2105c5b	-1.9564532e-18
38	0xbcb07686	-0.021540891
39	0xbcaf2210	-0.021378547
40	0xbcb1d3d9	-0.021707462
41	0xbbbe0563	-0.005798982
42	0x3b8644b2	0.0040975446
43	0x3b879e19	0.0041387198
44	0x20a04566	2.7150978e-19
45	0x3b8913c1	0.004183263
46	0x3b8ca5ab	0.00429221
47	0x3b86e87a	0.004117069
48	0xba91a391	-0.0011111369
49	0xbcb36985	-0.021900902
50	0xbcb2053d	-0.021731013
51	0xa0028a26	-1.1057138e-19
52	0xbcb1f067	-0.021721078
53	0xbcb084de	-0.021547731
54	0xbcb23b75	-0.021756867
55	0xbb393eeb	-0.0028266262
56	0xbca7893d	-0.020451182
57	0xbca5d7bd	-0.020244474
58	0xa15a7d49	-7.4027087e-19
59	0xbca545a3	-0.020174807
60	0xbca1dba9	-0.019758062
61	0xbca65882	-0.020305876
62	0xbb975a43	-0.0046189143
63	0x3cbc5232	0.022988413
64	0x3cbd1fce	0.023086455
65	0xa07a79fd	-2.1216186e-19
66	0x3cbe0fc5	0.023200879
67	0x3cc02af9	0.023457991
68	0x3cbcb1f5	0.023034075
69	0xbb870d5d	-0.004121466
70	0xbc7725b4	-0.015084673
71	0xbc801a3a	-0.015637506
72	0xa104d3e4	-4.5003775e-19
73	0xbc811484	-0.015756853
74	0xbc87ba39	-0.01656829
75	0xbc7e0bac	-0.0155057125
76	0x3be8535e	0.0070900163
77	0xbca82961	-0.020527544
78	0xbcaa2d6b	-0.02077361
79	0xa2b8c068	-5.007702e-18
80	0xbca865ca	-0.02055635
81	0xbca6f5c7	-0.020380868
82	0xbcaa7687	-0.020808471
83	0xbc1f08b9	-0.0097066695
84	0x3cd7c717	0.02634005
85	0x3cd8e557	0.026476545
86	0x22b19563	4.8134115e-18
87	0x3cd72c40	0.026266217
88	0x3cd60847	0.026126994
89	0x3cd9342c	0.026514135
90	0x3c1c363d	0.009534416
91	0x3d9ee433	0.07758369
92	0x3d9f63cc	0.077827066
93	0x22dfa111	6.0614807e-18
94	0x3d9e9a3f	0.07744264
95	0x3d9dcfe4	0.077056676
96	0x3d9f8d77	0.07790654
97	0x3c95e11e	0.01829582
98	0x3c46b33a	0.012127692
99	0x3c435a35	0.0119233625
100	0xa1e306d3	-1.5383925e-18
101	0x3c436374	0.011925567
102	0x3c3cc22d	0.0115209045
103	0x3c4429ac	0.011972826
104	0x3a76c3a3	0.00094133074
105	0xbcc8a98b	-0.024494907
106	0xbcc9cfe7	-0.024635268
107	0xa21e5f3d	-2.1463412e-18
108	0xbccb41e9	-0.024811702
109	0xbccf1dec	-0.025282823
110	0xbcc91a02	-0.024548534
111	0x3bb9ec57	0.005673926

exp_avg f4 [16]
0	0xbd150266	-0.03637924
1	0xbcb044b4	-0.021517135
2	0x3bc3ccb9	0.0059753326
3	0x3c68c100	0.014206171
4	0x3d390287	0.045168426
5	0x3c905c5a	0.017622162
6	0xbb204566	-0.0024455427
7	0x3a828a10	0.0009959359
8	0x3bda7d49	0.006667767
9	0x3afa7a01	0.0019109846
10	0x3b84d3e5	0.00405358
11	0x3d38c068	0.045105368
12	0xbd319564	-0.04335536
13	0xbd5fa110	-0.05459696
14	0x3c6306d3	0.0138566075
15	0x3c9e5f3d	0.019332523

exp_avg f4 [8, 16]
0	0xba348dd0	-0.0006887587
1	0x39fcc736	0.0004821361
2	0x3be88b53	0.007096687
3	0xbaeca10f	-0.001805337
4	0xbbdd213c	-0.0067483466
5	0xbaa2be27	-0.0012416289
6	0xbada54ab	-0.0016657313
7	0xb869421c	-5.5613098e-05
8	0x3ae46d4f	0.0017427596
9	0xba660e6d	-0.00087759533
10	0x3b79d7ad	0.0038122938
11	0x3a7ebf48	0.0009717834
12	0x3a294e1b	0.0006458477
13	0xbaf3d40e	-0.0018602626
14	0x3b4cb4d0	0.0031235702
15	0xbb3fcce5	-0.0029266414
16	0xbcbb44ef	-0.022860019
17	0x3bd6d040	0.006555587
18	0xbdb5d6ff	-0.08878898
19	0x3d26204f	0.040558156
20	0x3d8d4345	0.06897596
21	0x3d4f08bb	0.050545435
22	0xbcdd1439	-0.026987182
23	0xbcc68938	-0.024235353
24	0xbcdb5410	-0.026773483
25	0xbca73e3d	-0.02041542
26	0xbd73daca	-0.059534825
27	0x3b3d0c15	0.0028846313
28	0x3d8b4bdd	0.06801579
29	0x3d3b6808	0.04575351
30	0xbd35a9f3	-0.04435153
31	0x3cf96a50	0.030446202
32	0xba8d7e9e	-0.0010795181
33	0xbbbc69b0	-0.0057499036
34	0x3cb2e4e6	0.021837663
35	0xbba39268	-0.004991818
36	0xbb0fe416	-0.0021956018
37	0xbbe4fe19	-0.0069882986
38	0xba35e014	-0.00069379923
39	0x3b01ab0b	0.0019785787
40	0x3c1603bc	0.009156164
41	0xbb8b091b	-0.004243029
42	0x3c53b4e6	0.0129215475
43	0xbba46b21	-0.0050176536
44	0xbc1ae58b	-0.009454141
45	0xbb8bdea9	-0.0042684865
46	0x3b8382c9	0.0040133935
47	0xbbaf1d69	-0.005344082
48	0x3c90162c	0.017588697
49	0x3bcbcc6c	0.0062194373
50	0x3ce5b8f5	0.028042296
51	0xbca6c484	-0.020357378
52	0xbd3670b8	-0.04454109
53	0xbcd6119c	-0.026131444
54	0x3ca3ead7	0.020009441
55	0x3c5ef8bf	0.01360911
56	0x3b9c45b5	0.004769052
57	0x3caad23c	0.0208522
58	0x3ca2bb17	0.019864602
59	0x3bd8f2e3	0.006620751
60	0xbd0932e6	-0.033495806
61	0xbcc0df37	-0.023543937
62	0x3cd60934	0.026127435
63	0xbc7a6597	-0.01528301
64	0x3b317992	0.0027080518
65	0x3b57892b	0.0032888155
66	0xbccdae80	-0.025107622
67	0x3be0a161	0.0068551754
68	0x3c29f59b	0.010373498
69	0x3c146297	0.009056709
70	0x3b868f28	0.004106421
71	0xbb0a1667	-0.0021070482
72	0xbc80ddae	-0.015730705
73	0x3bcb18f9	0.0061980453
74	0xbc8b4d6f	-0.017004697
75	0x3b210bee	0.002457376
76	0x3c1005f8	0.008790486
77	0x3b4b6ba9	0.0031039512
78	0xbbdb40ea	-0.006691088
79	0x3c1ffba3	0.009764585
80	0xba83d81f	-0.0010058916
81	0x3bb19526	0.005419391
82	0xbd3ef4bf	-0.046620127
83	0x3c6795f7	0.0141348755
84	0x3cb7fdeb	0.022459945
85	0x3c8fd8d6	0.01755945
86	0xb9e45446	-0.00043550337
87	0xbbae7a90	-0.005324669
88	0xbc861edc	-0.016372137
89	0x3b66174b	0.0035109099
90	0xbce7845f	-0.028261362
91	0x3b7bcf12	0.0038422984
92	0x3c9ebc7d	0.019376988
93	0x3c579ebf	0.013160407
94	0xbc85f095	-0.01635007
95	0x3c75c773	0.015001166
96	0xbb176723	-0.0023102246
97	0xbc0f79b4	-0.008757044
98	0x3d549d93	0.051908087
99	0xbc7b8a52	-0.015352802
100	0xbca04c28	-0.019567564
101	0xbc9df55a	-0.019282032
102	0xbb724937	-0.003696991
103	0x3bb9529f	0.005655601
104	0x3ce08223	0.027405804
105	0xbc197ba8	-0.009367861
106	0x3d10b9a1	0.03533328
107	0xbbddfb6e	-0.0067743575
108	0xbcb777ae	-0.022395935
109	0xbc2a1aa2	-0.010382326
110	0x3c691649	0.014226505
111	0xbc899b28	-0.016797617
112	0x3c5a9dfa	0.013343329
113	0xbb6b3382	-0.0035888855
114	0x3d4512e0	0.048113704
115	0xbca70163	-0.020386403
116	0xbd12e012	-0.03585822
117	0xbccb9d7a	-0.024855364
118	0x3c864397	0.016389651
119	0x3c3e4683	0.011613491
120	0x3bcd2012	0.0062599266
121	0x3c5c5b37	0.013449482
122	0x3cedf368	0.02904673
123	0xbb1bbe40	-0.002376452
124	0xbd0c93bc	-0.034320578
125	0xbcea6c8d	-0.028616214
126	0x3ccd8cae	0.025091495
127	0xbc585af5	-0.01320528

exp_avg f4 [8]
0	0x3abcc3ea	0.0014401649
1	0x3cad7d74	0.021177985
2	0x3c042e66	0.008067703
3	0xbce75410	-0.028238326
4	0xbc162eb3	-0.009166407
5	0xbbfbc912	-0.0076838816
6	0x3c7f9232	0.0155988205
7	0xbc5695f9	-0.01309728

exp_avg f4 [16, 8]
0	0x3bb5694b	0.0055362335
1	0xbb8db40f	-0.004324443
2	0xbb1e1661	-0.0024122226
3	0xbbb3c5ed	-0.005486241
4	0x3b98b8b0	0.0046606883
5	0x388f0160	6.8190275e-05
6	0x3b9b36e5	0.0047367685
7	0xbb3ad702	-0.0028509502
8	0x3ab7bac1	0.0014017449
9	0x3b584a21	0.0033003169
10	0xbad379a8	-0.0016134279
11	0xbaf6114d	-0.0018773467
12	0x39c280c9	0.00037098516
13	0xba2be0e9	-0.00065566465
14	0xba499904	-0.00076903426
15	0xb96f509e	-0.00022822848
16	0xba06e972	-0.00051464804
17	0x3b83e69e	0.0040252944
18	0xbb8bfefa	-0.004272339
19	0x3b50e672	0.0031875637
20	0xbabcce00	-0.0014404655
21	0xbb2586e4	-0.0025257403
22	0xbb201ffa	-0.0024433122
23	0x3b802fa9	0.0039119315
24	0x3a9086ad	0.0011026465
25	0xbad6061d	-0.0016328726
26	0x3add8e17	0.0016903308
27	0xba5b9b6a	-0.00083773455
28	0x3aa2909c	0.0012402716
29	0x3a9881d4	0.0011635371
30	0xb93a3bb5	-0.00017760585
31	0xbb24a104	-0.0025120387
32	0xbd238d2d	-0.039929558
33	0x3d08fd30	0.033444583
34	0x3c134b66	0.008990144
35	0x3d05ff54	0.032714203
36	0xbd26dd59	-0.040738437
37	0xbbdfb2a5	-0.006826716
38	0xbcb676f8	-0.022273526
39	0x3d0f14cf	0.034931954
40	0x39833be8	0.000250309
41	0x3b5c15d7	0.0033582353
42	0xbb31f445	-0.0027153653
43	0xbad03a92	-0.0015886596
44	0xba16eeda	-0.00057576376
45	0xbab982c5	-0.0014153352
46	0x3a8ee15c	0.0010900903
47	0x3ac739c0	0.0015199706
48	0x3aa933a0	0.0012909062
49	0xbbe9b63d	-0.00713232
50	0x3c07e0b6	0.008293321
51	0x3942079c	0.00018504116
52	0x3b1689e3	0.002297037
53	0x3ba6e448	0.005093131
54	0xbaf20375	-0.0018464165
55	0xbc038221	-0.008026631
56	0xbc35caff	-0.011095761
57	0x3b83530f	0.004007704
58	0x3c00e31e	0.007866649
59	0x3c174ef5	0.009235133
60	0xbc310bdf	-0.010806053
61	0x3a68a5bf	0.0008874796
62	0xbbb5ffc3	-0.005554171
63	0x3bb9ab15	0.0056661465
64	0x3c270f80	0.010196567
65	0xbbf709d0	-0.0075390115
66	0xbbb5a06e	-0.0055428063
67	0xbc19581b	-0.009359385
68	0x3c44b2c4	0.012005512
69	0x392787dd	0.00015976974
70	0x3bf0ddbf	0.007350653
71	0xbbf2f9a9	-0.0074150157
72	0x3b9c6b7a	0.0047735544
73	0xbbffba41	-0.0078041856
74	0x39143392	0.00014133591
75	0xbb84202b	-0.004032155
76	0x3bc06c0f	0.0058722566
77	0x3ab14bcb	0.0013526616
78	0x3b949832	0.0045347447
79	0xbb9dee2a	-0.004819651
80	0xbc73e561	-0.014886231
81	0x3c1fa0bf	0.009742915
82	0x3c0b40a4	0.008499298
83	0x3c4adee7	0.012382246
84	0xbc766da0	-0.015040785
85	0x3a0ad000	0.00052952766
86	0xbc2493a1	-0.010044963
87	0x3c13d83c	0.009023722
88	0x3cb2299b	0.021748355
89	0xbc7ed666	-0.015554046
90	0xbc11530e	-0.008869899
91	0xbc86a247	-0.016434802
92	0x3cb23c58	0.02175729
93	0x3ae099be	0.0017135662
94	0x3c3263d4	0.010888059
95	0xbc7dfedc	-0.015502658
96	0x3a6387d7	0.00086796045
97	0x3bb0ba41	0.005393297
98	0xbc0a916b	-0.008457522
99	0xbae64e20	-0.001757089
100	0xbaafe12e	-0.0013418549
101	0xbb8b44e0	-0.004250154
102	0x3b317d5d	0.002708278
103	0x3bd9a48b	0.0066419295
104	0xbc4edc55	-0.012625773
105	0x3caad756	0.020854633
106	0xbbdb4a39	-0.0066921976
107	0x3c239b16	0.009985706
108	0xbc622b81	-0.013804317
109	0xbbe7c63d	-0.0070731924
110	0xbc08de5a	-0.008353794
111	0x3c9048bf	0.017612813
112	0x3c040a2b	0.008059065
113	0xbc9b1b92	-0.018934045
114	0x3c5a12c5	0.013310139
115	0xbc0ec017	-0.00871279
116	0x3c34f294	0.011044163
117	0x3c1a6cd5	0.009425362
118	0x3bb7afb7	0.0056056636
119	0xbca03703	-0.019557482
120	0xb9de3beb	-0.00042387782
121	0xbaca2c71	-0.0015424622
122	0x3a144067	0.00056553487
123	0x3aaf050e	0.0013352947
124	0x39f1795b	0.0004605752
125	0x39766271	0.0002349706
126	0xb9977612	-0.00028888934
127	0xb9a9a241	-0.0003235508

exp_avg f4 [16]
0	0x3a9995c9	0.0011717613
1	0x3b7bc85e	0.0038418989
2	0x3ba6702a	0.005079289
3	0xbaaaf3a5	-0.0013042582
4	0xbc27cb18	-0.010241292
5	0x3b799cf9	0.0038087948
6	0xbc0da28c	-0.008644711
7	0xbc1fba5f	-0.009749024
8	0x3bce4cea	0.00629579
9	0xbaf8000d	-0.0018920914
10	0xbc152217	-0.009102366
11	0x3c237595	0.009976764
12	0x3c03d979	0.008047455
13	0x3c1d7c42	0.009612145
14	0xbc6cd795	-0.014455696
15	0xba957837	-0.0011403625

exp_avg f4 [7, 16]
0	0x3c9114ac	0.017710052
1	0xbc9acecf	-0.018897442
2	0x3b66c7f2	0.0035214392
3	0xbc53db73	-0.012930739
4	0x3ca1af12	0.0197368
5	0x3cd49c02	0.025953297
6	0x3d194794	0.037421778
7	0xbca0eca1	-0.019644083
8	0xbca2a269	-0.019852834
9	0xbc574165	-0.01313815
10	0xbcad249b	-0.021135619
11	0xbcbc2e57	-0.022971315
12	0xbc848e8e	-0.016181257
13	0x3aee632f	0.0018187518
14	0x3c496166	0.012291288
15	0x3cd25cb9	0.02567898
16	0x3d03761e	0.032095067
17	0xbc5a2f02	-0.013316872
18	0x3bfe85e0	0.007767424
19	0xbb7ecf28	-0.00388808
20	0x3c2948c3	0.010332289
21	0x3d03dd3c	0.032193407
22	0x3d28db29	0.041224632
23	0xbccbf5bb	-0.024897447
24	0xbcd3905e	-0.025825676
25	0xba509431	-0.00079566526
26	0xbcf62750	-0.030048043
27	0xbd6cdd06	-0.057827972
28	0xbcb33a91	-0.021878513
29	0x3ba9f6f6	0.0051869107
30	0x3c9b32c2	0.018945102
31	0x3cf8d294	0.030373849
32	0xb7e8697c	-2.7705675e-05
33	0xbbef3489	-0.007299964
34	0x3a8d73a2	0.0010791908
35	0xbbd69c16	-0.0065493686
36	0x3c1cd785	0.009572868
37	0x3b8915d0	0.0041835085
38	0x3c3041d0	0.010757878
39	0xbbf3c7a9	-0.007439573
40	0xbba67341	-0.0050796573
41	0xbc01de60	-0.0079265535
42	0xbbc586ca	-0.006028031
43	0xbafff513	-0.0019527994
44	0xbb61a7ad	-0.0034432218
45	0x3bf09cca	0.0073429095
46	0x3b032ebf	0.0020016877
47	0x3c2da55e	0.010598509
48	0x3d1bc096	0.03802546
49	0xbbbc21ae	-0.0057413196
50	0x3c0e7b91	0.008696453
51	0x3b5a49f0	0.003330823
52	0x3be54f00	0.006997943
53	0x3d1180ce	0.03552323
54	0x3d10b3bb	0.035327654
55	0xbcc8d770	-0.024516791
56	0xbce80050	-0.028320462
57	0x3c252f70	0.010082111
58	0xbd092216	-0.033479773
59	0xbd9e3370	-0.07724655
60	0xbcc0609f	-0.023483573
61	0x3b97971b	0.0046261675
62	0x3ca46403	0.02006722
63	0x3cf59a70	0.029980868
64	0xbacd5093	-0.0015664272
65	0x3a3fe48c	0.0007320128
66	0x3aad9d26	0.0013245686
67	0x3a320687	0.0006791134
68	0x3a63372c	0.0008667584
69	0xba73edda	-0.0009305157
70	0xbb2abd80	-0.0026052892
71	0xbafecde1	-0.0019440019
72	0x39ea27ba	0.00044661557
73	0x3aa15257	0.0012307864
74	0xb9ed54aa	-0.00045267242
75	0xbb74db53	-0.0037362173
76	0xb9a2a5e0	-0.00031022634
77	0x3bb19893	0.0054197996
78	0xba959e2f	-0.001141494
79	0x3b075f0a	0.0020656013
80	0x3cb6ad7e	0.022299524
81	0xbc1feee5	-0.009761547
82	0x3b92edf0	0.0044839308
83	0xbb72faa9	-0.0037075675
84	0x3c06fbb9	0.008238726
85	0x3cbc9999	0.02302246
86	0x3cf1601a	0.02946477
87	0xbc8e43ae	-0.017366257
88	0xbc90d2cb	-0.017678639
89	0xbadebedc	-0.0016994136
90	0xbca9ad06	-0.020712387
91	0xbd20c090	-0.039246142
92	0xbc6f32f7	-0.014599553
93	0x3b415ed3	0.0029505983
94	0x3c57cc03	0.013171199
95	0x3cab2639	0.02089225
96	0x3bec0d44	0.00720373
97	0xbba6721d	-0.0050795213
98	0x3a2cb891	0.0006588782
99	0xbb83abae	-0.0040182685
100	0x3b7bf661	0.0038446414
101	0x3c0333a8	0.008007921
102	0x3c59b3d0	0.0132875
103	0xbc0f1cb5	-0.008734872
104	0xbbadbac0	-0.0053018034
105	0xbb40e742	-0.0029434715
106	0xbbdfeeea	-0.0068339007
107	0xbc6c887c	-0.014436837
108	0xbb925676	-0.0044658734
109	0x3b84d6e5	0.0040539377
110	0x3b9c65cc	0.0047728773
111	0x3c221e7a	0.0098949615

exp_avg f4 [7]
0	0x3ca6eba4	0.020376034
1	0x3b8d6f24	0.0043162275
2	0x3c2f6c4f	0.010706975
3	0xbc0d3189	-0.008617767
4	0xba9aac1c	-0.001180056
5	0x3b8d4044	0.0043106396
6	0x3bad4b9d	0.005288555

exp_avg f4 [16]
0	0xbb3bbb08	-0.0028645415
1	0xbb51b9d3	-0.003200163
2	0x3ce7f6f0	0.028315991
3	0x3c552803	0.013010028
4	0x3d1e3a6e	0.03862994
5	0x3d0d4845	0.03449275
6	0x3cb8fbe5	0.02258105
7	0xbabf10cf	-0.0014577153
8	0x3c03e033	0.008049059
9	0x3b5a0816	0.003326898
10	0xbcab050a	-0.020876426
11	0x3dbefadc	0.093251914
12	0xbd0c5746	-0.034262918
13	0xbd086a6e	-0.033304624
14	0x3ad952a1	0.0016580411
15	0x3d0c75a2	0.03429187

exp_avg f4 [16]
0	0x3b08d228	0.0020877216
1	0xbab45363	-0.0013757761
2	0xba82922d	-0.0009961777
3	0xbc9155ef	-0.017741172
4	0x3c3e6685	0.011621122
5	0x3a8a661c	0.0010558995
6	0x39b58a5f	0.00034626105
7	0xbc59ae23	-0.013286146
8	0x3bde7650	0.0067890063
9	0x398d01ad	0.00026894864
10	0x3afe86f2	0.0019418879
11	0x3cb11679	0.021617161
12	0x3c2761c4	0.01021618
13	0x3ad3f0db	0.0016169803
14	0xbbb005e5	-0.0053717964
15	0x3b635c83	0.0034692592

exp_avg f4 [8]
0	0x3b671dd3	0.003526558
1	0x3d851ec2	0.06500007
2	0xbcafcf27	-0.021461083
3	0xbc178237	-0.009247354
4	0xbc4db4e4	-0.012555335
5	0xbc5900ea	-0.013244847
6	0x3c96ab1e	0.018392142
7	0xbd105930	-0.035241306

exp_avg f4 [8]
0	0x3c0996ec	0.008397799
1	0xbc5709fe	-0.013124941
2	0x3cc85046	0.02445234
3	0xbca5d351	-0.020242365
4	0xbb1d07fe	-0.0023961063
5	0x3c21ca21	0.009874851
6	0x3c40ead6	0.011774739
7	0x3c325787	0.010885126

exp_avg f4 [8, 7]
0	0x3c9dbbb9	0.019254552
1	0x3d007cdc	0.031369075
2	0x3a91262c	0.0011073998
3	0x3d32115f	0.043473598
4	0x3dc1af2a	0.09457238
5	0x3d37e06b	0.044891756
6	0xbcd739ba	-0.026272643
7	0x3d5577d3	0.052116226
8	0xb93d4ebf	-0.0001805378
9	0xbc872dff	-0.016501425
10	0xbd5f8fa5	-0.05458035
11	0xbd65ef15	-0.05613621
12	0xbbef9b7e	-0.0073122373
13	0xbd038dcf	-0.03211766
14	0x3d826062	0.0636604
15	0x3de053f1	0.109535106
16	0x3cd9c865	0.026584813
17	0x3e153b3f	0.14573382
18	0xbde8546b	-0.113442264
19	0x3d33aa47	0.04386356
20	0x3d75c88a	0.060005702
21	0x3e7fecd0	0.2499268
22	0xbdf7e9ca	-0.121051386
23	0xbe0dff04	-0.13866812
24	0xbefc1064	-0.49231255
25	0xbe3d7620	-0.18502092
26	0xbdbe8a95	-0.09303776
27	0xbe8f0ed1	-0.27940992
28	0xbe1f2cce	-0.15544435
29	0xbeaf3632	-0.34221035
30	0xbd892d62	-0.06698109
31	0xbf047d98	-0.5175414
32	0xbed35baa	-0.41280872
33	0xbea9e5bd	-0.3318309
34	0xbdf1d023	-0.11807277
35	0xbd55bf25	-0.052184243
36	0x3ddcb11f	0.10775971
37	0x3da265ed	0.07929597
38	0x3e8c6c7e	0.27426523
39	0x3dcb577a	0.09928794
40	0x3da43ca6	0.0801938
41	0x3dd8ae06	0.10580067
42	0xbc2ad1cf	-0.010425999
43	0x3d888143	0.0666528
44	0x3d306805	0.04306795
45	0x3e12751c	0.14302486
46	0xbd2bed05	-0.041974086
47	0x3ce679f9	0.028134333
48	0x3d41cdb2	0.047315307
49	0xbe80045b	-0.25003323
50	0x3dcef44a	0.10105188
51	0x3dd94ac6	0.10609965
52	0x3ee7cd00	0.4527359
53	0x3f3ee077	0.74561256
54	0x3e5a5a30	0.21323466
55	0x3e831b2a	0.25606662

exp_avg_sq f4 [8, 7]
0	0x3811c7c2	3.4756733e-05
1	0x385b21ba	5.224508e-05
2	0x343266f8	1.6615002e-07
3	0x38a9ef71	8.1031474e-05
4	0x397c0afa	0.00024036682
5	0x3898c429	7.2844625e-05
6	0x37b40256	2.145876e-05
7	0x389764a9	7.2189905e-05
8	0x37a98d36	2.0212126e-05
9	0x36fd7cec	7.5545304e-06
10	0x38d487df	0.00010134256
11	0x389d2a16	7.4941825e-05
12	0x37667aae	1.3737632e-05
13	0x37d9e36a	2.5974314e-05
14	0x39348423	0.00017215362
15	0x398f1970	0.00027294038
16	0x37a28076	1.9371724e-05
17	0x39f25d27	0.0004622724
18	0x399d312a	0.00029982004
19	0x388dac07	6.7554465e-05
20	0x38b9fdee	8.8687855e-05
21	0x3ac1ce71	0.0014786256
22	0x3a52af6b	0.00080370036
23	0x3a14047a	0.0005646419
24	0x3be3b5c0	0.0069491565
25	0x3a79e2ee	0.00095324113
26	0x39f52646	0.00046758557
27	0x3b04f1d4	0.0020285742
28	0x3aa0c038	0.0012264317
29	0x3b568512	0.0032733125
30	0x38e58c9c	0.000109457615
31	0x3bda3313	0.0066589206
32	0x3b95b2c8	0.0045684315
33	0x3b4beacc	0.0031115292
34	0x39e1d084	0.000430707
35	0x38fadd34	0.00011962131
36	0x3a2337f6	0.00062262954
37	0x398d86ac	0.00026993954
38	0x3b4e4f69	0.0031480438
39	0x3987bd8b	0.00025890427
40	0x39af6fb8	0.00033461838
41	0x39af9fb9	0.00033497604
42	0x3674e410	3.6491583e-06
43	0x3921bd8e	0.00015424771
44	0x388ecb16	6.808915e-05
45	0x3a33846e	0.00068480417
46	0x3852bb94	5.0242597e-05
47	0x383c5db6	4.4909968e-05
48	0x3890d0ee	6.905371e-05
49	0x3b12bf19	0.0022391735
50	0x3add3f4a	0.0016879824
51	0x39a5e9fd	0.00031645587
52	0x3bdf849c	0.006821228
53	0x3c5917ec	0.013250332
54	0x3b05b213	0.002040033
55	0x3addd07a	0.0016923093

exp_avg f4 [8]
0	0x3d46067f	0.04834604
1	0x3bd42370	0.006473951
2	0xbd17745a	-0.036976196
3	0x3e255724	0.16146523
4	0xbe37c926	-0.17947826
5	0x3cb78e9b	0.022406867
6	0xbbbb846b	-0.0057225726
7	0xbd6663ac	-0.0562474

exp_avg_sq f4 [8]
0	0x38b13002	8.44896e-05
1	0x36b50b2d	5.3955214e-06
2	0x388d5e1c	6.740933e-05
3	0x3a3fbe9e	0.0007314476
4	0x3acecf52	0.0015778339
5	0x38693608	5.560185e-05
6	0x37963ce0	1.790974e-05
7	0x3a53ee09	0.0008084481

exp_avg f4 [1, 8]
0	0xbef11aab	-0.4709066
1	0x3d0f7e4e	0.035032563
2	0x3ed2d364	0.41176903
3	0x3f520658	0.8204093
4	0xbefc2b3e	-0.4925174
5	0xbeb06a50	-0.3445611
6	0x3e7f94f8	0.24959171
7	0xbe5dabea	-0.21647611

exp_avg_sq f4 [1, 8]
0	0x3ba73e7f	0.0051038857
1	0x39ca3be0	0.00038573053
2	0x3b867144	0.004102858
3	0x3c8382d3	0.016053593
4	0x3bdf7828	0.0068197437
5	0x3b2bc210	0.00262082
6	0x3b5038e8	0.00317722
7	0x3b137f11	0.0022506157

exp_avg f4 [8]
0	0x3e82a7bd	0.255186
1	0x3c38c699	0.011277818
2	0x3df1f762	0.11814763
3	0x3f531556	0.8245443
4	0xbe627be2	-0.2211757
5	0x3e82d51d	0.25553218
6	0x3d0c316e	0.034226827
7	0x3e4e839f	0.20167397

exp_avg_sq f4 [8]
0	0x3ac46579	0.0014983854
1	0x38197d5c	3.6594793e-05
2	0x39b11b81	0.00033780563
3	0x3c84c6df	0.01620811
4	0x3ab42a4c	0.0013745516
5	0x3abce280	0.0014410764
6	0x387a3a66	5.9659033e-05
7	0x3afda13b	0.0019350419

exp_avg f4 [8]
0	0xbe19a8a4	-0.15005738
1	0x3daf6823	0.085647844
2	0x3da2c479	0.079476304
3	0x3e8ea403	0.27859506
4	0x3e019376	0.12653908
5	0xbe520474	-0.20509511
6	0x3d1a758e	0.037709765
7	0xbe839c5a	-0.25705224

exp_avg_sq f4 [8]
0	0x3a0b93e0	0.00053244643
1	0x3935bf52	0.00017332777
2	0x391ce5e3	0.00014962959
3	0x3af05400	0.0018335581
4	0x39c5a2da	0.00037696102
5	0x3a824c98	0.000994104
6	0x380db2ba	3.378347e-05
7	0x3acc9027	0.0015606926
