saved/gan/ppxl6vf2/checkpoints/epoch=0-step=20.ckpt (torch, 21266 bytes, 39 tensors)

generator.fc1.weight f4 [16, 7]
0	0xbe6ea1a3	-0.23303847
1	0xbf2874a3	-0.65802974
2	0x3f745dbc	0.9545553
3	0xbf82ff7f	-1.0234221
4	0xbe074d71	-0.13213135
5	0xbe0e8009	-0.13916029
6	0xbeeef781	-0.46673205
7	0x3eb36e24	0.35044968
8	0xbf1e8193	-0.61916465
9	0x3e0f7a7a	0.14011565
10	0x3e383048	0.17987168
11	0xbf011bc0	-0.5043297
12	0x3ef85d4c	0.4850868
13	0xbf288c59	-0.65839154
14	0x3cadbaf2	0.021207307
15	0xbe420f2b	-0.18951099
16	0x3f3d4135	0.73927623
17	0x3f4e8acd	0.80680543
18	0x3f3e5ef8	0.7436366
19	0x3e70c139	0.23511209
20	0x3e447fd1	0.19189383
21	0x3e21ec26	0.1581274
22	0xbefaf736	-0.49016732
23	0xbca94ea8	-0.020667389
24	0x3f28c99d	0.6593264
25	0xbf04d295	-0.5188382
26	0xbeff99c3	-0.49921998
27	0xbf1ba177	-0.6079325
28	0x3fabbc9d	1.3416935
29	0xbe218d5c	-0.1577658
30	0xbda3ba01	-0.07994462
31	0xbf5f91f6	-0.87332094
32	0xbe9bd174	-0.30433238
33	0xbefefc2e	-0.49801773
34	0xbf0ab6a9	-0.5418497
35	0xbf3f0263	-0.74613017
36	0x3da83aa0	0.08214307
37	0xbe3288d2	-0.17435005
38	0xbe8d1c05	-0.2756044
39	0xbee782c2	-0.45216948
40	0x3e6e34b9	0.232623
41	0xbeed2419	-0.46316603
42	0x3cda439d	0.026643569
43	0x3f813b61	1.0096246
44	0xbf33ca4e	-0.7023057
45	0xbe98af37	-0.29821178
46	0xbf63b583	-0.8894884
47	0xbdc5bcf9	-0.09655184
48	0xbef4bd68	-0.47800756
49	0x3f350a79	0.70719105
50	0xbeab56dd	-0.3346471
51	0x3d2cf861	0.04222906
52	0x3fa023a5	1.2510878
53	0x3efd8ebc	0.4952296
54	0xbdd7ee55	-0.10543505
55	0x3f3e2277	0.7427134
56	0x3ea81fb0	0.32836676
57	0x3d9f28f8	0.07771486
58	0x3e083296	0.13300547
59	0x3dfdbd89	0.123896666
60	0x3f7bbf22	0.9833852
61	0xbf2e20d3	-0.68018836
62	0xbf145227	-0.57937855
63	0x3f88246a	1.0636113
64	0xbf42816a	-0.7597872
65	0xbeff62af	-0.49879977
66	0x3da515c1	0.0806079
67	0xbf7828e4	-0.96937394
68	0xbe306839	-0.17227258
69	0xbc8a80f9	-0.016907202
70	0xbf5f7ce4	-0.8729994
71	0xbd806dc8	-0.06270939
72	0xbf16a58f	-0.5884637
73	0x3f114ee4	0.56761
74	0x3e16e9c9	0.1473762
75	0xbeab072a	-0.33403903
76	0x3e7fdb44	0.24985987
77	0x3d88b4ec	0.06675133
78	0x3f818be7	1.012082
79	0x3f600dbf	0.87520975
80	0x3eea1f9c	0.4572724
81	0x3f673895	0.9032071
82	0x3e40627a	0.18787566
83	0x3e5e3662	0.21700433
84	0xbef6a98f	-0.48176238
85	0x3ecfb5e2	0.40568453
86	0xbbcb419c	-0.0062028896
87	0xbed65105	-0.41858688
88	0xbdc8d751	-0.09806693
89	0x3f14e543	0.58162326
90	0x3e89f2d7	0.26943085
91	0x3f8924b8	1.0714331
92	0xbde68e6e	-0.11257635
93	0xbe99357e	-0.29923624
94	0xbe59111c	-0.21197933
95	0x3f4989b9	0.78725773
96	0x3f277318	0.65409994
97	0xbe31fdb5	-0.17381938
98	0x3e416102	0.18884662
99	0x3eba6461	0.36404708
100	0xbf8d5694	-1.1042047
101	0x3ddfd425	0.10929135
102	0x3cc865f4	0.024462678
103	0x3f03ae58	0.514379
104	0xbed1858c	-0.409222
105	0x3e9b5eae	0.30345672
106	0xbe13b4c1	-0.14424421
107	0xbec00a2e	-0.37507766
108	0x3f58f9fa	0.84756434
109	0xbf5d5061	-0.86450773
110	0xbf2da0aa	-0.6782328
111	0xbefd3707	-0.49456045

generator.fc1.bias f4 [16]
0	0x3e445898	0.19174421
1	0x3ea0be8d	0.3139538
2	0xbdb69c60	-0.08916545
3	0xbe145871	-0.14486863
4	0xbe4fd1ad	-0.20294829
5	0x3e22dd04	0.15904623
6	0x3eb9cc79	0.36288813
7	0xbe688c91	-0.22709872
8	0x3eb154c1	0.34634975
9	0x3e8715ef	0.26383922
10	0x3d43d408	0.04780963
11	0x3d61d662	0.055136092
12	0x3e7b4fc5	0.24542148
13	0xbe346ea2	-0.17620328
14	0xbea31bde	-0.31857198
15	0xbdf68f9e	-0.120391116

generator.fc2.weight f4 [8, 16]
0	0x3f2026cb	0.62559193
1	0x3e80777c	0.2509116
2	0x3f12c00e	0.573243
3	0xbef4d86a	-0.4782136
4	0xbe953fd1	-0.2915025
5	0xbe34a673	-0.1764162
6	0x3f3ccad5	0.73747
7	0xbdadcb20	-0.08486009
8	0xbe09645d	-0.13417192
9	0xbbaa2d5c	-0.0051933955
10	0xbda5eb21	-0.08101488
11	0xbdcbc059	-0.09948797
12	0xbebbdda8	-0.36692548
13	0xbe9a5fb5	-0.30151144
14	0x3e27042f	0.1631019
15	0x3e14808e	0.14502165
16	0xbf3b09c4	-0.73061776
17	0xbe931336	-0.28725594
18	0x3e923145	0.28553215
19	0xbef95a2f	-0.48701617
20	0xbd4ca751	-0.049964253
21	0xbe4a6714	-0.19765884
22	0x3f202789	0.62560326
23	0xbcb4e6bc	-0.022082679
24	0x3cd63403	0.026147848
25	0x3e0b05df	0.13576458
26	0xbf24260e	-0.64120567
27	0xbe180af2	-0.14847925
28	0xbf52ec36	-0.8239168
29	0xbe93da43	-0.28877458
30	0xbf3dfdf9	-0.74215657
31	0xbefd6e19	-0.4949806
32	0xbf1835ab	-0.5945689
33	0x3f02b63b	0.5105931
34	0xbc9ac3ab	-0.01889213
35	0x3d7fe9e0	0.0624789
36	0xbd221df8	-0.03957936
37	0xbe8567ec	-0.2605585
38	0xbeb5a5a0	-0.35477924
39	0x3e68982e	0.22714302
40	0xbea15ca1	-0.31515983
41	0x3e345f27	0.17614423
42	0x3f0a2b75	0.5397256
43	0xbdc7d148	-0.09756714
44	0xbdf768cc	-0.12080535
45	0xbe638ca1	-0.22221614
46	0xbe8cacc3	-0.27475557
47	0xbea0204e	-0.31274647
48	0xbf22e96f	-0.6363744
49	0x3e81ae94	0.25328505
50	0x3e22b391	0.15888812
51	0xbe923c92	-0.28561836
52	0xbe52faf6	-0.20603547
53	0x3ef1865f	0.4717283
54	0x3f1ff0ef	0.6247701
55	0xbcc84c9f	-0.024450598
56	0x3dd7c4eb	0.10535606
57	0xbec3cf40	-0.38244057
58	0xbdce2760	-0.10066104
59	0xbe8b4a2f	-0.27205035
60	0xbe62cb60	-0.22147894
61	0xbeaf36a7	-0.34221384
62	0x3e267a1d	0.1625752
63	0x3ca49ba2	0.020093743
64	0xbea1386e	-0.31488365
65	0x3ebf4a39	0.37361315
66	0x3ed1658d	0.4089779
67	0xbe2a6f52	-0.16644028
68	0x3bc1e86e	0.0059176004
69	0x3f3ee612	0.7456981
70	0x3da0f839	0.07859845
71	0x3e3d8c2b	0.18510501
72	0x3ea1e6b4	0.31621325
73	0x3df3e41a	0.11908741
74	0x3e83d2e6	0.2574684
75	0x3e1dbf1b	0.15404932
76	0x3d493a6b	0.049127977
77	0x3ee26ae9	0.4422219
78	0x3e2cc57b	0.16872208
79	0x3f0234c6	0.50861776
80	0xbdf0da55	-0.117603935
81	0x3e1a698a	0.15079322
82	0xbee9c547	-0.45658323
83	0x3f154d99	0.5832153
84	0xbef52b03	-0.47884378
85	0xbe2261cb	-0.15857618
86	0x3ef5fd2e	0.48044723
87	0x3f007a25	0.5018638
88	0x3d9d3352	0.07675804
89	0x3ea63455	0.324618
90	0xbb041162	-0.0020151963
91	0xbde8046b	-0.11328968
92	0xbebc946b	-0.36831984
93	0xbc5258b2	-0.012838529
94	0x3f004489	0.50104576
95	0xbe6154b3	-0.22004966
96	0xbead7aba	-0.33882695
97	0x3e9256c5	0.28581825
98	0x3dbfb59d	0.09360812
99	0x3ed98255	0.42482248
100	0xbe399369	-0.18122639
101	0x3eb2c7b3	0.34917983
102	0x3eda773b	0.4266909
103	0x3f330eb4	0.6994431
104	0xbe0182a7	-0.12647496
105	0x3edab414	0.42715514
106	0xbe0ce9b1	-0.13761021
107	0x3dc36a51	0.095417626
108	0x3d87d24f	0.0663191
109	0xbdde4b55	-0.10854212
110	0x3d41fc65	0.047359843
111	0x3ebf5c29	0.37375
112	0x3e0d514d	0.13800545
113	0x3e64d715	0.22347672
114	0x3e1c9bd6	0.15293822
115	0xbe61e2b0	-0.2205913
116	0xbf16372b	-0.5867793
117	0x3e8eac0b	0.27865633
118	0x3d9a7765	0.07542304
119	0xbe88ba9c	-0.26704872
120	0xbf1209a6	-0.5704597
121	0xbf26e4c5	-0.65192825
122	0xbedcee53	-0.43150577
123	0x3e4d931d	0.2007565
124	0x3d36da6e	0.044641905
125	0xbef2da75	-0.47432294
126	0x3dd0e939	0.10200734
127	0xbe5bb71e	-0.21456572

generator.fc2.bias f4 [8]
0	0xbe0c5e56	-0.13707861
1	0xbc86074a	-0.016360898
2	0xbdf477cc	-0.11936912
3	0xbd6459fe	-0.055749886
4	0xbd94ac1c	-0.0725939
5	0xbdd70e90	-0.105008245
6	0x3e3c7f1a	0.1840786
7	0xbd85dc88	-0.065362036

generator.fc3.weight f4 [16, 8]
0	0xbf0c4275	-0.54788905
1	0x3d51c376	0.051211797
2	0xbe9631b8	-0.29334807
3	0x3f5b0c82	0.8556596
4	0xbeaf0861	-0.3418608
5	0x3e44104e	0.19146845
6	0xbccbc89b	-0.02487593
7	0xbee55ca1	-0.44797233
8	0x3dc636aa	0.09678395
9	0xbf53d024	-0.8273947
10	0xbe6a4045	-0.2287608
11	0xbe0d8d7f	-0.13823508
12	0x3e682f12	0.22674206
13	0xbe73f0f8	-0.23822391
14	0xbeb237ea	-0.34808284
15	0x3ec7efc3	0.3905011
16	0xbe94f1ee	-0.29090828
17	0x3f1eae3f	0.6198463
18	0xbf7a2031	-0.9770537
19	0x3cd0d3d7	0.025491638
20	0xbf27028b	-0.65238255
21	0x3f15dfcd	0.5854462
22	0x3e12af19	0.14324607
23	0x3da7af7e	0.08187769
24	0xbef235a9	-0.47306564
25	0xbe38bf42	-0.18041709
26	0x3ded8613	0.11597838
27	0x3e73cd00	0.2380867
28	0xbe4ecbd1	-0.20194937
29	0xbe407f43	-0.18798546
30	0x3e803ff3	0.2504879
31	0xbeffa260	-0.4992857
32	0x3d110815	0.0354081
33	0x3dceab90	0.10091317
34	0x3f3677aa	0.7127634
35	0xbe56535b	-0.20930235
36	0xbe2e695a	-0.17032376
37	0xbfa620d2	-1.2978766
38	0x3f86989f	1.0515326
39	0xbea3d337	-0.31997082
40	0x3d1a7039	0.03770468
41	0x3f5cdb19	0.86271816
42	0xbebef2eb	-0.37294707
43	0xbf00473e	-0.50108707
44	0x3f37a8ab	0.7174174
45	0x3f4e7296	0.80643594
46	0xbf31526d	-0.69266397
47	0x3cbdc08d	0.023163104
48	0xbf6a782f	-0.91589636
49	0xbe7c0edb	-0.24615042
50	0x3e12aa0b	0.14322679
51	0x3eba1273	0.363422
52	0xbd2f28e8	-0.04276362
53	0xbf05993d	-0.5218695
54	0x3f2994d1	0.662427
55	0x3f3943fd	0.72369367
56	0xbeb9ad27	-0.36264917
57	0xbf0045f5	-0.50106746
58	0xbe909e44	-0.28245747
59	0xbeb65ce7	-0.35617754
60	0x3f30a404	0.6900027
61	0xbed69e76	-0.4191777
62	0xbf569daa	-0.83834326
63	0x3f2c1a39	0.6722751
64	0xbf2a6ac0	-0.6656914
65	0xbf4a4182	-0.79006207
66	0x3f4ecec2	0.8078424
67	0xbcd829c7	-0.026387108
68	0x3f8a3445	1.0797201
69	0xbe6676d9	-0.22506274
70	0xbf219997	-0.63124985
71	0x3e4ef6a1	0.20211269
72	0xbdc55047	-0.09634452
73	0xbeb3160f	-0.34977767
74	0x3e0f8f82	0.14019588
75	0xbefe7116	-0.49695653
76	0x3ed2c359	0.41164663
77	0xbe5b341f	-0.21406601
78	0xbe20302a	-0.15643373
79	0x3e5b999a	0.21445313
80	0x3e8d8786	0.2764246
81	0xbed06e18	-0.40708995
82	0x3f94519f	1.1587409
83	0xbea8dd48	-0.32981324
84	0xbf3c7634	-0.73617864
85	0xbd6016b1	-0.05470914
86	0xbe6a5809	-0.22885145
87	0xbf5c76e8	-0.86118937
88	0xbead7d25	-0.3388454
89	0xbe827141	-0.2547703
90	0x3e4b975c	0.19881958
91	0xbf0cc937	-0.5499453
92	0xbe987959	-0.2978008
93	0x3f507d53	0.8144123
94	0xbf1587fc	-0.5841062
95	0xbd092615	-0.033483583
96	0xbefa489c	-0.48883522
97	0x3f49c8ff	0.7882232
98	0x3eb7146b	0.35757765
99	0xbf42c1ab	-0.76076764
100	0xbeb76365	-0.3581802
101	0xbf2e68a5	-0.68128425
102	0x3f36944e	0.71320045
103	0xbf2d3566	-0.67659605
104	0xbf01212e	-0.50441253
105	0x3e35a230	0.17737651
106	0x3da6a63b	0.08137175
107	0x3e812ddd	0.25230303
108	0xbf849e7c	-1.0360866
109	0x3f93a886	1.1535804
110	0xbd49672e	-0.049170665
111	0x3b6c747c	0.0036080172
112	0xbeb7aa7c	-0.35872257
113	0xbd388174	-0.04504533
114	0xbccbd0b0	-0.024879783
115	0xbfabc5ac	-1.34197
116	0xbebf5045	-0.37365928
117	0xba8244a5	-0.000993867
118	0xbdd245d4	-0.10267225
119	0xbee42f3a	-0.4456728
120	0x3e61e3bb	0.22059529
121	0xbfb4e9a6	-1.4133804
122	0x3f0727b4	0.5279496
123	0x3ebc8541	0.36820415
124	0xbde4be0e	-0.111690626
125	0xbdb9e6cb	-0.090772234
126	0x3db64539	0.08899922
127	0xbcffde93	-0.031234061

generator.fc3.bias f4 [16]
0	0x3da5c334	0.08093873
1	0x3e1a0ae2	0.15043214
2	0xbe0292f2	-0.12751368
3	0xbb5caa50	-0.003367085
4	0xbe65e0e2	-0.22449067
5	0x3e554614	0.20827514
6	0x3e53859c	0.20656437
7	0xbe937a8d	-0.28804436
8	0x3e1421f2	0.14466074
9	0xbe4bcc2c	-0.19902104
10	0x3e1b6374	0.15174657
11	0x3e35f76c	0.17770165
12	0xbdc7ab94	-0.09749523
13	0xbe5e3140	-0.21698475
14	0xbe4de207	-0.20105754
15	0x3eaecb81	0.34139636

generator.fc4.weight f4 [7, 16]
0	0x3f1a3cc9	0.60249
1	0x3f131aa7	0.57462543
2	0xbe612c51	-0.21989562
3	0xbe15c410	-0.14625573
4	0xbecda40d	-0.40164223
5	0x3d32ec93	0.043682646
6	0xbf04011d	-0.515642
7	0x3db4edec	0.088344425
8	0xbcfe0d3d	-0.031012172
9	0x3e827a9f	0.25484177
10	0xbf0bc5a3	-0.54598445
11	0x3e911e4c	0.28343427
12	0x3e9608c6	0.2930357
13	0xbe410165	-0.18848188
14	0xbe97f3b0	-0.29678106
15	0x3dbdefc2	0.09274246
16	0x3e229d15	0.15880235
17	0xbf49a9e6	-0.7877487
18	0xbdd0f481	-0.102028854
19	0x3e8294de	0.25504202
20	0xbeb14782	-0.3462487
21	0xbe10b612	-0.14131954
22	0xbdad82df	-0.08472227
23	0x3d27df76	0.040984593
24	0xbf80bb4c	-1.0057158
25	0xbd91e4d2	-0.07123722
26	0xbe29c0ef	-0.16577505
27	0x3e83b189	0.25721386
28	0xbc805346	-0.015664708
29	0x3dd4878c	0.10377416
30	0xbf6a9fe8	-0.9165025
31	0x3ee8ebb3	0.45492324
32	0xbecfaa90	-0.40559816
33	0xbd8fc831	-0.07020605
34	0x3d8a0eea	0.06741126
35	0x3e5ab100	0.21356583
36	0x3ee09ea5	0.43871036
37	0xbeec5e74	-0.46165812
38	0xbc2fc823	-0.010728869
39	0x3e8c1644	0.27360737
40	0x3ecce0ab	0.40015158
41	0x3daf2e97	0.08553808
42	0x3f373f53	0.71581
43	0x3e9e457f	0.30912396
44	0x3e90d6c0	0.2828884
45	0xbe557ef7	-0.20849214
46	0x3e66f1da	0.22553197
47	0xbe0a898e	-0.13529035
48	0xbd01cc1c	-0.031688794
49	0xbe893c2f	-0.2680373
50	0x3c25b978	0.01011502
51	0x3dcc6404	0.09980014
52	0x3edab638	0.42717147
53	0x3dc395ba	0.095500425
54	0xbc4f2d6a	-0.012645105
55	0xbf18216b	-0.5942599
56	0xbcf02788	-0.029315725
57	0xbb7757ec	-0.0037741615
58	0xbd68f419	-0.056873415
59	0x3d1b0e6d	0.037855554
60	0xbcc04972	-0.023472521
61	0xbe998f4e	-0.29992145
62	0x3eda58f4	0.4264599
63	0xbe886769	-0.26641396
64	0x3e6efbe2	0.23338273
65	0xbf3dd2e0	-0.74149895
66	0x3e6e46b7	0.23269163
67	0x3f029865	0.51013786
68	0xbe96a6b4	-0.2942406
69	0x3f1d1531	0.6136046
70	0xbee5a72f	-0.44854113
71	0xbe3e4e9b	-0.18584673
72	0xbe08c025	-0.13354547
73	0x3f125e5b	0.57175225
74	0x3eeded38	0.46470046
75	0xbe50b893	-0.2038291
76	0xbeda637b	-0.42654023
77	0xbd4e6e04	-0.050397888
78	0xbdad93a3	-0.08475425
79	0x3edd4bb5	0.43221822
80	0xbe9fa2a3	-0.3117877
81	0x3c8bf6fd	0.017085547
82	0xbcd96cf5	-0.026541213
83	0x3e69ec54	0.22844058
84	0xbf174cfd	-0.5910185
85	0x3ef12641	0.47099498
86	0xbdc3bd07	-0.095575385
87	0xbeaa5cb6	-0.33273858
88	0xbea1e6d7	-0.3162143
89	0x3d066bbf	0.0328176
90	0xbeaf43c3	-0.34231386
91	0x3e9708a3	0.29498777
92	0xbf44a385	-0.7681201
93	0x3e861fd3	0.26196155
94	0xbe998829	-0.29986694
95	0x3e038db1	0.1284702
96	0xbf15fc54	-0.5858815
97	0x3e93a2e3	0.2883521
98	0x3e8fef03	0.2811204
99	0xbcb3f8eb	-0.02196928
100	0xbddfb6f7	-0.1092357
101	0x3e04d8bb	0.12973301
102	0xbe39fe30	-0.18163371
103	0xbe98455e	-0.29740423
104	0xbc50935c	-0.012730446
105	0x3e96143b	0.2931231
106	0x3ec49c8c	0.38400686
107	0xbe823f6f	-0.2543902
108	0xbe1b07bc	-0.15139669
109	0x3eb8c8ff	0.36090848
110	0xbed2bb40	-0.41158485
111	0xbf0237af	-0.50866216

generator.fc4.bias f4 [7]
0	0xbdf3ebe8	-0.1191023
1	0x3dded994	0.108813435
2	0x3e090c5e	0.13383624
3	0xbe3f9936	-0.18710789
4	0x3e37ffae	0.17968628
5	0xbe1233fe	-0.14277646
6	0xbe613f22	-0.2199674

generator.layer_norm_hidden_0.weight f4 [16]
0	0x3f7df3b8	0.9920001
1	0x3f7df3b8	0.9920001
2	0x3f7d70a6	0.9900001
3	0x3f800000	1.0
4	0x3f7d70a6	0.9900001
5	0x3f8147b2	1.0100005
6	0x3f7d70a6	0.9900001
7	0x3f7d70a6	0.9900001
8	0x3f7f7cee	0.998
9	0x3f800000	1.0
10	0x3f7df3b8	0.9920001
11	0x3f7df3b8	0.9920001
12	0x3f7d70a6	0.9900001
13	0x3f8147b2	1.0100005
14	0x3f7d70a6	0.9900001
15	0x3f7d70a6	0.9900001

generator.layer_norm_hidden_0.bias f4 [16]
0	0x00000000	0.0
1	0xbc23d70b	-0.010000001
2	0x3c23d70b	0.010000001
3	0x3c03126f	0.008
4	0x3c23d70b	0.010000001
5	0xbc23d70b	-0.010000001
6	0x3c03126f	0.008
7	0xbc23d70b	-0.010000001
8	0x3c23d70b	0.010000001
9	0x3c23d70b	0.010000001
10	0x3c03126f	0.008
11	0xbc03126f	-0.008
12	0xbc23d70b	-0.010000001
13	0x3c23d70b	0.010000001
14	0x3b83126f	0.004
15	0xbc23d70b	-0.010000001

generator.layer_norm_hidden_1.weight f4 [8]
0	0x3f808314	1.0040002
1	0x3f8147b2	1.0100005
2	0x3f7f7cee	0.998
3	0x3f7df3b8	0.9920001
4	0x3f8147b2	1.0100005
5	0x3f7d70a6	0.9900001
6	0x3f7d70a6	0.9900001
7	0x3f7d70a6	0.9900001

generator.layer_norm_hidden_1.bias f4 [8]
0	0x3c23d70b	0.010000001
1	0x3c23d70b	0.010000001
2	0x3bc49ba7	0.0060000005
3	0xbc03126f	-0.008
4	0xbc23d70b	-0.010000001
5	0x3c23d70b	0.010000001
6	0x3c03126f	0.008
7	0xbc23d70b	-0.010000001

discriminator.fc1.weight f4 [8, 7]
0	0xbecbb998	-0.39790034
1	0xbd7ad434	-0.06123753
2	0xbdf5cb29	-0.1200164
3	0xbee85fba	-0.45385534
4	0x3f678e96	0.90451944
5	0xbe9df68a	-0.30852157
6	0x3f531721	0.82457167
7	0x3d9bfc1a	0.07616444
8	0xbe4579a6	-0.19284686
9	0xbe6c2190	-0.23059678
10	0x3e5c0585	0.2148648
11	0xbd1802a4	-0.037111893
12	0x3f82959e	1.020191
13	0x3f2c3661	0.67270476
14	0x3d29a3e2	0.041416056
15	0xbf2ba28e	-0.67044914
16	0x3ee4c980	0.44684982
17	0xbe538724	-0.20657021
18	0xbe503cac	-0.20335644
19	0x3e9b287c	0.30304325
20	0xbdaaa6f6	-0.083326265
21	0xbf00dacc	-0.5033386
22	0xbe9d4a8d	-0.3072094
23	0x3dfe180a	0.12406929
24	0xbe27b89d	-0.16379018
25	0xbf361127	-0.7111992
26	0xbfbca336	-1.4737308
27	0xbf1ab616	-0.6043409
28	0xbe091951	-0.13388564
29	0xbe48188f	-0.19540618
30	0xbd51a26f	-0.0511803
31	0x3e28fbeb	0.16502349
32	0xbf0b31bd	-0.5437277
33	0x3f414629	0.7549768
34	0xbec235f0	-0.37931776
35	0x3e837f9e	0.25683302
36	0xbe946b94	-0.28988326
37	0x3e381329	0.17976059
38	0x3bba1d16	0.005679737
39	0xbf08c1f0	-0.53420925
40	0xbf45ee8b	-0.7731711
41	0xbe3d60ad	-0.1849391
42	0xbf1ae07c	-0.60498786
43	0xbeaf6bfe	-0.3426208
44	0xbe043339	-0.12910165
45	0x3ea934ac	0.33047998
46	0x3f1c592c	0.61073565
47	0xbec59ffa	-0.38598615
48	0xbef06232	-0.46949917
49	0xbf0da045	-0.55322677
50	0x3d038009	0.032104526
51	0xbf145eb5	-0.5795701
52	0xbe07280c	-0.1319887
53	0x3d16952c	0.036763355
54	0xbf06ea14	-0.52700925
55	0xbd9564b1	-0.07294596

discriminator.fc1.bias f4 [8]
0	0xbe9346b2	-0.28764874
1	0xbd7249d4	-0.05915244
2	0x3ea25930	0.3170867
3	0x3ca31c63	0.019910997
4	0xbcfe5773	-0.031047558
5	0xbe5bff76	-0.2148417
6	0xbe7ec456	-0.24879584
7	0xbea5aee9	-0.32360008

discriminator.fc2.weight f4 [1, 8]
0	0x3e974566	0.29545134
1	0x3ee555d8	0.44792056
2	0xbf1169d3	-0.568021
3	0x3eda58b3	0.42645797
4	0x3eb55279	0.35414484
5	0xbe12dd9b	-0.14342348
6	0x3f669c31	0.9008208
7	0xbf81339a	-1.0093873

discriminator.layer_norm_hidden_0.weight f4 [8]
0	0x3f7d722a	0.99002326
1	0x3f7f46c9	0.99717385
2	0x3f7d6c26	0.98993146
3	0x3f81427b	1.0098413
4	0x3f7eab04	0.994797
5	0x3f800b9e	1.0003545
6	0x3f7d6949	0.9898878
7	0x3f814510	1.0099201

discriminator.layer_norm_hidden_0.bias f4 [8]
0	0x3c1d2ad0	0.009592727
1	0x3c1d5516	0.009602806
2	0xbc1d4098	-0.00959792
3	0x3c1d7955	0.009611447
4	0x3c1d397e	0.009596227
5	0xbc1d82fe	-0.0096137505
6	0x3c1d4988	0.009600051
7	0xbc1d66b1	-0.009607003

exp_avg f4 [16, 7]
0	0xbbb73619	-0.0055911657
1	0xbbb93753	-0.005652347
2	0x218fa55a	9.733825e-19
3	0xbbb9aa85	-0.0056660795
4	0xbbbe742f	-0.00581219
5	0xbbb8838a	-0.005630915
6	0x38c7c11e	9.52503e-05
7	0x3c856666	0.016284179
8	0x3c8564ef	0.01628348
9	0xa283adb3	-3.5691532e-18
10	0x3c866273	0.016404366
11	0x3c877556	0.016535442
12	0x3c85193e	0.016247388
13	0xbba729ce	-0.005101419
14	0x3b30a692	0.0026954752
15	0x3b2c2ace	0.002627063
16	0x20f6bc6a	4.1798703e-19
17	0x3b2add5e	0.0026071887
18	0x3b1eb452	0.0024216366
19	0x3b2de395	0.0026533355
20	0x3ad153fd	0.0015970465
21	0x3ae8ffc8	0.0017776424
22	0x3aea5e83	0.001788095
23	0xa15ba94b	-7.4424144e-19
24	0x3aef1886	0.0018241561
25	0x3aff0807	0.0019457348
26	0x3ae7b315	0.0017677272
27	0xbab0b135	-0.0013480546
28	0x3b5964ca	0.0033171647
29	0x3b596693	0.0033172711
30	0x21f4b4d6	1.658195e-18
31	0x3b557284	0.0032569477
32	0x3b4f4e7e	0.0031632478
33	0x3b5aa137	0.0033360252
34	0x3b58e3a6	0.0033094673
35	0xbc4eab2a	-0.012614051
36	0xbc4f138c	-0.012638938
37	0xa263a44a	-3.085121e-18
38	0xbc4cf058	-0.012508474
39	0xbc4ac72b	-0.012376587
40	0xbc4f95f5	-0.01267003
41	0xbbd108de	-0.006379231
42	0x3bcdb526	0.006277698
43	0x3bd1a42f	0.006397746
44	0x21293d5d	5.734064e-19
45	0x3bcf9f10	0.0063361004
46	0x3bd4be3d	0.0064924047
47	0x3bd13ec1	0.0063856547
48	0x3abff15f	0.0014644078
49	0x3c6dee36	0.014522126
50	0x3c6e052c	0.0145276
51	0xa1822edb	-8.821545e-19
52	0x3c6def14	0.014522333
53	0x3c6e2bc8	0.014536805
54	0x3c6deeae	0.014522238
55	0x39d25658	0.00040118652
56	0xbca5d64b	-0.020243784
57	0xbca5af3c	-0.02022516
58	0x21ca10d1	1.3692504e-18
59	0xbca5f464	-0.020258136
60	0xbca5f4f9	-0.020258414
61	0xbca5998b	-0.020214817
62	0x38fe91d7	0.000121388286
63	0x3c555c5a	0.013022507
64	0x3c5705b2	0.013123916
65	0x229255c7	3.96642e-18
66	0x3c540ea7	0.0129429465
67	0x3c536456	0.01290234
68	0x3c577033	0.013149309
69	0x3c16c74e	0.009202791
70	0x3b91c833	0.0044489144
71	0x3b90d64f	0.004420079
72	0x9cb93cb7	-1.2257967e-21
73	0x3b928377	0.0044712382
74	0x3b92a54b	0.004475271
75	0x3b9095f7	0.0044124085
76	0xbaeaaaef	-0.0017903725
77	0x3ae632fd	0.0017562803
78	0x3ae5ac36	0.0017522636
79	0x9f9829e7	-6.4443826e-20
80	0x3ae3dd33	0.0017384648
81	0x3ae13027	0.0017180488
82	0x3ae649a7	0.0017569558
83	0x3a9ec385	0.0012112713
84	0x3b941c7a	0.0045199962
85	0x3b91aeb4	0.004445875
86	0xa258219e	-2.9291255e-18
87	0x3b949823	0.0045347377
88	0x3b938fdd	0.004503234
89	0x3b915c11	0.004436024
90	0xbb542767	-0.0032372118
91	0xbca14841	-0.019687774
92	0xbca1511a	-0.019691993
93	0x2235d962	2.4645156e-18
94	0xbca1d2d1	-0.019753845
95	0xbca27191	-0.019829543
96	0xbca122a2	-0.019669835
97	0x3b1c40ea	0.0023842403
98	0x3b048150	0.0020218678
99	0x3b0da23a	0.0021611587
100	0xa201de49	-1.7600437e-18
101	0x3b105bec	0.0022027446
102	0x3b23f6fc	0.002501904
103	0x3b0ac83b	0.0021176476
104	0xbb66cdc6	-0.0035217865
105	0x3b68f092	0.0035543782
106	0x3b67f7a1	0.00353954
107	0x2142486c	6.5825606e-19
108	0x3b64ff04	0.003494204
109	0x3b5fa4e2	0.0034125377
110	0x3b68e162	0.003553473
111	0x3b11530a	0.002217474

exp_avg f4 [16]
0	0xbc0fa55a	-0.00876745
1	0x3d03adb3	0.032148074
2	0xbb76bc6c	-0.003764893
3	0x3bdba94b	0.006703531
4	0xbc74b4d6	-0.014935693
5	0x3ce3a44a	0.0277883
6	0xbba93d5d	-0.005164786
7	0x3c022edc	0.007945742
8	0xbc4a10cf	-0.012333109
9	0xbd1255c7	-0.035726335
10	0x37393fb7	1.1041694e-05
11	0x3a1829ef	0.00058045884
12	0x3cd8219d	0.026383216
13	0xbcb5d961	-0.02219838
14	0x3c81de49	0.015853064
15	0xbbc2486c	-0.0059290435

exp_avg f4 [8, 16]
0	0xbcc1d58d	-0.0236614
1	0xbbdbfb0a	-0.006713276
2	0x3bd8f001	0.0066204076
3	0x3b35ec3a	0.002775921
4	0x3bf5538c	0.007486766
5	0xbc2e78d6	-0.010648927
6	0xbbf43f78	-0.007453855
7	0x3c201f7f	0.009773134
8	0xbb916ef3	-0.004438275
9	0xbb9dc431	-0.0048146476
10	0x3ba1c135	0.004936362
11	0xb89989ba	-7.321262e-05
12	0x3b881ff5	0.0041542
13	0x3ba6c2cb	0.005089139
14	0x3c3b0cf1	0.01141666
15	0x3baed76f	0.0053357403
16	0x3c3900e5	0.011291717
17	0x395cf74b	0.00021072959
18	0xbc433312	-0.011914032
19	0x3c51e14d	0.012810064
20	0x3c595d7e	0.013266919
21	0x3c219e77	0.009864441
22	0x3af62580	0.0018779486
23	0xbc5ad813	-0.01335718
24	0xbc54c33a	-0.012985999
25	0x3c164448	0.009171553
26	0x3c502d33	0.012706089
27	0xbd00fa1b	-0.03148852
28	0x3bb6b72c	0.005576035
29	0xbc9943da	-0.018709112
30	0xba84d1d5	-0.0010133336
31	0x3c4e2597	0.012582204
32	0xbcab236b	-0.020890912
33	0xbbb7e8ea	-0.0056124823
34	0x3c7b3d92	0.015334504
35	0xbc2bb72f	-0.010480686
36	0xbc0f581f	-0.008749037
37	0xbc656beb	-0.01400278
38	0xbbf888fe	-0.00758469
39	0x3c9de034	0.019271947
40	0x3bf6a8dd	0.0075274543
41	0xbc353597	-0.01106014
42	0xbc1cdb64	-0.009573791
43	0x3cf7b3b7	0.030237062
44	0xbb9aa64d	-0.0047195316
45	0x3cb0b8d0	0.0215725
46	0x3c0300ac	0.007995766
47	0xbc179fb8	-0.0092543885
48	0xbc7a2720	-0.015268117
49	0x3bf1aec7	0.0073755714
50	0x3c2c6c92	0.010523932
51	0xbc81dd18	-0.015852496
52	0xbc86b2b3	-0.016442632
53	0xbc4852ac	-0.012226742
54	0x3ba7a936	0.005116607
55	0x3bdd128b	0.0067465953
56	0x3cc68f03	0.024238115
57	0xbc2782c5	-0.010224049
58	0xbc81da02	-0.015851025
59	0x3d105e04	0.03524591
60	0xbb872935	-0.0041247853
61	0x3c9a2504	0.018816479
62	0xbb1baf8d	-0.002375576
63	0xbc7e51e3	-0.015522453
64	0x3cc5f5f2	0.024165127
65	0x3b6f2f22	0.00364966
66	0xbc39165f	-0.011296838
67	0x3bb8ef80	0.005643785
68	0x3b24af4a	0.0025128894
69	0x3c6455f6	0.01393651
70	0x3baea334	0.005329514
71	0xbc489ab6	-0.012243917
72	0xbbddbf28	-0.0067671724
73	0x3c15336f	0.009106501
74	0x3b91c732	0.0044487948
75	0xbc9c0c2e	-0.019048776
76	0x3a35c295	0.0006933597
77	0xbc7b479e	-0.015336899
78	0xbc0b9a51	-0.008520679
79	0x3b75a470	0.0037482046
80	0x3ca17f09	0.019713895
81	0x3c42666d	0.0118652405
82	0xbc8de63e	-0.017321702
83	0x3bfaf5a2	0.0076586762
84	0x3bccf26c	0.006254485
85	0x3c7e59cc	0.015524339
86	0x3c590178	0.013244979
87	0xbcb50ec4	-0.022101767
88	0x37afeadd	2.0970992e-05
89	0x3c49782f	0.01229672
90	0x3bbe8f0f	0.0058153938
91	0xbd03452e	-0.032048397
92	0x3ba8b8ed	0.005148998
93	0xbcc19833	-0.023632145
94	0xbc14c5c9	-0.009080359
95	0x3bd8e319	0.006618869
96	0xbd713b91	-0.058894698
97	0xbcb3ee0c	-0.021964096
98	0x3d361c25	0.044460434
99	0xbcdb3edc	-0.026763372
100	0xbcb3a544	-0.02192939
101	0xbd2b8d54	-0.041882828
102	0xbcdbb899	-0.026821421
103	0x3d64294d	0.05570345
104	0x3c7db9a8	0.015486158
105	0xbd033a15	-0.032037813
106	0xbcabd14a	-0.02097382
107	0x3daebbad	0.0853189
108	0xbc3bac7a	-0.011454696
109	0x3d7ecf5f	0.062209483
110	0x3cbb4be6	0.02286334
111	0xbcbdef59	-0.023185419
112	0x3d10147d	0.03517579
113	0x3a3a2392	0.00071006373
114	0xb92f8a78	-0.00016740884
115	0xbc07c75f	-0.00828728
116	0xbc85ae99	-0.016318606
117	0x3c451a37	0.012030176
118	0x3abe0aa4	0.0014499021
119	0xb8c39f4d	-9.327997e-05
120	0x3ae1455a	0.0017186806
121	0x3a8b6c42	0.0010637122
122	0xbc453e56	-0.012038788
123	0x3c938512	0.018007789
124	0xbc4e85cc	-0.012605142
125	0x3bb549f2	0.0055324966
126	0xbc5915e0	-0.013249844
127	0xbc4e5e56	-0.012595734

exp_avg f4 [8]
0	0xbca5255a	-0.020159412
1	0xbc996833	-0.018726444
2	0x3c185274	0.009297002
3	0x3c9e5c27	0.019331051
4	0x3b638706	0.0034717931
5	0xbc056b95	-0.008143325
6	0x3cbddd46	0.0231768
7	0x3d2c32cc	0.04204063

exp_avg f4 [16, 8]
0	0x3c338c60	0.010958761
1	0x3c4bb73c	0.012433823
2	0xbc37e2c7	-0.0112235015
3	0xb897552f	-7.216108e-05
4	0xbb592054	-0.0033130841
5	0xbbe2efdd	-0.0069255666
6	0xbbe9a484	-0.0071302075
7	0x3bb387b5	0.005478824
8	0xbb4f0aaf	-0.0031592061
9	0x3be1ead0	0.006894447
10	0xbb1d495e	-0.002400003
11	0xbb582485	-0.0032980752
12	0x3b7280b8	0.0037002992
13	0xbb2296eb	-0.0024809192
14	0xb97b1236	-0.0002394401
15	0x3a86d4b6	0.0010286781
16	0xbc514950	-0.012773827
17	0xbc36b770	-0.011152133
18	0x3c4c95c8	0.0124868825
19	0xbb52c7f3	-0.0032162636
20	0x3bc3c141	0.0059739654
21	0x3bbca3a1	0.005756811
22	0x3bf469ed	0.0074589164
23	0xbb99779b	-0.0046834475
24	0x3b3369bb	0.0027376253
25	0xbbd513f9	-0.006502625
26	0x3a93f6a3	0.0011288713
27	0x3b41e8b6	0.002958817
28	0xbb1dc896	-0.0024075857
29	0x3b2e2289	0.0026570878
30	0xb9e85a76	-0.00044317887
31	0xb9527afd	-0.00020072977
32	0xbc53b8be	-0.012922464
33	0x3bb41c65	0.005496549
34	0x3b9ba2f5	0.0047496506
35	0xbafed023	-0.0019440692
36	0x3bc50cc4	0.0060134847
37	0x38f5d7af	0.000117226846
38	0x3b79179a	0.0038008452
39	0xbbacb0d0	-0.005270101
40	0x3c75c4bb	0.0150005175
41	0xbcc0593c	-0.02348005
42	0x3b3817ab	0.002809028
43	0x3c267b4c	0.010161232
44	0xbc52dbd2	-0.012869792
45	0x3c0354a6	0.008015787
46	0xba8f39cf	-0.0010927262
47	0x3aa171aa	0.00123172
48	0xbc7578bb	-0.014982398
49	0x3cb56dfd	0.022147173
50	0xbb3977d6	-0.0028300188
51	0xbb4c2995	-0.0031152715
52	0x3c0d6e2d	0.008632225
53	0xbbb4b230	-0.0055144057
54	0xb8e85fb0	-0.00011080445
55	0xbb8430f1	-0.0040341546
56	0x3cd78295	0.026307384
57	0x3c1a567d	0.0094200345
58	0xbc884f40	-0.016639352
59	0xbc29ee6a	-0.010371784
60	0xbb8f13fb	-0.0043663955
61	0xbc35655c	-0.011071529
62	0xbc037999	-0.008024597
63	0x3c7548e0	0.014970988
64	0xb9bfe819	-0.00036603285
65	0xba939d54	-0.0011262097
66	0x3aa10757	0.0012285513
67	0xbb121b5f	-0.0022294146
68	0x3a47f741	0.0007628091
69	0xb9312b31	-0.00016896125
70	0x3ac4fc6f	0.0015028844
71	0x39c86420	0.00038221572
72	0x3c53d90c	0.012930166
73	0xbbd3c6b5	-0.0064628967
74	0xbb891704	-0.004183652
75	0x3a35968f	0.0006927037
76	0xbba80f46	-0.005128774
77	0x39a888f0	0.00032145483
78	0xbb38d37c	-0.0028202226
79	0x3b978814	0.004624376
80	0xbc501cba	-0.012702161
81	0xbab833a1	-0.0014053473
82	0x3bba5550	0.0056864396
83	0x3b48895f	0.0030599458
84	0x3b8085f4	0.0039222185
85	0x3b842433	0.0040326356
86	0x3b511c19	0.0031907617
87	0xbbc00619	-0.005860102
88	0x3bd89e51	0.0066106697
89	0xbba3f9b9	-0.0050041345
90	0xba1ceee5	-0.0005986526
91	0xb903f250	-0.00012583402
92	0xbb529c95	-0.0032136787
93	0x3955c3f4	0.00020386261
94	0xba08508b	-0.000519999
95	0x3b2a5a9c	0.0025993949
96	0x38b50a36	8.6326545e-05
97	0x3c9c8ce7	0.019110156
98	0xbc17a795	-0.009256263
99	0xbbab9347	-0.0052360627
100	0x3b9ba1f5	0.0047495314
101	0xbbffb3b2	-0.007803404
102	0xbb92faf9	-0.0044854847
103	0x3b493a32	0.0030704853
104	0x3af6904a	0.0018811312
105	0x3bf95e7e	0.0076101413
106	0xbbce8fb2	-0.006303751
107	0x3b32ae82	0.002726466
108	0xba2571d7	-0.0006311214
109	0xbaf38fdf	-0.0018582306
110	0xbb7d9349	-0.0038692525
111	0x3a08c557	0.0005217394
112	0xbc1cc6d6	-0.009568891
113	0xbba30465	-0.004974889
114	0x3c1ed728	0.009694852
115	0xba8ff71d	-0.001098368
116	0x3b11d1d4	0.0022250311
117	0x3b296bd6	0.0025851629
118	0x3bd04ca2	0.0063567916
119	0xbbacab50	-0.0052694455
120	0x3b1e0d99	0.0024116992
121	0x3a10f29a	0.00055293145
122	0xbaedf2c3	-0.0018154014
123	0x3b2f7a77	0.0026775876
124	0xbb004e5e	-0.001957796
125	0x385e9450	5.306705e-05
126	0xbadbe761	-0.001677733
127	0xb970a021	-0.00022947836

exp_avg f4 [16]
0	0x3c625118	0.01381328
1	0x3b47588f	0.0030417775
2	0xbc4f7092	-0.012661116
3	0xbb732eeb	-0.0037106823
4	0xbb2b7b54	-0.0026166039
5	0xbc1bb7ef	-0.009504302
6	0x3bcd63a0	0.0062679797
7	0x3cc32fe4	0.023826547
8	0x398fa964	0.0002740129
9	0x3b12c285	0.0022393775
10	0xbc1e1e74	-0.009650815
11	0x3a952c7e	0.0011381058
12	0x3c53d2d3	0.012928682
13	0x3b65d110	0.0035067238
14	0xbbbc4960	-0.0057460517
15	0x39d72536	0.0004103572

exp_avg f4 [7, 16]
0	0xbc12e552	-0.008965807
1	0x3d4d4582	0.050115116
2	0x39fb7720	0.00047963206
3	0xbc2cc28b	-0.0105444295
4	0xbc35aef6	-0.011089077
5	0xbbe66f3b	-0.0070323027
6	0xbc3ce2ed	-0.011528713
7	0x3c2e21a1	0.010628135
8	0xbc3a788b	-0.011381279
9	0x3b1c75d0	0.0023873933
10	0x3990e1fa	0.00027634186
11	0xb9e66a20	-0.00043948088
12	0xbcce9140	-0.025215745
13	0xbbe0b115	-0.0068570473
14	0xbbf66b21	-0.007520095
15	0x3d15d25b	0.036577564
16	0x3bd1d6ef	0.006403796
17	0x3b589d8c	0.003305289
18	0x3c299e58	0.0103526935
19	0xbad8441a	-0.0016499788
20	0xbb84ed7d	-0.004056631
21	0x3bb0aac3	0.00539145
22	0xbb37d9bd	-0.0028053366
23	0xba433986	-0.00074472313
24	0xbba2f2a0	-0.004972771
25	0xbb0c4345	-0.00214024
26	0xbac6ab65	-0.0015157281
27	0xbab78422	-0.0014001171
28	0xbb5c3f7a	-0.003360717
29	0x39d4cf6f	0.0004059034
30	0xbb97a070	-0.00462728
31	0x3abfb95d	0.0014627386
32	0xbc235d99	-0.009971046
33	0x3c4f43da	0.012650454
34	0xbd04239b	-0.03226052
35	0x3bf89199	0.007585716
36	0x3c0e8dde	0.008700816
37	0xbd529250	-0.051409066
38	0x3b68cd8e	0.003552291
39	0x3b5d5fd9	0.0033779053
40	0x3c5670a4	0.013088379
41	0x3c2161b9	0.009849959
42	0x3c9dd8e1	0.019268455
43	0x3c1d8732	0.009614753
44	0xbcfa257b	-0.03053545
45	0x3bde52b8	0.006784763
46	0x3b493de1	0.0030707049
47	0x3cd6cae8	0.0262198
48	0x3c027313	0.007962006
49	0xbcfcad5c	-0.030844383
50	0xbc6c5787	-0.014425165
51	0x3c675a85	0.014120703
52	0x3c28097e	0.010256169
53	0xbcecf38c	-0.028924726
54	0x3c2166c3	0.00985116
55	0xbbc6cff2	-0.0060672695
56	0x3c872f28	0.016501978
57	0x3b9ec1c3	0.0048448755
58	0x3c38941b	0.01126578
59	0x3c003412	0.0078249145
60	0xbc0b3cba	-0.008498365
61	0x3c616976	0.013758054
62	0x3b90ea6b	0.004422476
63	0xbc483ab7	-0.01222103
64	0x3b871b30	0.004123114
65	0x3c4fea63	0.0126901595
66	0xbc0aa763	-0.00846276
67	0x3ba778be	0.005110829
68	0xba6b0996	-0.0008965967
69	0xbd0a4779	-0.033759568
70	0xbb53d548	-0.003232317
71	0x3ae96acb	0.0017808316
72	0x3b8ffb6d	0.004393986
73	0x3bbf3c28	0.0058360286
74	0x3c4c7b15	0.012480517
75	0x3bf5d253	0.0075018792
76	0xbd0ec264	-0.034853354
77	0x3c1b488a	0.009477744
78	0xbb48a536	-0.0030616052
79	0x3ca9dcdf	0.020735202
80	0x3b95d56e	0.004572562
81	0x3b6f9504	0.0036557326
82	0xbc116156	-0.008873304
83	0x3bff75c9	0.0077960235
84	0xba8508ee	-0.0010149756
85	0xbd09e0a4	-0.0336615
86	0x3ac9895e	0.0015376022
87	0x3b170a77	0.002304701
88	0x3c05076e	0.008119447
89	0x3be5d752	0.0070141936
90	0x3c1ea75e	0.009683458
91	0x3c144247	0.009049005
92	0xbd02f1a4	-0.031968728
93	0x3c4cd7a4	0.012502585
94	0xbb0c4c48	-0.0021407772
95	0x3c36e4e5	0.011162971
96	0x3b399ea4	0.0028323317
97	0xbbd34654	-0.0064475928
98	0x3c190483	0.009339455
99	0xba6a745e	-0.00089437317
100	0xbba7bb0d	-0.0051187337
101	0x3c76bcc1	0.015059651
102	0xb9323d1e	-0.00016998171
103	0x3a8b0390	0.001060592
104	0xbacab305	-0.0015464729
105	0xba3f017c	-0.0007286293
106	0xbc063125	-0.008190428
107	0xba44c14e	-0.0007505611
108	0x3bd5f2e5	0.0065291994
109	0x3a5dbce0	0.00084586255
110	0x38d1b326	9.9992656e-05
111	0xbc41bc36	-0.011824658

exp_avg f4 [7]
0	0x3c55fc6f	0.013060673
1	0x3b98fc5c	0.0046687555
2	0xbc9caa0c	-0.019124053
3	0xbccde8fb	-0.025135508
4	0xbc4b3895	-0.012403627
5	0xbc9d1096	-0.019172948
6	0xb99f7ff6	-0.00030422182

exp_avg f4 [16]
0	0x3c50f330	0.012753293
1	0x3c922d72	0.017843936
2	0x3c008542	0.007844271
3	0xb99650fa	-0.00028670562
4	0x3ce56379	0.028001534
5	0xbc96d51e	-0.01841217
6	0x3ba239ae	0.0049507236
7	0x3d0da952	0.034585305
8	0x3b51828d	0.0031968683
9	0xb998ac11	-0.000291199
10	0x3c2efa4a	0.010679791
11	0x3c2ba93b	0.010477359
12	0x3c83f75e	0.016109165
13	0xbcbb64b7	-0.022875173
14	0x3b8c08fd	0.0042735324
15	0x3c56e577	0.013116232

exp_avg f4 [16]
0	0x3a90f4a3	0.0011059236
1	0x3d401a2e	0.046899967
2	0xbbe1164d	-0.0068691135
3	0xbc28dfa3	-0.010307225
4	0xbd0dc8c6	-0.0346153
5	0x3ce1e4b7	0.02757488
6	0xbc009e50	-0.007850245
7	0x3cd05680	0.025431871
8	0xbcf0f4ad	-0.029413546
9	0xbd0f3edf	-0.034972068
10	0xbcc87141	-0.024468066
11	0x3bc2aa32	0.005940699
12	0x3d2db64b	0.042410176
13	0xbc530625	-0.012879883
14	0xbb6735b6	-0.0035279817
15	0x3c35cb97	0.011095903

exp_avg f4 [8]
0	0xbb213291	-0.002459679
1	0xbc9ab28e	-0.01888397
2	0x3a4e5290	0.0007870579
3	0x3ba82609	0.0051314873
4	0xbc9f3496	-0.019434255
5	0x3ca07c66	0.019590568
6	0x3c069e37	0.008216432
7	0x3c5a43dd	0.013321844

exp_avg f4 [8]
0	0xbcd3152f	-0.025766937
1	0xbc8d71ef	-0.017266242
2	0xbb320eea	-0.0027169534
3	0x3c1977a4	0.009366903
4	0x3c866583	0.016405826
5	0xbcdbbb58	-0.02682273
6	0xbbc2dd0a	-0.00594676
7	0x3ca436c2	0.020045642

exp_avg f4 [8, 7]
0	0xbb3c4de2	-0.0028732945
1	0xbc608552	-0.013703661
2	0xbcc7c7be	-0.024387237
3	0x3c5c46ed	0.013444644
4	0x3c3fcf45	0.011707132
5	0xbc73b693	-0.014875072
6	0x3c11cef3	0.008899438
7	0xbd0b3d7d	-0.033994187
8	0xbc533754	-0.012891609
9	0xbda83a46	-0.0821424
10	0x3db6f50c	0.08933458
11	0x3d8a2e60	0.067471266
12	0xbd50f855	-0.051018078
13	0x3d22c523	0.039738785
14	0xbcef600c	-0.029220603
15	0xbd27a2f7	-0.0409269
16	0x3d4fd86a	0.050743498
17	0xbdc7f79a	-0.09764023
18	0xbdb21c4c	-0.086968035
19	0xbccc274b	-0.02492108
20	0xbddff5fd	-0.109355904
21	0x3da840a6	0.08215456
22	0x3d3f7b5a	0.046748497
23	0xbd93b458	-0.07212132
24	0x3df356cd	0.1188179
25	0x3de7b487	0.1131373
26	0x3d3cbe54	0.04607995
27	0x3d9bbac0	0.07603979
28	0xbd131deb	-0.035917204
29	0xbca824b4	-0.020525314
30	0xbd2b0404	-0.041751876
31	0x3d33913b	0.043839674
32	0x3cc05585	0.023478279
33	0xbd231dd8	-0.039823383
34	0x3d890c8d	0.06691847
35	0xbc8c2bf4	-0.017110802
36	0xbcb19f03	-0.021682268
37	0x3c4ff365	0.012692307
38	0xbd5ef6bc	-0.054434523
39	0xbd2807f3	-0.041023206
40	0xbc2729d6	-0.010202846
41	0xbcb0f9ac	-0.021603428
42	0x3e076bb9	0.13224687
43	0x3ccc60eb	0.024948558
44	0xbe885ec8	-0.26634812
45	0x3e8217b8	0.2540872
46	0x3e8408d8	0.25787997
47	0x3c285070	0.010273084
48	0x3df72722	0.12068011
49	0xbe755abf	-0.23960398
50	0xb99d9200	-0.00030054152
51	0x3f0cee5d	0.55051214
52	0xbefcc255	-0.49367014
53	0xbef60e9f	-0.4805803
54	0x3cdfdbaf	0.027326433
55	0xbe4d166b	-0.20028083

exp_avg_sq f4 [8, 7]
0	0x365cb89e	3.2890016e-06
1	0x369c9442	4.666422e-06
2	0x3805b670	3.187958e-05
3	0x372e96c5	1.0406312e-05
4	0x373e97d9	1.1360237e-05
5	0x36c68118	5.9158883e-06
6	0x365290ae	3.1376653e-06
7	0x386d05fa	5.651077e-05
8	0x3787426a	1.612418e-05
9	0x395cf5ef	0.00021072452
10	0x39586904	0.00020638487
11	0x38fab044	0.00011953761
12	0x388281b1	6.22304e-05
13	0x383aacaa	4.450666e-05
14	0x38571dfb	5.1287916e-05
15	0x39355850	0.00017294404
16	0x38d39117	0.00010088289
17	0x39b34526	0.0003419306
18	0x39820730	0.00024800887
19	0x38ca2532	9.639039e-05
20	0x3995053b	0.00028423392
21	0x3934675e	0.00017204645
22	0x390aae7c	0.00013225706
23	0x392d1095	0.00016504743
24	0x39a82af2	0.00032075454
25	0x3998ca96	0.00029142638
26	0x3902c2d9	0.00012470353
27	0x390a2712	0.0001317526
28	0x3827628d	3.9907685e-05
29	0x38084f49	3.2498767e-05
30	0x386e3a54	5.6797944e-05
31	0x38738ebb	5.8068643e-05
32	0x37ad74a6	2.0677526e-05
33	0x38306cb4	4.2062908e-05
34	0x38d51f33	0.00010162443
35	0x371aeb4c	9.2339e-06
36	0x37c6c5ee	2.3695608e-05
37	0x3747b4fe	1.1903465e-05
38	0x38a88a0b	8.036577e-05
39	0x3832391e	4.24917e-05
40	0x370b7909	8.313226e-06
41	0x375e3e54	1.3246743e-05
42	0x39cc55b4	0.00038973766
43	0x3985c716	0.00025516067
44	0x3afddfc2	0.0019369053
45	0x3ab9c9eb	0.0014174556
46	0x3abee400	0.0014563799
47	0x38f84380	0.000118381344
48	0x39aff22c	0.00033559033
49	0x3aa50d10	0.0012592394
50	0x3a449d6a	0.0007500263
51	0x3c08c7cc	0.008348417
52	0x3bb07fab	0.005386313
53	0x3ba9c349	0.0051807505
54	0x39d7a7bd	0.0004113297
55	0x3a804e54	0.0009788969

exp_avg f4 [8]
0	0xbc830bf0	-0.015996903
1	0xbd84a56e	-0.06476866
2	0x3ee3048c	0.44339406
3	0xbe5f8fed	-0.21832247
4	0xbe7953d9	-0.24348392
5	0x3daf63f7	0.08563989
6	0xbd830470	-0.06397331
7	0xbcdb52a8	-0.026772812

exp_avg_sq f4 [8]
0	0x37d7984e	2.570092e-05
1	0x393e0825	0.00018122846
2	0x3b99c5a3	0.0046927496
3	0x3aabfe76	0.00131221
4	0x3ac03e30	0.0014666971
5	0x396b8dc8	0.00022464164
6	0x3a61a3c9	0.0008607475
7	0x3b3b4b33	0.0028578758

exp_avg f4 [1, 8]
0	0x3eb21061	0.3477812
1	0x3dc3127d	0.09525011
2	0xbec91156	-0.3927104
3	0xbed57c48	-0.41696382
4	0xbd5a284b	-0.053261083
5	0xbd82db4c	-0.06389484
6	0x3ea1ccb5	0.31601492
7	0x3e273150	0.16327405

exp_avg_sq f4 [1, 8]
0	0x3b2f3012	0.0026731533
1	0x39ae3c18	0.0003323264
2	0x3b5fa872	0.00341275
3	0x3b895466	0.0041909693
4	0x399e0acc	0.00030144153
5	0x390fdce8	0.00013719837
6	0x3b0ed993	0.0021797165
7	0x3a1a9105	0.00058962434

exp_avg f4 [8]
0	0x3dd71e0a	0.10503776
1	0x3d3171e5	0.04332151
2	0x3e67ffa8	0.22656119
3	0xbe32d337	-0.17463385
4	0xbc98326b	-0.018578729
5	0x3c19da0d	0.009390366
6	0x3e93b760	0.28850842
7	0xbe263157	-0.16229759

exp_avg_sq f4 [8]
0	0x397fe047	0.00024402245
1	0x388f8afb	6.8446585e-05
2	0x3a94fad4	0.0011366257
3	0x3a405d77	0.0007338146
4	0x3820480c	3.821407e-05
5	0x3643d7be	2.9182843e-06
6	0x3aee26df	0.0018169543
7	0x3a18bb86	0.0005826283

exp_avg f4 [8]
0	0xbd89ec6b	-0.06734546
1	0xbdce78e5	-0.100816526
2	0x3e035364	0.1282478
3	0xbdc06472	-0.093941584
4	0xbda2ce46	-0.079495
5	0x3d050372	0.03247399
6	0xbe4f7616	-0.2025989
7	0x3e658705	0.22414787

exp_avg_sq f4 [8]
0	0x39301ba0	0.00016794959
1	0x39c46473	0.00037458874
2	0x3a1f3e1c	0.00060746237
3	0x39a9b6c1	0.00032370354
4	0x3974ea27	0.00023356882
5	0x38224a2b	3.8692884e-05
6	0x3ac67cdb	0.0015143411
7	0x3af2198e	0.0018470751
