saved/gan/ppxl6vf2/checkpoints/epoch=0-step=14-v3.ckpt (torch, 21266 bytes, 39 tensors)

generator.fc1.weight f4 [16, 7]
0	0x3f28bd4e	0.65913856
1	0xbf5906a9	-0.8477579
2	0x3fa1d3c1	1.2642747
3	0x3f97804f	1.1836032
4	0x3f2dc10e	0.67872703
5	0xbf1fb367	-0.6238312
6	0xbead72be	-0.33876604
7	0x3e41437f	0.18873404
8	0xbf747293	-0.95487326
9	0x3f40a18b	0.75246495
10	0xbf1671d2	-0.58767426
11	0xbf058cbf	-0.52167886
12	0x3dc9795a	0.09837599
13	0xbd4e0059	-0.0502933
14	0xbd52af83	-0.051436912
15	0x3d49ff44	0.049315706
16	0x3ea4cc7f	0.32187268
17	0xbf03e676	-0.5152353
18	0xbe450ce7	-0.19243203
19	0xbea04257	-0.31300613
20	0xbe37bce8	-0.17943156
21	0xbf3ba081	-0.73291785
22	0xbf8a0040	-1.0781326
23	0x3ed6e696	0.41972798
24	0x3e80df73	0.25170478
25	0x3e9d9700	0.30779266
26	0xbdd1cc0e	-0.102439985
27	0x3e1911ba	0.14948168
28	0x3c00c5ca	0.007859657
29	0x3dd790f1	0.10525692
30	0xbdc2aaca	-0.09505232
31	0xbd96f84a	-0.07371576
32	0xbe3b5dad	-0.18297453
33	0xbd52c938	-0.05146143
34	0x3f1416b7	0.5784716
35	0xbf450f27	-0.76976246
36	0x3cc06ffb	0.023490896
37	0x3f327dfb	0.6972348
38	0x3f673fbc	0.90331626
39	0x3f84d1f7	1.0376576
40	0x3ec97fae	0.39355224
41	0x3e5b2494	0.21400672
42	0x3cd8f289	0.026482837
43	0x3e705dd8	0.23473299
44	0xbf04edc9	-0.5192533
45	0xbf77bcfd	-0.9677275
46	0xbbd155b4	-0.0063883904
47	0x3eb52599	0.35380247
48	0x3f710c1b	0.94159096
49	0x3e5dc40c	0.21656817
50	0x3e5aaccd	0.21354981
51	0xbf3ab382	-0.7293016
52	0xbf1214cf	-0.57063
53	0x3e5f2976	0.2179316
54	0xbfc4ffe4	-1.5390592
55	0x3eaeb7ef	0.34124705
56	0xbede113e	-0.4337253
57	0x3e498413	0.19679289
58	0xbed5ddc3	-0.41770753
59	0xbe511de0	-0.20421553
60	0xbef75a26	-0.48310965
61	0x3f354d06	0.70820653
62	0x3e9e5148	0.30921388
63	0x3d3f3a16	0.046686254
64	0x3f341cc3	0.70356387
65	0xbf5a7f37	-0.85350364
66	0xbebf3da3	-0.37351713
67	0xbf193cdd	-0.59858495
68	0x3f016319	0.50541836
69	0x3fb0efd1	1.3823186
70	0x3f2a31b9	0.6648212
71	0x3e9e0fbe	0.30871385
72	0xbf57b6c6	-0.84263265
73	0xbd67e647	-0.056616094
74	0x3d9afde9	0.07567961
75	0xbe9df6df	-0.3085241
76	0xbef07461	-0.4696379
77	0x3ed89bb2	0.42306286
78	0x3f4fed0c	0.8122108
79	0x3ee5e0b6	0.44898003
80	0xbe4036d5	-0.18770917
81	0x3f39f6f4	0.72642446
82	0xbea432ec	-0.320701
83	0xbe0966e6	-0.13418159
84	0xbf041175	-0.5158914
85	0xbcf05ed4	-0.029342093
86	0xbf305bd5	-0.68890125
87	0x3efa2e5d	0.48863497
88	0xbe6df557	-0.23238121
89	0xbe566989	-0.20938696
90	0x3f3bd9aa	0.73379004
91	0xbf2f2dd2	-0.6842929
92	0x3f41efe2	0.7575666
93	0xbf6f7438	-0.9353671
94	0x3f4d387d	0.8016432
95	0xbf817ea9	-1.0116779
96	0x3e16264b	0.14663045
97	0xbcf4478e	-0.029819276
98	0xbead99d7	-0.33906433
99	0xbfa6353b	-1.2984995
100	0x3e0fffd1	0.1406243
101	0xbe2cf6ba	-0.16890994
102	0xbf1f54cc	-0.62238765
103	0xbd957d5e	-0.072993025
104	0xbeb1b906	-0.34711474
105	0x3ebcc473	0.3686863
106	0x3e298a85	0.16556747
107	0xbe32463e	-0.17409608
108	0x3f12eecf	0.57395643
109	0x3dec245f	0.11530375
110	0xbd5095e0	-0.050924182
111	0xbe4f6edd	-0.20257135

generator.fc1.bias f4 [16]
0	0xbe9b8cba	-0.30380803
1	0xbea6208f	-0.32446715
2	0x3e94486d	0.28961506
3	0xbdedab32	-0.116049185
4	0xbd1e13f5	-0.03859325
5	0x3e6c974b	0.23104589
6	0x3deb7d82	0.11498548
7	0x3e3ca375	0.18421729
8	0x3eb735e3	0.357833
9	0x3e93e6fd	0.28887168
10	0x3e53028d	0.20606442
11	0x3ec45af9	0.38350657
12	0x3e979cd9	0.29611853
13	0xbea9bc9f	-0.3315172
14	0x3e82b445	0.2552816
15	0x3cf2f931	0.02965984

generator.fc2.weight f4 [8, 16]
0	0x3c4ea16e	0.01261173
1	0xbd9a91b6	-0.075473234
2	0x3d6d8429	0.057987366
3	0xbe8fa9dd	-0.28059283
4	0x3e823718	0.25432658
5	0x3f6ea27b	0.93216676
6	0xbe8963ad	-0.2683386
7	0x3dedf190	0.1161834
8	0x3ebf80e1	0.37403014
9	0x3f2fc586	0.6866077
10	0xbdad2112	-0.08453573
11	0xbef3b6fb	-0.4760054
12	0xbdf4d652	-0.11954941
13	0x3efd0702	0.4941941
14	0x3e8cd4dd	0.27506152
15	0x3e9616b3	0.29314193
16	0xbf0e461a	-0.55575716
17	0x3da880f7	0.08227723
18	0xbe825db3	-0.25462112
19	0x3e3643d8	0.17799318
20	0xbf404011	-0.7509776
21	0xbe000b45	-0.12504299
22	0xbd50ed39	-0.051007483
23	0xbe28a906	-0.16470727
24	0xbe60e4c2	-0.21962264
25	0x3eb8edcb	0.36118922
26	0xbe3f134e	-0.18659708
27	0xbdc6135b	-0.096716605
28	0x3e97a134	0.29615176
29	0x3e3d85f6	0.18508133
30	0xbe3970f0	-0.18109488
31	0x3f627700	0.8846283
32	0x3e45e3bd	0.19325157
33	0x3df00128	0.117189705
34	0xbeb634e7	-0.35587236
35	0xbe8a4d51	-0.27012113
36	0x3e304376	0.17213234
37	0xbe470550	-0.1943562
38	0xbf27d257	-0.6555533
39	0x3de0ff1d	0.10986159
40	0xbecb1ea4	-0.39671814
41	0xbceb18d8	-0.02869837
42	0xbe9959a8	-0.29951215
43	0xbe347aab	-0.17624919
44	0x3e8409bd	0.2578868
45	0xbe70116a	-0.23444143
46	0xbe094654	-0.13405734
47	0xbe1b6aab	-0.1517741
48	0x3ec92376	0.39284867
49	0x3e94d0bd	0.29065505
50	0xbea7d7d7	-0.3278186
51	0x3f393820	0.72351265
52	0xbda2b491	-0.079445966
53	0x3e8e81ef	0.27833506
54	0x3e55b907	0.20871364
55	0xbe895bea	-0.26827937
56	0x3d233a16	0.039850317
57	0xbe165b97	-0.14683376
58	0x3e95750e	0.29190868
59	0xbea5fa7b	-0.32417664
60	0x3f112d28	0.5670953
61	0x3cefc1d0	0.029267222
62	0xbda081fb	-0.07837292
63	0x3c2c1a92	0.010504382
64	0xbe24cc1e	-0.1609349
65	0x3ed7e35f	0.42165658
66	0x3d737eb5	0.05944701
67	0xbf2617c3	-0.6488001
68	0xbef25658	-0.473315
69	0xbd959c97	-0.07305258
70	0xbc39b0ea	-0.0113336835
71	0xbe1cdc1d	-0.15318342
72	0x3f27da94	0.655679
73	0xbe298d76	-0.1655787
74	0xbe34ffb4	-0.17675668
75	0xbe3cec7a	-0.18449584
76	0xbd35a9d4	-0.044351414
77	0x3cf58ac8	0.029973403
78	0x3e65f16a	0.22455373
79	0x3efb131a	0.4903801
80	0xbef7c4bb	-0.4839228
81	0xbe9dc7a2	-0.3081637
82	0x3e11049f	0.14161919
83	0xbf4a6e2d	-0.79074365
84	0x3e906b67	0.2820694
85	0xbe051551	-0.12996413
86	0xbd165d45	-0.036710043
87	0x3dd9e04f	0.106384866
88	0xbe58e01e	-0.21179244
89	0xbd9b873f	-0.075941555
90	0xbf05e85a	-0.52307665
91	0xbd8b5f91	-0.06805337
92	0x3e57b654	0.21065646
93	0x3d3da412	0.046299048
94	0x3eb052af	0.34438083
95	0xbe8a6604	-0.27030957
96	0x3dff6810	0.1247102
97	0xbdd01143	-0.101595424
98	0xbc1d3909	-0.009596118
99	0x3baaec8a	0.005216186
100	0x3ee3b155	0.4447123
101	0xbc8756e1	-0.01652092
102	0xbefa8cf6	-0.4893567
103	0xbe4a4e93	-0.19756536
104	0xbe5b5924	-0.21420723
105	0xbe1234e9	-0.14277996
106	0x3df15f66	0.11785774
107	0x3f3685a0	0.71297646
108	0xbe0415f6	-0.12899002
109	0x3e27ffd9	0.16406192
110	0xbe280cce	-0.16411135
111	0x3eb33a9e	0.3500566
112	0x3e3630ca	0.17792049
113	0xbe15dcd2	-0.14635018
114	0xbe04a9f8	-0.12955463
115	0x3e6817e1	0.22665359
116	0x3e368143	0.17822747
117	0x3eb66974	0.3562733
118	0xbf27ed3a	-0.65596354
119	0xbf24ae61	-0.6432858
120	0xbec34cb5	-0.3814446
121	0xbf092cc3	-0.53583926
122	0xbf678c44	-0.90448403
123	0xbd77e1e2	-0.060518153
124	0x3e62564b	0.2210323
125	0x3f5def4b	0.8669326
126	0x3f08f93b	0.53505296
127	0xbf2bea3a	-0.67154276

generator.fc2.bias f4 [8]
0	0xbd7701ad	-0.060304333
1	0x3e261e8b	0.16222589
2	0xbe6524b7	-0.22377287
3	0xbe4f3b55	-0.20237477
4	0x3c2b8f0e	0.010471119
5	0x3dcb64e2	0.09931351
6	0x3d5d2445	0.053989667
7	0xbd0fc787	-0.035102393

generator.fc3.weight f4 [16, 8]
0	0x3d5ff8fc	0.05468081
1	0x3e351f55	0.17687733
2	0x3e16f318	0.1474117
3	0xbeae64bb	-0.34061226
4	0x3dc65f78	0.09686178
5	0xbef44f62	-0.47716814
6	0xbdce3fa5	-0.10070733
7	0xbf49f464	-0.78888535
8	0x3f14dca0	0.5814915
9	0xbf6cf9ed	-0.92568856
10	0x3f2abd71	0.66695315
11	0xbe82cd96	-0.25547475
12	0xbe5d47b0	-0.21609378
13	0x3eacd75e	0.33758062
14	0xbe5f9c3e	-0.21836945
15	0x3f363b62	0.7118436
16	0xbdb19aa2	-0.08672072
17	0x3eba3b4e	0.3637337
18	0x3d8c4ca8	0.068505585
19	0x3da4cfb4	0.08047429
20	0x3f0e0a1e	0.5548419
21	0xbf13f055	-0.5778859
22	0x3f298ac1	0.66227347
23	0xbe49adce	-0.19695207
24	0xbe4dcbe7	-0.20097314
25	0x3e957fb3	0.2919899
26	0xbc4c74b4	-0.012478996
27	0xbdc3b782	-0.09556486
28	0xbf136206	-0.57571447
29	0x3e31f452	0.17378357
30	0x3efc31f0	0.4925685
31	0x3f1fa4e1	0.6236096
32	0xbec3c68f	-0.38237426
33	0x3ec5e792	0.38653237
34	0xbddfc71f	-0.10926651
35	0x3d79a712	0.060950346
36	0x3ed28057	0.4111354
37	0xbda6cc23	-0.08144405
38	0xbcb3e5ee	-0.021960225
39	0x3f05a8fe	0.52210987
40	0x3d15cf89	0.036574874
41	0x3eea0d40	0.45713234
42	0x3e0c66a8	0.13711035
43	0x3ee739be	0.4516124
44	0xbf2bb684	-0.6707537
45	0xbca7caed	-0.020482505
46	0xbe83a4d0	-0.2571168
47	0x3ddce797	0.1078636
48	0xbed9fae9	-0.42574242
49	0xbe3e7eb5	-0.18603022
50	0xbf474296	-0.7783598
51	0xbda1dce1	-0.079034574
52	0xbe1353d3	-0.14387445
53	0x3e306342	0.17225364
54	0xbf4a9a3e	-0.79141605
55	0xbf024361	-0.5088406
56	0xbf876cb3	-1.0580047
57	0x3e4acbc9	0.198043
58	0x3fc3fdaa	1.5311787
59	0x3f60df29	0.87840515
60	0x3ec0fdac	0.37693536
61	0x3e8c8689	0.27446392
62	0x3ddec5c5	0.10877565
63	0x3ed5e791	0.41778234
64	0x3e3fdfda	0.18737736
65	0x3e541780	0.2071209
66	0xbab651d1	-0.0013909881
67	0xbed403e2	-0.41409212
68	0x3f0b76ff	0.5447845
69	0xbdc88d27	-0.09792548
70	0xbe8448e6	-0.25836867
71	0x3d43cdcc	0.047803685
72	0xbe806039	-0.25073412
73	0xbf50e520	-0.81599617
74	0x3e42a8fd	0.19009776
75	0x3d90b853	0.07066407
76	0xbebb98a6	-0.366399
77	0xbe8b0e02	-0.27159125
78	0x3e1cc714	0.15310317
79	0x3bc05567	0.0058695558
80	0xbcd86327	-0.026414467
81	0x3c27fb2b	0.010252754
82	0x3e852198	0.26002192
83	0x3ef200fc	0.47266376
84	0x3ef0d2e9	0.47035912
85	0xbe18efee	-0.14935276
86	0xbe21bf67	-0.1579567
87	0xbe22bbaa	-0.158919
88	0x3e0b12ab	0.1358134
89	0x3f202e15	0.62570316
90	0x3eb09eec	0.34496248
91	0x3ee43637	0.44572613
92	0xbe479532	-0.19490507
93	0xbefa026d	-0.48829976
94	0x3e642d6f	0.22282957
95	0xbee45587	-0.44596502
96	0x3f3f5a05	0.74746734
97	0xbeea00a1	-0.45703605
98	0x3f54ec1f	0.8317279
99	0x3eae76bd	0.34074965
100	0x3d755c5f	0.059902545
101	0x3ea17287	0.3153269
102	0x3f0b7159	0.5446983
103	0xbf1b64b3	-0.6070053
104	0xbd6df3f7	-0.05809399
105	0x3d1f23d5	0.03885253
106	0x3f00554c	0.5013015
107	0xbf11503a	-0.5676304
108	0xbbe28179	-0.006912407
109	0xbf297619	-0.6619583
110	0xbcf8e9b5	-0.030384878
111	0xbf290992	-0.6603023
112	0xbe9dbdac	-0.3080877
113	0xbf53088f	-0.82434934
114	0x3eee0a0e	0.46492046
115	0xbf071be9	-0.5277696
116	0xbe6bc812	-0.2302554
117	0x3d4409ab	0.047860783
118	0x3f184418	0.594789
119	0x3eb0d34c	0.34536207
120	0x3f4e1b1a	0.80510104
121	0xbd9b5d28	-0.075861275
122	0xbf5d7d67	-0.86519474
123	0xbf0f7fcc	-0.5605438
124	0xbf43bead	-0.76462823
125	0xbe6a9367	-0.22907792
126	0x3e83b888	0.25726724
127	0xbe63528e	-0.22199461

generator.fc3.bias f4 [16]
0	0x3d9544be	0.07288502
1	0xbe2906a5	-0.16506441
2	0xbe9d4892	-0.3071943
3	0x3d31312b	0.04325978
4	0x3d0e7bdb	0.034786087
5	0xbdfc9cd8	-0.12334603
6	0x3ddcfa2e	0.107899055
7	0x3b2b6b86	0.0026156618
8	0xbc9d4c21	-0.01920134
9	0xbdfd93ee	-0.12381731
10	0x3ddb5e3e	0.10711335
11	0x3e62c957	0.22147118
12	0x3d9df2be	0.07712315
13	0x3de4976e	0.111616954
14	0xbe831976	-0.25605363
15	0xbeb5b68c	-0.35490835

generator.fc4.weight f4 [7, 16]
0	0xbd2c1ece	-0.042021565
1	0xbe9b0f3b	-0.30285057
2	0xbe8e8e68	-0.27843022
3	0x3ee4942f	0.44644305
4	0x3f9a19f7	1.2039174
5	0xbeb4bf09	-0.35301998
6	0x3d6cb379	0.057788346
7	0xbdfa4e92	-0.12222017
8	0xbdecc6e7	-0.11561375
9	0xbe7a3628	-0.24434721
10	0x3ee01108	0.43762994
11	0x3db487ea	0.08814986
12	0x3eaa2bca	0.33236533
13	0x3db37b0d	0.087637044
14	0xbf2297b1	-0.6351271
15	0x3d56fbb8	0.05248615
16	0x3d99931b	0.07498761
17	0xbcac476b	-0.021030148
18	0x3e67a9fe	0.2262344
19	0xbe7bb872	-0.24582079
20	0x3f37b1fd	0.71755964
21	0x3d31baaa	0.043390907
22	0xbda4462c	-0.08021197
23	0xbdb50400	-0.088386536
24	0xbd5590ee	-0.05214017
25	0x3e1f49cd	0.15555497
26	0x3ecffcd8	0.40622592
27	0xbd86acc5	-0.06575922
28	0xbd38e703	-0.045142185
29	0x3ee9b00d	0.4564213
30	0xbf4f5f5e	-0.81004894
31	0x39c93c74	0.0003838275
32	0x3e7b6f2f	0.24554132
33	0x3e1eb5b2	0.15498999
34	0x3dfb824a	0.1228071
35	0xbe36c6ac	-0.17849225
36	0x3c5d1896	0.013494631
37	0x3e984868	0.29742742
38	0x3ec20208	0.37892175
39	0x3f469001	0.7756348
40	0xbeeaf98c	-0.45893514
41	0x3eb791d5	0.3585345
42	0xbe1f6c69	-0.15568699
43	0x3ed600d1	0.41797498
44	0xbded6117	-0.11590784
45	0x3ebaa47f	0.36453626
46	0xbec1824d	-0.37794724
47	0x3ee44276	0.44581956
48	0xbe428653	-0.18996553
49	0x3ecc8edf	0.39952752
50	0xbdeef9b5	-0.116687216
51	0xbeb95fe7	-0.3620598
52	0x3ea91635	0.33024755
53	0xbe36464e	-0.17800257
54	0x3f03c13a	0.51466715
55	0x3e6a6e45	0.22893627
56	0x3e41ae7a	0.18914214
57	0xbb9bcfe0	-0.0047550052
58	0xbe48e730	-0.19619441
59	0x3f41ee16	0.75753915
60	0x3d42af56	0.047530495
61	0xbf01feb9	-0.507793
62	0xbd64ecc6	-0.055889867
63	0x3f2c3323	0.6726553
64	0x3e314528	0.17311537
65	0xbdbe9cc1	-0.09307242
66	0x3e21eaa3	0.15812163
67	0x3e17773a	0.14791575
68	0x3d4f807e	0.05065965
69	0xbdc4e8e5	-0.096147336
70	0xbdb76e36	-0.08956568
71	0xbe0d6c31	-0.13810803
72	0x3d609100	0.054825783
73	0xbe1e9af1	-0.15488793
74	0xbcdee871	-0.027210446
75	0x3d9db3b2	0.0770029
76	0x3f6a28e6	0.91468656
77	0xbeca6f56	-0.39538068
78	0x3e2a91c6	0.1665717
79	0xbdbc4b9b	-0.09194108
80	0xbb82e0d2	-0.003994086
81	0x3d1b57c5	0.0379255
82	0xbe710074	-0.23535329
83	0x3f0b90b7	0.5451769
84	0xbe99a34b	-0.30007395
85	0xbea4a4c0	-0.32156944
86	0x3e85473f	0.2603092
87	0x3e22cc56	0.1589826
88	0xbee7d277	-0.4527776
89	0x3ea8d5d3	0.32975635
90	0xbef182b1	-0.47170022
91	0x3eede1d4	0.46461356
92	0xbcd34f94	-0.025794782
93	0xbdbe9754	-0.09306207
94	0x3eb0be93	0.34520397
95	0xbd867806	-0.065658614
96	0xba434374	-0.0007448711
97	0x3f275a0e	0.6537179
98	0x3d33f539	0.043935034
99	0x3ec8aaa2	0.39192683
100	0x3d4fb0dd	0.05070578
101	0x3d464438	0.048404902
102	0xbc84dcbf	-0.016218541
103	0xbef8fd67	-0.4863083
104	0xbeddd554	-0.4332682
105	0x3e05db74	0.13071996
106	0x3cdcde3e	0.026961442
107	0xbd0c15eb	-0.03420059
108	0xbec0a695	-0.37627092
109	0x3f285434	0.65753484
110	0xbf077884	-0.5291827
111	0xbf133a80	-0.5751114

generator.fc4.bias f4 [7]
0	0x3e19bc45	0.15013225
1	0xbdfc781a	-0.12327595
2	0xbe399115	-0.1812175
3	0xbe47b57b	-0.19502823
4	0xbdde879a	-0.10865708
5	0x3d4be0a7	0.049774792
6	0xbce706a3	-0.028201407

generator.layer_norm_hidden_0.weight f4 [16]
0	0x3f7e3541	0.9930001
1	0x3f7e3541	0.9930001
2	0x3f7e3541	0.9930001
3	0x3f7e3541	0.9930001
4	0x3f7e3541	0.9930001
5	0x3f7e3541	0.9930001
6	0x3f80a3d9	1.0050002
7	0x3f80e563	1.0070003
8	0x3f7eb853	0.99500006
9	0x3f7e3541	0.9930001
10	0x3f80a3d9	1.0050002
11	0x3f80e563	1.0070003
12	0x3f80e563	1.0070003
13	0x3f80e563	1.0070003
14	0x3f7fbe77	0.999
15	0x3f7e3541	0.9930001

generator.layer_norm_hidden_0.bias f4 [16]
0	0x3be56043	0.0070000007
1	0x3be56043	0.0070000007
2	0xbbe56043	-0.0070000007
3	0xbbe56043	-0.0070000007
4	0xbbe56043	-0.0070000007
5	0xbbe56043	-0.0070000007
6	0x3ba3d70b	0.0050000004
7	0x3be56043	0.0070000007
8	0xbbe56043	-0.0070000007
9	0x3be56043	0.0070000007
10	0x3a83126f	0.001
11	0x3b449ba6	0.003
12	0xbbe56043	-0.0070000007
13	0xbbe56043	-0.0070000007
14	0xbbe56043	-0.0070000007
15	0x3be56043	0.0070000007

generator.layer_norm_hidden_1.weight f4 [8]
0	0x3f80a3d9	1.0050002
1	0x3f80e563	1.0070003
2	0x3f7e3541	0.9930001
3	0x3f7e3541	0.9930001
4	0x3f80624f	1.0030001
5	0x3f80e563	1.0070003
6	0x3f80e563	1.0070003
7	0x3f7e3541	0.9930001

generator.layer_norm_hidden_1.bias f4 [8]
0	0xbbe56043	-0.0070000007
1	0xbbe56043	-0.0070000007
2	0x3be56043	0.0070000007
3	0x3be56043	0.0070000007
4	0xbbe56043	-0.0070000007
5	0x3b449ba6	0.003
6	0xbbe56043	-0.0070000007
7	0xbbe56043	-0.0070000007

discriminator.fc1.weight f4 [8, 7]
0	0x3f586dcb	0.8454253
1	0x3d4ab953	0.049493145
2	0xbe6fe6c0	-0.23427868
3	0x3eb0a474	0.34500468
4	0x3f820fbb	1.016105
5	0xbf8d69d2	-1.1047919
6	0xbec12b59	-0.37728384
7	0x3f2897cd	0.6585663
8	0xbcb1fc5f	-0.021726785
9	0x3e17b29f	0.14814232
10	0x3e98c159	0.29835013
11	0xbe786db5	-0.242606
12	0x3db10e3e	0.086452946
13	0xbebc5b30	-0.3678832
14	0x3f0371d0	0.5134554
15	0xbe937b42	-0.28804976
16	0x3ee5ae4a	0.44859535
17	0xbe639515	-0.22224839
18	0x3f88a059	1.0673934
19	0xbefa68aa	-0.48907977
20	0x3f21f9fa	0.6327206
21	0xbf1c976c	-0.6116855
22	0x3e14c1e1	0.14527084
23	0x3f77e1c7	0.96828884
24	0x3e3e08ca	0.1855804
25	0x3e3cf0f6	0.18451294
26	0x3e665c53	0.22496156
27	0xbee5090f	-0.44733474
28	0x3eea3bfc	0.4574889
29	0x3ef86f26	0.485223
30	0xbf3294a0	-0.69758034
31	0x3e0c759b	0.13716738
32	0x3e2ac92b	0.16678302
33	0xbe4fe551	-0.20302321
34	0x3edaed92	0.42759377
35	0xbf775de4	-0.9662764
36	0x3de2b888	0.11070353
37	0xbdd024aa	-0.10163243
38	0xbec2a8d2	-0.38019425
39	0xbed2b56b	-0.41154036
40	0xbf34b386	-0.7058643
41	0xbe0f9a35	-0.14023669
42	0x3e06f2a0	0.13178492
43	0xbf64404c	-0.8916061
44	0x3e886dc6	0.2664625
45	0xbe163787	-0.1466962
46	0xbfb29e84	-1.3954625
47	0xbfb04b0b	-1.3772901
48	0x3f6d9774	0.92809224
49	0xbe32976b	-0.17440574
50	0x3e1e4652	0.15456513
51	0xbf87bd4b	-1.0604643
52	0xbf2db201	-0.6784974
53	0xbde10b4d	-0.109884836
54	0x3dd4452f	0.10364758
55	0x3e9f6f85	0.3113977

discriminator.fc1.bias f4 [8]
0	0x3d35d509	0.04439262
1	0x3dd3076b	0.10304149
2	0xbeb21757	-0.34783432
3	0x3e10038f	0.14063857
4	0x3e3192a2	0.17341092
5	0xbd03aeeb	-0.032149237
6	0xbe8ad6c6	-0.27116984
7	0xbe27c5c5	-0.16384037

discriminator.fc2.weight f4 [1, 8]
0	0xbe9b9bbd	-0.30392256
1	0x3e826d58	0.25474048
2	0xbf618dbb	-0.8810689
3	0x3e9c42b7	0.3051965
4	0xbf58aace	-0.8463563
5	0x3f1e8274	0.61917806
6	0x3d053861	0.03252447
7	0xbefef6b4	-0.49797595

discriminator.layer_norm_hidden_0.weight f4 [8]
0	0x3f80dd01	1.0067445
1	0x3f7e35f4	0.99301076
2	0x3f7e430a	0.99321043
3	0x3f7e3e90	0.9931421
4	0x3f7e3e13	0.9931347
5	0x3f7e4a98	0.9933257
6	0x3f7e40e4	0.99317765
7	0x3f7e3f31	0.9931517

discriminator.layer_norm_hidden_0.bias f4 [8]
0	0xbbdb2172	-0.0066873366
1	0x3bda8a28	0.0066693015
2	0xbbdac46c	-0.0066762473
3	0x3bda980f	0.006670959
4	0xbbdac380	-0.0066761374
5	0x3bdabaef	0.0066751163
6	0x3bd89dbe	0.006610601
7	0xbbdab27a	-0.006674108

exp_avg f4 [16, 7]
0	0x3a09f19b	0.0005262137
1	0x3a0a35d5	0.0005272304
2	0x2006515c	1.1377161e-19
3	0x3a0a3a07	0.0005272929
4	0x3a0a37be	0.00052725885
5	0x3a0a3300	0.0005271882
6	0x3a0a1b74	0.0005268373
7	0x3b8567bd	0.0040712045
8	0x3b85459f	0.0040671374
9	0x211b3516	5.25863e-19
10	0x3b854523	0.0040670796
11	0x3b854299	0.004066777
12	0x3b8543fa	0.0040669413
13	0x3b85681e	0.0040712496
14	0x399b5c0f	0.00029632493
15	0x399b0e2f	0.0002957447
16	0xa0d263d8	-3.5641455e-19
17	0x399b15e4	0.00029580214
18	0x399b32be	0.0002960171
19	0x399b21b6	0.0002958902
20	0x399b7096	0.00029647787
21	0xbc3266ca	-0.010888765
22	0xbc325050	-0.010883406
23	0xa13d6b2f	-6.4177547e-19
24	0xbc32509d	-0.0108834775
25	0xbc324ecb	-0.0108830435
26	0xbc324c65	-0.010882472
27	0xbc3262bf	-0.010887801
28	0x3ba2400b	0.004951482
29	0x3ba22359	0.0049480614
30	0xa12fa8e9	-5.9515857e-19
31	0x3ba2269e	0.004948451
32	0x3ba229ed	0.0049488456
33	0x3ba226eb	0.004948487
34	0x3ba263a0	0.004955724
35	0x3b5e094e	0.0033880058
36	0x3b5e23b3	0.003389579
37	0xa1e7b9d8	-1.5702361e-18
38	0x3b5e28c3	0.0033898808
39	0x3b5e31d7	0.0033904219
40	0x3b5e2f4b	0.00339027
41	0x3b5e332a	0.0033905008
42	0x3b30866e	0.0026935595
43	0x3b304bb6	0.0026900596
44	0x201b58ab	1.3158348e-19
45	0x3b304a07	0.0026899592
46	0x3b30500e	0.0026903185
47	0x3b3054a5	0.002690592
48	0x3b30d3a0	0.0026981607
49	0x3c465337	0.012104801
50	0x3c464254	0.012100775
51	0x21dac13d	1.4823404e-18
52	0x3c4643f5	0.012101163
53	0x3c464339	0.012100988
54	0x3c464195	0.012100597
55	0x3c466769	0.012109616
56	0x3b90322f	0.0044005136
57	0x3b90111f	0.0043965722
58	0xa1cd3394	-1.3904993e-18
59	0x3b901450	0.0043969527
60	0x3b9010a7	0.0043965164
61	0x3b900bec	0.0043959524
62	0x3b8ff01e	0.004392638
63	0x3ae68917	0.0017588463
64	0x3ae63283	0.0017562661
65	0x9fa305f2	-6.904302e-20
66	0x3ae635d3	0.0017563648
67	0x3ae63931	0.0017564652
68	0x3ae64315	0.00175676
69	0x3ae64e77	0.0017570992
70	0x3a973aa9	0.0011537868
71	0x3a969cfe	0.0011490879
72	0x21b8fa06	1.2534506e-18
73	0x3a96aa3f	0.0011494829
74	0x3a969588	0.0011488656
75	0x3a96894e	0.0011485012
76	0x3a966fd5	0.001147742
77	0xbbe0eb1f	-0.006863966
78	0xbbe0de94	-0.006862471
79	0x21d651ec	1.4522889e-18
80	0xbbe0e133	-0.0068627833
81	0xbbe0e598	-0.006863307
82	0xbbe0e396	-0.006863068
83	0xbbe1096a	-0.0068675773
84	0x3adaeca1	0.0016702601
85	0x3adb0d05	0.0016712254
86	0x21ab69c5	1.1615408e-18
87	0x3adb01ee	0.0016708949
88	0x3adb0c32	0.0016712009
89	0x3adb0f20	0.0016712882
90	0x3adc4032	0.00168038
91	0xbb740f41	-0.0037240537
92	0xbb73e6ed	-0.00372165
93	0xa1257560	-5.605952e-19
94	0xbb73ea95	-0.003721868
95	0xbb73e810	-0.0037217177
96	0xbb73e590	-0.0037215687
97	0xbb73ea98	-0.0037218686
98	0xbb75f83e	-0.0037531997
99	0xbb75a4eb	-0.0037482332
100	0xa19a7d3f	-1.0468598e-18
101	0xbb75a86e	-0.0037484425
102	0xbb75a0d4	-0.0037479894
103	0xbb75a03e	-0.0037479545
104	0xbb75d21b	-0.0037509266
105	0xbbdf7a4d	-0.0068199993
106	0xbbdf816f	-0.0068208496
107	0x21c1d0b5	1.3133433e-18
108	0xbbdf8625	-0.006821411
109	0xbbdf8cc6	-0.0068222014
110	0xbbdf8996	-0.0068218214
111	0xbbdfcdb2	-0.0068299407

exp_avg f4 [16]
0	0xba86515d	-0.0010247637
1	0xbb9b3516	-0.004736553
2	0x3b5263d8	0.0032102969
3	0x3bbd6b2f	0.0057805995
4	0x3bafa8e8	0.0053607114
5	0x3c67b9d8	0.01414343
6	0xba9b58a8	-0.0011851983
7	0xbc5ac13d	-0.013351736
8	0x3c4d3393	0.012524503
9	0x3a2305f1	0.0006218842
10	0xbc38fa06	-0.011290079
11	0xbc5651ea	-0.013081053
12	0xbc2b69c6	-0.01046223
13	0x3ba57561	0.005049393
14	0x3c1a7d3f	0.009429275
15	0xbc41d0b5	-0.011829545

exp_avg f4 [8, 16]
0	0xbbe9ed91	-0.007138916
1	0x3912d9d8	0.00014004798
2	0x3b6b6768	0.003591979
3	0xba7e0ed5	-0.0009691541
4	0xbbbec495	-0.0058217742
5	0x3b9a58b6	0.004710282
6	0xbb33ff7b	-0.002746551
7	0x3ad5232e	0.0016261095
8	0xb9503e31	-0.00019859594
9	0x3ba41f2a	0.005008598
10	0xbb4ead37	-0.003153635
11	0x3b8f83b4	0.004379714
12	0xbaca9c8e	-0.0015458034
13	0xbc1151bf	-0.008869587
14	0x3c586826	0.013208425
15	0xbb174169	-0.002307976
16	0xbb4d100f	-0.003129009
17	0x3c82c2cf	0.015962033
18	0x3c44326f	0.011974915
19	0x3c373bfe	0.011183737
20	0xbb334700	-0.0027355552
21	0xbc88a25e	-0.016678985
22	0xbbc4213a	-0.005985406
23	0x3c362249	0.011116573
24	0xbb70f16e	-0.0036764997
25	0xbc84c0e3	-0.016205257
26	0xbb839f5a	-0.004016799
27	0xbc6ac418	-0.014328979
28	0xbba631f6	-0.005071874
29	0x3a040feb	0.00050377724
30	0x3cea1d04	0.028578289
31	0xbbf61ca7	-0.00751074
32	0x3c2d71f1	0.010586248
33	0xbc53abf6	-0.012919417
34	0xbc62a959	-0.013834321
35	0xbc03634b	-0.008019279
36	0x3c0d19ae	0.00861208
37	0x3c105bf0	0.008810982
38	0x3c005206	0.007832056
39	0xbc3204b7	-0.010865382
40	0x3b303c63	0.0026891462
41	0x3c02f1df	0.007992237
42	0x3bd2500c	0.0064182337
43	0x3be0a335	0.0068553933
44	0x3bb1a7ef	0.0054216306
45	0x3c1559a5	0.009115611
46	0xbd195835	-0.037437636
47	0x3c10cc81	0.00883782
48	0x3b286c2a	0.0025699236
49	0xbb81ca5e	-0.0039608916
50	0xbb992ce6	-0.0046745418
51	0xbb2d0af2	-0.002640423
52	0x3b0a1a12	0.0021072668
53	0x3b890013	0.004180917
54	0x3b19f468	0.0023491625
55	0xbb77c2b4	-0.003780526
56	0x39f3c9b1	0.00046498844
57	0x3b7a6f9e	0.0038213502
58	0x3ac96509	0.0015365194
59	0x3b4c9495	0.0031216491
60	0x3aadae15	0.0013250733
61	0x3af27083	0.0018496666
62	0xbc36af9c	-0.011150267
63	0x3b3df6ac	0.002898614
64	0xb98804d3	-0.00025943536
65	0xbba385d1	-0.0049903174
66	0xba8b1977	-0.0010612448
67	0xbb57ec33	-0.0032947182
68	0xb8c79585	-9.5169096e-05
69	0x3b3cf4ae	0.0028832364
70	0x3a5c25e2	0.0008397979
71	0xbacdd9a9	-0.0015705127
72	0x3b11464c	0.0022167144
73	0x3b477262	0.0030433168
74	0x3aaff8b3	0.0013425559
75	0x3b621a0a	0.0034500384
76	0x3b0740ea	0.0020638057
77	0xba85e3bf	-0.0010214968
78	0xbb8f4bd7	-0.0043730545
79	0x3a5d519c	0.00084426417
80	0x3b9208f6	0.0044566346
81	0xbc4672a9	-0.012112298
82	0xbc4ed097	-0.012622974
83	0xbc0cd61e	-0.008595971
84	0x3b7755ec	0.0037740422
85	0x3c700e75	0.014651884
86	0x3bc45379	0.005991396
87	0xbc30c679	-0.010789507
88	0x3ad8bae2	0.0016535188
89	0x3c63bd7e	0.013900159
90	0x3b5f38be	0.003406092
91	0x3c3e50d2	0.011615949
92	0x3b6a4fe4	0.0035753185
93	0x3ad3412a	0.0016117443
94	0xbce68a5c	-0.028142147
95	0x3bfa3e14	0.007636795
96	0xb99526a4	-0.00028448284
97	0x3bea7c34	0.0071559194
98	0x3bb5909b	0.00554092
99	0x3bb05017	0.005380641
100	0xb932d40c	-0.00017054396
101	0xbc1f5962	-0.0097259
102	0xbb166db1	-0.0022953565
103	0x3bac33b0	0.005255185
104	0xba572596	-0.00082072
105	0xbc193713	-0.00935151
106	0xba4a6b2f	-0.000772166
107	0xbc009db3	-0.007850098
108	0xbabc3ce2	-0.0014361406
109	0x3b11d14f	0.0022250002
110	0x3c2f9215	0.010715981
111	0xbb682e39	-0.0035427941
112	0xbc0f725d	-0.008755294
113	0x3c3cf827	0.0115337735
114	0x3c5ad3dd	0.013356176
115	0x3bf6211a	0.00751127
116	0xbbe7cd44	-0.00707403
117	0xbc28f276	-0.010311713
118	0xbbe794d3	-0.007067302
119	0x3c2e59a6	0.010641491
120	0xbadcab1d	-0.0016835664
121	0xbc199e80	-0.009376168
122	0xbba79a93	-0.005114862
123	0xbbff5d9f	-0.007793143
124	0xbb8bdd15	-0.0042682984
125	0xbbe2fb8f	-0.006926961
126	0x3d09d5b2	0.03365106
127	0xbc0987e0	-0.0083942115

exp_avg f4 [8]
0	0x3c5b9af1	0.01340364
1	0x3b111638	0.0022138488
2	0xbc820bb7	-0.015874727
3	0xbb524b21	-0.0032088237
4	0xb7cd06e0	-2.4441106e-05
5	0xbb7fe69c	-0.0039047366
6	0xbb2803f4	-0.0025637122
7	0x3c43fa47	0.011961526

exp_avg f4 [16, 8]
0	0xbb4ae2d6	-0.0030957959
1	0xbb1d30f8	-0.0023985486
2	0x3accc8b2	0.0015623777
3	0x3ae0e854	0.0017159083
4	0x3a5157b2	0.0007985785
5	0x3761384f	1.3424155e-05
6	0xba98d20f	-0.0011659282
7	0x3b275e6f	0.0025538465
8	0xb9fdcbe3	-0.00048407828
9	0xb8a12e74	-7.685731e-05
10	0x3ade6b6f	0.0016969274
11	0x3b09d493	0.0021031245
12	0xb93d4a0f	-0.00018052034
13	0xba00b663	-0.000490999
14	0x3a6111ad	0.0008585703
15	0xbb5f470c	-0.0034069447
16	0xb977ae4d	-0.00023620688
17	0xb9d41071	-0.0004044804
18	0x39b04e42	0.00033627643
19	0x39b476fc	0.00034420926
20	0x372d114a	1.0315629e-05
21	0xb95d6251	-0.00021112828
22	0x3798d3f6	1.8218514e-05
23	0x3911e371	0.00013913006
24	0xbcda34d6	-0.026636522
25	0xbca85565	-0.020548532
26	0xbbd49435	-0.006487394
27	0xbc343726	-0.010999477
28	0x3ca1955f	0.019724546
29	0x3ce550ae	0.027992573
30	0xbcc579e6	-0.024105977
31	0x3d270e81	0.040785316
32	0xbca81448	-0.020517483
33	0xbc8f7ae1	-0.017514648
34	0xbc83552b	-0.016031822
35	0xbcbe3d56	-0.023222607
36	0x3cbc504a	0.022987504
37	0x3d1e6cb5	0.03867789
38	0xbcd4ba14	-0.025967635
39	0x3d291e0d	0.041288424
40	0x3bb54859	0.005532306
41	0x3b798304	0.0038072476
42	0x3accc003	0.0015621189
43	0x3b222fca	0.0024747723
44	0xbb8c57ce	-0.004282928
45	0xbbd3fa49	-0.0064690453
46	0x3ba7fc52	0.0051265145
47	0xbbfc6e58	-0.0077035837
48	0x3bb9096d	0.0056468756
49	0x3ba8b917	0.0051490176
50	0x3b8c8021	0.004287735
51	0x3bd2ddfb	0.0064351535
52	0xbbe53703	-0.0069950833
53	0xbc454ad4	-0.012041766
54	0x3be98008	0.007125858
55	0xbc1c3a44	-0.009535376
56	0x3cc08be0	0.023504198
57	0x3ca18ffb	0.019721976
58	0x3c70675b	0.014673079
59	0x3cafe749	0.02147259
60	0xbcba48fe	-0.022739884
61	0xbd13a980	-0.03605032
62	0x3ce0c8e9	0.027439551
63	0xbd434794	-0.047675684
64	0x3c574819	0.013139748
65	0x3c0fb186	0.008770352
66	0xbb119834	-0.0022215964
67	0xbb034d3b	-0.0020035047
68	0xbbbb21cb	-0.0057108155
69	0xbbaeabe5	-0.00533055
70	0x3c054fc6	0.008136695
71	0xbc70e250	-0.014702395
72	0xb925cc89	-0.00015811822
73	0x38d10ae9	9.967929e-05
74	0x3ab0de3d	0.0013493967
75	0x3aebf977	0.0018003423
76	0xba6283e1	-0.00086408673
77	0xbb0089e0	-0.001961343
78	0x3a4d34c7	0.0007827994
79	0xba882945	-0.0010388276
80	0xbab1bd26	-0.0013560399
81	0xbaa1f150	-0.0012355242
82	0xbadeedd0	-0.001700813
83	0xbb1e0a6a	-0.0024115094
84	0x3b094c78	0.002095012
85	0x3b79a32d	0.0038091645
86	0xbb0d0e93	-0.002152358
87	0x3b400fbb	0.002930625
88	0xbba522cf	-0.00503955
89	0xbb571218	-0.0032817181
90	0xb9fca3b7	-0.00048187163
91	0xba78135f	-0.0009463336
92	0x3b4cb26f	0.0031234284
93	0x3b8ac1f8	0.0042345487
94	0xbb833b07	-0.0040048393
95	0x3bd08564	0.0063635577
96	0x39f6d206	0.00047077256
97	0xb9a27ab5	-0.00030990472
98	0xbbcfa9f4	-0.0063373987
99	0xbc0b06d9	-0.008485519
100	0x3b8a7ae8	0.0042260773
101	0x3c1b05f9	0.009461873
102	0xbb80b137	-0.0039273757
103	0x3b9f62fa	0.004864094
104	0xbc622fae	-0.013805313
105	0xbc18ba28	-0.009321727
106	0x3bd61e33	0.0065343617
107	0x3bf06073	0.0073357164
108	0x3b8e719d	0.00434704
109	0x3b003650	0.0019563623
110	0xbbbabcab	-0.0056987605
111	0x3c0d14af	0.008610888
112	0x3c5d67f2	0.013513552
113	0x3c321342	0.010868849
114	0x3c075a5c	0.008261289
115	0x3c44bf13	0.012008446
116	0xbc4ddb62	-0.012564512
117	0xbca0dffe	-0.019638058
118	0x3c80177a	0.015636194
119	0xbce482fd	-0.027894491
120	0x3c20f070	0.00982295
121	0x3be440e9	0.0069657457
122	0xbac72fb9	-0.0015196718
123	0xba86d89a	-0.0010287941
124	0xbbade83e	-0.0053072264
125	0xbbcb3080	-0.00620085
126	0x3bcc6151	0.006237187
127	0xbc1212a1	-0.008915574

exp_avg f4 [16]
0	0xbb0427da	-0.0020165355
1	0xbb321a2d	-0.0027176247
2	0xb9d10918	-0.00039870362
3	0x3c614591	0.013749496
4	0x3ced9d3e	0.029005643
5	0xbb43d27d	-0.00298801
6	0xbbfeae72	-0.0077722603
7	0xbcdeacfb	-0.027182093
8	0x3b174629	0.002308259
9	0xbb10e0b7	-0.0022106597
10	0x3b43309c	0.0029783612
11	0x3a933bc7	0.0011233025
12	0x3c286c15	0.010279675
13	0xbc158127	-0.009125031
14	0xbc7a505f	-0.015277951
15	0x3abd3e7c	0.0014438177

exp_avg f4 [7, 16]
0	0xbc0b65db	-0.008508171
1	0x3cb06a61	0.0215351
2	0xbc365566	-0.011128759
3	0x3b9a2433	0.0047040223
4	0x3c9150f8	0.017738804
5	0xbc00f09a	-0.007869864
6	0x3c8d3b60	0.017240226
7	0x3aab9f54	0.0013093748
8	0x3c184e52	0.009296017
9	0xbbb2a056	-0.0054512424
10	0xbb9bf0bd	-0.004758923
11	0xbc529cf5	-0.012854804
12	0xbc29d1be	-0.010364948
13	0xbc16eec6	-0.009212201
14	0x3baf320e	0.005346543
15	0xbbeb2b69	-0.0071768058
16	0xbc29d7c6	-0.010366386
17	0x3ca28727	0.019839836
18	0xbc0ccb3a	-0.008593375
19	0x3ba39d9a	0.004993153
20	0x3c868017	0.0164185
21	0xbba11de7	-0.0049168947
22	0x3c64694f	0.013941123
23	0x3bc2382c	0.0059271064
24	0x3be9cc26	0.007134932
25	0xbad78792	-0.0016443601
26	0xbadb8716	-0.0016748633
27	0xbc622282	-0.013802173
28	0xbc230f5b	-0.0099523915
29	0xbc1bdcfd	-0.009513137
30	0x3be3ad4e	0.0069481498
31	0xbc7315ed	-0.0148367705
32	0x3c751c73	0.014960396
33	0xbd031e26	-0.032011174
34	0x3c7e75f7	0.015531055
35	0xbbd6f02d	-0.006559393
36	0xbcd23591	-0.025660308
37	0x3c2b7183	0.010464075
38	0xbcde07c8	-0.02710332
39	0xbba8b6ff	-0.005148768
40	0xbc5d4dfc	-0.013507362
41	0x3bb1a852	0.0054216767
42	0x3b9a09ba	0.0047008665
43	0x3caf4e74	0.021399714
44	0x3c7083a3	0.014679822
45	0x3c73e498	0.014886044
46	0xbc1e2a1e	-0.009653596
47	0x3c91a669	0.017779546
48	0xbb80ab6d	-0.0039266855
49	0x3c55ad25	0.013041769
50	0xbbf4c5a9	-0.007469852
51	0x3b1d5268	0.0024005417
52	0x3c2cfc96	0.010558268
53	0xbbbbfa94	-0.0057366583
54	0x3c364d2d	0.011126799
55	0xbaab4f8a	-0.0013069969
56	0x3bcc549f	0.0062356736
57	0xbb9ff746	-0.004881772
58	0xbb88a073	-0.0041695177
59	0xbbd68c15	-0.006547461
60	0xbbcc8697	-0.0062416303
61	0xbba7d1c0	-0.0051214397
62	0x3b0e8942	0.0021749293
63	0xb98782f4	-0.00025846774
64	0xbc52eb64	-0.012873504
65	0x3cf9849f	0.030458746
66	0xbc75051c	-0.014954831
67	0x3be08c62	0.0068526724
68	0x3cca1194	0.024666585
69	0xbc2b429d	-0.010452894
70	0x3cbaa0a2	0.022781674
71	0x3b48c14a	0.0030632787
72	0x3c4765d4	0.012170274
73	0xbbd8189e	-0.0065947315
74	0xbbc7887b	-0.006089268
75	0xbc964a06	-0.018345844
76	0xbc654555	-0.013993581
77	0xbc5a99b2	-0.013342308
78	0x3c0c50c1	0.008564175
79	0xbc468f7c	-0.01211917
80	0xbc6a6d70	-0.0143083185
81	0x3cb9b715	0.022670308
82	0xbc082b3e	-0.008311091
83	0x3bddf649	0.0067737442
84	0x3c99f6cf	0.018794445
85	0xbb666882	-0.0035157506
86	0x3c5c60e7	0.013450838
87	0x3c35a269	0.011086085
88	0x3bd32a9c	0.0064442884
89	0x3a9b1523	0.0011831861
90	0x39cb90db	0.00038827103
91	0xbc8e3ab0	-0.017361969
92	0xbc3eb1c9	-0.011639067
93	0xbc41d06b	-0.011829476
94	0x3c2699f7	0.010168544
95	0xbcc51783	-0.024059063
96	0xbc98fffc	-0.01867675
97	0x3cf1cfc7	0.029518021
98	0xbc3d9311	-0.011570708
99	0x3c018522	0.0079052765
100	0x3cc6e42d	0.024278725
101	0xbbad594c	-0.005290186
102	0x3cb3fc48	0.021970883
103	0x3c654307	0.013993031
104	0x3c248899	0.010042333
105	0x3aad0419	0.0013200074
106	0x3a6381dc	0.00086787133
107	0xbcc2c72a	-0.02377661
108	0xbc73a203	-0.01487017
109	0xbc81d9e7	-0.015850974
110	0x3c527fd7	0.012847862
111	0xbd0644e0	-0.032780528

exp_avg f4 [7]
0	0x3c5157a8	0.012777247
1	0x3bd22ce2	0.006414042
2	0xbc76d9e2	-0.015066596
3	0x3c26c71c	0.010179307
4	0x3c86da92	0.016461644
5	0x3b25a0aa	0.0025272765
6	0x3b78bea5	0.003795543

exp_avg f4 [16]
0	0x3b59cd28	0.0033233855
1	0x3c1a3809	0.009412774
2	0x3b68a991	0.003550146
3	0x3cb953b9	0.02262293
4	0x3d11df84	0.03561355
5	0x3c198caa	0.009371916
6	0xba83fb87	-0.0010069468
7	0xbca857ec	-0.020549737
8	0x3aa63079	0.0012679241
9	0x3bd890fc	0.0066090804
10	0xb9e5dc6d	-0.00043842514
11	0xbc5fe98a	-0.01366652
12	0xbc2ed084	-0.010669831
13	0xbc4f164c	-0.012639593
14	0x3b5e9c73	0.0033967763
15	0x3cc237a8	0.02370818

exp_avg f4 [16]
0	0xbba2dd6f	-0.0049702446
1	0xbb9bb3f5	-0.004751677
2	0x3aeb625d	0.0017958392
3	0x3c57c13a	0.013168627
4	0x3cb984a3	0.022646254
5	0x3bca1aef	0.0061677615
6	0xbac148ea	-0.0014746462
7	0xbcb5a540	-0.022173524
8	0x3c50e2d9	0.012749397
9	0xbb7f12f9	-0.003892122
10	0xb946a19d	-0.00018942957
11	0xba729c16	-0.0009254826
12	0x3c6f9e44	0.014625136
13	0x3c1592c6	0.009129232
14	0x3ba30e9a	0.004976106
15	0xbb49d74d	-0.0030798495

exp_avg f4 [8]
0	0xbbe0fcb9	-0.0068660644
1	0xbc940b29	-0.018071728
2	0x3cd42bc4	0.025899775
3	0x3ba4d04c	0.0050297137
4	0xbaa62e78	-0.0012678644
5	0xbc11b0a9	-0.008892217
6	0xbc08f6d4	-0.00835963
7	0x3bedbe24	0.0072553325

exp_avg f4 [8]
0	0x3d004745	0.031317968
1	0x3cb4d46d	0.022073949
2	0xbd3abc07	-0.045589473
3	0xbbd72f25	-0.0065668994
4	0x3b76581e	0.0037589143
5	0xb9eedefe	-0.0004556104
6	0x3bcd8903	0.0062724366
7	0x3c1a24ae	0.009408159

exp_avg f4 [8, 7]
0	0xbd78236e	-0.060580663
1	0xbd461fa6	-0.048370026
2	0xbd97db57	-0.07414883
3	0xbdfca279	-0.12335677
4	0xbd4107fe	-0.047126763
5	0xbc4e46af	-0.0125900945
6	0x3d848e7d	0.0647249
7	0xbe119d10	-0.14220071
8	0xbe09628b	-0.13416497
9	0x3d90654c	0.07050571
10	0xbdbb97f9	-0.09159846
11	0xbe0c7a21	-0.13718463
12	0xbe30b2e8	-0.17255747
13	0xbe6ff7c8	-0.23434365
14	0x3df82fd7	0.121185
15	0x3dfc4d46	0.12319426
16	0xbd1b39b8	-0.03789684
17	0x3dbafb81	0.09130002
18	0x3dfdca4c	0.12392101
19	0x3e111780	0.14169121
20	0x3e37155c	0.17879242
21	0xbbb91c78	-0.0056491457
22	0xbcd89b62	-0.02644128
23	0x3d37b8c7	0.04485395
24	0x3d1b05b3	0.037847232
25	0xbcd0aa42	-0.02547181
26	0xbd535644	-0.05159594
27	0xbdd65efe	-0.10467337
28	0xbc792e75	-0.01520883
29	0x3bdb66b5	0.0066955932
30	0xbd0d6ffb	-0.03453062
31	0xbd7f7307	-0.062365558
32	0x3c8fcbb6	0.017553192
33	0x3cfa7dc3	0.030577546
34	0x3d9276e5	0.071515836
35	0xbb69a1a6	-0.0035649328
36	0xbc6d32eb	-0.014477472
37	0x3d1bb1bd	0.0380113
38	0x3d041346	0.032244943
39	0xbc8b13f0	-0.01697728
40	0xbd003bfe	-0.031307213
41	0xbd9496dc	-0.07255337
42	0x3c2ed7b8	0.010671549
43	0x3cbefb56	0.023313206
44	0x3d036d72	0.032086797
45	0x3cf5952f	0.029978363
46	0x3caf91ca	0.021431822
47	0x3bf0c0d0	0.007347204
48	0xbc89074d	-0.016727114
49	0x3d220430	0.039554775
50	0x3ce372d5	0.027764717
51	0xbca23633	-0.019801235
52	0x3d05f85a	0.03270755
53	0x3ce4a6d4	0.027911581
54	0x3d1afb5d	0.037837375
55	0x3d4f3d0e	0.050595336

exp_avg_sq f4 [8, 7]
0	0x38cee597	9.86561e-05
1	0x38874c64	6.4515305e-05
2	0x391b32d2	0.00014800884
3	0x39d9a8e5	0.00041515302
4	0x38934201	7.0218004e-05
5	0x36a8ac9a	5.0268836e-06
6	0x38fadaac	0.0001196166
7	0x3a154e46	0.00056955626
8	0x3a01956a	0.0004943224
9	0x3913ca16	0.00014094295
10	0x3976f2bc	0.00023550814
11	0x3a001c48	0.0004887027
12	0x3a546256	0.00081018114
13	0x3ac73520	0.0015198328
14	0x39d30310	0.00040247338
15	0x39d58194	0.0004072307
16	0x3828b3ef	4.0221898e-05
17	0x3971a83f	0.00023046228
18	0x39d245ea	0.0004010641
19	0x3a0e7a70	0.0005435115
20	0x3a63fd05	0.00086970656
21	0x36845341	3.9435986e-06
22	0x379feb21	1.9063767e-05
23	0x3869a587	5.570569e-05
24	0x38534269	5.036817e-05
25	0x37ad5122	2.0660988e-05
26	0x3890639f	6.885011e-05
27	0x39970140	0.00028801896
28	0x3731bb17	1.0593582e-05
29	0x368521c6	3.9676406e-06
30	0x381612e7	3.578039e-05
31	0x38d740e8	0.000102640886
32	0x3790dc77	1.72688e-05
33	0x37cd1d30	2.4451496e-05
34	0x3910e2aa	0.00013817349
35	0x361a06b8	2.29517e-06
36	0x36d04bf6	6.207726e-06
37	0x382a89d3	4.0659517e-05
38	0x37dad40c	2.6086367e-05
39	0x37068c9c	8.019761e-06
40	0x37e53932	2.7325561e-05
41	0x391a131c	0.00014693703
42	0x36a33901	4.8644147e-06
43	0x378dc1be	1.6898728e-05
44	0x37ff63f1	3.0444908e-05
45	0x37d95cc2	2.591161e-05
46	0x37a2b910	1.9398081e-05
47	0x361a4c10	2.2992062e-06
48	0x371e6e7e	9.44326e-06
49	0x383c38bf	4.487554e-05
50	0x37ba4892	2.2206721e-05
51	0x37425af1	1.1584475e-05
52	0x380209d6	3.1003576e-05
53	0x37b30348	2.133999e-05
54	0x382a4ec2	4.0604507e-05
55	0x3897d181	7.239264e-05

exp_avg f4 [8]
0	0xbde02a4c	-0.109455675
1	0xbe75fc2c	-0.24021977
2	0x3e473b86	0.194563
3	0xbdb1ede9	-0.08687956
4	0x3c97e471	0.018541547
5	0xbc5f2e96	-0.013621947
6	0x3d224456	0.03961595
7	0x3d7102cb	0.058840554

exp_avg_sq f4 [8]
0	0x39ab2df8	0.0003264991
1	0x3abeacc7	0.0014547341
2	0x3a7ba440	0.00095993653
3	0x3988dfda	0.00026106724
4	0x381f7352	3.8015954e-05
5	0x370b5569	8.304932e-06
6	0x382bf60d	4.099873e-05
7	0x38bacc1f	8.907192e-05

exp_avg f4 [1, 8]
0	0x3df33ea2	0.11877181
1	0x3e0d7f60	0.13818121
2	0xbe4fe0aa	-0.20300546
3	0x3eae8425	0.34085193
4	0xbf12f508	-0.5740514
5	0x3e0c7046	0.13714704
6	0x3e119ed1	0.1422074
7	0xbdcb9236	-0.09939997

exp_avg_sq f4 [1, 8]
0	0x39dee23a	0.00042511692
1	0x3a00c0f3	0.0004911564
2	0x3a9c3d91	0.0011920204
3	0x3b54b499	0.0032456277
4	0x3c130044	0.008972231
5	0x3a15b609	0.0005711024
6	0x3a0df265	0.0005414843
7	0x398be043	0.00026679234

exp_avg f4 [8]
0	0xbd115719	-0.035483453
1	0x3d12e507	0.03586295
2	0x3e38abf7	0.1803435
3	0x3dd870d5	0.10568396
4	0x3efab866	0.4896881
5	0x3dafba86	0.085804984
6	0x3ba6fd70	0.00509613
7	0x3d4d42e5	0.050112624

exp_avg_sq f4 [8]
0	0x381eb796	3.7841113e-05
1	0x380b06bc	3.3146454e-05
2	0x3a768c2c	0.00094050425
3	0x39a40816	0.00031286542
4	0x3bd5f561	0.0065294956
5	0x396a7324	0.00022358872
6	0x353b86d6	6.985914e-07
7	0x388e4161	6.7832654e-05

exp_avg f4 [8]
0	0x3cb17358	0.021661445
1	0xbc99305c	-0.018699817
2	0x3d82e920	0.06392121
3	0xbcb6fa1c	-0.022336058
4	0x3d7b9347	0.06141975
5	0xbd3853cb	-0.045001786
6	0xbb2d4957	-0.002644142
7	0x3d148420	0.036258817

exp_avg_sq f4 [8]
0	0x377ba019	1.49980415e-05
1	0x373e1a00	1.1330936e-05
2	0x390a1805	0.00013169654
3	0x37876f88	1.614519e-05
4	0x38ff04ab	0.00012160217
5	0x388901be	6.5329936e-05
6	0x347e9115	2.3708374e-07
7	0x38320639	4.2444302e-05
