saved/gan/ppxl6vf2/checkpoints/epoch=0-step=20-v9.ckpt (torch, 21266 bytes, 39 tensors)

generator.fc1.weight f4 [16, 7]
000000 35 36 45 3f 0d 85 2b 3e 33 6a 32 bf 8f 3f 65 be
       0.7703584 0.16749974 -0.696933 -0.22387527
000010 0d fd 80 be 0f 35 3f 3f e4 7f d7 3e ff 5e 0a 3e
       -0.25193062 0.74690336 0.4208976 0.135128
000020 b0 34 8f 3e de e1 44 3e a8 fe 8e be 8e 3c 8f 3f
       0.27969885 0.19226786 -0.27928662 1.1190355
000030 08 a6 b6 3e c3 99 de 3d 6c 1a 2a be 43 91 1b be
       0.35673547 0.108691715 -0.16611642 -0.15192132
000040 74 a5 4b 3c e0 c0 b7 bf f8 4a 3e be 13 f3 12 bf
       0.012429584 -1.4355736 -0.18583286 -0.5740215
000050 fb 12 f3 3d 92 7f ab 3e f8 c2 84 3e 06 d2 32 3f
       0.118688546 0.33495766 0.2593 0.6985172
000060 4c 9c f8 3e d1 70 92 3e f0 10 84 3e 34 3d d8 3e
       0.48556745 0.28601697 0.25794172 0.42234194
000070 de b9 d1 3d a0 6b 67 3e 30 f4 a5 bd 0a 5f 97 be
       0.102405295 0.2259965 -0.08103216 -0.29564697
000080 77 4a ea be 29 49 34 3c 07 f8 ae be 29 68 25 bf
       -0.45759937 0.011003771 -0.34173605 -0.6461206
000090 94 33 b9 bd 44 5a f9 3e c8 8d cf be ec dc 3b 3f
       -0.09043041 0.4870168 -0.40537858 0.73383975
0000a0 ee 6a 3a 3e 45 6f c0 bc ff d5 a0 3e 2e 0a e7 bd
       0.18204853 -0.023490557 0.31413266 -0.112812385
0000b0 0a ea 34 3f ba 5d fa 3e 54 8a 7f bf 2c 7a e8 be
       0.70669615 0.48899633 -0.99820447 -0.4540571
0000c0 7c c3 1c be cf c9 08 3f a3 1d d9 3e b9 75 3c 3f
       -0.15308946 0.53432935 0.42405424 0.7361713
0000d0 c2 28 3b bf 47 4f 05 3d 05 00 02 be bf a6 5c bf
       -0.73109066 0.032546308 -0.1269532 -0.86191934
0000e0 47 e5 46 bf 78 d4 d1 be 57 3c d8 be d4 c0 a6 3e
       -0.776936 -0.40982413 -0.42233536 0.3256899
0000f0 d5 b3 4c 3f 89 60 70 bf fe 67 ab be 46 72 50 be
       0.799619 -0.938973 -0.33477777 -0.20356092
000100 e8 0b 03 3f 36 44 8b 3d 93 89 9b be eb ae 2a bf
       0.5119004 0.068001196 -0.30378398 -0.66673154
000110 f9 22 01 bf cc 11 06 3f 64 ea 02 3f 20 60 71 3f
       -0.5044399 0.52370906 0.511389 0.942873
000120 3e be 4c be 8c f1 9c 3b df 0a 02 bd c1 25 eb bd
       -0.19994447 0.004789537 -0.03174865 -0.1148181
000130 d2 e5 26 3e 7d 5b 2b bf 70 b8 ec be fd 1b 95 bd
       0.16298607 -0.66936475 -0.46234465 -0.07280729
000140 5f 8e e0 3d 2d e2 7f 3d cb b8 7d 3f 91 c4 dd 3e
       0.10964655 0.062471557 0.99110097 0.4331403
000150 2a 3b 92 3d 49 77 ad be 3a 2a c7 be 55 d2 9c be
       0.07140191 -0.3388007 -0.38899404 -0.3062922
000160 3f 06 3d bd 42 5b ca 3e e7 3a b7 3f 85 b2 2f 3e
       -0.046148535 0.3952275 1.431485 0.17157944
000170 e2 26 51 3f d5 36 fa be b9 39 5f 3e 17 66 7d bf
       0.81699955 -0.4886996 0.21799363 -0.989839
000180 37 b8 73 be 4d a7 87 3e 8b a4 09 bf 51 9c 53 3e
       -0.23800741 0.26494828 -0.537667 0.20665099
000190 23 42 ef 3d cf a7 b8 bc cc 8e 5e 3f db 5a c1 bd
       0.116825365 -0.022540955 0.8693664 -0.094411574
0001a0 34 15 df be 9d 10 bc bd 5d d5 ec 3e 75 e4 3b 3f
       -0.43570864 -0.09182856 0.46256533 0.7339547
0001b0 ec 11 75 bf e3 d5 16 3d 18 48 2c be 4c a9 2b bf
       -0.9573047 0.036825072 -0.16824377 -0.670552

generator.fc1.bias f4 [16]
000000 7c 62 13 be 80 7c 41 3e 5b 2b 39 be f7 e8 84 3e
       -0.14393038 0.18895149 -0.18082945 0.25958988
000010 b0 a6 3e 3c 3c 67 25 bd 11 a9 ae be f0 97 54 3e
       0.011636421 -0.040381655 -0.34113362 0.20761085
000020 72 c4 8a be 26 76 be bc 60 4e 94 3d a0 b2 62 bd
       -0.27103 -0.023249697 0.07241511 -0.05534613
000030 ab 60 95 3e e6 71 ba be 02 29 81 be f3 f9 85 3e
       0.29175314 -0.36415023 -0.252266 0.2616726

generator.fc2.weight f4 [8, 16]
000000 79 f6 f4 bb e8 ca 95 3d 23 b7 a1 be 51 d3 b4 3d
       -0.007475671 0.07314092 -0.31585035 0.08829368
000010 39 b1 11 be 4c 3e 46 3f 59 77 ff 3e 15 2c 08 3f
       -0.14227761 0.7743881 0.49895743 0.53192264
000020 df 10 ce 3e 05 a9 ab 3d d0 25 88 3e a3 b4 2f be
       0.40247247 0.08381847 0.2659135 -0.17158751
000030 d9 ea 91 be b0 a7 30 be a3 41 46 3e 67 39 a7 be
       -0.28499487 -0.17251468 0.19360976 -0.32660982
000040 35 31 6f 3d 28 6c 2a 3f f8 9e 0d 3f d8 d5 0a 3e
       0.058396537 0.66571283 0.5532069 0.13558137
000050 a8 7f 1b 3e 92 ec ac be 85 c4 df 3e cd 70 c8 3e
       0.15185416 -0.3377424 0.4370462 0.3914856
000060 9e fc 98 bd ce c1 9a 3c 0a 67 73 3c 02 d7 81 3d
       -0.07470058 0.018891241 0.014856109 0.063398376
000070 cf 31 6f be 4d f6 d6 3d 69 6f c8 be 2f 14 93 3e
       -0.23358844 0.10496197 -0.391475 0.28726336
000080 d2 5d 42 bc ae 6c 67 bc 55 8e 09 bf 38 5f 29 3e
       -0.011863189 -0.014125032 -0.53732806 0.1654023
000090 27 ce 34 3f f7 cd 38 be aa be 80 3e 37 f1 cd be
       0.70627064 -0.1804732 0.25145465 -0.40223095
0000a0 fd 5e 65 3e ce c2 ee 3e 79 51 93 3e cc 30 28 bf
       0.22399516 0.46633 0.28773096 -0.6569946
0000b0 1b 8e 32 3f ad bb 50 be 17 f0 f1 be e0 1f c6 3e
       0.69748086 -0.20384093 -0.47253487 0.38696194
0000c0 b0 33 2d 3e a1 3a a4 be 64 b0 81 be b2 5b 24 3e
       0.16914248 -0.3207598 -0.25329888 0.16050604
0000d0 60 49 21 3d db 3f 36 3e bf d8 db be 4d 45 30 3e
       0.039376616 0.17797796 -0.42938802 0.17213936
0000e0 32 c6 9d be 5f 5c ce 3e 90 70 14 be bf 7c ed be
       -0.30815274 0.4030485 -0.14496064 -0.46384236
0000f0 98 83 b0 3e 66 21 01 bf 37 02 18 be 2c ce bf 3e
       0.34475398 -0.50441587 -0.14844595 0.37461984
000100 9a 82 68 3e 60 be 46 3d 0d 2d 19 3f 6b 99 03 3f
       0.2270607 0.0485214 0.5983437 0.5140597
000110 f7 ab 6d 3d 5b 2d ce 3e d2 17 bd 3d 77 93 ac 3d
       0.058025327 0.40268978 0.09233059 0.08426564
000120 d8 ad e7 be ce e8 95 3e fc f8 32 3c a4 b6 aa be
       -0.4524982 0.29279178 0.01092362 -0.3334247
000130 a8 fc 90 3e 72 5b 8e 3e 2b 76 db be 59 f1 1f 3e
       0.2831776 0.27804142 -0.42863593 0.1561941
000140 7e d9 85 3e 50 88 11 3e f2 0c 20 bf d9 95 5e 3e
       0.26142496 0.14212155 -0.6251975 0.2173685
000150 a8 ab c1 be 27 d7 22 be dd b5 2b bd 92 3e 54 3c
       -0.37826276 -0.15902387 -0.041921485 0.012954371
000160 0f 2f 9c 3d 43 d9 84 be e9 20 a6 be 80 29 81 be
       0.07626163 -0.25947008 -0.32446983 -0.25226974
000170 03 07 80 bc 19 35 cd be 40 ed bd be e6 07 56 bf
       -0.015628343 -0.40079573 -0.3709507 -0.836058
000180 8d f2 32 bd 9b 36 77 3e f1 42 76 be 86 10 bd be
       -0.043688346 0.24141924 -0.24048974 -0.3692667
000190 2f 5c 03 3d 7c aa 3a bf e1 ae 88 be 52 96 a0 3d
       0.032070335 -0.7291639 -0.26695922 0.07841171
0001a0 a5 9c b1 bd ce 6e 33 be 22 f9 39 3e fe 63 34 bf
       -0.08672456 -0.17522737 0.18161443 -0.70465076
0001b0 b5 b0 03 3e 72 d7 98 3d 94 87 9e 3a 4d b7 03 3e
       0.12860377 0.07462968 0.0012094849 0.12862892
0001c0 85 31 1c 3d 71 40 aa be be 0b d0 be 81 51 01 be
       0.038133163 -0.3325229 -0.4063396 -0.12628748
0001d0 35 c1 0c bf 00 68 06 3f 86 eb 2b 3f b8 0e 32 3d
       -0.5498231 0.5250244 0.67156255 0.04347107
0001e0 20 de 5f 3d 93 81 42 be 56 5a b2 be 6b 56 0a 3f
       0.054655194 -0.18994741 -0.34834546 0.54038113
0001f0 16 10 77 3e 6b 2e 2c bd 50 7d d8 be 2d 99 00 bf
       0.2412723 -0.042036455 -0.42283106 -0.5023373

generator.fc2.bias f4 [8]
000000 70 74 72 bb a8 b2 bb 3d 80 c2 33 be 2e 02 3a bb
       -0.0036995672 0.09164935 -0.17554665 -0.0028382647
000010 ba 89 46 be 1a 49 9c 3c b4 ee 01 3e 88 1e c8 bd
       -0.19388476 0.019077826 0.12688714 -0.097714484

generator.fc3.weight f4 [16, 8]
000000 5e 82 28 3d 8e 94 92 3e 36 ab 93 3d 91 50 34 bd
       0.041139953 0.28628963 0.0721039 -0.044022147
000010 fd d7 ed be 9b c1 55 3e b4 a0 f1 3e 38 3c 81 bf
       -0.46453848 0.20874636 0.4719292 -1.0096502
000020 0b 58 06 3e bb 30 ba be 20 18 43 3e 99 b7 64 be
       0.13119523 -0.36365303 0.19052172 -0.22335662
000030 41 99 8b 3c c3 e6 3e bf 76 25 5f bf 56 47 a3 3e
       0.01704085 -0.74570864 -0.87166536 0.31890363
000040 c1 89 43 3e ac d3 a6 3e 3b 5a 8c be 1f ad 47 3e
       0.19095518 0.32583368 -0.2741259 0.19499634
000050 75 ef ba be 0e fe 99 bd 1e e2 5f bd e5 a4 43 bf
       -0.36510816 -0.0751916 -0.054659 -0.76423484
000060 dd da 47 bf 70 5f 9c 3e c2 f4 2f bf 75 a8 4f be
       -0.78068334 0.30541563 -0.68732846 -0.20279105
000070 b7 f4 14 bd 9f 87 7c 3f 34 6b 8d 3e fd e8 72 be
       -0.03636619 0.9864444 0.27620852 -0.2372169
000080 b0 ff 04 be db fa 2f bf 34 f7 c6 3e 6c 8e ce 3e
       -0.12988162 -0.6874215 0.38860476 0.40343034
000090 40 b5 33 3f ac c9 89 be 15 6a 6a 3e da 21 11 bf
       0.7019844 -0.26911676 0.2289203 -0.5669228
0000a0 9b e1 91 3f 7c 36 14 bd bf de 3b be 16 de d2 3d
       1.1396974 -0.036184773 -0.1834669 0.10296266
0000b0 6c dd 11 bf 20 59 3f 3f 28 ab 15 bf 1c 10 db 3e
       -0.5697849 0.7474537 -0.5846429 0.42785728
0000c0 24 3a 67 be 45 fe 22 bf cc f0 0b 3f 5c 7d 3f bf
       -0.22580773 -0.63669235 0.546643 -0.7480066
0000d0 8b cf 5e 3e a6 ae f4 3d 9b 4f 07 bf 07 f3 57 3e
       0.21758859 0.11947374 -0.52855843 0.21088801
0000e0 1f 78 1c bd 41 d0 ac 3e f5 fb 2e 3e 20 0c 2e bf
       -0.038200494 0.33752635 0.17088301 -0.6798725
0000f0 b4 7c 0d 3f f4 c8 3a 3f f3 85 e3 3e 0e ce cc 3e
       0.55268407 0.7296288 0.44438133 0.40000957
000100 b3 3f 81 3e 2b 9f 9a 3e de 24 93 be 17 db 2f 3e
       0.2524391 0.3019956 -0.28739065 0.1717342
000110 9c 1b e3 be 96 84 9b 3f 5d 33 52 be 21 f3 28 3f
       -0.44357002 1.2149837 -0.20527406 0.65995985
000120 31 d1 c6 be eb 67 31 be 42 a4 69 bf d3 e0 f9 3d
       -0.38831475 -0.17324798 -0.9126626 0.12201085
000130 99 7d 2d bf 3c dc a0 be ae 36 b1 be de 37 99 3d
       -0.6776977 -0.31418025 -0.3461203 0.07481359
000140 84 7b 29 be 80 31 92 3e ff 81 b7 3e fd e4 75 bd
       -0.16551024 0.2855339 0.35841367 -0.060032833
000150 ec a7 3f 3f e5 82 35 be 84 d5 e7 be 7d 57 1b bf
       0.74865603 -0.17725714 -0.45280087 -0.6068037
000160 bf bc 06 bf 84 2a 74 3e 16 64 e8 be 16 fc 26 3f
       -0.52631754 0.23844343 -0.4538886 0.652284
000170 72 7d 5c 3f f7 c1 55 3e 20 ab 3c 3e 78 9c 64 3f
       0.86128914 0.20874773 0.18424654 0.8930125
000180 3b 5a 87 3d ae f6 b7 be fd 06 35 3f ed 1f b3 be
       0.06609007 -0.3593039 0.7071379 -0.34985295
000190 c0 19 40 3f a0 95 26 bf 8c fb d9 3e da 8e e6 3e
       0.7503929 -0.6507206 0.42574728 0.45030862
0001a0 49 76 c0 be c2 30 dc 3e dd f6 c8 bd ff 09 63 3e
       -0.37590244 0.4300595 -0.098127104 0.22171782
0001b0 52 9c bb be 1d d7 e5 be e0 22 36 3e 66 3c 1a bf
       -0.366427 -0.4489068 0.17786741 -0.6024841
0001c0 f3 d1 54 be ec 7d 0b bf ee 7c 82 3e ea 7e f7 be
       -0.20783214 -0.54489017 0.2548594 -0.48339015
0001d0 05 ef 14 3e eb 74 39 3e 10 61 d5 be 24 61 0a 3d
       0.14544304 0.18111007 -0.41675615 0.033784047
0001e0 3d 02 0f 3e 98 c8 46 bd c6 6f b3 3d 50 ac f2 be
       0.13965698 -0.048531145 0.087615535 -0.4739709
0001f0 bc e1 3d 3f e0 23 51 3e eb 3b 16 be b6 cc a8 be
       0.7417257 0.20423841 -0.14671294 -0.32968682

generator.fc3.bias f4 [16]
000000 db 4d 47 be b4 43 08 3e d9 47 88 3e b8 e3 5d 3e
       -0.19463293 0.13307077 0.26617315 0.21668899
000010 7e 4a 3b bd 0a 62 06 be 35 d2 ae 3e f4 37 bf bd
       -0.04572534 -0.13123336 0.3414475 -0.09336844
000020 da ea 56 3d 44 7d ce bd 16 8f 26 3d cc 6f 57 3e
       0.052470066 -0.10082486 0.0406638 0.21038741
000030 8c 7d 0a be 39 05 ac 3e f8 9e b8 bd b8 aa 3c 3e
       -0.13524455 0.33597735 -0.09014696 0.18424499

generator.fc4.weight f4 [7, 16]
000000 79 d1 cf 3d 86 38 8b 3d b3 e2 42 be 48 e9 a7 be
       0.101473756 0.0679789 -0.19031791 -0.32795167
000010 2b 0e d7 be 9a 76 81 3e 3e 69 30 bf 6b 3f 1c bd
       -0.42002997 0.25285798 -0.68910587 -0.038146418
000020 84 4f 6a be b8 0a 65 bf 28 d3 9a 3d 1b 4d f3 be
       -0.22881895 -0.8946948 0.07559806 -0.47519764
000030 c9 14 34 3e 60 3a 12 be 78 2f 26 3e dc 15 20 3f
       0.17586054 -0.14280081 0.16229045 0.62533355
000040 24 43 92 3e fe 82 61 bd 74 21 3f bf 38 bf d7 be
       0.2856685 -0.055056565 -0.7466042 -0.42138076
000050 e4 47 48 3f fb 6e 9a bf 3d 09 90 be 76 9e 91 3c
       0.78234696 -1.2065119 -0.28132048 0.017775755
000060 db 5b 63 3d 9a be c0 be f3 f8 20 3e e3 e6 8d 3e
       0.055507522 -0.37645417 0.15719967 0.27715215
000070 16 e1 c6 be e2 bc 45 bc d6 a7 90 3e 15 ec 34 be
       -0.38843602 -0.012068959 0.2825305 -0.17668183
000080 0e 17 33 3d 5a 7d b2 3e 7c 99 a5 bd 15 f3 3a 3e
       0.04372316 0.3486126 -0.080859154 0.18256791
000090 a2 77 63 bf aa 43 db bd e9 33 9e be cf a3 c8 be
       -0.8885442 -0.10706265 -0.3089898 -0.39187476
0000a0 86 01 61 3e b2 85 b0 3e 85 a3 d6 be 05 10 21 bf
       0.21973237 0.34477 -0.4192163 -0.6291507
0000b0 27 6f 73 3d 1e 61 0d 3d 10 1f 4c 3e a0 fd 69 bf
       0.059432175 0.034516446 0.19933724 -0.91402626
0000c0 73 9f 86 be 5f 51 37 3e ce d6 c5 3e 91 7e e9 3d
       -0.26293525 0.17902134 0.38640445 0.11401094
0000d0 da 76 47 bd 12 27 db be 15 8e d2 3e 6c 76 ce be
       -0.04869733 -0.42803246 0.41124025 -0.40324724
0000e0 e3 77 67 be 43 3b c3 3d f7 ae 58 be 58 e8 7e bd
       -0.22604327 0.09532788 -0.21160494 -0.0622333
0000f0 f5 9c 7b be 2e 52 97 be 9a 57 7e be 6a b8 37 bf
       -0.24571593 -0.29554886 -0.24838105 -0.7176577
000100 b4 2f f7 bd 5d 8e f7 3e 56 b5 09 bf cb f6 2e be
       -0.120696455 0.48350802 -0.5379232 -0.17086332
000110 7a 41 f6 3d d1 ff 59 3e 45 bf a8 bd 66 83 9a bd
       0.120242074 0.21288992 -0.08239607 -0.075445935
000120 ab 60 e9 3e b0 f5 15 bd 84 43 9c be c4 43 01 3e
       0.45581564 -0.03661126 -0.3052026 0.12623507
000130 4d 39 ce be f2 1e 15 3f ab 0a 38 3e 42 66 25 3e
       -0.40278092 0.58250344 0.1797282 0.1615229
000140 d5 01 8f 3e ab bd e9 bc ae af 84 be 3a 43 8b 3d
       0.27931085 -0.028532824 -0.25915283 0.06799932
000150 6b 75 d1 3d 97 32 8c 3e 0c 81 9d 3e f4 99 ee 3e
       0.10227474 0.27382347 0.30762517 0.46601832
000160 a4 bc 50 3e 10 47 eb be f6 cf 16 bd 45 da a7 3e
       0.2038446 -0.45952654 -0.03681942 0.32783714
000170 5e 57 23 bf b2 b0 98 3e bc 36 8f 3e d8 13 d2 3e
       -0.63805187 0.29822308 0.27971447 0.41030765
000180 a8 a6 23 3f d7 7b 8b be 33 40 af 3e 3e 91 30 3f
       0.6392617 -0.2724292 0.34228668 0.6897162
000190 48 3b 39 3e 5a 3d a0 3e 44 86 87 3e a3 aa 19 be
       0.1808902 0.31296808 0.26469624 -0.15006499
0001a0 c5 9f 92 3e b7 4d 15 bd e3 02 ab bd bc b6 02 bf
       0.2863752 -0.036451068 -0.0835016 -0.5106008
0001b0 c1 61 ec be 86 a2 5e 3e e9 94 78 bf 4e 92 4a 3e
       -0.4616833 0.21741685 -0.9710222 0.19782373

generator.fc4.bias f4 [7]
000000 03 39 fc bc 3a 13 b3 3c 1c 93 1c 3e 62 a4 37 3d
       -0.030788904 0.021859754 0.15290493 0.044834502
000010 04 4c 0b 3d 68 a6 98 3d 81 e8 81 be
       0.03400804 0.074536145 -0.253727

generator.layer_norm_hidden_0.weight f4 [16]
000000 a6 70 7d 3f a6 70 7d 3f 9e c4 80 3f a6 70 7d 3f
       0.9900001 0.9900001 1.0060003 0.9900001
000010 a6 70 7d 3f a6 70 7d 3f a6 70 7d 3f b2 47 81 3f
       0.9900001 0.9900001 0.9900001 1.0100005
000020 b8 f3 7d 3f ee 7c 7f 3f 9e c4 80 3f a6 70 7d 3f
       0.9920001 0.998 1.0060003 0.9900001
000030 a6 70 7d 3f a6 70 7d 3f dc f9 7e 3f 14 83 80 3f
       0.9900001 0.9900001 0.99600005 1.0040002

generator.layer_norm_hidden_0.bias f4 [16]
000000 0b d7 23 bc 0b d7 23 3c 0b d7 23 3c 0b d7 23 bc
       -0.010000001 0.010000001 0.010000001 -0.010000001
000010 0b d7 23 bc 0b d7 23 3c 6e 12 03 3b 6e 12 03 bb
       -0.010000001 0.010000001 0.0019999999 -0.0019999999
000020 0b d7 23 bc 0b d7 23 3c 0b d7 23 bc 0b d7 23 3c
       -0.010000001 0.010000001 -0.010000001 0.010000001
000030 0b d7 23 3c a7 9b c4 bb 0b d7 23 3c 6f 12 03 bc
       0.010000001 -0.0060000005 0.010000001 -0.008

generator.layer_norm_hidden_1.weight f4 [8]
000000 28 06 81 3f b2 47 81 3f b2 47 81 3f a6 70 7d 3f
       1.0080004 1.0100005 1.0100005 0.9900001
000010 a6 70 7d 3f b2 47 81 3f a6 70 7d 3f a6 70 7d 3f
       0.9900001 1.0100005 0.9900001 0.9900001

generator.layer_norm_hidden_1.bias f4 [8]
000000 6f 12 03 bc 6f 12 03 bb 0b d7 23 bc 0b d7 23 bc
       -0.008 -0.002 -0.010000001 -0.010000001
000010 a7 9b c4 3b 6f 12 03 bc 0b d7 23 bc 0b d7 23 3c
       0.0060000005 -0.008 -0.010000001 0.010000001

discriminator.fc1.weight f4 [8, 7]
000000 e2 7d 21 bf 65 46 f9 3e 35 83 07 3f 57 d5 33 be
       -0.63082707 0.4868652 0.5293458 -0.17561851
000010 2d a0 b6 bd 43 bb ad 3e 64 a5 b9 3e 2a 77 ea 3e
       -0.0891727 0.33931932 0.36258996 0.4579404
000020 6e b9 cf bd 9a c7 a4 3e 2a 58 ee 3c 4d 99 6c 3f
       -0.1014279 0.32183534 0.029094774 0.9242142
000030 31 86 8e bf eb 69 47 bf 30 07 04 bf b0 17 8e 3c
       -1.1134702 -0.77895993 -0.5157347 0.01734528
000040 84 a7 27 3e a8 eb 38 bd d8 d6 27 be 07 94 29 3f
       0.16372496 -0.045146614 -0.1639055 0.66241497
000050 39 08 55 3f fb 9c 8f 3e 54 bf 06 bf b0 f0 70 3e
       0.8321567 0.28049454 -0.52635694 0.23529315
000060 a8 af 97 3f f9 77 02 3f 79 ba ac 3e d0 db 0d bf
       1.1850481 0.50964314 0.33736017 -0.5541353
000070 1a c2 03 3f 40 b1 47 be 14 aa 06 bf 09 6e bc 3e
       0.5146805 -0.1950121 -0.5260327 0.368027
000080 f4 80 9f be 61 63 24 bf d9 90 47 3f 1b 4d 59 3f
       -0.3115307 -0.6421414 0.77955395 0.8488328
000090 95 39 0d bf b5 6d af 3e 9d 3c 97 3d 9a f9 12 3f
       -0.5516599 0.34263387 0.07384608 0.5741211
0000a0 26 8e 23 bf 4d f7 09 bf 1b e5 cb be ec 81 ee 3e
       -0.63888776 -0.53892976 -0.3982323 0.46583498
0000b0 0d 4b 96 be 5d 1e a3 3e d1 6a 1b 3e 39 96 22 3e
       -0.29354134 0.31859103 0.15177466 0.15877618
0000c0 f9 e6 f0 3c 71 95 00 bf e6 a1 c6 be 36 b3 53 bf
       0.029407011 -0.5022803 -0.38795394 -0.8269533
0000d0 b9 c8 e8 3e 07 66 b0 be 8a 74 44 3d cd 46 11 bf
       0.4546564 -0.3445284 0.047962703 -0.5674866

discriminator.fc1.bias f4 [8]
000000 f3 4e a4 3e 1d fc 33 3e 2c 74 8e 3c aa c1 a4 3e
       0.32091483 0.17576642 0.01738938 0.32179004
000010 06 5d c6 3e d2 aa a4 bd 4f 89 66 3e a3 0f 59 3e
       0.38742846 -0.08040394 0.22513317 0.21197371

discriminator.fc2.weight f4 [1, 8]
000000 9b f5 da 3d ec ab 48 bf 03 cf 49 3e 84 bb a7 be
       0.10691377 -0.7838733 0.19707875 -0.3276025
000010 59 c5 96 3e c9 e0 94 be df 75 7d bf 56 9f af bd
       0.2944744 -0.29077747 -0.9900798 -0.08575313

discriminator.layer_norm_hidden_0.weight f4 [8]
000000 db 72 7d 3f 50 7c 7d 3f 70 74 7d 3f 6b 76 7d 3f
       0.9900338 0.9901781 0.99005795 0.99008816
000010 05 97 7d 3f 63 82 7d 3f 1e 28 81 3f e4 8a 7d 3f
       0.9905856 0.9902708 1.0090368 0.99040055

discriminator.layer_norm_hidden_0.bias f4 [8]
000000 49 42 22 bc 10 89 22 3c b0 67 22 bc 78 79 22 3c
       -0.009903499 0.009920374 -0.009912416 0.009916656
000010 aa 77 22 bc 98 76 22 3c 17 9c 22 3c 1e 31 22 3c
       -0.009916225 0.00991597 0.00992491 0.009899406

exp_avg f4 [16, 7]
000000 0a 92 40 36 86 0c e1 36 1a 99 47 a0 5d 18 06 37
       2.8695235e-06 6.7069805e-06 -1.6906613e-19 7.992695e-06
000010 bf cd e0 36 ed 9a e2 36 76 98 40 36 fa 4d 0c 3c
       6.699672e-06 6.7533606e-06 2.8698973e-06 0.008563513
000020 b9 81 0d 3c 70 c1 a9 22 b3 78 0d 3c 9e 7f 0d 3c
       0.008636885 4.601235e-18 0.008634734 0.008636383
000030 b2 7a 0d 3c b0 3b 0d 3c 25 b5 b0 ba 89 60 af ba
       0.00863521 0.008620188 -0.001348172 -0.001338021
000040 e7 85 85 20 ac 65 af ba 45 55 af ba a4 47 af ba
       2.2619686e-19 -0.0013381741 -0.0013376853 -0.0013372791
000050 5f bb ac ba fd b6 01 bc 39 ce 01 bc 5c 5f cb a1
       -0.00131784 -0.007917163 -0.0079227025 -1.3781056e-18
000060 c2 c0 01 bc 91 cc 01 bc d4 c9 01 bc db a5 01 bc
       -0.007919492 -0.007922308 -0.007921655 -0.007913078
000070 d9 cc c7 bb 24 2a c8 bb 0c 6e c5 a1 04 1c c8 bb
       -0.006097418 -0.006108539 -1.3378368e-18 -0.0061068553
000080 2f 2a c8 bb 51 2b c8 bb bf 3c c8 bb 33 09 c0 3b
       -0.0061085443 -0.0061086793 -0.006110757 0.0058604716
000090 4a 60 bf 3b f8 76 50 a0 a5 55 bf 3b f3 5b bf 3b
       0.005840336 -1.7657649e-19 0.005839067 0.0058398186
0000a0 57 5e bf 3b 4a ed c0 3b d5 1f 8b 3b 1e 54 8c 3b
       0.0058401036 0.005887662 0.004245738 0.0042824885
0000b0 d9 39 5b 22 44 57 8c 3b 12 57 8c 3b 60 55 8c 3b
       2.9710659e-18 0.004282864 0.0042828405 0.0042826384
0000c0 99 70 8b 3b fa 03 ef 3b d7 f5 ef 3b 8f 54 bd 22
       0.004255366 0.007294175 0.0073230076 5.1318083e-18
0000d0 a7 ce ef 3b 6e ef ef 3b 0f eb ef 3b 32 44 ef 3b
       0.007318336 0.0073222434 0.0073217223 0.0073018307
0000e0 cb e2 f8 3a bf e3 fd 3a 27 b7 1e 22 9f d0 fd 3a
       0.0018988488 0.0019370242 2.1509953e-18 0.0019364542
0000f0 df f7 fd 3a 5e e9 fd 3a 40 fd f9 3a 7c 04 ef ba
       0.001937624 0.0019371917 0.0019072667 -0.0018235589
000100 89 d7 f6 ba 65 7d 86 a2 de 78 f6 ba 08 f4 f6 ba
       -0.0018832545 -3.645354e-18 -0.0018804332 -0.0018841038
000110 64 e6 f6 ba 94 57 f5 ba 91 d1 53 3a f6 f1 50 3a
       -0.0018836972 -0.0018718117 0.0008080239 0.00079706253
000120 8e c4 95 a1 83 cb 50 3a 4d e5 50 3a d6 e2 50 3a
       -1.014866e-18 0.0007964896 0.0007968739 0.00079683715
000130 f9 97 51 3a 63 9c d1 3b e6 ea d2 3b 9f 68 85 22
       0.0007995363 0.0063968166 0.0064366935 3.6160494e-18
000140 3e eb d2 3b 3d ed d2 3b db ea d2 3b 7b 26 d2 3b
       0.0064367345 0.0064369724 0.0064366884 0.0064132786
000150 60 6c 18 bc 4f 15 19 bc f5 d7 d7 a2 0c fc 18 bc
       -0.009303182 -0.009343459 -5.850452e-18 -0.009337436
000160 39 13 19 bc 36 0f 19 bc db d4 18 bc 57 55 95 bb
       -0.009342962 -0.0093420055 -0.009328092 -0.0045572924
000170 55 5d 95 bb 1e 11 f3 9f c6 52 95 bb 6a 5c 95 bb
       -0.004558245 -1.0294282e-19 -0.0045569865 -0.0045581358
000180 c0 5b 95 bb 66 50 95 bb 39 30 fa 3a 37 f7 fa 3a
       -0.0045580566 -0.0045567034 0.0019087858 0.0019147162
000190 c9 1b ba 9f 5a e9 fa 3a 99 f8 fa 3a 31 f6 fa 3a
       -7.882003e-20 0.001914303 0.0019147574 0.0019146857
0001a0 8f ac fa 3a 58 d7 9e b9 84 8d b2 b9 12 dd cd a1
       0.0019124913 -0.00030296552 -0.00034056243 -1.3949857e-18
0001b0 fe 9c b2 b9 51 a4 b2 b9 66 85 b2 b9 d2 85 b1 b9
       -0.00034067774 -0.0003407323 -0.00034050195 -0.00033859775

exp_avg f4 [16]
000000 18 99 47 3a 70 c1 a9 bc e8 85 85 ba 5a 5f cb 3b
       0.00076140603 -0.020722121 -0.0010187002 0.006206435
000010 0a 6e c5 3b 04 77 50 3a d8 39 5b bc 8f 54 bd bc
       0.0060250806 0.0007952305 -0.01338049 -0.02311161
000020 27 b7 1e bc 65 7d 86 3c 8d c4 95 3b 9e 68 85 bc
       -0.009687222 0.016417215 0.00457055 -0.016285237
000030 f7 d7 d7 3c 1c 11 f3 39 c9 1b ba 39 11 dd cd 3b
       0.026348097 0.0004636132 0.00035497386 0.0062824567

exp_avg f4 [8, 16]
000000 65 0f 89 3b 09 b1 8a 3b 7c e2 9f bb 11 68 97 3b
       0.0041827434 0.00423253 -0.004879294 0.00462056
000010 8b 9d 10 bb 9c d9 da b9 29 14 5c ba 7d 44 63 bb
       -0.002206656 -0.00041742332 -0.0008395338 -0.0034678273
000020 27 20 fb ba ad a7 d5 ba c5 e0 7b 3b 2b c5 9d 3a
       -0.0019159362 -0.0016300582 0.0038433534 0.001203691
000030 1d 43 07 3b 81 3c 1f 3a 6b 42 91 39 33 fd bb bb
       0.0020639368 0.00060743844 0.0002770604 -0.005736971
000040 ea 5d d0 3c bd 13 c8 3c 57 c8 ed bc d8 5b d4 3c
       0.025435407 0.024423474 -0.029026194 0.0259227
000050 ac 72 52 bc 09 70 08 bb 6e df 81 bb 2a be ae bc
       -0.012844723 -0.0020818731 -0.0039634025 -0.021330912
000060 9e 7d 2b bc bb 07 1b bc 2a 99 b7 3c 42 bb fa 3b
       -0.010466961 -0.009462292 0.022411902 0.0076517174
000070 31 4a 37 3c 7f 37 8a 3b b6 ac 0f 3b 85 f2 0d bd
       0.011187122 0.0042180414 0.0021923012 -0.034655113
000080 11 ac 30 bc 6d c3 3b bc 51 5d 5a 3c be 6f 58 bc
       -0.010783211 -0.011460167 0.013327912 -0.013210235
000090 1d 37 b8 3b 30 07 0d 3b 1b 69 82 3b 4f 75 da 3b
       0.0056218044 0.0021519177 0.0039798147 0.0066668163
0000a0 53 cc cd 3b 8d 6b 9b 3b 84 7a 1e bc a4 68 1f bb
       0.006280461 0.0047430457 -0.009672765 -0.0024323845
0000b0 32 e9 e4 bb 97 2b a8 39 a1 69 6f 3a dc 4a 2f 3c
       -0.006985807 0.00032075934 0.00091328664 0.010699
0000c0 d6 c9 a9 3c c9 13 fa 3c ed 94 02 bd 0c 4e 18 3d
       0.020726126 0.030527012 -0.031880308 0.037183806
0000d0 63 e1 54 bc 17 af e1 bb 4f 8c 74 bc 36 8c 39 bc
       -0.0129931895 -0.0068873274 -0.01492603 -0.011324933
0000e0 91 8b a1 bc 19 06 3f bc 15 e7 c0 3c b9 10 41 3b
       -0.01971987 -0.011659169 0.023547688 0.002945943
0000f0 6d 8d bf 3c 8d 26 a0 bb ff fd b5 bb 41 ca 99 bc
       0.023382867 -0.004887408 -0.0055539603 -0.0187732
000100 67 71 17 bd 3c 17 24 bd fb 4f 20 3d 4a 21 34 bd
       -0.036973383 -0.04006122 0.039138775 -0.04397706
000110 d4 0f a0 3c 5d e9 e6 3b 74 7f 2f 3c 49 49 e7 3c
       0.019538797 0.007046862 0.01071154 0.028233187
000120 37 6c 92 3c 6b aa 7e 3c 61 8b 0d bd ef c5 01 bc
       0.017873866 0.0155435605 -0.03455675 -0.007920726
000130 c6 8c a7 bc 44 33 40 39 a6 b7 1f 3b 01 e9 32 3d
       -0.020452868 0.00018329645 0.0024370938 0.04367924
000140 13 6c 0e bb d9 f7 c9 bb bd bf eb 3b 21 dd 04 bc
       -0.0021731898 -0.006163579 0.007194488 -0.008109362
000150 6d b4 1f 3b a4 b8 81 3a 00 4f 54 3b 82 cc d1 3a
       0.0024369017 0.0009896946 0.003239572 0.0016006383
000160 54 75 96 3b aa 92 0b 3b e2 eb 90 bb a4 29 59 b9
       0.0045916233 0.0021297135 -0.0044226507 -0.00020710245
000170 c5 31 d1 bb ff 1a 6b 3a 5c de 7e 3a a5 63 63 3b
       -0.006384107 0.00089685613 0.0009722465 0.0034696844
000180 ea 14 ab bb 05 f9 41 ba c6 14 a6 3c d4 f5 b0 37
       -0.005220999 -0.00073994725 0.020273577 2.1095308e-05
000190 30 85 23 3b 2a f7 b8 bb aa 9a 26 bb 93 26 87 3b
       0.0024951212 -0.0056446986 -0.0025421777 0.0041244715
0001a0 15 d0 88 3b 47 68 15 3a 76 7a 47 bb 36 24 ec bb
       0.004175196 0.00056994375 -0.0030437983 -0.007206465
0001b0 34 f7 e8 ba 8c b0 25 bc c1 6d 13 bc ef 8e 63 3c
       -0.0017773868 -0.010112893 -0.008998335 0.0138890585
0001c0 b4 10 df 3a 15 0c 04 39 c1 7d 15 bc 2d 7a 8f b9
       0.0017018528 0.00012593002 -0.00912422 -0.00027366113
0001d0 b5 9d 66 ba c1 2d 25 3b 85 24 56 3a 40 7f 81 ba
       -0.0008797304 0.0025204273 0.0008168894 -0.0009879842
0001e0 d7 4e 0d bb 4d d7 23 b9 23 4b 84 3a d9 7f 48 3b
       -0.0021561885 -0.00015625097 0.0010093193 0.0030593781
0001f0 6e 9e 89 3a 52 c9 8c 3b 9d 39 7f 3b 3a 0c a4 bb
       0.0010499486 0.00429646 0.0038944252 -0.0050063403

exp_avg f4 [8]
000000 85 2e 69 38 80 14 c6 b9 ec 5b 24 bb a0 88 20 3c
       5.5594854e-05 -0.00037780777 -0.0025079204 0.009798199
000010 93 68 12 bc f9 5d 83 ba 35 57 85 3c 3b b7 ee bb
       -0.008936065 -0.0010022513 0.016276935 -0.0072850264

exp_avg f4 [16, 8]
000000 db 12 58 bc 7b d2 c3 3c bf 4b 11 bb ca 41 86 3b
       -0.013188089 0.023904076 -0.0022170392 0.004097198
000010 15 39 a7 3b 80 19 24 bb 2f 3b cb 3a 8c 92 8a bc
       0.0051032403 -0.0025039613 0.0015505309 -0.016915582
000020 da 89 5a 38 74 b7 80 3b 2b de 42 ba b9 62 24 3a
       5.2103635e-05 0.0039281193 -0.00074336183 0.00062708143
000030 c3 8f 88 3a c2 3f 8e bb c9 7b 98 b9 5a ac 98 b9
       0.0010418821 -0.0043410966 -0.00029083926 -0.0002912011
000040 ad b6 b7 3a 91 bc d6 bc 13 71 4f 3b 55 e9 29 bc
       0.0014016234 -0.026212962 0.003165309 -0.010370572
000050 b2 a2 f2 bb 4a 57 0f 3d 4e 69 9b b9 ac bf 9f 3b
       -0.0074046487 0.034995355 -0.00029642362 0.004875144
000060 ab fc b4 3a e5 68 db 3b 0a 37 5d bb 85 76 fa ba
       0.0013808211 0.006695854 -0.003375473 -0.0019108808
000070 ba d6 ec 39 3d 25 32 bb 94 5f 6a ba ef fe bb 39
       0.00045173411 -0.002718284 -0.0008940634 0.0003585736
000080 be f5 3b bc 8c a7 94 3c 06 18 24 3a 51 47 58 3c
       -0.011472164 0.018146299 0.0006259683 0.013200597
000090 7c 8b b3 3b 00 c1 70 bc 96 9d 5c 3b 08 be 73 bc
       0.0054792743 -0.014694452 0.0033663264 -0.01487685
0000a0 65 8e 09 bb 39 2e fd bb 6b 70 a3 3a 30 ac 50 bb
       -0.0020989415 -0.0077264574 0.0012469416 -0.0031840913
0000b0 7d d5 2f bb 0b e1 77 3c 1f 07 e2 39 02 85 8d ba
       -0.002683013 0.015129338 0.00043111385 -0.0010797086
0000c0 5c c3 32 bc ad 4b 31 bb 4f ce 70 3b 4f 17 21 3b
       -0.010910835 -0.0027053163 0.0036744063 0.0024580543
0000d0 49 cb 94 ba 3e 28 89 3c 3a f9 36 3b 9d fb 33 bc
       -0.0011352088 0.016742822 0.0027919547 -0.010985282
0000e0 44 ae cf 3a 26 ac cb 3a 16 f4 0e b9 a7 e4 73 3a
       0.0015844782 0.0015538975 -0.00013633104 0.0009303786
0000f0 cf 08 64 3a 95 65 c1 bb 34 40 9f b9 ed af b7 3a
       0.00086988223 -0.005902002 -0.00030374678 0.0014014222
000100 89 09 1f ba 8c d2 ad 3b 23 7f ea b9 9e d1 e2 3a
       -0.00060667895 0.00530464 -0.00044726682 0.0017304902
000110 04 a2 c7 3a d6 cb ca bb be 04 2c 37 9c d5 b1 ba
       0.001523078 -0.00618885 1.0253103e-05 -0.0013567689
000120 f5 22 c8 3a 6e 6c 9b bc 8f cf 80 3b cb 95 0c bb
       0.0015269207 -0.018972602 0.003930993 -0.0021451588
000130 d6 c2 91 bb c2 31 7c 3c 97 3c 78 3a 4c a9 7c 3b
       -0.004448275 0.015392723 0.0009469478 0.0038553057
000140 e3 25 d8 3a 22 b3 de bb 01 ea c2 3a 1d 46 91 b9
       0.0016490783 -0.0067962566 0.0014870764 -0.00027708794
000150 b8 63 ad ba d0 e3 2b 3b 1b b2 b3 38 fd 60 29 3b
       -0.0013228571 0.0026228316 8.56856e-05 0.0025845163
000160 8a 57 44 bb dc a2 c6 ba 9f 78 47 3b 58 54 d1 3b
       -0.0029959404 -0.0015154737 0.0030436886 0.0063882284
000170 24 bd ec 39 e0 f5 91 bb 06 f5 eb 3a 86 2c 36 bb
       0.00045154348 -0.0044543594 0.00180021 -0.0027797534
000180 a2 15 9e 3b f2 15 fa bb 85 1b 9f b8 31 91 4b bb
       0.004824356 -0.0076320106 -7.586837e-05 -0.0031061883
000190 7c 7b e7 ba 4f c3 36 3b 23 50 78 ba 80 13 c4 3b
       -0.0017660703 0.002788741 -0.00094723905 0.00598377
0001a0 bd 3b 02 b8 29 48 dc ba 42 8a 30 ba 91 88 8d bb
       -3.105005e-05 -0.0016806173 -0.0006734469 -0.0043192585
0001b0 17 aa 3c ba 8f a6 ff 3b bb 79 63 ba 5d b3 09 3a
       -0.0007196976 0.0078018378 -0.0008677502 0.00052528625
0001c0 70 bb b8 3c bb 32 35 3c 6b f6 09 bc 60 b8 08 bb
       0.022550315 0.011059458 -0.008420567 -0.002086185
0001d0 69 64 80 3b 18 66 31 bd 85 e7 b4 bb 0d 89 b3 3c
       0.00391822 -0.043310255 -0.0055207633 0.021915937
0001e0 1b f5 91 3b 7f 83 77 3c 6a 90 71 bb 38 3a 7b 3a
       0.0044542677 0.015107035 -0.003685976 0.00095835654
0001f0 ac 50 90 3b 01 5c b3 bc 64 81 f3 ba 58 0c 24 3b
       0.004404148 -0.021894457 -0.001857799 0.0025031772

exp_avg f4 [16]
000000 9a d1 91 3c 1e 29 31 3a 80 67 96 bb c9 35 63 3a
       0.017800141 0.0006758141 -0.004589975 0.00086673774
000010 b0 a3 55 3c dd dc dc 3a 54 40 2c 3c 58 55 ef ba
       0.013039514 0.001685049 0.010513384 -0.0018259687
000020 80 1b 92 3a ae 53 a2 bb e6 57 47 bb 0e 5f e4 3a
       0.0011147112 -0.004953823 -0.0030417382 0.0017423348
000030 49 3a c5 bb 47 a7 11 3a e3 69 ae bc 03 54 1c bb
       -0.006018911 0.00055562373 -0.021290725 -0.0023853786

exp_avg f4 [7, 16]
000000 8f 64 03 bc 1a 9a 46 3c 9d 1a 09 3c 9d 2d fd bc
       -0.0080195805 0.012121702 0.0083681615 -0.03090554
000010 cc 3b a4 bb 3b 8c 69 3b 80 b4 21 bc d5 46 c9 bb
       -0.005012011 0.0035636562 -0.009869695 -0.006142477
000020 4c 98 85 bc 0f dc 05 3c 01 5d 60 3c 75 d7 20 3c
       -0.016307972 0.008170142 0.013694049 0.009816994
000030 c8 4c 2a 3c c8 e1 77 3c 5e de b3 bb b1 7e 02 3a
       0.010394283 0.015129514 -0.0054891547 0.0004977985
000040 40 56 32 3c c8 84 12 bc 05 d9 b8 3c ad 3d ed ba
       0.010884821 -0.00894279 0.02256442 -0.0018100046
000050 33 b4 e7 3b df 20 aa bc 7d e8 73 bc b0 f9 6e bc
       0.007071042 -0.020767627 -0.0148869725 -0.014585897
000060 33 82 a8 bc a7 7a d3 bb dd 8b cf 3c d1 3d 04 3c
       -0.020569896 -0.0064538303 0.025335247 0.008071379
000070 54 89 15 bc 29 dd 31 3d fa 87 74 bc f6 69 ab bb
       -0.00912698 0.043423805 -0.014924997 -0.0052311374
000080 db c1 de b9 c2 79 d2 ba 4f 08 ca bb 06 f8 2e 3c
       -0.00042487573 -0.0016058015 -0.0061655412 0.010679251
000090 8c db 94 bb 41 32 73 3b 7c 84 b7 3b f6 ad b5 3b
       -0.0045427736 0.003710881 0.00560051 0.0055444194
0000a0 a7 d2 26 3c af 7c 7b ba a4 12 0f bc e2 ee 8d bb
       0.010182059 -0.00095934694 -0.008732472 -0.0043314556
0000b0 82 e0 d5 ba 3b e5 56 bc 96 f9 8f 3b 06 05 b9 3a
       -0.0016317519 -0.013116176 0.0043937666 0.0014115877
0000c0 a2 e4 7a 3b ee f8 18 bb a4 c4 80 3c 2d 5e e1 bb
       0.0038283248 -0.0023341733 0.015718766 -0.0068776817
0000d0 e2 ab a6 ba 46 7c 2b bc 4a 5e 34 bc 13 1d 16 bc
       -0.001271602 -0.010466641 -0.011008808 -0.009162205
0000e0 dc 72 6d bc b0 ba c6 ba 90 55 93 3c 5d 03 ee 3b
       -0.014492717 -0.0015161838 0.017985135 0.0072635845
0000f0 d7 45 5b bb 14 10 e9 3c 7d 05 26 bc ed f2 28 bb
       -0.0033458376 0.02845005 -0.010133144 -0.002577956
000100 a9 92 76 bb 03 52 e0 3b 5f 92 21 3c 94 3a b8 bc
       -0.0037624037 0.006845714 0.009861558 -0.02248887
000110 f9 a3 87 ba a0 ef b9 ba e7 47 1d bc 16 48 eb bb
       -0.001034855 -0.0014185794 -0.009599662 -0.007180224
000120 99 2b 6f bc f9 8c 9c 3b 49 d6 5a 3c 02 84 11 3c
       -0.014597797 0.0047775474 0.013356754 0.008881571
000130 b5 52 b3 3b 95 8e 9a 3c c9 ee d6 bb 77 c3 b8 ba
       0.005472506 0.018866817 -0.006559227 -0.0014096339
000140 3f 9a 00 3c 63 e6 25 bc 0f 8c bf 3b 42 3b 96 3c
       0.007849275 -0.010125729 0.0058455537 0.018338803
000150 63 18 eb ba 84 f9 21 bc e4 43 80 ba be d3 ab ba
       -0.0017936345 -0.009886149 -0.0009785858 -0.0013109369
000160 35 3a 8d 3a 68 cd f6 bb 8c da a5 3b fe 5c 0a bb
       0.0010774793 -0.0075318106 0.005061453 -0.0021112557
000170 53 83 25 bc 9b 19 1e 3c dd e4 62 bb ac 3e f7 b9
       -0.010102111 0.0096496595 -0.0034621276 -0.00047158205
000180 12 c9 a3 3c 64 37 cb bc 67 6f 6f 3c cc d5 34 3d
       0.019993339 -0.024806686 0.014613963 0.044149205
000190 29 c3 2a bb 3e 04 c0 bc 4d d7 40 bb 6d 2b 7c bb
       -0.0026056266 -0.023439523 -0.0029425204 -0.0038478032
0001a0 e8 3a 3a 3b bb 37 90 bc 7e 1f 36 3c df 04 af bb
       0.0028416459 -0.0176047 0.011115907 -0.005341157
0001b0 c8 27 c7 bc d1 5d c1 3c 12 ee 11 bc 84 6c 1c bb
       -0.024310961 0.023604305 -0.008906858 -0.0023868391

exp_avg f4 [7]
000000 61 9a 00 bc c6 fe 88 3c e4 fb 7b ba b6 3f 01 3c
       -0.007849307 0.016723048 -0.0009612425 0.007888725
000010 d3 93 04 bb 37 5e 35 3c 66 c2 db 3c
       -0.0020229712 0.011069826 0.026826095

exp_avg f4 [16]
000000 52 b6 68 3c 6c 1e 81 3c 9b 04 05 bc da eb 05 3d
       0.014203625 0.015761577 -0.008118774 0.03269563
000010 0e 70 68 3c 21 92 e0 3c 41 9a 4a 3c 9b 15 1a bc
       0.014186872 0.02741343 0.012365879 -0.009404565
000020 a0 31 2d 3b 48 91 8b 39 7e 4e 7c bb 1e 4c 5d 3c
       0.0026427284 0.0002662039 -0.0038498933 0.013506917
000030 15 4f 8a 3c de aa 23 3c 90 4a ed 3a 7c 30 80 ba
       0.016883412 0.009989468 0.0018103886 -0.0009780074

exp_avg f4 [16]
000000 e6 68 ad 3c 76 64 df bb 9d 3d eb bb 1c a6 f3 3b
       0.021168184 -0.006817396 -0.0071789757 0.0074355733
000010 ed b9 d0 3c 6b 74 02 bd 97 a1 dc b9 f1 af c6 3a
       0.025479281 -0.031849306 -0.00042082064 0.0015158636
000020 a6 5b 08 3c 2c b2 d2 bb 39 d5 33 3b 07 89 8b bc
       0.008322632 -0.006429931 0.0027440323 -0.017033113
000030 c4 d9 ef bc df 62 cb 3a 2b e5 7b bc 17 2b 8d 3b
       -0.029278643 0.0015517137 -0.015374462 0.004308115

exp_avg f4 [8]
000000 8b 4c 27 bb 52 de 48 bc bb d9 5d bb 17 8a c0 3b
       -0.00255278 -0.012260037 -0.0033851701 0.0058758366
000010 1e 6c 30 3c b1 cd a1 bc 42 27 f1 3a ae 22 91 3c
       0.010767965 -0.019751402 0.001839854 0.017716732

exp_avg f4 [8]
000000 25 3e 02 3b fc 5a 12 3b 53 20 9b 3b 42 82 41 3c
       0.0019873467 0.0022332063 0.004734078 0.011810841
000010 54 76 95 bb 67 85 ab 3b 29 37 69 3c fd 86 9e bc
       -0.004561225 0.0052344087 0.014234343 -0.019351477

exp_avg f4 [8, 7]
000000 79 68 b2 bc 38 a2 70 3d 6e 54 83 bc 34 aa ff 3c
       -0.021778332 0.058748454 -0.01603147 0.031209089
000010 e0 e8 fc bc 3f d2 99 3b aa bc c0 3d 9e 5a 08 be
       -0.030872762 0.0046942527 0.09410985 -0.13315818
000020 8c 9f 2f be 0b c6 22 3b 67 1d 24 be 3d 4b 08 be
       -0.17150706 0.002483728 -0.16026841 -0.13309951
000030 3a df 1f be 79 0a 49 be 8f cb b5 bd 1e 20 af 3c
       -0.15612498 -0.19632901 -0.08876716 0.02137762
000040 8d e3 df bc cb dc 80 bc 67 44 c0 bd 6f 69 9d bd
       -0.027330184 -0.015730282 -0.09388047 -0.076861255
000050 7f 00 cc 3c b6 b1 c0 3c fb 4c e8 3c 69 14 58 b9
       0.02490258 0.02352224 0.02835702 -0.00020606969
000060 d0 6b de 3c 6f 1f ad 3c 20 70 d8 3c 11 d7 13 3d
       0.027151018 0.021133153 0.026420653 0.036093775
000070 00 6f e1 bd b9 a8 a1 3d 9e ab d6 3b 7c 55 f9 3c
       -0.110075 0.078935094 0.00655122 0.03043627
000080 c2 22 99 bd cf 86 7c 3d f3 d3 53 3e c5 c3 cc bc
       -0.07477333 0.061652 0.20686321 -0.024995694
000090 bd a2 0f bc 13 5e c1 39 c7 68 48 bc de 26 e1 bc
       -0.008766827 0.0003688192 -0.012232012 -0.027484354
0000a0 f8 e6 51 bc a3 19 22 3c 9c d7 72 3e 22 e8 2e be
       -0.012811415 0.009893808 0.23715061 -0.17080739
0000b0 0b ef a7 3c 94 13 75 bd 4d cc 83 3e 9e 4e ad bc
       0.020499727 -0.059833124 0.25741807 -0.021155652
0000c0 a9 40 f8 be f8 c4 33 3d d0 d9 d5 3d 2e c8 c8 bb
       -0.48486832 0.043889016 0.10441935 -0.006127379
0000d0 0d 2a b5 3d 19 06 35 3d 0e f2 92 3d 58 5d 08 3e
       0.08845911 0.04419527 0.071750745 0.13316858

exp_avg_sq f4 [8, 7]
000000 92 3f 3a 38 30 cc 24 39 2b 8b 3d 37 c8 df b2 38
       4.440506e-05 0.00015716325 1.129768e-05 8.529384e-05
000010 a9 3e 7f 38 24 ee d3 37 88 58 87 39 83 9d 01 3a
       6.0855094e-05 2.5264053e-05 0.00025815167 0.00049444305
000020 68 32 4b 3a 71 ee 0a 35 9e a6 32 3a de db ff 39
       0.00077513466 5.1755984e-07 0.0006814989 0.00048801204
000030 fe 6b 26 3a 5e bf 7f 3a 6e 1a 41 39 10 72 de 38
       0.00063484896 0.0009755994 0.0001841576 0.00010607031
000040 99 f3 e9 37 90 62 b6 38 5d 3e 63 39 fa af 15 39
       2.7889198e-05 8.696795e-05 0.00021671639 0.00014275304
000050 08 f5 92 38 37 95 8b 37 55 f4 c7 37 3c 01 e2 32
       7.007463e-05 1.6639575e-05 2.3836425e-05 2.6310424e-08
000060 65 46 b8 37 28 9b 6e 37 7e da ad 37 74 90 19 38
       2.196729e-05 1.4222031e-05 2.072495e-05 3.6612575e-05
000070 a0 80 ac 39 a8 f4 7f 39 43 3a e3 36 9a 2a 0b 39
       0.0003290223 0.00024409837 6.7719097e-06 0.00013271943
000080 a5 05 53 39 e2 57 ce 38 1b 80 87 3a 32 dd 81 37
       0.00020124631 9.839215e-05 0.0010337861 1.5481e-05
000090 89 80 31 36 29 4f c6 33 89 6b 9c 36 5e 9e 9f 37
       2.6449873e-06 9.2344926e-08 4.661681e-06 1.9028023e-05
0000a0 cc 15 c1 36 94 2d 92 36 23 0a ad 3a b4 b7 76 3a
       5.7543857e-06 4.356445e-06 0.0013201874 0.0009411529
0000b0 f0 fb 53 38 fa ca 8d 39 07 b4 cf 3a d5 cf 86 38
       5.0540955e-05 0.00027044845 0.0015846499 6.42833e-05
0000c0 45 8c be 3b 43 fe 8b 38 f8 10 95 39 3e 6a 19 36
       0.0058150613 6.6753964e-05 0.00028432137 2.2860618e-06
0000d0 e6 80 56 39 39 b7 7d 38 7a ce 12 39 a2 ea e7 39
       0.00020456649 6.049054e-05 0.00014000564 0.00044234568

exp_avg f4 [8]
000000 e9 3c 49 be 56 ff af 3e 12 70 04 be 45 17 bc 3d
       -0.19652142 0.34374493 -0.12933376 0.09184126
000010 13 3b 81 be 87 85 22 3d fc 79 eb 3d 74 d7 96 bd
       -0.25240383 0.039678123 0.11497876 -0.07365313

exp_avg_sq f4 [8]
000000 ee 1a 7b 3a 0d ca 3c 3b d0 22 1d 3a ad 6d 6a 39
       0.0009578903 0.0028806955 0.0005994262 0.00022356836
000010 85 9a db 3a 50 4d 24 38 b6 3c 9e 3a d5 a7 19 39
       0.0016754424 3.917265e-05 0.0012072537 0.0001465374

exp_avg f4 [1, 8]
000000 74 5d e6 3e 36 b2 02 bf 6e 12 3b 3f a1 12 d2 be
       0.44993174 -0.5105318 0.73074996 -0.41029838
000010 1a 75 a8 3e d7 7c 78 be 60 7c 2d 3e ae 4a 03 bf
       0.3290184 -0.24266373 0.16941977 -0.5128583

exp_avg_sq f4 [1, 8]
000000 33 da 9a 3b 2e c1 d1 3b a4 05 57 3c 74 2c 8f 3b
       0.0047257184 0.0064012026 0.013123903 0.004369313
000010 29 d6 43 3b db 63 be 3a db 1e 5a 3a 62 46 dd 3b
       0.0029882288 0.0014525609 0.0008320638 0.006752775

exp_avg f4 [8]
000000 0e cb 4e 3d 84 60 cf 3e da f0 17 3e 59 88 0c 3e
       0.050486617 0.40503323 0.14837971 0.13723888
000010 bc b6 ca 3d bf c8 93 3d ec ba 29 be 5c 90 3e 3d
       0.09898135 0.07216024 -0.16575211 0.04652439

exp_avg_sq f4 [8]
000000 b5 cd 7c 38 5b 09 84 3b 19 e9 0e 3a 0e 72 00 3a
       6.027306e-05 0.0040294356 0.00054516044 0.0004899808
000010 09 53 8e 39 ca 1b 07 39 77 45 51 3a 8f 54 6d 38
       0.00027146217 0.00012884956 0.00079830684 5.6583955e-05

exp_avg f4 [8]
000000 fc 05 2f 3c 72 40 9a bd 8d 05 9e 3c ac 0e 02 bd
       0.010682579 -0.07531823 0.019289756 -0.031752273
000010 da f3 e9 3c dd 3b e7 bc 65 c6 c0 bd 83 8e 0d bc
       0.02855866 -0.028226787 -0.09412841 -0.0086399345

exp_avg_sq f4 [8]
000000 3c 62 4d 36 ce 9d 1d 39 78 5c 26 37 88 b3 e0 37
       3.060456e-06 0.00015031474 9.915901e-06 2.6786482e-05
000010 e9 d1 b5 37 69 a8 b1 37 b2 5f 75 39 55 b9 06 36
       2.1674628e-05 2.1178466e-05 0.0002340067 2.0075433e-06
