saved/gan/jgnx2xgb/checkpoints/epoch=0-step=10-v3.ckpt (torch, 21906 bytes, 39 tensors)

generator.fc1.weight f4 [16, 7]
00000000: 8c0b b8be 5780 67bf f99d 5abd 7f42 05bf
00000010: f2ed c2be a48d 61bf 6b56 dfbd 643f 19be
00000020: 4fcd 3c3f e3f9 abbe 76b3 30bf d66c e5be
00000030: 4be2 8cbf 6994 1bbc 88f1 e7be 0c7f ca3e
00000040: 838f 2a3f ca7c bfbe cdbd bdbe 1fe4 e9bd
00000050: 8e27 4a3f c435 a93f ada4 d5be e2c3 f43e
00000060: b7fb da3e 40ca 093f 05c0 423f e55b d2be
00000070: ee35 bbbc 03ec 85be b113 f5be cd0e 323e
00000080: 2962 67bf da58 1bbf 6c63 803e 26ed 663f
00000090: 1d98 383f 894c a83c d1e7 ba3e 3e04 033e
000000a0: 7f5e 8f3f d1bf aebe b412 2e3f a1ea d03e
000000b0: a0c0 84bf 82b2 d9be 7e12 ed3e 46ce 7c3f
000000c0: 3257 a03b dede adbe f87d fe3e 1b0b 94be
000000d0: 6dc4 dcbd 07a6 99be dec5 4fbe 2886 703e
000000e0: 2590 a6be c29a 3dbf 5421 fe3d 96ad 7d3c
000000f0: 6936 cbbd 4f16 adbc 12d3 17bd 2bb2 73bf
00000100: df9d a13e 3052 0b3f ebce d43e ba34 dd3d
00000110: 00d9 193f 7097 08be 55bb 143e bb27 d43e
00000120: 6673 233f 4737 00bf 829b 603f 8d46 343f
00000130: eca7 23bf b268 2abf 5b73 15bf bb44 433f
00000140: b213 c63e 6310 f4be 88cd 043e 28b4 2fbe
00000150: a934 f5be 9986 923e 4466 b53e 6d21 82bd
00000160: 563c 9cbe c538 7d3f 321a f2bd c705 6a3e
00000170: af40 26be 7f1c 41bf 45cd f8be b7f1 ba3e
00000180: 033e 0e3f 4a15 a63e 9cf0 02bf e4bd 6abe
00000190: fc6d 393f 4650 293f 847d b73e f62b a03e
000001a0: 3ed4 4c3d 3d74 ab3f 8239 bf3e 8296 e1bd
000001b0: 1478 563e 66ac e03d 6404 8b3e 95f4 233e
-0.3594631 -0.90430206 -0.05337331 -0.5205459 -0.38072163 -0.8810675 -0.10905155 -0.14965588
0.73750776 -0.33589086 -0.69023836 -0.44809598 -1.1006559 -0.009495833 -0.4530146 0.39550054
0.6662523 -0.37399894 -0.3705887 -0.11420464 0.78966606 1.3219533 -0.417272 0.47805697
0.42770168 0.53824234 0.7607425 -0.41085735 -0.022852864 -0.26156625 -0.47866586 0.17388459
-0.90384156 -0.6068245 0.25075853 0.9020561 0.72107106 0.020544307 0.36504987 0.12794587
1.1200713 -0.3413072 0.6799729 0.40804008 -1.0371284 -0.42519003 0.4630317 0.9875225
0.004893207 -0.33959097 0.49705482 -0.28914723 -0.10779653 -0.3000948 -0.20290324 0.23488677
-0.3253185 -0.74064267 0.124087006 0.015483281 -0.09922487 -0.021128802 -0.037066527 -0.9519374
0.3156576 0.54422283 0.41564116 0.108010724 0.6009674 -0.13339019 0.14524586 0.41436562
0.6384796 -0.50084347 0.87737286 0.7042015 -0.63928103 -0.66566 -0.58379143 0.7627675
0.386869 -0.47668752 0.12969029 -0.17158568 -0.4789174 0.28618315 0.35429585 -0.06354032
-0.30514783 0.9891475 -0.118214026 0.22853766 -0.16235612 -0.75434107 -0.48594108 0.3651254
0.5556337 0.32438117 -0.5114839 -0.22924 0.7243345 0.6613811 0.35837948 0.3128354
0.050007097 1.3394848 0.37348562 -0.11015035 0.20944244 0.109703824 0.27151787 0.1601127

generator.fc1.bias f4 [16]
00000000: e199 763e e924 b13e ef4a 4d3e a74e 0b3e
00000010: 8871 aabe 4ef6 aabe 17c5 49bd c52f a7be
00000020: 51eb 21be 0e91 923d 9d07 aa3e e020 6bbe
00000030: f0b5 823d 4b73 953e 9204 5fbe f632 30be
0.24082138 0.34598473 0.20048116 0.13604222 -0.33289742 -0.3339104 -0.049260225 -0.32653633
-0.15812422 0.07156573 0.33208933 -0.2296176 0.06382358 0.29189524 -0.21779087 -0.1720694

generator.fc2.weight f4 [8, 16]
00000000: eca7 1f3f ce8d 073f 1e31 6abe f898 55bf
00000010: 21d7 0d3e 64c9 873d a14d b6bd e248 3b3c
00000020: dca8 023f 8899 3cbf 2cf4 9e3c 47bd eabe
00000030: ba21 bf3d 4a47 173f 1910 8c3e 7b45 bebe
00000040: 5457 2f3f a130 a1be 14fa 78be dc7d 65be
00000050: 42d1 fd3e f5c0 393e 3e14 6f3e 29ab a1be
00000060: 58f6 f3bd f895 953e 1f52 443e e85d 113f
00000070: 3228 11be f895 20bf 25f4 a1be 6d99 b7be
00000080: ca66 4bbe 0b2a e6bd 47fc 80be 7d22 043f
00000090: 2c2d 3abf fc1b fc3e 4a4e 4a3e edaa 22bf
000000a0: 8677 b73d b60b 66be 4b86 4dbe 8591 97be
000000b0: 26e7 ad3d 52ad d2be 41b5 9fbe 592c 1bbe
000000c0: 9bca ff3e 290b acbe d880 36bc e1a3 9ebe
000000d0: 4efb 4a3c 973e e6be 8d5b 5e3e a2cf e0be
000000e0: eaee 9abd 15f2 e0be 3956 69be fcd9 97be
000000f0: c877 8c3e 390a e2be 0382 a8bd c9fb 11bf
00000100: b0ed 8ebe 354c 773d 6e55 79bc 20e3 90bb
00000110: 98db 6c3e a5bc 14bd d38a 873c e0f7 4f3d
00000120: 4ff9 a33e 63c2 26be 4e51 59be 61ab 5b3e
00000130: f7ea 343d 86bf d03e 6a43 523e dfac 943e
00000140: ade8 813e 2d76 b63e f3b7 353d 4cd3 bb3e
00000150: bf4d a43d 4cc2 aa3c 4a2c af3e 8e41 153e
00000160: db34 213e 80f8 dd3d 5eb0 5c3e d22b 29be
00000170: e5d9 86be 764d 82be a4b3 0abf a6ed 813e
00000180: a470 37bf 9478 593e a616 e03e 2d98 6ebe
00000190: f8c3 05bf 3dc4 213f 990d f13d 6cdb d3be
000001a0: b4da 8e3e 5821 1f3e 5445 e53d b016 a53e
000001b0: da30 b93e e2c6 55bd 1bb8 563f c2ca 623e
000001c0: 5492 c53d a59d b33e c7fe 563e 6c0b f8bd
000001d0: e8db 503e 19b1 a63e 33da f0bd 37b4 b23e
000001e0: 4b51 583e 17f5 033e 45c8 a43e 2e81 19be
000001f0: 2fba d83e 0b45 a43e 57ed c63e 314c 6e3e
0.62365603 0.5295075 -0.22870299 -0.83436537 0.13851596 0.06630209 -0.08901525 0.011430951
0.5103891 -0.7367177 0.01940354 -0.45847532 0.09332605 0.59093153 0.27356032 -0.37162384
0.6849263 -0.31482413 -0.24314147 -0.22411293 0.49573714 0.18140014 0.23347566 -0.31575897
-0.11912221 0.2921598 0.19171952 0.56783915 -0.1417549 -0.62728834 -0.3163158 -0.35859242
-0.1986343 -0.11238488 -0.25192472 0.51615125 -0.72725177 0.492401 0.19756427 -0.6354206
0.08958344 -0.22465405 -0.2007076 -0.2960321 0.08491354 -0.41147858 -0.31192973 -0.15153636
0.49959263 -0.33602265 -0.011139117 -0.30984405 0.012389017 -0.44969627 0.21714611 -0.4390841
-0.075651005 -0.43934694 -0.22786798 -0.29658496 0.27435136 -0.44148424 -0.08227923 -0.5702482
-0.27915716 0.06037541 -0.015218122 -0.0044216067 0.23130643 -0.036312718 0.016545689 0.0507735
0.32026145 -0.1628509 -0.21222422 0.21452095 0.044169392 0.4077112 0.20533529 0.2903814
0.2537283 0.35637036 0.04436488 0.36684644 0.080226414 0.020844601 0.34213477 0.14575788
0.15742819 0.10838413 0.21551654 -0.16520622 -0.26338115 -0.25449723 -0.5418036 0.25376624
-0.7165625 0.21237403 0.4376728 -0.23300238 -0.5225215 0.6319006 0.11770172 -0.41378343
0.27901232 0.15540063 0.11194864 0.32243872 0.36170083 -0.052191623 0.8387467 0.22147658
0.096470505 0.3508121 0.20995627 -0.121115535 0.20396388 0.3255699 -0.11760368 0.34903118
0.21124761 0.12886463 0.32184044 -0.14990684 0.42329547 0.32083926 0.3885295 0.23271252

generator.fc2.bias f4 [8]
00000000: 5f48 0fbe 417c 213e c5cf 8fbc 2f5b 3a3e
00000010: 67a0 73be 176e 0bbd 13f1 5dbe fa2b d43d
-0.13992451 0.15770055 -0.017555127 0.18198846 -0.23791657 -0.034040537 -0.21673994 0.1035995

generator.fc3.weight f4 [16, 8]
00000000: bd88 7ebf 7dc1 f3be a066 493f ef5d 883f
00000010: fb2f fbbe d004 33bf 6eef 233f 6660 45be
00000020: 35aa ba3d c185 65bd 6051 8b3f 5aab 223d
00000030: a7e7 213f 66bb b23c 918d 3d3d 665c b53e
00000040: a88e ce3d 46b0 013f f0cc 86be a047 febd
00000050: 8c9d a8bf 77da a53e 7864 abbd 417c 68be
00000060: 6995 223c fb4b dabe 1292 1e3f 79cd 1e3d
00000070: 9a9a 82be b21c 0c3e cc48 8abe fbdd 13bf
00000080: d19e 193e 3099 f23d 540d 05bf fdab 283f
00000090: b754 503e 3b41 6dbf 8b50 3dbf 5160 4dbe
000000a0: 662e 433d 7900 63be de29 da3f 4b7a b1be
000000b0: 7653 3abf 537c c5be 1997 343e f36b 71bf
000000c0: 26a0 023e af94 473e 5863 aabe 20a9 7c3e
000000d0: 64a9 013f 7e02 27bf b918 afbd f3c9 f7be
000000e0: 5ad0 21bf 7457 31bf 49d4 a33d 369f 113e
000000f0: 5688 b23d 23fc 2cbe 4ea3 33be 207d 883d
00000100: 11ed 32bf 2db8 37bf 7497 a63f 6588 1cbd
00000110: 6d08 1a3f bd37 d7be 2420 213f d7d4 8a3f
00000120: 1e7d 473e 45de 4bbf 58ee 43bf aaa6 90be
00000130: 3f43 b8bd cf27 053f 3a47 043f 9a29 16bf
00000140: fc09 21ba fe57 dabe dc4b a9be 3133 a3be
00000150: 23e4 07bf 8da0 823f 3f45 ab3e e631 08be
00000160: f116 673e 4ee0 49bd e351 0e3f e0e0 15be
00000170: 497d 10bf dbd8 1f3e bb7d 07bf 1a9e 97bf
00000180: 4594 04be 08ff 7d3f 6eb5 c0bd 8055 52bf
00000190: 6f69 653f fa7b ddbe 4e74 64bc e4f1 afbe
000001a0: dc73 ad3e 6363 5d3f 4d0e fa3e f517 093e
000001b0: 83f0 643e 310d 183f e88b 2a3b 9df4 a33f
000001c0: 71a8 0abf adbe 4a3f 503f 633e 5b58 c3be
000001d0: 3e13 cebd ea2f 73bd 7957 3abf b17b 963e
000001e0: 9c89 22bd cfea 94be 66fb 003b 2992 0fbe
000001f0: 8117 8bbe 926e 223f cacc 163e bd4e 4bbf
-0.99427396 -0.47608557 0.7867222 1.0653666 -0.49060044 -0.6992922 0.64037216 -0.19275054
0.09114496 -0.05603576 1.0884209 0.039714195 0.632441 0.021817874 0.046277586 0.35422057
0.10085803 0.50659597 -0.2632823 -0.12416005 -1.317308 0.32393238 -0.08368772 -0.22703649
0.0099233175 -0.42636093 0.61941636 0.038770173 -0.25508577 0.13682821 -0.27008665 -0.5776059
0.1500199 0.118456244 -0.5197346 0.65887433 0.20344816 -0.9267766 -0.73951024 -0.20056273
0.04765167 -0.22168149 1.7044027 -0.34663615 -0.727836 -0.38571414 0.17635764 -0.9430534
0.12756404 0.19490312 -0.33278918 0.24673891 0.50649095 -0.6523818 -0.08549637 -0.48396263
-0.63208544 -0.6927407 0.079994746 0.1422089 0.0871741 -0.16893058 -0.17542765 0.06664491
-0.69892985 -0.71765405 1.301497 -0.038216013 0.60169107 -0.42034712 0.6293967 1.0846204
0.19481322 -0.7963603 -0.7653556 -0.28252155 -0.08997201 0.5201387 0.51671183 -0.5865723
-0.00061431504 -0.42645258 -0.3306569 -0.31874993 -0.53082484 1.0205246 0.33451268 -0.13300285
0.22567345 -0.04928618 0.555937 -0.14636564 -0.5644117 0.15610068 -0.52926224 -1.1845124
-0.12947185 0.9921727 -0.09409605 -0.8216171 0.89614004 -0.4325865 -0.013943745 -0.34364235
0.33877456 0.8647978 0.48839036 0.13388045 0.22357373 0.5939513 0.0026023332 1.2809025
-0.5416327 0.791972 0.2219212 -0.38153347 -0.10062264 -0.059371866 -0.7278972 0.29391244
-0.039682016 -0.29085395 0.0019681095 -0.140206 -0.2716637 0.63449967 0.14726558 -0.7941702

generator.fc3.bias f4 [16]
00000000: 17a5 933e e517 a8be dd5f 393e 0999 0abe
00000010: bba7 073e fa49 6d3c c985 203e c9ca b4be
00000020: 6672 3b3c 2b27 ac3e 7e79 17be bf25 723d
00000030: a43f 5f3a 6cf6 bbbb 794d 663e a0ba 30be
0.2883689 -0.3283073 0.18102975 -0.13534941 0.13247578 0.014482969 0.15676035 -0.35310963
0.011440849 0.33623633 -0.1479244 0.05911803 0.0008516258 -0.005736163 0.22490491 -0.17258692

generator.fc4.weight f4 [7, 16]
00000000: 2886 f83d 6c36 0dbf 8eb1 e6bd 42ad ad3d
00000010: 49dd 34bf 310b 933e 24c0 d7be 76c2 f0be
00000020: 94fd 54be 29ec c8bd 5584 b9bd ef77 f2bd
00000030: 3351 b2be 3e47 333e 9923 363c b47c e63d
00000040: 0a6f 203e fa03 d3be e33c 5f3e 52a0 703e
00000050: 45c7 453e b04a 4fbf ded7 d33e 0f23 67bd
00000060: 5670 223e 4139 033e 8091 aa3e 1330 0b3f
00000070: 4d1d 823e c860 4dbd d498 f43e 5639 1b3e
00000080: dd0f 663e 9900 873e 5f73 6d3d a132 1dbf
00000090: 24c2 fd3e 5d7c f63d 90c3 ca3e be2b 933d
000000a0: d354 10bd fb97 3cbf 22ec 30be 32f1 8e3e
000000b0: a9cf 87be eef9 4cbe 5e5f e4be 1292 b73e
000000c0: 5423 d0be 14c8 54bf 960f c8bd ee73 eebe
000000d0: ba09 86be 69f6 96bc 5f21 8c3d f2dd 05be
000000e0: 42a0 96bc e84e f9bc 5bc8 1ebf 0cc3 04bb
000000f0: de65 c13e 2104 75bd 8e9b 1b3e 3573 7bbe
00000100: f777 023f 9e84 b23e e700 5fbf bcc4 733e
00000110: 1596 0fbe fb37 1a3f e288 a1bd 0014 dbbd
00000120: 9519 81bf 5451 5d3f fad8 903e a264 293e
00000130: a0b6 24bb 6754 0a3d 5393 803e 5350 ee3e
00000140: 39c9 1b3d dde1 41be a96b b13e fd31 8e3e
00000150: 2e35 5b3e b330 243f cbf8 043e b088 06be
00000160: c045 cf3c a935 f63c 2827 603c 7cf4 933e
00000170: e18b 093e 6bbf c73b 4f5b df3e 6a14 58be
00000180: 8a3b 873e 7b6c 8fbe c158 2e3e f908 14bf
00000190: f8cc 29be f0f1 51be cefa 0cbf 112c 813e
000001a0: 2a0b b43e 0ea5 3abe 94e2 48be 6924 64be
000001b0: a6f0 893e 3781 8abe 02d8 dd3e 52e3 d93e
0.12134963 -0.55161166 -0.112643346 0.08480312 -0.70650154 0.28719476 -0.4213878 -0.47023362
-0.20799857 -0.09810669 -0.090584435 -0.11839282 -0.34827575 0.17507645 0.011116886 0.11254254
0.15667358 -0.4121397 0.2180057 0.23498657 0.19314297 -0.8097334 0.4137563 -0.05642992
0.15863165 0.1281481 0.33314133 0.5437023 0.2541298 -0.050141126 0.4777285 0.1515859
0.22466989 0.26367643 0.057971355 -0.6140538 0.4956218 0.12035439 0.39602327 0.071860775
-0.035237145 -0.73669404 -0.17277578 0.27918392 -0.2652562 -0.20017216 -0.4460401 0.3585363
-0.40651953 -0.83117795 -0.09768598 -0.46572822 -0.26179296 -0.018428044 0.068423025 -0.13072947
-0.018386964 -0.030433133 -0.6202447 -0.0020257859 0.3777303 -0.05981839 0.15196058 -0.24555667
0.509643 0.34866804 -0.8711075 0.23805517 -0.14022096 0.6024167 -0.078874364 -0.10697174
-1.0085932 0.8645222 0.2829054 0.16542295 -0.0025133267 0.0337719 0.251124 0.46545658
0.038033698 -0.18933816 0.3465245 0.27772513 0.21407005 0.6413681 0.12985532 -0.1313808
0.025301814 0.030054884 0.013681211 0.28897464 0.13432266 0.006095817 0.4362435 -0.21101537
0.26412612 -0.28012452 0.17026044 -0.5782619 -0.16582096 -0.20502448 -0.550702 0.25228932
0.35164768 -0.18227026 -0.19617683 -0.22279514 0.26941413 -0.27051708 0.43328863 0.42556244

generator.fc4.bias f4 [7]
00000000: a557 4fbe d737 29be 51a3 6bbe 25c8 70be
00000010: d946 41be ee9e 8f3d 4e98 c1bd
-0.20248277 -0.16525207 -0.23011519 -0.23513849 -0.18874682 0.07012735 -0.09452878

generator.layer_norm_hidden_0.weight f4 [16]
00000000: 53b8 7e3f 53b8 7e3f 53b8 7e3f 53b8 7e3f
00000010: 53b8 7e3f 53b8 7e3f 53b8 7e3f 53b8 7e3f
00000020: d9a3 803f 53b8 7e3f 53b8 7e3f 53b8 7e3f
00000030: 53b8 7e3f 77be 7f3f 53b8 7e3f 53b8 7e3f
0.99500006 0.99500006 0.99500006 0.99500006 0.99500006 0.99500006 0.99500006 0.99500006
1.0050002 0.99500006 0.99500006 0.99500006 0.99500006 0.999 0.99500006 0.99500006

generator.layer_norm_hidden_0.bias f4 [16]
00000000: 0bd7 a33b 0bd7 a33b 0bd7 a3bb 6f12 83ba
00000010: 0bd7 a3bb 0bd7 a3bb 0bd7 a3bb 0bd7 a33b
00000020: 0bd7 a3bb 0bd7 a33b 0bd7 a33b 0bd7 a3bb
00000030: 0bd7 a33b 0bd7 a33b 0bd7 a33b 0bd7 a33b
0.0050000004 0.0050000004 -0.0050000004 -0.001 -0.0050000004 -0.0050000004 -0.0050000004 0.0050000004
-0.0050000004 0.0050000004 0.0050000004 -0.0050000004 0.0050000004 0.0050000004 0.0050000004 0.0050000004

generator.layer_norm_hidden_1.weight f4 [8]
00000000: d9a3 803f 53b8 7e3f 53b8 7e3f d9a3 803f
00000010: d9a3 803f 53b8 7e3f 53b8 7e3f 653b 7f3f
1.0050002 0.99500006 0.99500006 1.0050002 1.0050002 0.99500006 0.99500006 0.99700004

generator.layer_norm_hidden_1.bias f4 [8]
00000000: a69b 44bb 0bd7 a3bb 0bd7 a3bb 0bd7 a33b
00000010: 0bd7 a3bb a69b 443b 0bd7 a33b 0bd7 a33b
-0.003 -0.0050000004 -0.0050000004 0.0050000004 -0.0050000004 0.003 0.0050000004 0.0050000004

discriminator.fc1.weight f4 [8, 7]
00000000: 5bc9 7c3e b263 31bf 2ba8 14bf 57e3 8bbe
00000010: 3a97 773e dd30 8d3e 95f3 cfbd 08a3 15bf
00000020: 045d cabe fe46 c13e 61b4 babe 819d e9be
00000030: 6a6f 4cbf 13a2 af3e e15f 4ebf 908b f7bf
00000040: e466 c03f d1c1 10bf 740a 61be 7138 05bd
00000050: 0b09 6fbe 8ecb b2be c7ef 36bf ca65 15bf
00000060: ba8c 813e e52d e2bd 8784 95bf 3e06 843d
00000070: 7cc5 2c3e 8ec0 6bbe f58b 853d a257 56be
00000080: 496f 493d 37e1 3c3d 0e7b 4bbe de08 193f
00000090: e4e8 553e 042d f83e f24d 0fbf 6b0e 3bbf
000000a0: d741 babe c2a4 093f ca36 1bbf b161 dabe
000000b0: d4c1 103f b8ae 683e 914e 553e 48ce e03e
000000c0: a17c 37bd 7392 053f 5acc 79bd 7c2f 603f
000000d0: 5b29 e6be 81d1 dcbe 5667 09bf eeb3 693e
0.24686186 -0.6929275 -0.58069104 -0.27321884 0.24178782 0.27576342 -0.101538815 -0.5845189
-0.3952409 0.37749475 -0.36465743 -0.45627978 -0.79857504 0.3430334 -0.8061505 -1.9339466
1.50314 -0.5654574 -0.21976644 -0.03252453 -0.23343293 -0.34920925 -0.7145962 -0.5835844
0.25302678 -0.1104391 -1.1681069 0.06446503 0.1687221 -0.23022673 0.06520835 -0.20931867
0.049178395 0.04611322 -0.1987116 0.59779155 0.20889622 0.48471844 -0.5597831 -0.73068875
-0.36378357 0.53767025 -0.60630476 -0.42652658 0.5654576 0.227229 0.20830752 0.4390738
-0.04479659 0.5217659 -0.0609859 0.87572455 -0.44953427 -0.4312859 -0.53673303 0.22822544

discriminator.fc1.bias f4 [8]
00000000: 61b0 a73e 66c4 593e ced5 72be ddfc 453e
00000010: 9a5e af3e 4bd9 a43e 6612 45be 3ca4 a83e
0.32751754 0.21266326 -0.23714373 0.19334741 0.34251863 0.3219703 -0.192453 0.329378

discriminator.fc2.weight f4 [1, 8]
00000000: 07e9 a2be 3ae8 4a3e b3d2 c93f 7aa7 3cbf
00000010: f4e6 703e 12d0 a83e cc81 a23e 36f7 d0be
-0.3181841 0.1981515 1.5767425 -0.7369305 0.23525602 0.32971245 0.31739652 -0.40813607

discriminator.layer_norm_hidden_0.weight f4 [8]
00000000: 5fbe 7e3f 0aa3 803f e6b7 7e3f 2cbb 7e3f
00000010: 2ca4 803f 65a2 803f f7be 7e3f 9ec7 7e3f
0.99509233 1.0049756 0.99499357 0.9950435 1.0050101 1.0049559 0.9951014 0.9952334

discriminator.layer_norm_hidden_0.bias f4 [8]
00000000: 6b8f a13b c6c9 a1bb 09a1 a1bb f19b a13b
00000010: 19c4 a1bb 2cbb a1bb 748f a1bb c594 a13b
0.004930427 -0.0049373833 -0.004932527 0.0049319197 -0.0049367067 -0.0049356427 -0.004930431 0.004931065

exp_avg f4 [16, 7]
00000000: 1e85 3cba ca17 41ba 015c 6e1f 1fd4 40ba
00000010: 62c6 40ba 2724 41ba 0e01 3eba 166b 5a3b
00000020: 35cd 5a3b c017 ae20 cfbf 5a3b 92c3 5a3b
00000030: 5ecc 5a3b 72ba 5a3b d433 903a a00c 903a
00000040: 0fd2 5c20 380d 903a 970d 903a 3d0d 903a
00000050: 6e0a 903a f927 f0b9 4d1f e9b9 d5e6 63a0
00000060: f685 e9b9 2397 e9b9 4f16 e9b9 c6a1 ebb9
00000070: d356 fcba 8865 fcba 84d3 b5a0 be63 fcba
00000080: 5a63 fcba 376b fcba 48bd fcba cc29 9eb9
00000090: 143b 9db9 b90e e49e 6734 9db9 d142 9db9
000000a0: 302d 9db9 17b6 9db9 e5d9 d338 7428 d638
000000b0: b2db 2fa0 f09f d538 e0f7 d538 8e6c d538
000000c0: 8de3 d438 f588 c239 d969 c339 3b6b a71e
000000d0: f258 c339 f855 c339 f863 c339 2b43 c239
000000e0: 7a18 023b 49f8 013b e645 b220 85f8 013b
000000f0: 05f9 013b 73f9 013b ed1b 023b aee3 b5ba
00000100: 3876 b4ba df32 96a0 9f88 b4ba 528b b4ba
00000110: d078 b4ba fe36 b5ba 0e98 9537 2011 b037
00000120: 9367 32a0 299b ac37 20af ad37 d980 ae37
00000130: 6808 9e37 9c67 9dbb 253d 9dbb a0ac 5da1
00000140: b33d 9dbb f63d 9dbb b23f 9dbb 9f6a 9dbb
00000150: 47f4 70b9 2ac5 81b9 7074 2321 cf01 81b9
00000160: 071d 81b9 8387 81b9 4448 79b9 37b5 a83a
00000170: 1709 a83a c83c d120 1d1b a83a 6916 a83a
00000180: 9216 a83a 481f a83a 973e b039 9c0e ae39
00000190: 660e 3720 773c ae39 1236 ae39 5b20 ae39
000001a0: cd32 af39 b485 9939 8972 9b39 e57b 309f
000001b0: 3e56 9b39 7a52 9b39 506a 9b39 d26b 9939
-0.0007191467 -0.00073659106 5.0474564e-20 -0.0007355827 -0.000735378 -0.0007367753 -0.0007248082 0.0033327988
0.0033386473 2.9492463e-19 0.0033378487 0.003338073 0.0033385972 0.003337529 0.0011001774 0.0010990091
1.8704227e-19 0.0010990268 0.0010990378 0.0010990273 0.0010989436 -0.0004580615 -0.00044464544 -1.9304024e-19
-0.00044541032 -0.0004455383 -0.00044457844 -0.00044943223 -0.001925195 -0.0019256333 -3.0802562e-19 -0.00192558
-0.0019255683 -0.0019258027 -0.0019282484 -0.0003016725 -0.0002998939 -2.4146528e-20 -0.00029984416 -0.00029995156
-0.0002997904 -0.0003008104 0.0001010185 0.0001021185 -1.4895768e-19 0.00010186422 0.00010202802 0.00010176851
0.000101513324 0.00037104604 0.0003727216 1.7726162e-20 0.00037259568 0.0003725735 0.0003726778 0.00037052608
0.0019851015 0.0019831827 3.0200628e-19 0.0019831967 0.0019832265 0.0019832521 0.001985307 -0.0013877058
-0.0013768142 -2.5444652e-19 -0.0013773626 -0.0013774431 -0.0013768915 -0.0013825593 1.783299e-05 2.098881e-05
-1.5111456e-19 2.057625e-05 2.0704756e-05 2.0802416e-05 1.8838982e-05 -0.004803611 -0.0047985488 -7.510618e-19
-0.004798615 -0.004798646 -0.004798853 -0.00480397 -0.00022979184 -0.00024751696 5.538065e-19 -0.00024606145
-0.00024626424 -0.00024705761 -0.00023773412 0.0012871389 0.0012820092 3.54462e-19 0.0012825463 0.0012824062
0.0012824109 0.0012826705 0.0003361597 0.0003319875 1.5505467e-19 0.00033232916 0.00033228152 0.00033211973
0.0003341645 0.0002928205 0.0002964924 -3.7371933e-20 0.0002962816 0.00029625354 0.00029643113 0.00029262766

exp_avg f4 [16]
00000000: 025c eeb9 c017 2ebb 0fd2 dcba d3e6 e33a
00000010: 84d3 353b bc0e 6439 b2db af3a 376b 27b9
00000020: e545 32bb de32 163b 9567 b23a 9fac dd3b
00000030: 7074 a3bb c93c 51bb 670e b7ba e17b b039
-0.0004546345 -0.002656445 -0.001684727 0.0017387517 0.0027744481 0.00021749263 0.0013416915 -0.00015966302
-0.0027202305 0.0022918503 0.0013611192 0.006764963 -0.0049882457 -0.00319271 -0.0013966084 0.00033661633

exp_avg f4 [8, 16]
00000000: ccd9 05bc 9ba9 9dbb ce9b fab9 c8d6 5c3b
00000010: a59d 05bb 64b6 7f3b 23f9 4c3b e5df aa39
00000020: 3d38 06bb 3c57 483a ea73 e03a 9e1e 19bb
00000030: b3eb 363a 023d c23a e7b4 8e3a d38f 5e3b
00000040: 48a3 863c ffb3 183c 27dc c539 0425 a7bb
00000050: 7752 4d3b 2c14 dcbb 5f09 a6bb d55a f2ba
00000060: dbc5 5a3b 6e90 05bb af70 30bb 445a 803b
00000070: b835 01bb d37a 22bb 34a4 40bb d767 b8bb
00000080: aede cb3a 8ee2 2b3a 2dce 26b9 cbb9 4eba
00000090: 2107 1e3a 9d62 a2b9 aac8 f7b9 5c5a e138
000000a0: faa9 0b3a bf72 69b9 bc97 53ba 5888 173a
000000b0: 6d1f 44b9 62d2 33ba b50c a9b7 ef4b c5b9
000000c0: e4d3 b6bb 5e98 57bb 402f 5738 cef8 823a
000000d0: b77b 50ba 6d8b 0d3b 376e c63a 5257 b93a
000000e0: 4599 36ba f398 603a 00bf 0537 005e 84ba
000000f0: e70c 6e3a 0630 3239 856f d33a 5e9f d93a
00000100: 7abf fb3a 74a9 8c3a ccd6 02b7 8482 4aba
00000110: cc82 e139 ba2d 1bba 296c 23ba 5cfe c3b8
00000120: 409e df39 3e4a 79b9 ee9d 0cba f432 ff39
00000130: c196 64b9 b718 f6b9 d867 4cb9 e82c 1aba
00000140: 6c0c 16bc 17d0 99bb dc79 abb8 9380 9a3b
00000150: 4812 37bb 7372 503b fb8d 553b fa4d 3eba
00000160: 7f7b 3ebb b57c 713a 5383 823b afa9 49bb
00000170: ba21 3d3a bbfc 583b b672 ce38 5514 543b
00000180: 9041 ddba e21c 76ba 17ff a5b8 54c0 793a
00000190: 0491 1cba 5483 4d3a 3de1 3b3a 376b 35b9
000001a0: 0234 1cba 2a2f 0c39 b18d 343a 3ad2 27ba
000001b0: 600d cc38 a904 143a 64c4 e637 1a35 433a
000001c0: 3ef5 2f3a ebb8 8c39 b3e6 a037 9721 69ba
000001d0: b9a8 053a 2120 4bb9 6e5f eab9 c14d 003a
000001e0: 90cc f139 eaea cb37 b03f 58ba 06f6 f139
000001f0: ca24 9538 12d6 2bba 30e8 b639 e739 a6b9
-0.008169603 -0.0048114783 -0.000477998 0.0033697356 -0.0020388153 0.0039018625 0.0031276427 0.0003259174
-0.0020480298 0.00076423935 0.0017124389 -0.0023364197 0.0006977871 0.0014819207 0.0010887653 0.0033960238
0.01643528 0.009320258 0.00037738794 -0.005100848 0.003132967 -0.006716272 -0.005067035 -0.0018490205
0.0033382091 -0.0020380276 -0.0026922633 0.0039170105 -0.0019715857 -0.0024792447 -0.0029394748 -0.005627613
0.0015554035 0.00065568916 -0.000159078 -0.00078859617 0.0006028284 -0.0003097252 -0.00047261018 0.00010745667
0.00053277577 -0.00022263358 -0.00080716214 0.00057805097 -0.00018703724 -0.00068596576 -2.0152287e-05 -0.00037631343
-0.0055794585 -0.0032897214 5.1304e-05 0.0009992362 -0.0007953005 0.0021597997 0.0015139048 0.0014140403
-0.0006965588 0.0008567713 7.971888e-06 -0.0010098815 0.0009080902 0.00016993293 0.0016131258 0.0016603281
0.0019206845 0.0010731653 -7.798615e-06 -0.0007725137 0.00043012796 -0.00059195946 -0.00062340737 -9.345703e-05
0.0004265178 -0.00023774148 -0.00053641095 0.00048675353 -0.00021799935 -0.0004693919 -0.00019493641 -0.00058813253
-0.009158235 -0.0046939957 -8.1766135e-05 0.0047150343 -0.002793448 0.0031806498 0.0032585848 -0.0007259544
-0.0029065309 0.0009212003 0.00398294 -0.0030771305 0.00072148035 0.0033109623 9.844212e-05 0.0032360752
-0.0016880501 -0.0009388459 -7.915327e-05 0.00095272553 -0.0005972537 0.0007839699 0.0007167047 -0.00017301446
-0.00059586775 0.0001336901 0.0006887569 -0.00064018706 9.729969e-05 0.00056464464 2.7509588e-05 0.00074465724
0.0006712264 0.00026840655 1.9180914e-05 -0.000889325 0.0005098689 -0.00019371558 -0.0004470306 0.0004894399
0.00046119513 2.4308876e-05 -0.0008249236 0.00046150404 7.111726e-05 -0.0006555031 0.00034886738 -0.00031705128

exp_avg f4 [8]
00000000: ee3a d0ba afe2 a43b 0409 7439 c567 32bb
00000010: d16f f139 59cf 41ba 2812 8cb8 cbad 07ba
-0.0015886703 0.0050319056 0.00023273012 -0.0027222496 0.00046050412 -0.0007393263 -6.679102e-05 -0.00051757385

exp_avg f4 [16, 8]
00000000: e96f b83a 35b1 873a 4218 6dbb 730a 8d3a
00000010: 8b4b 5e3a e1e6 b0b9 8fb5 9fba 18d7 563a
00000020: 54b0 11bc 1105 d7bb 5422 823c d2d6 cbbb
00000030: 6290 b9ba 9fa2 083b 7953 d83b ce7e caba
00000040: 424a f5b9 8266 8cb6 3f80 773a 3022 65b9
00000050: 2721 34b9 f988 f9b8 f882 cf39 0e0e beb9
00000060: 65f2 a6b9 a21e 7fba 717e 9c3a 19a6 0eba
00000070: 9afa 98b9 3ecb 0c3a 66af 8f39 ac3c fb38
00000080: 6720 adbb 3878 73bb b17c 683b 08d5 4ebb
00000090: c2e4 223b effa ce39 7047 7f3b c1fc ec3a
000000a0: 938a babb 1bfa 81bb 77a2 1b3c e502 79bb
000000b0: 460f 14ba 22a3 c43a cecd 723b 2707 3dba
000000c0: 24cb 003c 658f a33b b512 9bbb 371b 9b3b
000000d0: 8347 77bb a72e 37ba 5404 b1bb 6bc4 40bb
000000e0: 8a49 52ba 06d9 0aba 687b 163b 2ba0 24ba
000000f0: 4da3 23ba 6d50 0739 ad5f 4d3a 7dbc 25ba
00000100: 84df f03b c396 b23b 2276 40bc 1c39 a33b
00000110: 282c c439 aff5 09bb 994c 9abb 764e ee39
00000120: 3a97 b7bb a0f6 69bb d004 5b3b 1cfc 62bb
00000130: 5e22 2f3b b5d6 543a 0d92 633b b22b 173b
00000140: fdc4 82ba 80f7 86ba a752 263b 313b 60ba
00000150: 0e95 0bba 2445 fc39 9500 423a 7dd2 b8b9
00000160: 47fc 1b3c f32e ee3b 8ab6 62bc 603a d43b
00000170: 566d a8b9 bcb9 14bb ebfd d9bb b1a3 01b9
00000180: 75aa 9d3b 9fd3 753b ac98 7fbb e3e5 463b
00000190: 1a15 fcba 4614 30ba cba5 67bb 84dd caba
000001a0: 28d2 59bb 06c9 39bb 89dd 823b 9a32 14bb
000001b0: 2ee5 223a 0c13 7b3a 1f20 0f3b 238c 283a
000001c0: 8685 293c 5b53 023c b0ae 55bc ad7e e33b
000001d0: 006d c6ba 450a eeba 99d6 febb ca71 87ba
000001e0: ecb4 9eba 853d 16ba 0474 7f3a 60d0 2cba
000001f0: e957 d839 9c2e 1d39 5cb9 2c3a 2cb7 7b39
0.0014071438 0.0010352494 -0.003617779 0.001076056 0.0008479885 -0.00033741354 -0.0012184846 0.00081955036
-0.008892138 -0.0065618833 0.01588551 -0.006220677 -0.0014157409 0.0020848883 0.0066017476 -0.0015449168
-0.00046785368 -4.1842586e-06 0.00094414124 -0.00021851878 -0.00017178488 -0.000118987584 0.00039579696 -0.00036250096
-0.00031842585 -0.00097320427 0.0011939538 -0.00054416206 -0.00029178412 0.00053708616 0.00027405767 0.00011979914
-0.0052834037 -0.0037150513 0.0035474712 -0.0031560082 0.0024855589 0.00039478342 0.0038952492 0.0018080698
-0.005692789 -0.0039665825 0.009499184 -0.003799611 -0.0005648028 0.0015002231 0.0037048939 -0.00072108436
0.0078609325 0.004991459 -0.0047324547 0.004733469 -0.0037731833 -0.0006987848 -0.0054021273 -0.002941395
-0.00080218224 -0.0005296621 0.002296174 -0.00062799704 -0.000624229 0.00012904564 0.0007834386 -0.00063223374
0.007350864 0.005450101 -0.011746915 0.004981173 0.00037416932 -0.002105098 -0.004708838 0.00045453355
-0.0056027444 -0.0035699978 0.0033419617 -0.0034635132 0.0026723365 0.0008119152 0.0034724504 0.0023066816
-0.000997692 -0.001029715 0.0025378854 -0.0008553742 -0.000532464 0.000481167 0.00074005994 -0.0003525204
0.009520597 0.0072687804 -0.013837466 0.0064766854 -0.0003212492 -0.0022693714 -0.006652584 -0.00012363378
0.00481158 0.003751017 -0.0039000912 0.0030349426 -0.0019232363 -0.0006716888 -0.0035346623 -0.0015477394
-0.0033236835 -0.002834858 0.003993694 -0.0022613169 0.000621396 0.00095777283 0.0021839214 0.00064295734
0.010346776 0.007954444 -0.013042137 0.006942591 -0.0015138686 -0.001816102 -0.007777047 -0.0010333594
-0.0012108362 -0.0005731213 0.00097447657 -0.00065923296 0.0004126423 0.0001499005 0.00065889 0.00024005462

exp_avg f4 [16]
00000000: 3c7e e0ba 001a 8d3b 66f6 ea39 50fb e739
00000010: e722 3dbb 90a7 103b 8cf1 8f3b 64fc 9f3a
00000020: bfa9 11bb 7cb8 4cbb d879 8a3a 1c69 c8ba
00000030: 7211 0c3b 87a7 bcb9 5021 5d39 bbc5 c2b9
-0.0017127465 0.004306078 0.0004481554 0.00044246996 -0.0028859915 0.0022072531 0.0043928083 0.0012205956
-0.002222642 -0.003123789 0.0010564877 -0.0015290114 0.0021372703 -0.00035982972 0.00021088612 -0.00037149884

exp_avg f4 [7, 16]
00000000: 458f a93b 1f54 0e3b 5a30 a2bb e6c0 173b
00000010: 51a9 ebbb 7986 243c 93e1 9cbb 059e f8b9
00000020: 0b49 f43b 94f6 24bb 70ce 2cba 3a96 3439
00000030: a16b 39bb ae05 24bb d097 cbba 490f 3d39
00000040: 96df cbbc cacc 61bc 0ff4 023d 1b39 24bc
00000050: 4f4f 223d 0562 25bd b5f3 b83c 7539 81bb
00000060: 13cf 19bd 1ceb e13b 6535 363a 3a5b 0f3c
00000070: 940a e63b 5732 fb3b 4c7d 023c 56cf 34bb
00000080: e08c e8ba d2eb 58bb df5b 063c 84cd d2ba
00000090: 5881 1b3c 94f3 50b9 049a 743b a4d9 7bbb
000000a0: ce48 9ebb cc62 1fbb 0046 4ebb f08d c03b
000000b0: 5949 02bb fa68 10bb 5ea4 9438 1b93 04bb
000000c0: 3d6a 48bc da44 dbbb 9ce5 7b3c 6b03 a5bb
000000d0: 73a6 9f3c 042c a4bc e444 3a3c 176c e6ba
000000e0: 53fd 96bc 89dc 483b 0771 0739 8da5 803b
000000f0: 0dfb 803b 61ae 7d3b 0e92 8d3b 0569 b3ba
00000100: b007 d03a 1b2f 593b f65e 04bc 2bd3 c03a
00000110: e7f7 0ebc c724 e838 3160 4ebb 3a3a 783b
00000120: 32c1 8a3b 7b9d e33a 2c21 2b3b b697 bcbb
00000130: cb9f 1d3b 95fe 093b 0290 e239 fd09 f93a
00000140: b900 9bbb 5c2c bdbb 1071 683c d5c4 2dbb
00000150: ff36 823c 1485 46bb 66c2 d53b 7890 c1bb
00000160: 0b27 22bc b0ba 40bb 6fce 80bb d30c 1a3c
00000170: 93be 32bb cac3 22bb 88ee 803a 85cf 3ebb
00000180: e20a 1fbb ac46 86b9 cad1 f138 82eb 4aba
00000190: a411 8c3a 97c0 b3bb ecf3 de3a 0ead b93a
000001a0: 43d4 29bb 5dd5 b73a af33 953a a916 01bb
000001b0: 0ea9 1f3b 6d96 083b 1ba9 d63a 89bd f939
0.0051745498 0.002171762 -0.0049496116 0.0023155748 -0.007191815 0.010041826 -0.0047876327 -0.0004741998
0.0074549965 -0.0025171386 -0.0006592041 0.00017222101 -0.0028292912 -0.00250278 -0.0015532915 0.00018030139
-0.024886888 -0.013781736 0.031971034 -0.010023381 0.039626416 -0.04037668 0.022577146 -0.003943617
-0.037550997 0.0068944823 0.00069507054 0.008749777 0.007020304 0.007665913 0.007964443 -0.0027589402
-0.0017742179 -0.0033099544 0.008200615 -0.0016082977 0.009491287 -0.00019927166 0.0037323246 -0.0038429284
-0.0048304563 -0.0024320362 -0.0031474829 0.0058762953 -0.0019880144 -0.0022035227 7.087806e-05 -0.0020229283
-0.01223236 -0.0066915574 0.015374567 -0.005035808 0.019488549 -0.02004052 0.011368964 -0.0017579821
-0.018431341 0.0030649027 0.00012916709 0.003925985 0.0039361776 0.0038708674 0.0043203896 -0.0013687914
0.0015871432 0.003313965 -0.008079281 0.001471137 -0.008726097 0.000110694724 -0.003149044 0.0037876503
0.0042344565 0.0017365658 0.0026112301 -0.00575539 0.0024051543 0.0021056284 0.00043213373 0.0019000169
-0.0047303108 -0.0057731103 0.014187112 -0.0026515026 0.015895365 -0.0030291723 0.0065234182 -0.0059071146
-0.009897004 -0.002940815 -0.003930859 0.009402472 -0.0027274236 -0.0024835938 0.0009836713 -0.002911539
-0.0024267961 -0.00025611126 0.00011530852 -0.0007740782 0.001068641 -0.005485605 0.001700995 0.0014165954
-0.0025913871 0.0014025379 0.0011383201 -0.0019697344 0.002436224 0.0020841614 0.0016377302 0.00047634196

exp_avg f4 [7]
00000000: cdbb 293b 1c25 0cbb d009 b13b eb0f b6ba
00000010: 360e b1bb 4039 ff3b 6471 4abb
0.0025899292 -0.0021384424 0.005402781 -0.0013890242 -0.0054033054 0.007788807 -0.003089034

exp_avg f4 [16]
00000000: 4fb1 493b 6017 b53b 1c09 9a3c 7044 1c3a
00000010: 88d5 953c 0437 0b3d 72fb 653c 5f91 a33a
00000020: 5fbc 62bc 2598 343b 97c4 e53a d214 4d3c
00000030: 3912 b83b ee70 b439 60df e23b dc35 d43a
0.003077585 0.005526468 0.018803172 0.0005961126 0.018290296 0.033988014 0.014037 0.0012479237
-0.0138388565 0.0027556506 0.0017529902 0.012517171 0.0056174067 0.00034416415 0.006923601 0.0016190368

exp_avg f4 [16]
00000000: a4cc 4dba 4eaa 1fbb f057 b63b 4ab0 1f3a
00000010: 65bd bf3b 5638 f23b ed29 783b 1a55 2dbb
00000020: e63b 123b 2ab5 a0bb 3beb 62ba 5b0b de3b
00000030: 92de a0bb 94ac 2bbb 6cd6 96bb f3dd 51bb
-0.0007850623 -0.0024362984 0.005564682 0.0006091638 0.005851435 0.0073919697 0.0037866787 -0.002644843
0.0022313534 -0.004904409 -0.0008656268 0.006776256 -0.004909345 -0.0026195394 -0.004603198 -0.0032023161

exp_avg f4 [8]
00000000: 862e 54bc e8a2 133c 94e2 8f3b 2dce 7cbb
00000010: 7c50 4abb 54de 1a3b 85fd c73b 3423 a43a
-0.012950545 0.009011008 0.004391024 -0.0038575039 -0.0030870726 0.0023631053 0.00610322 0.0012522698

exp_avg f4 [8]
00000000: 4cd1 df3a 01ff b63b ccb4 af3b ecb4 85bb
00000010: 2fb1 853b aff0 80ba 5e96 9eba 3cc6 f5ba
0.0017075925 0.005584598 0.005362129 -0.0040804055 0.00407996 -0.0009837354 -0.0012099256 -0.0018751095

exp_avg f4 [8, 7]
00000000: 892b 22be 0772 b73e 6a45 39bd dec2 183e
00000010: 62fb 8fbc 40f6 9ebd 90f5 603c 9d43 5c3d
00000020: 87e4 b7bc 4437 e63c bd74 2d3c 7657 aa3c
00000030: 410c 893d 10c5 b13c 2e03 d3be e892 9c3e
00000040: 9ddc 173f 15da 5c3d 8b1a 2cbf b882 033f
00000050: d0e3 e0be b892 aa3d c9ed 1f3e 5568 55bd
00000060: a886 fe3d fa78 0b3e b001 1e3d 2637 003e
00000070: 22e6 cbbd 401d b1bd 7371 123d ec55 babd
00000080: a79c f8bd 2d25 50bd 215b e5bd 3438 7dbd
00000090: 160a 83be 6963 b83c b7a3 36be 336b e0bd
000000a0: 44be acbd c4a5 07be 181e 883e 5611 d1be
000000b0: 6405 4abe 870a 18be 30fa 7c3e 43f4 22be
000000c0: 6a52 1b3e ed76 683e e134 bfbd 8635 b8be
000000d0: a460 603c c472 d13e 6848 9bbe 34e2 8d3e
-0.1583692 0.35829183 -0.045232214 0.14918086 -0.017575923 -0.07761812 0.013730422 0.05377542
-0.022447838 0.028102525 0.010586915 0.020793658 0.0669179 0.021700412 -0.41213363 0.3058083
0.59321004 0.053918917 -0.67228 0.51371336 -0.43923807 0.08328766 0.15618052 -0.052101452
0.124280274 0.13620368 0.038575828 0.12521037 -0.09956004 -0.08648157 0.035752725 -0.090984195
-0.12139254 -0.050816704 -0.11199022 -0.061821178 -0.25593632 0.02250834 -0.1783589 -0.10957947
-0.08434728 -0.13246828 0.2658546 -0.4083354 -0.19728619 -0.14847766 0.24704814 -0.15913491
0.15168157 0.22701617 -0.09336258 -0.35978335 0.013694916 0.40907872 -0.3032868 0.27711642

exp_avg_sq f4 [8, 7]
00000000: 80a9 493a cdf7 773b bd28 8238 40e6 2a3a
00000010: 42b5 9837 d53d 4839 bc4f 0c37 3be2 b138
00000020: 88e9 a337 104d de37 4ca8 ac36 4212 6f37
00000030: 1fec 0e39 cb48 7537 ca4f ac3b 5e85 473b
00000040: 8ab0 2f3c 947a fa38 6ce4 5f3c 12bf 033c
00000050: 0c1b c03b 2467 5839 0449 3e3a 3aa7 af38
00000060: b2f7 ed39 334e 0f3a 7138 3d38 a16d f139
00000070: 0e1e 9d39 d66c 8639 df91 2038 5bd0 8939
00000080: bc39 e839 97df cd38 23bd c539 43ad 0239
00000090: 1d9e 003b 9087 8737 56b0 7a3a 43cf c039
000000a0: c8f8 6b39 98d9 0a3a 3514 0d3b 60d2 a53b
000000b0: 194f a23a fca5 323a 4044 f83a 3f93 593a
000000c0: 3c7c 393a 96b8 d13a 9011 b639 b4a6 803b
000000d0: 9407 b237 db50 a63b cd28 363b 3f00 173b
0.0007692799 0.003783691 6.206471e-05 0.0006519295 1.8204217e-05 0.0001909652 8.363215e-06 8.4821564e-05
1.953986e-05 2.6500347e-05 5.145592e-06 1.4249761e-05 0.00013630137 1.4620086e-05 0.005258535 0.0030444483
0.010723243 0.00011943761 0.0136653 0.00804116 0.0058625992 0.00020637788 0.0007258805 8.375799e-05
0.0004538871 0.00054666697 4.5113677e-05 0.00046048782 0.00029967766 0.0002563956 3.8282826e-05 0.00026285913
0.00044293504 9.8168086e-05 0.00037715686 0.00012462311 0.0019625493 1.615638e-05 0.0009563019 0.00036775516
0.00022504025 0.0005296706 0.0021526937 0.005060479 0.0012383192 0.0006814895 0.0018941239 0.00082998344
0.00070757023 0.0016000445 0.0003472683 0.0039261226 2.1222782e-05 0.0050755567 0.0027795315 0.0023040918

exp_avg f4 [8]
00000000: 9e1f db3b 6e9b 8a3d 3bcb 383e 7f9d 833e
00000010: 9c83 3fbe ccc6 7fbe 0649 d2bd 8a2d 9fbd
0.0066871187 0.06767927 0.18046276 0.25706097 -0.18702549 -0.24978179 -0.10267834 -0.07772358

exp_avg_sq f4 [8]
00000000: f099 0838 2f1a 1439 4014 973a 0705 063b
00000010: 1232 8d3a ea2b f63a 4fd9 b339 fd71 7839
3.2568292e-05 0.00014124134 0.0011526421 0.0020449774 0.0010772368 0.0018781398 0.00034303448 0.00023693587

exp_avg f4 [1, 8]
00000000: f1f0 35be 5871 bfbd e2bf 5a3f 67d6 bdbe
00000010: 2a35 6bbe 75f5 17be cc1e 533e bd03 32bd
-0.17767693 -0.093477905 0.8544904 -0.37077639 -0.22969499 -0.14839728 0.20617217 -0.043460596

exp_avg_sq f4 [1, 8]
00000000: c50b 803a 9e86 8e39 8429 b23c 2cb4 893b
00000010: ccc6 cb3a 7e38 2f3a 8786 ac3a bde2 7e38
0.0009769133 0.00027184648 0.021748312 0.0042023864 0.0015546917 0.0006684138 0.0013162651 6.0769486e-05

exp_avg f4 [8]
00000000: 3f87 6a3d 6eae 94bc f836 ad3f 6cdd 8c3e
00000010: 52ef 59bd 85e5 45bd fcb2 873d 3aa9 933c
0.057257887 -0.01814958 1.35324 0.2751268 -0.05320675 -0.04831459 0.066259354 0.01802503

exp_avg_sq f4 [8]
00000000: fbe6 d438 d9cf 2b37 825f 5f3d e2a1 173b
00000010: d6cf ae38 4d96 9438 4aaa 0e39 9d40 2f37
0.00010151971 1.0240788e-05 0.054534443 0.002313726 8.335679e-05 7.085186e-05 0.00013605613 1.0445857e-05

exp_avg f4 [8]
00000000: e0a7 59bd 8f65 043d a8e0 853e 0ecc fabd
00000010: 9388 1d3d ec99 5d3d e01e 593d 504b 8bbd
-0.053138614 0.032323416 0.26147962 -0.122459516 0.038460325 0.05410187 0.05300796 -0.06801474

exp_avg_sq f4 [8]
00000000: 615d b738 29e8 0638 b080 0a3b 0b27 f339
00000010: 9c1a 3f38 d83e bd38 cf76 b638 771e 1639
8.743513e-05 3.2164306e-05 0.0021133833 0.0004637766 4.556273e-05 9.023928e-05 8.700566e-05 0.00014316464
