saved/gan/j98aebt2/checkpoints/epoch=0-step=14-v4.ckpt (torch, 21266 bytes, 39 tensors)

generator.fc1.weight f4 [16, 7]
-0.74489415 0.44934344 -0.36364245 -0.5516341 0.5792851 0.08336907 0.5997425 0.62494344
0.7753191 -0.34719774 -0.58884525 0.20280306 0.8539302 0.41622987 -0.19774279 -0.42004195
0.09931278 -0.39043605 -0.50617987 -0.6634615 -1.2772973 0.1638856 0.5515283 0.71627754
0.82332766 -0.08073854 0.31218147 0.21880239 0.2717149 -0.2215356 -0.98282135 0.019128552
0.30307826 -0.40010276 -0.17154215 0.007898478 -0.4500833 -1.0501599 -0.11732368 -0.40574035
0.3356642 0.20997566 0.8464336 0.8743947 -0.32472348 -0.85298234 0.5075116 0.12331328
0.11043713 -1.0442712 0.36431724 -0.6117609 0.15980867 -0.12709272 0.75768524 -0.6881047
0.5238297 0.56075275 0.26736552 -0.1054346 -0.1928902 0.033652924 -0.32555082 0.121651694
-0.551205 0.37353864 -0.48196122 -0.116258025 -0.096611425 0.35688725 -0.48211396 0.57785445
0.5808318 -0.016119907 -0.012655828 -1.0808661 0.29075155 0.7013684 -0.049979668 0.66158456
0.16597784 0.57920414 0.32375205 -0.3245981 -0.2984371 -0.17152882 0.13324586 -0.4208636
0.06807652 -0.47930646 0.2676324 0.5230202 0.23382717 0.5682648 0.68745816 -0.45606905
-0.47338918 0.24671347 0.5305664 -0.70454836 0.39543623 0.9189229 0.8105929 -0.88643175
0.5028108 1.2435049 1.5232139 -0.23508996 0.25469404 0.5620793 -0.23915996 -0.05360616
00000000: 62b1 3ebf 5810 e63e 582f babe e437 0dbf
00000010: 074c 143f 67bd aa3d b988 193f 4bfc 1f3f
00000020: 507b 463f e7c3 b1be 90be 16bf 9bab 4f3e
00000030: 2b9b 5a3f 151c d53e 167d 4abe bd0f d7be
00000040: 8064 cb3d 3ce7 c7be 0195 01bf 9dd8 29bf
00000050: 7a7e a3bf a0d1 273e f530 0d3f f75d 373f
00000060: 9ac5 523f 3f5a a5bd 40d6 9f3e bc0d 603e
00000070: 371e 8b3e 3ada 62be 2e9a 7bbf 7bb3 9c3c
00000080: 132d 9b3e 45da ccbe bfa8 2fbe 9e68 013c
00000090: 5171 e6be a46b 86bf 6647 f0bd 33bd cfbe
000000a0: 2edc ab3e dc03 573e dfaf 583f 55d8 5f3f
000000b0: 2842 a6be 0d5d 5abf 48ec 013f ac8b fc3d
000000c0: dd2c e23d aeaa 85bf ca87 ba3e 5d9c 1cbf
000000d0: e2a4 233e 9824 02be a9f7 413f a127 30bf
000000e0: b419 063f 7e8d 0f3f 22e4 883e 18ee d7bd
000000f0: 0285 45be a6d7 093d 99ae a6be 8624 f93d
00000100: c51b 0dbf 7540 bf3e 9fc3 f6be b018 eebd
00000110: 36dc c5bd edb9 b63e a4d7 f6be 45ee 133f
00000120: 65b1 143f e50d 84bc 645a 4fbc d259 8abf
00000130: 63dd 943e e18c 333f 7bb7 4cbd 9b5d 293f
00000140: 18f6 293e b946 143f d4c2 a53e b931 a6be
00000150: bfcc 98be 40a5 2fbe 9a71 083e 6f7b d7be
00000160: b46b 8b3d a867 f5be 1d07 893e a7e4 053f
00000170: 6470 6f3e cd79 113f 42fd 2f3f e281 e9be
00000180: 1160 f2be 75a2 7c3e 33d3 073f 485d 34bf
00000190: 9e76 ca3e 883e 6b3f 0483 4f3f 31ed 62bf
000001a0: 35b8 003f 2b2b 9f3f acf8 c23f 6cbb 70be
000001b0: 4267 823e 6ee4 0f3f 59e6 74be 2292 5bbd

generator.fc1.bias f4 [16]
-0.3676411 -0.08183001 -0.04196031 -0.1328762 0.11954443 -0.123225495 -0.17298757 0.09988363
0.16394214 0.007561089 0.17167462 -0.039138097 -0.03482346 0.12782569 -0.22690015 0.14649482
00000000: 743b bcbe 7e96 a7bd 93de 2bbd b310 08be
00000010: b6d3 f43d a65d fcbd a723 31be ca8f cc3d
00000020: 73e0 273e 03c3 f73b 79cb 2f3e 454f 20bd
00000030: 0ba3 0ebd bde4 023e 8358 68be bd02 163e

generator.fc2.weight f4 [8, 16]
0.3714287 -0.106192715 -0.09193112 -0.65397424 0.5290594 -0.020363705 -0.43405482 0.4397014
-0.46996522 -0.023548648 -0.2049168 -0.17790878 -0.16852619 -0.039170727 0.17388059 -0.48206937
0.6808275 0.09266614 0.26974168 -0.32318723 -0.18643358 0.33717027 -0.07942868 -0.2247798
0.5707105 -0.073522925 0.03087929 0.41079277 -0.095728844 0.3564836 -0.5783299 -0.03474032
0.26461342 -0.020761894 -0.2747261 -0.062597476 -0.7324973 -0.24064273 -0.36611328 0.24643281
-0.05815697 0.5822849 0.050092887 0.0036234874 -0.04577458 -0.037101753 0.8197707 0.16976969
0.52132493 -0.092639014 0.1538964 -0.011563146 0.37506828 0.6009196 0.36785427 0.11252263
0.40249333 0.14438953 -0.7654366 -0.09930187 -0.5649113 -0.095191285 -0.22686891 0.08820917
-0.18647146 -0.33444172 0.64225507 0.6444867 -0.14459968 -0.021122724 -0.25858235 -0.08550628
-0.21686842 0.59581 -0.064014144 0.060376126 -0.15358351 0.07404542 -0.20351562 0.22148211
-0.432368 0.46744317 0.7014218 -0.00961967 -0.08756611 0.18065012 0.21500379 -0.19848672
-0.18321392 0.24703653 0.4821272 -0.20992185 0.5572772 0.10138769 0.45271543 0.46807745
-0.5595762 -0.30935502 -0.1188592 -0.1209672 0.07410508 0.24281435 -0.8450876 -0.15314037
-0.045522466 -0.32740188 0.23982461 -0.05592074 0.43333572 -0.27917942 -0.45549187 0.122055545
-0.045378666 0.25878105 0.35820177 -0.34133655 0.07964403 0.098859146 -0.2098891 -0.5718723
-0.22128856 0.17874771 -0.067887984 0.3569049 0.30207106 0.0236852 -0.08816696 -0.766051
00000000: e72b be3e 917b d9bd 6246 bcbd db6a 27bf
00000010: 7070 073f c9d1 a6bc 6f3c debe 8b20 e13e
00000020: 489f f0be 18e9 c0bc b6d5 51be b82d 36be
00000030: 2192 2cbe 7c71 20bd c10d 323e ccd1 f6be
00000040: b64a 2e3f bfc7 bd3d 951b 8a3e cc78 a5be
00000050: 72e8 3ebe 95a1 ac3e 81ab a2bd ad2c 66be
00000060: 151a 123f 3093 96bd 91f6 fc3c 6e53 d23e
00000070: 7c0d c4bd 0585 b63e 6e0d 14bf de4b 0ebd
00000080: 697b 873e d914 aabc e6a8 8cbe 1b33 80bd
00000090: f184 3bbf 0c6b 76be 3373 bbbe e258 7c3e
000000a0: 0136 6ebd a010 153f 332e 4d3d 0878 6d3b
000000b0: 207e 3bbd 02f8 17bd 7edc 513f 1bd8 2d3e
000000c0: 8d75 053f 86b9 bdbd 0597 1d3e 5973 3dbc
000000d0: f308 c03e ded5 193f 6557 bc3e 4472 e63d
000000e0: 9b13 ce3e d9da 133e a7f3 43bf c75e cbbd
000000f0: 079e 10bf a6f3 c2bd 5350 68be 02a7 b43d
00000100: 60f2 3ebe f23b abbe d46a 243f 15fd 243f
00000110: f011 14be 9009 adbc e864 84be eb1d afbd
00000120: c112 5ebe 0187 183f d919 83bd f54c 773d
00000130: ff44 1dbe 20a5 973d 6666 50be 35cc 623e
00000140: 575f ddbe b654 ef3e 6190 333f d29b 1dbc
00000150: dc55 b3bd 58fc 383e f429 5c3e 1a40 4bbe
00000160: 6e9c 3bbe 25f7 7c3e 60d9 f63e c1f5 56be
00000170: b8a9 0e3f 59a4 cf3d 51ca e73e d9a7 ef3e
00000180: 6340 0fbf c863 9ebe 746c f3bd a7bd f7bd
00000190: 67c4 973d 53a4 783e a957 58bf d4d0 1cbe
000001a0: c475 3abd 38a1 a7be 9594 753e 250d 65bd
000001b0: 2ede dd3e 9bf0 8ebe 3b36 e9be 42f8 f93d
000001c0: fbde 39bd f37e 843e 3966 b73e aac3 aebe
000001d0: 691c a33d aa76 ca3d 2bed 56be 3966 12bf
000001e0: 7899 62be a409 373e db08 8bbd 3dbc b63e
000001f0: 0fa9 9a3e 7707 c23c e190 b4bd eb1b 44bf

generator.fc2.bias f4 [8]
-0.04792552 -0.2214234 -0.09823789 0.024297444 0.008626545 0.24546917 -0.1340348 0.19186495
00000000: 8d4d 44bd d1bc 62be f230 c9bd 6f0b c73c
00000010: 5a56 0d3c 455c 7b3e 6b40 09be 3f78 443e

generator.fc3.weight f4 [16, 8]
-0.39218557 0.3651502 -0.5172156 -0.13606943 0.33551222 0.29673254 0.31823042 0.115061
0.63610435 -0.3057187 0.5699171 -0.21616048 0.5479964 -0.059556786 -0.25460923 0.6664237
0.46536353 -0.27634493 0.2439424 -0.6719206 -0.694173 0.8570041 0.97773844 -0.073135585
-0.90141934 0.3483119 -0.13319527 0.21841598 -0.08592471 0.124076895 0.34842864 -0.29271138
-0.22233935 0.098585054 -0.0401825 -0.256832 -0.4262019 -0.52962273 -0.042727113 0.26724106
0.36805496 0.14797537 -0.3688615 0.45738468 -1.3211094 -0.6227186 0.015153454 -0.53001964
-0.5195625 0.41305995 -0.2855963 0.41984776 -0.6127004 -0.18555392 0.45553198 -0.061738174
-0.19149274 0.2023523 0.30817977 0.14195588 -0.12704228 0.35203803 -0.48212543 0.2994637
-0.39577043 0.5317939 -0.22261502 -0.00031478622 0.42024845 -0.061167203 -0.7335373 -0.5533601
0.35388052 0.45613462 0.36836118 1.0801878 0.5298237 -0.31465214 0.7138019 0.14814314
0.65248424 0.3126623 0.037471663 -0.3577181 0.3556293 -0.22731477 0.33832008 -0.88644445
-0.6971244 0.2531143 0.05564979 0.38726768 0.21234803 -0.15301728 0.86034656 -0.7112078
-1.175974 0.13372429 0.117581144 0.018817721 0.29773876 0.7046208 0.44246396 -0.8661921
0.51430243 -0.11283176 0.36898047 0.49638808 0.01671659 -0.32955223 0.33504668 0.0361332
0.12129285 -0.4250359 0.4944647 0.5863424 0.6658974 0.25396192 -0.44378623 -1.2906704
0.17344517 -0.7533073 0.57890415 -0.12792467 0.47135773 -0.021399578 -0.6741603 -0.64846313
00000000: 8ccc c8be f8f4 ba3e 3e68 04bf c955 0bbe
00000010: 42c8 ab3e 54ed 973e 19ef a23e 1aa5 eb3d
00000020: bcd7 223f 2987 9cbe 16e6 113f 2c59 5dbe
00000030: 7e49 0c3f d1f1 73bd 245c 82be be9a 2a3f
00000040: 2144 ee3e 157d 8dbe 09cc 793e fd02 2cbf
00000050: 52b5 31bf 9f64 5b3f 114d 7a3f 1cc8 95bd
00000060: 6bc3 66bf f055 b23e 5764 08be 70a8 5f3e
00000070: 4bf9 afbd 071c fe3d 3d65 b23e 44de 95be
00000080: edac 63be f6e6 c93d 6896 24bd 7c7f 83be
00000090: 2337 dabe 5b95 07bf a002 2fbd d2d3 883e
000000a0: b371 bc3e db86 173e 6adb bcbe 532e ea3e
000000b0: 1d1a a9bf 7c6a 1fbf 3146 783c 5eaf 07bf
000000c0: 0c02 05bf 987c d33e ae39 92be 49f6 d63e
000000d0: efd9 1cbf d901 3ebe 7d3b e93e 2be1 7cbd
000000e0: ac16 44be 7135 4f3e bdc9 9d3e e25c 113e
000000f0: 5f17 02be 543e b43e 25d9 f6be 4e53 993e
00000100: 6ca2 cabe a523 083f 31f5 63be e409 a5b9
00000110: ce2a d73e 768a 7abd 1ac9 3bbf 02a9 0dbf
00000120: d42f b53e 7a8a e93e d699 bc3e 9843 8a3f
00000130: 87a2 073f 161a a1be b9bb 363f d6b2 173e
00000140: 3509 273f 4615 a03e e37b 193d d426 b7be
00000150: 0b15 b63e 34c5 68be 4a38 ad3e 06ee 62bf
00000160: bf76 32bf 3398 813e 09f1 633d f347 c63e
00000170: c371 593e 90b0 1cbe ac3f 5c3f b711 36bf
00000180: 5186 96bf 05ef 083e 62ce f03d 9f27 9a3c
00000190: 3771 983e 0762 343f a38a e23e c4be 5dbf
000001a0: 53a9 033f 5614 e7bd 02eb bc3e 9426 fe3e
000001b0: 3bf1 883c 12bb a8be 3d8b ab3e 6800 143d
000001c0: 6368 f83d 4e9e d9be 7a2a fd3e 891a 163f
000001d0: 4178 2a3f 4c07 823e f337 e3be b034 a5bf
000001e0: 9c9b 313e bfd8 40bf 1033 143f affe 02be
000001f0: cd55 f13e 2b4e afbc c595 2cbf ae01 26bf

generator.fc3.bias f4 [16]
-0.021883937 -0.33347172 0.029839339 0.07875128 0.17033009 -0.14711489 0.25593296 -0.2989741
0.14863645 0.30394104 -0.0404674 0.32861808 0.026154699 0.053938348 0.18662392 0.1207874
00000000: f145 b3bc cebc aabe a171 f43c 5a48 a13d
00000010: 036b 2e3e 49a5 16be a509 833e 2213 99be
00000020: 2734 183e 299e 9b3e 25c1 25bd a140 a83e
00000030: 6142 d63c 75ee 5c3d 571a 3f3e 625f f73d

generator.fc4.weight f4 [7, 16]
-0.080690816 -0.017680164 0.36437282 -0.22402637 -0.18289483 0.45971203 0.34414825 -0.55381477
-0.17609951 -0.5526847 0.035383087 0.017406346 -0.2878443 -0.4959275 -0.008453176 0.47387987
-0.08117114 0.23002511 -0.87194663 0.007565379 -0.08190718 -0.094785385 -0.22956122 -0.053915672
0.16708365 -0.4837167 -0.23098269 0.1643059 0.14282748 0.5816504 -0.36880258 -0.14421794
0.3888566 -0.31824458 0.49609798 0.506469 0.69539857 0.39183003 -0.44496012 0.53585255
0.25726387 0.05441301 0.43170923 -0.3592291 0.09400143 -0.25515372 -0.553096 0.4503901
0.31633705 0.010940656 -0.006116669 -0.3074888 0.2978664 -0.46438262 0.43347526 -0.15426546
0.21586338 -0.08014993 0.63017255 0.5948001 0.0457074 -0.4154497 -0.35326514 -0.3331316
0.26918104 0.6035103 -0.20170823 -0.09123513 -0.19788362 0.3299149 -0.07505554 0.5998551
-0.18242702 -0.6274407 -0.056574203 -0.23515111 0.07374624 0.19348408 -0.044464085 0.13413107
-0.30762264 -0.045542162 0.44765297 0.0838515 -0.3122275 0.08071111 0.30394053 0.084139764
-0.16447333 0.21377859 -0.23101535 0.31643534 0.10563987 0.63473105 0.118054464 0.19031791
-0.7948379 0.33804423 -0.094423495 -0.024994811 -0.18668406 0.5921104 0.25372493 0.401981
0.43596068 0.057818603 -0.45862558 0.2740677 -0.06052678 -0.21264838 0.8702224 -0.3319417
00000000: 3a41 a5bd fed5 90bc 138f ba3e 2b67 65be
00000010: c848 3bbe 605f eb3e 3334 b03e cec6 0dbf
00000020: 6e53 34be bf7c 0dbf dbed 103d c197 8e3c
00000030: 5460 93be 36ea fdbe 317f 0abc 62a0 f23e
00000040: 0e3d a6bd b48b 6b3e e537 5fbf 00e7 f73b
00000050: f4be a7bd d71e c2bd 1912 6bbe aed6 5cbd
00000060: fa17 2b3e b7a9 f7be ba86 6cbe ce3f 283e
00000070: 5e41 123e 0ae7 143f b1d3 bcbe dead 13be
00000080: 3618 c73e f4f0 a2be 8e00 fe3e f4a7 013f
00000090: a405 323f f29d c83e d0d1 e3be a22d 093f
000000a0: 17b8 833e 2de0 5e3d fe08 dd3e e0ec b7be
000000b0: d283 c03d 82a3 82be b397 0dbf 8899 e63e
000000c0: eef6 a13e 7040 333c 576e c8bb 2c6f 9dbe
000000d0: f281 983e 8fc3 edbe 78f0 dd3e c4f7 1dbe
000000e0: 4a0b 5d3e a625 a4bd fd52 213f d244 183f
000000f0: af37 3b3d d3b5 d4be 2bdf b4be 3a90 aabe
00000100: 19d2 893e a77f 1a3f 9a8c 4ebe 7cd9 babd
00000110: 01a2 4abe 9bea a83e b8b6 99bd 1b90 193f
00000120: 26ce 3abe f49f 20bf 5aba 67bd 74cb 70be
00000130: 4508 973d b120 463e f91f 36bd a859 093e
00000140: b780 9dbe 6b8a 3abd c532 e53e 56ba ab3d
00000150: 48dc 9fbe de4b a53d 189e 9b3e 7851 ac3d
00000160: b26b 28be c6e8 5a3e 4a8f 6cbe d003 a23e
00000170: b759 d83d bc7d 223f 8ac6 f13d b3e2 423e
00000180: 7f7a 4bbf 2214 ad3e 1b61 c1bd ebc1 ccbc
00000190: 1b2a 3fbe 8c94 173f 3ce8 813e 74d0 cd3e
000001a0: 3d36 df3e 33d3 6c3d f9d0 eabe 9a52 8c3e
000001b0: eeea 77bd 7fc0 59be e5c6 5e3f 43f4 a9be

generator.fc4.bias f4 [7]
-0.04657303 0.232778 -0.1274644 0.038500737 0.03212736 0.007119732 -0.23078732
00000000: 5dc3 3ebd 5b5d 6e3e 0786 02be f3b2 1d3d
00000010: fb97 033d a44c e93b 8353 6cbe

generator.layer_norm_hidden_0.weight f4 [16]
0.9930001 1.0070003 0.9930001 0.999 0.99500006 0.9930001 0.99500006 0.999
0.99700004 0.9930001 0.9930001 0.99700004 0.9930001 0.9930001 0.9930001 1.0070003
00000000: 4135 7e3f 63e5 803f 4135 7e3f 77be 7f3f
00000010: 53b8 7e3f 4135 7e3f 53b8 7e3f 77be 7f3f
00000020: 653b 7f3f 4135 7e3f 4135 7e3f 653b 7f3f
00000030: 4135 7e3f 4135 7e3f 4135 7e3f 63e5 803f

generator.layer_norm_hidden_0.bias f4 [16]
-0.0070000007 0.0070000007 0.0070000007 0.0070000007 -0.0070000007 0.0070000007 -0.0070000007 0.0070000007
-0.0070000007 0.0070000007 0.0050000004 -0.0070000007 0.0070000007 0.0070000007 0.0070000007 0.0070000007
00000000: 4360 e5bb 4360 e53b 4360 e53b 4360 e53b
00000010: 4360 e5bb 4360 e53b 4360 e5bb 4360 e53b
00000020: 4360 e5bb 4360 e53b 0bd7 a33b 4360 e5bb
00000030: 4360 e53b 4360 e53b 4360 e53b 4360 e53b

generator.layer_norm_hidden_1.weight f4 [8]
1.0070003 1.0070003 0.9930001 0.9930001 1.0070003 1.0070003 0.99700004 0.9930001
00000000: 63e5 803f 63e5 803f 4135 7e3f 4135 7e3f
00000010: 63e5 803f 63e5 803f 653b 7f3f 4135 7e3f

generator.layer_norm_hidden_1.bias f4 [8]
-0.0070000007 -0.0070000007 0.0070000007 -0.0070000007 0.0070000007 0.0070000007 -0.0070000007 0.0070000007
00000000: 4360 e5bb 4360 e5bb 4360 e53b 4360 e5bb
00000010: 4360 e53b 4360 e53b 4360 e5bb 4360 e53b

discriminator.fc1.weight f4 [8, 7]
1.1860061 -0.06872711 -0.88813955 -0.55225116 0.13378692 0.23388252 -0.59500027 0.31786314
0.7235498 -0.4818557 0.7150152 -0.024528692 -0.094457634 -0.6495292 -0.30376366 0.4282364
0.23150304 -0.6076262 0.036454525 -0.07473165 -0.7768421 -0.6375228 -0.6084536 0.7580818
0.8361048 -0.17719586 -0.14741999 -0.4105969 -0.3339821 1.3587655 0.071046606 -0.9510429
-0.60535306 0.8336643 0.81139374 0.11612629 0.16381417 0.4591382 -0.5503835 0.382162
0.24554083 -0.7799355 0.9408414 0.56714386 -0.5847969 1.5593733 0.3772971 0.1672991
0.15796387 0.1851034 -0.20077999 0.08759115 0.30971304 -0.5439994 -0.36868906 -0.0968035
00000000: 0ccf 973f cdc0 8cbd 1d5d 63bf 5560 0dbf
00000010: 70ff 083e e67e 6f3e f051 18bf f5be a23e
00000020: 8f3a 393f cab5 f6be 3c0b 373f 65f0 c8bc
00000030: 0173 c1bd 8c47 26bf e986 9bbe cd41 db3e
00000040: 220f 6d3e 648d 1bbf 5751 153d e80c 99bd
00000050: 20df 46bf b234 23bf 9dc3 1bbf a611 423f
00000060: f70a 563f d572 35be 44f5 16be c239 d2be
00000070: b4ff aabe 07ec ad3f e280 913d 8c77 73bf
00000080: 6bf8 1abf 066b 553f 80b7 4f3f 9fd3 ed3d
00000090: e7be 273e 2a14 eb3e efe5 0cbf bdaa c33e
000000a0: 0e6f 7b3e daa9 47bf fbda 703f 5730 113f
000000b0: 40b5 15bf 8b99 c73f 162d c13e 7550 2b3e
000000c0: 48c1 213e bf8b 3d3e 4599 4dbe fd62 b33d
000000d0: b592 9e3e 8b43 0bbf d0c4 bcbe ea40 c6bd

discriminator.fc1.bias f4 [8]
-0.070758685 -0.14809087 0.28036165 -0.022081845 0.24582732 0.111865275 0.23758864 -0.044137686
00000000: eee9 90bd 22a5 17be 908b 8f3e fce4 b4bc
00000010: 28ba 7b3e 9f19 e53d 704a 733e b8c9 34bd

discriminator.fc2.weight f4 [1, 8]
-0.32484752 0.08370727 0.935069 0.06880482 -0.0738136 -0.1014063 -0.48724598 -0.18858485
00000000: 6a52 a6be b86e ab3d af60 6f3f 8be9 8c3d
00000010: 962b 97bd 1bae cfbd 4e78 f9be 631c 41be

discriminator.layer_norm_hidden_0.weight f4 [8]
1.0026883 0.9932522 0.99302524 0.99303526 0.9930792 1.0070057 0.99298626 1.0068117
00000000: 1758 803f c745 7e3f e736 7e3f 8f37 7e3f
00000010: 703a 7e3f 90e5 803f 5934 7e3f 35df 803f

discriminator.layer_norm_hidden_0.bias f4 [8]
-0.0064083803 0.0064117317 0.006408096 0.006412535 -0.0064122463 -0.0064031426 -0.006408478 -0.0064054257
00000000: 64fd d1bb 8119 d23b 01fb d13b 3e20 d23b
00000010: d21d d2bb 74d1 d1bb 36fe d1bb 9be4 d1bb

exp_avg f4 [16, 7]
0.005210137 0.005221183 -1.8421666e-18 0.005221877 0.005221051 0.00522105 0.005199357 -0.0069743125
-0.006992354 2.133107e-18 -0.0069929524 -0.006992357 -0.00699234 -0.006978572 -0.0013280855 -0.0013417384
1.6265366e-18 -0.0013420309 -0.0013416924 -0.0013427357 -0.0013355189 0.002621217 0.0026272056 -3.652598e-19
0.002627096 0.0026272181 0.002627047 0.0026296063 0.0032580218 0.003278892 -3.68287e-18 0.0032790944
0.0032778536 0.0032793018 0.0032496452 -0.0032547654 -0.003248465 -1.0311696e-18 -0.003248372 -0.0032485444
-0.003248268 -0.003248093 0.0015168374 0.0015163018 5.1106263e-19 0.0015166729 0.0015164735 0.0015160793
0.001516325 0.0038106707 0.0038247774 -2.5580947e-18 0.0038258543 0.0038250808 0.0038259611 0.0038059643
0.0058475686 0.005875729 -2.7043653e-18 0.005877507 0.005875988 0.005875913 0.0058430745 0.0029091786
0.0028983091 9.451295e-19 0.002898551 0.0028984104 0.0028974551 0.002890991 -0.0012783109 -0.0012837645
1.710379e-18 -0.0012842248 -0.0012832811 -0.0012832107 -0.001248039 0.000184896 0.00019411878 -1.1262278e-18
0.00019438154 0.00019422868 0.00019439668 0.00018815916 -0.00034079232 -0.00035038366 1.9088365e-18 -0.0003520841
-0.0003504835 -0.00034987586 -0.0003119628 -0.0025573494 -0.0025584807 -2.9182286e-19 -0.0025583936 -0.0025585985
-0.002558716 -0.0025734133 -0.0023684318 -0.002385154 1.9553503e-18 -0.0023857835 -0.0023851898 -0.0023853916
-0.0023655156 -0.00089519366 -0.000902168 8.682003e-19 -0.0009016334 -0.0009016908 -0.00090234366 -0.00088858535
00000000: ccb9 aa3b 7516 ab3b 8bed 07a2 471c ab3b
00000010: 5a15 ab3b 5815 ab3b 5e5f aa3b c688 e4bb
00000020: 1e20 e5bb 4165 1d22 2325 e5bb 2420 e5bb
00000030: 0020 e5bb 81ac e4bb 2813 aeba 45dd afba
00000040: d108 f021 16e7 afba badb afba bcfe afba
00000050: 940c afba b9c8 2b3b 322d 2c3b 809c d7a0
00000060: 5b2b 2c3b 682d 2c3b 892a 2c3b 7955 2c3b
00000070: 8984 553b aee2 563b b9df 87a2 13e6 563b
00000080: 42d1 563b 8ee9 563b 00f8 543b e74d 55bb
00000090: 33e4 54bb 7c2c 98a1 a4e2 54bb 88e5 54bb
000000a0: e5e0 54bb f5dd 54bb 9ed0 c63a a5be c63a
000000b0: cdd6 1621 19cb c63a 68c4 c63a 2eb7 c63a
000000c0: 6dbf c63a 72bc 793b 1ea9 7a3b 0bc1 3ca2
000000d0: 2fbb 7a3b 35ae 7a3b fabc 7a3b 7c6d 793b
000000e0: f69c bf3b 3089 c03b 048c 47a2 1a98 c03b
000000f0: 5c8b c03b bb8a c03b 4377 bf3b eba7 3e3b
00000100: 8ff1 3d3b fc79 8b21 9ef5 3d3b 42f3 3d3b
00000110: 3be3 3d3b c876 3d3b ff8c a7ba fd43 a8ba
00000120: 4b68 fc21 6f53 a8ba c533 a8ba 6831 a8ba
00000130: 3d95 a3ba a4e0 4139 5d8c 4b39 af33 a6a1
00000140: e6d2 4b39 dda9 4b39 f6d6 4b39 974c 4539
00000150: 5fac b2b9 b3b3 b7b9 e7d8 0c22 ee97 b8b9
00000160: 19c1 b7b9 8b6f b7b9 f08e a3b9 3499 27bb
00000170: 2fac 27bb 0643 aca0 b9aa 27bb 29ae 27bb
00000180: 22b0 27bb b6a6 28bb b137 1bbb 3e50 1cbb
00000190: 8647 1022 ce5a 1cbb d850 1cbb 3b54 1cbb
000001a0: c406 1bbb 6eab 6aba 787f 6cba ae1f 8021
000001b0: 985b 6cba 725f 6cba 428b 6cba f4ef 68ba

exp_avg f4 [16]
0.016592763 -0.01921332 -0.0146505395 0.0032899675 0.033172347 0.009287949 -0.0046032425 0.023041269
0.024358757 -0.00851297 -0.015405725 0.010144158 -0.01719327 0.0026285064 -0.01761223 -0.007820054
00000000: 8ced 873c 4165 9dbc d108 70bc 7f9c 573b
00000010: badf 073d 7b2c 183c ccd6 96bb 0bc1 bc3c
00000020: 048c c73c fc79 0bbc 4b68 7cbc af33 263c
00000030: e7d8 8cbc 0543 2c3b 8647 90bc af1f 00bc

exp_avg f4 [8, 16]
-0.004003785 0.0012463772 -0.00052879413 0.0007019026 0.0006176467 -0.0030934091 -0.00069203234 0.00038592765
0.0020615137 -0.0016105752 0.0018134217 -2.933932e-05 -0.0022055225 0.0012406438 -0.0019012993 0.0061220964
-0.0044158925 -0.01103302 0.034928963 -0.009871225 0.0025812958 0.0010926619 -0.008547036 0.006446589
-0.0026686143 0.0063739447 0.0097223995 -0.007309735 0.008792091 -0.0040077977 -0.006941958 -0.015183709
0.0008975785 0.0030187846 -0.007709009 0.002674777 -0.0010419857 -0.00047127064 0.0022908458 -0.0017854951
0.00025181493 -0.0016665023 -0.0025351855 0.0018357764 -0.0022599418 0.000714952 0.0018546291 0.003996396
-0.0062449053 0.013944453 -0.015656887 0.010928408 -0.0061160163 -0.007869449 0.0062719877 -0.0076390347
0.0011553244 -0.00820374 -0.008062901 0.00642878 -0.009399914 0.002631171 0.0007585329 0.027372899
-0.00038904065 -0.0020120444 0.0043302393 -0.0016905764 0.0008368818 0.00032119965 -0.0012582405 0.0013364981
-5.4808506e-06 0.0010034826 0.0018898472 -0.0011986793 0.0011824557 -0.00047130813 -0.0007671586 -0.003129061
0.016185863 -0.013138584 0.00042118286 -0.008686338 0.005645786 0.013376113 -0.0015173294 0.0058700116
-0.00301623 0.009059031 0.0026551422 -0.0040375707 0.009376359 -0.003362673 0.0062867803 -0.035765957
-0.0044977716 0.0006323928 0.0067982418 -0.00038197835 -0.0005256353 -0.002814349 -0.0017120243 3.3199343e-05
0.0002923458 -0.00068053894 0.0014334563 -0.00054710277 -0.00023064432 0.00015044615 -0.002884765 0.0050915913
0.0029901215 -0.006439949 0.010022879 -0.004771677 0.0018434922 0.004045652 -0.0027669622 0.002962505
-0.0017005659 0.004094012 0.00286502 -0.0031117124 0.005025036 -0.0019393899 -0.0005982802 -0.012718667
00000000: 2f32 83bb 7b5d a33a c69e 0aba e3ff 373a
00000010: 92e9 213a cbba 4abb 8169 35ba 5556 ca39
00000020: 761a 073b f019 d3ba 56b0 ed3a b61d f6b7
00000030: 878a 10bb 199d a23a 0535 f9ba de9b c83b
00000040: 31b3 90bb d7c3 34bc ac11 0f3d ebba 21bc
00000050: f52a 293b a637 8f3a de08 0cbc e83d d33b
00000060: ebe3 2ebb 86dc d03b b34a 1f3c 8086 efbb
00000070: b40c 103c d853 83bb 5d79 e3bb 17c5 78bc
00000080: 794b 6b3a cdd6 453b db9b fcbb 504b 2f3b
00000090: 3d93 88ba e014 f7b9 0422 163b 4607 eaba
000000a0: 0706 8439 8a6e daba 5b25 26bb 6f9e f03a
000000b0: 881b 14bb 9e6b 3b3a 0717 f33a 33f4 823b
000000c0: 10a2 ccbb 4677 643c df42 80bc 110d 333c
000000d0: dd68 c8bb ddee 00bc 3f85 cd3b de50 fabb
000000e0: 416e 973a fb68 06bc 421a 04bc 84a8 d23b
000000f0: 1902 1abc b96f 2c3b 48d8 463a 213d e03c
00000100: 27f8 cbb9 81dc 03bb aee4 8d3b 5596 ddba
00000110: 3062 5b3a b066 a839 8ceb a4ba 6f2d af3a
00000120: 26e8 b7b6 4a87 833a c0b4 f73a 011d 9dba
00000130: a1fc 9a3a e819 f7b9 241b 49ba ef10 4dbb
00000140: 3798 843c 3743 57bc 35d2 dc39 2451 0ebc
00000150: 4900 b93b 7c27 5b3c 20e1 c6ba 3a59 c03b
00000160: f1ab 45bb 546c 143c e501 2e3b 994d 84bb
00000170: 4d9f 193c 4b60 5cbb 5601 ce3b 537f 12bd
00000180: 0b62 93bb 2ac7 253a c9c3 de3b 4444 c8b9
00000190: caca 09ba f170 38bb 0166 e0ba 863f 0b38
000001a0: fd45 9939 3266 32ba d0e2 bb3a 726b 0fba
000001b0: 1dd9 71b9 15c1 1d39 530e 3dbb 5dd7 a63b
000001c0: eaf5 433b 3506 d3bb 0037 243c ba5b 9cbb
000001d0: 55a1 f13a 6491 843b ec55 35bb 9626 423b
000001e0: 86e5 deba 1027 863b 0fc3 3b3b dfed 4bbb
000001f0: 0fa9 a43b 2033 feba e8d5 1cba f561 50bc

exp_avg f4 [8]
0.004059442 0.008713936 -0.0014687777 0.010177315 0.00050932914 -0.02403459 0.0069923033 -0.0037624566
00000000: 1105 853b e6c4 0e3c 0084 c0ba c1be 263c
00000010: 8084 053a 30e4 c4bc b11f e53b 8c93 76bb

exp_avg f4 [16, 8]
0.0018535057 -0.005156408 -0.009920802 -0.008186637 0.005937494 0.0053200396 0.0018013985 0.008403445
-0.00026865915 0.006600405 0.010671547 0.009538274 -0.0072755907 -0.008325735 -0.0022036582 -0.008801476
0.00017239068 0.0058056195 0.010217154 0.008949516 -0.0070024226 -0.0075822915 -0.0018306957 -0.008781357
0.0054705804 0.0020370542 -0.0010978006 0.0010076809 -0.002167956 -0.0064938907 -0.0018390873 0.003070095
0.00078882044 -0.0020136468 -0.0044571515 -0.003457793 0.0024390144 0.0020854573 0.0012828257 0.0033539827
0.00015740786 -0.0008476459 -0.0011401493 -0.0010864717 0.0009732333 0.0010917566 -0.0006614839 0.0015200722
-0.008986233 -0.0037305623 0.0021435868 -0.0019295743 0.0036938933 0.011017626 0.0026181305 -0.004804639
0.008124814 0.0027606203 -0.0050816685 2.2169037e-05 -0.0020558806 -0.009115994 0.0002733454 0.0050681634
0.001123705 0.0016808844 0.00077517936 0.0016478668 -0.0015565087 -0.0030292843 0.00010990136 -0.00076274015
-0.002437363 0.002132487 0.006734219 0.0044599893 -0.0030057526 -0.0013860418 -8.107229e-05 -0.0064422404
9.279356e-05 -0.007341867 -0.012638523 -0.0111623 0.00821954 0.00954234 0.0051455903 0.008210353
-0.0046576653 -0.0017481605 0.00059742003 -0.0008483947 0.002152462 0.0056777177 0.0005289207 -0.0016892849
0.0061841942 0.0046077115 0.0004750161 0.0038057133 -0.0043473355 -0.01007437 -0.0026980932 0.0020209833
-0.00040755884 0.0016315219 0.003182434 0.0026056883 -0.0017977552 -0.0019735212 -0.0011887387 -0.002070463
-0.009292464 0.003143435 0.017400464 0.009539118 -0.005360495 0.0020016269 -0.0032695883 -0.014222083
0.004456534 -0.0022858293 -0.009145035 -0.005616071 0.0031001722 0.00015597425 0.0023173122 0.0070519485
00000000: 55f1 f23a 16f7 a8bb dc8a 22bc 3f21 06bc
00000010: 4f8f c23b ba53 ae3b e71c ec3a 9aae 093c
00000020: d2da 8cb9 3648 d83b b6d7 2e3c 6c46 1c3c
00000030: 1468 eebb aa68 08bc 406b 10bb 1134 10bc
00000040: c5c3 3439 113d be3b da65 273c fea0 123c
00000050: 9474 e5bb df74 f8bb f4f3 efba aedf 0fbc
00000060: 8e42 b33b 1980 053b 13e4 8fba 2914 843a
00000070: 4414 0ebb b4ca d4bb 880d f1ba a633 493b
00000080: d8c8 4e3a 63f7 03bb 4c0d 92bb 249c 62bb
00000090: dfd7 1f3b 2bac 083b 7d24 a83a 7ece 5b3b
000000a0: da0d 2539 8e34 5eba 1071 95ba f167 8eba
000000b0: 9520 7f3a 4619 8f3a 6f67 2dba 293d c73a
000000c0: fe3a 13bc 737c 74bb 6b7b 0c3b c5e9 fcba
000000d0: 3f15 723b 4683 343c f194 2b3b 3c70 9dbb
000000e0: f11d 053c 86eb 343b 2084 a6bb a5f7 b937
000000f0: f4bb 06bb 405b 15bc cc4f 8f39 d612 a63b
00000100: 4849 933a 1f51 dc3a 6835 4b3a 3cfd d73a
00000110: c403 ccba f586 46bb d87a e638 a0f2 47ba
00000120: 2abc 1fbb 32c1 0b3b b9aa dc3b 1a25 923b
00000130: 29fc 44bb d8ab b5ba 5b05 aab8 6e19 d3bb
00000140: 2a9a c238 0b94 f0bb cf11 4fbc 14e2 36bc
00000150: 40ab 063c 7a57 1c3c 579c a83b b784 063c
00000160: 549f 98bb 8822 e5ba 2e9c 1c3a ce66 5eba
00000170: 5210 0d3b 260c ba3b 44a7 0a3a ff6a ddba
00000180: c8a4 ca3b 49fc 963b 950b f939 4669 793b
00000190: 1874 8ebb f80e 25bc 7ed2 30bb 7972 043b
000001a0: 9fad d5b9 cad8 d53a 6290 503b 32c4 2a3b
000001b0: a8a2 ebba 3156 01bb 74cf 9bba 9bb0 07bb
000001c0: 6b3f 18bc 1702 4e3b 6b8b 8e3c f649 1c3c
000001d0: 17a7 afbb ba2d 033b 9746 56bb bd03 69bc
000001e0: 1e08 923b dacd 15bb 0fd5 15bc 0507 b8bb
000001f0: 422c 4b3b 058d 2339 0cde 173b 0814 e73b

exp_avg f4 [16]
0.0046245833 -0.0069432915 -0.006439583 -0.005504825 0.00193183 0.0005979058 0.009263415 -0.0069323336
-0.0022627774 -0.0009225612 0.008535547 0.004339895 -0.008330649 -0.00179255 0.0008466554 0.00054573995
00000000: d189 973b 8d84 e3bb 2303 d3bb d261 b4bb
00000010: 7535 fd3a c7bc 1c3a 94c5 173c a128 e3bb
00000020: 1b4b 14bb 09d8 71ba aed8 0b3c ae35 8e3b
00000030: 467d 08bc fff3 eaba 15f2 5d3a fd0f 0f3a

exp_avg f4 [7, 16]
0.023878453 0.004901089 0.021697937 -0.0009062249 -0.0038294147 -0.014043907 -0.0043488373 -0.0049377936
-0.0033699533 -0.007533889 -0.0030370706 -0.0005437975 0.0070696194 -0.007611587 -0.004751648 -0.0024253263
-0.0010168513 0.003942186 -0.005531015 -0.0014445821 0.004163323 0.005617851 0.0025835957 0.0021913173
0.00082102313 0.0037393686 0.0021903939 -0.0034747168 -0.00989521 0.0042937715 -0.0058589014 -0.0024308148
0.01746725 0.0142844 0.011587181 -0.008094434 0.008894447 0.005256992 0.0023101177 0.0016053369
-0.0024911105 0.004727917 0.006641041 -0.012723388 -0.02591681 0.006743106 -0.02226785 -0.008138101
0.03858331 0.011498608 0.030879356 -0.003058113 -0.0016979619 -0.017599419 -0.004001409 -0.0061203972
-0.0049480335 -0.007922266 -0.0019929344 -0.0041886945 0.0010071051 -0.0076760612 -0.0151796155 -0.0073797493
0.024625992 0.01367901 0.015697636 -0.0052003087 0.0035525952 -0.0058548306 -0.0020187234 -0.00015190229
-0.001922247 -0.0021823759 -4.9960672e-05 -0.009939695 -0.0112028755 -0.0004036323 -0.014236105 -0.004317186
0.0047478876 0.0017424641 0.0044840174 -0.00087360665 0.00070200436 -0.00032237524 0.0006965514 -0.0010553831
-0.0013082877 0.00033404038 0.0013844563 -0.00056577293 -0.002803216 0.00019991226 -0.004675212 -0.0026979805
-0.030930014 -0.008980882 -0.02668587 0.003241882 0.0018688486 0.0153101 0.0047521396 0.0042093885
0.004195007 0.0072587 0.0021540765 0.004518496 -0.001904839 0.0064878645 0.01066326 0.0036310274
00000000: bf9c c33c 5099 a03b dfbf b13c b98f 6dba
00000010: ebf6 7abb 6a18 66bc b180 8ebb 37cd a1bb
00000020: 6fda 5cbb d7de f6bb 9709 47bb a28d 0eba
00000030: 44a8 e73b 9f6a f9bb b6b3 9bbb 39f2 1ebb
00000040: de47 85ba 742d 813b 843d b5bb 2258 bdba
00000050: 7c6c 883b f315 b83b 8b51 293b 349c 0f3b
00000060: ee39 573a 3210 753b b68c 0f3b 13b8 63bb
00000070: 851f 22bc c4b2 8c3b 07fc bfbb 4e4e 1fbb
00000080: 7a17 8f3c 1e09 6a3c 29d8 3d3c 849e 04bc
00000090: 04ba 113c d842 ac3b 5865 173b 2b6a d23a
000000a0: e641 23bb a4ec 9a3b 179d d93b c275 50bc
000000b0: 7d4f d4bc 46f5 dc3b 116b b6bc ab55 05bc
000000c0: 8809 1e3d a864 3c3c b4f6 fc3c 9f6a 48bb
000000d0: 268e deba a82c 90bc 401e 83bb 9d8d c8bb
000000e0: 1d23 a2bb 64cc 01bc e49b 02bb 5141 89bb
000000f0: d700 843a 7887 fbbb ecb3 78bc d3d1 f1bb
00000100: 73bc c93c ed1d 603c 5498 803c 5a67 aabb
00000110: a8d2 683b e1d9 bfbb 8f4c 04bb f647 1fb9
00000120: e8f3 fbba 3106 0fbb dd8c 51b8 1ada 22bc
00000130: 448c 37bc 9c9e d3b9 8d3e 69bc 2e77 8dbb
00000140: 2b94 9b3b 6563 e43a aaee 923b c002 65ba
00000150: b706 383a 7904 a9b9 c698 363a c854 8aba
00000160: da7a abba 2422 af39 a576 b53a 6150 14ba
00000170: 29b6 37bb 8a9f 5139 8532 99bb 9ad0 30bb
00000180: f160 fdbc 8d24 13bc 539c dabc c175 543b
00000190: 27f4 f43a 37d7 7a3c d6b7 9b3b e9ee 893b
000001a0: 4576 893b 64da ed3b 682b 0d3b e40f 943b
000001b0: caab f9ba 2798 d43b f4b4 2e3c 88f6 6d3b

exp_avg f4 [7]
0.012080919 -0.00616946 -0.0074360315 0.013149522 0.002229324 0.00021336498 -0.011530938
00000000: 0cef 453c 2e29 cabb f4a9 f3bb 1871 573c
00000010: da19 123b baba 5f39 42ec 3cbc

exp_avg f4 [16]
0.035791166 -0.0077955658 0.035636462 0.00075634045 0.0027672725 0.008737845 0.0013761537 0.0006054798
0.00042581663 0.00664442 0.0071866927 0.0012375986 0.00501243 0.0044346917 0.039231006 -0.010084875
00000000: c299 123d f271 ffbb 8af7 113d 2645 463a
00000010: 215b 353b 2e29 0f3c 0e60 b43a 10b9 1e3a
00000020: 2440 df39 6fb9 d93b 597e eb3b eb36 a23a
00000030: 4f3f a43b e450 913b b1b0 203d 083b 25bc

exp_avg f4 [16]
0.029301908 -0.016500594 -0.007843706 -0.014932323 0.006046055 -0.0030558733 0.0027777713 -0.009572975
0.004364846 -0.016256802 -0.0062855748 0.011281658 -0.022354191 -0.01258675 -0.0304069 -0.0059093246
00000000: 8e0a f03c 412c 87bc e382 00bc b4a6 74bc
00000010: fc1d c63b 0c45 48bb 450b 363b f8d7 1cbc
00000020: fb06 8f3b fc2c 85bc 39f7 cdbb b4d6 383c
00000030: 2320 b7bc a838 4ebc e417 f9bc 02a3 c1bb

exp_avg f4 [8]
-0.008335483 -0.0059039053 0.019163724 0.009341664 -0.0033033895 -0.020189147 0.00019681905 0.0024822839
00000000: 8d91 08bc 8c75 c1bb 3efd 9c3c c70d 193c
00000010: ae7d 58bb b663 a5bc 3661 4e39 d0ad 223b

exp_avg f4 [8]
0.00413965 0.006554843 -0.012496015 0.003438775 -0.0026087863 -0.016939545 0.0053377724 -0.008300004
00000000: e7a5 873b 02ca d63b 16bc 4cbc 125d 613b
00000010: 2cf8 2abb cdc4 8abc 7be8 ae3b bdfc 07bc

exp_avg f4 [8, 7]
0.039697442 0.08312044 -0.03186553 0.025007276 0.030089967 0.07033858 0.14492124 -0.009120113
-0.019512083 0.008799592 -0.00700221 -0.0063673486 -0.016709242 -0.03277626 0.027509192 -0.12344684
0.106150016 0.09459366 0.049651846 -0.08052387 -0.3418604 -0.006642454 0.005142412 -0.009494007
-0.014049709 -0.009376426 0.0028443262 0.025782306 -0.0037633933 -0.0077257324 0.004086531 -0.0007581227
-0.0019401619 -0.006654218 -0.016452381 -0.0048411866 0.023586454 -0.022514362 -0.01788692 -0.011918456
0.017460346 0.06834785 -0.024231747 0.046220247 -0.04990464 -0.05867352 -0.036535326 0.0269682
0.15543514 -0.0033258814 0.01853779 -0.01708673 -0.012237051 -0.0075358828 0.012127586 0.049908843
00000000: c999 223d 0d3b aa3d 6e85 02bd 0fdc cc3c
00000010: 3c7f f63c ac0d 903d 3c66 143e 876c 15bc
00000020: ced7 9fbc 2a2c 103c cb72 e5bb 31a5 d0bb
00000030: d2e1 88bc 6640 06bd f55a e13c b2d1 fcbd
00000040: 2e65 d93d 52ba c13d bc5f 4b3d b3e9 a4bd
00000050: 5408 afbe f1a8 d9bb ae81 a83b c08c 1bbc
00000060: c030 66bc 959f 19bc e067 3a3b 6a35 d33c
00000070: 43a3 76bb 2428 fdbb 4ee8 853b c1bc 46ba
00000080: 084d feba a00b dabb 25c7 86bc d1a2 9ebb
00000090: 6138 c13c 0a70 b8bc 9787 92bc a145 43bc
000000a0: 0009 8f3c f5f9 8b3d a881 c6bc 7151 3d3d
000000b0: cf68 4cbd a553 70bd 11a6 15bd 6aec dc3c
000000c0: 642a 1f3e 08f7 59bb 90dc 973c 78f9 8bbc
000000d0: e97d 48bc 91ef f6bb c8b2 463c 376d 4c3d

exp_avg_sq f4 [8, 7]
4.072277e-05 0.0001737356 2.8197497e-05 1.9141859e-05 2.5162306e-05 0.00012549928 0.00053813896 2.2500542e-06
9.502843e-06 2.1690103e-06 1.6266935e-06 1.4749087e-06 7.022708e-06 2.6734338e-05 2.3820357e-05 0.0003935293
0.0003095304 0.00025464944 7.5872034e-05 0.00017304467 0.0031362656 1.2368439e-06 7.97809e-07 2.6828552e-06
5.970556e-06 2.755545e-06 3.929146e-07 2.0729252e-05 4.3099524e-07 1.6347499e-06 6.4179966e-07 2.3181826e-07
2.0215677e-07 1.1741665e-06 7.4770655e-06 1.1418007e-06 1.3899164e-05 1.4033914e-05 1.0561014e-05 5.385345e-06
7.866923e-06 0.00012619213 1.6027352e-05 5.8429825e-05 7.451907e-05 9.456196e-05 3.7983697e-05 2.1525653e-05
0.00066839997 5.348558e-07 8.619696e-06 7.6906335e-06 4.4896506e-06 1.8212222e-06 3.7268069e-06 6.4094405e-05
00000000: becd 2a38 cc2c 3639 aa89 ec37 d492 a037
00000010: a413 d337 7598 0339 e511 0d3a a3ff 1636
00000020: 666e 1f37 508f 1136 c354 da35 7af5 c535
00000030: 9aa4 eb36 8e43 e037 d4d1 c737 9c52 ce39
00000040: 7848 a239 7882 8539 7d1d 9f38 5373 3539
00000050: ce89 4d3b a201 a635 0429 5635 1a0b 3436
00000060: af56 c836 e7eb 3836 c5f1 d234 bbe3 ad37
00000070: 8963 e734 9469 db35 2348 2c35 b8e9 7834
00000080: 6e10 5934 0e98 9d35 81e3 fa36 f93f 9935
00000090: 7430 6937 3473 6b37 362f 3137 c3b3 b436
000000a0: 2dfc 0337 7152 0439 7a72 8637 8c12 7538
000000b0: 1f47 9c38 914f c638 af50 1f38 fd91 b437
000000c0: 9037 2f3a 0393 0f35 509d 1037 0507 0137
000000d0: cea5 9636 b870 f435 0e1a 7a36 6c6a 8638

exp_avg f4 [8]
0.054794695 -0.016292669 -0.008991631 -0.0009028008 -0.0044595525 0.011749618 -0.032195486 0.012011659
00000000: 6770 603d 3478 85bc a251 13bc f0a9 6cba
00000010: 7021 92bb 7881 403c 6adf 03bd 8dcc 443c

exp_avg_sq f4 [8]
8.521889e-05 7.089901e-06 0.0001054182 4.1141473e-07 1.3418357e-06 6.408419e-06 4.23468e-05 4.1161907e-06
00000000: 8bb7 b238 c9e5 ed36 f713 dd38 69e0 dc34
00000010: 2019 b435 e607 d736 889d 3138 cf1d 8a36

exp_avg f4 [1, 8]
0.030141689 0.05704591 0.15219261 0.3437874 -0.35132372 0.23529951 -0.53197235 0.06760949
00000000: b4eb f63c f9a8 693d 61d8 1b3e e704 b03e
00000010: b4e0 b3be 5bf2 703e 572f 08bf d876 8a3d

exp_avg_sq f4 [1, 8]
4.5724773e-05 0.000107289314 0.00059774047 0.0030572026 0.003367176 0.0014238321 0.007165273 0.0001279914
00000000: 9ac8 3f38 8300 e138 afb1 1c3a 595b 483b
00000010: d7ab 5c3b e19f ba3a abca ea3b 6e35 0639

exp_avg f4 [8]
-0.009636464 0.0050419765 0.14359052 0.024993101 0.027354207 -0.022912921 0.26209876 -0.012449337
00000000: 42e2 1dbc 2a37 a53b 6509 133e 55be cc3c
00000010: ee15 e03c e1b3 bbbc cf31 863e 4ef8 4bbc

exp_avg_sq f4 [8]
4.6894575e-06 8.462384e-07 0.00053193694 1.6348386e-05 2.0690844e-05 1.3410013e-05 0.0017402145 4.3409646e-06
00000000: 225a 9d36 0f29 6335 af71 0b3a e423 8937
00000010: 4091 ad37 91fb 6037 e917 e43a 9aa8 9136

exp_avg f4 [8]
0.023582593 -0.00633052 -0.06852939 -0.0052542193 0.0056173573 0.007177927 0.0358203 0.0135540385
00000000: 4830 c13c 4070 cfbb 2359 8cbd 962b acbb
00000010: cf11 b83b d134 eb3b 4fb8 123d c211 5e3c

exp_avg_sq f4 [8]
1.8826697e-05 1.3513699e-06 0.00015885329 9.302926e-07 1.063579e-06 1.750216e-06 4.3386797e-05 6.228305e-06
00000000: 06ee 9d37 b760 b535 db91 2639 38b9 7935
00000010: 4cc0 8e35 f7e8 ea35 38fa 3538 bcfc d036
