saved/gan/j98aebt2/checkpoints/epoch=0-step=20-v2.ckpt (torch, 21266 bytes, 39 tensors)

generator.fc1.weight f4 [16, 7]
1.314943 0.10669841 0.43138888 -0.04544385 0.18274127 -0.5366971 0.66458434 0.21463491
0.64484817 0.4877955 0.3363426 0.34637958 0.20184582 -0.1879731 -0.48659822 0.9356224
-0.5550201 -0.3283135 0.188461 -0.2827788 0.62104094 0.4346589 0.21847025 0.09721741
-0.31635708 -0.50011 0.69265234 -0.3476989 -0.19774374 0.43788618 0.5648974 0.511815
-0.3309665 0.25657314 -0.42587027 0.5349489 -0.03729801 -0.7376427 0.3851707 0.23098664
-0.18128268 -0.4528643 -0.2766877 0.13728166 -0.23841448 -0.22104052 -0.1587172 -0.09080999
-0.44091326 0.39686406 -0.012401875 -0.41878754 0.3334628 -0.35059005 0.09179895 -0.022401894
-1.0137318 -0.2358164 -0.64137673 0.5970502 -0.0037220279 -0.7748941 -0.028681068 0.34632042
-0.72458684 -0.40494716 0.061349202 0.11162343 -0.16880427 -0.3920486 -0.32206962 0.1177795
0.026803264 -0.35277355 -0.018819647 0.15920843 -0.44988608 0.07449542 0.5660299 -0.3012508
-0.6076192 0.47187626 0.172987 0.20223704 0.1230512 -0.0050930036 0.20273438 0.5325244
-1.3411349 0.06959462 0.8708067 -0.63057 -1.0501708 0.571352 0.10688456 0.115689546
0.25124174 0.13281715 -0.40718204 0.15558273 -0.23619114 -0.85373724 -0.13515571 -0.82343775
0.010231668 0.026298443 0.72597367 0.36779615 -0.39895532 -0.3162562 0.2868378 -0.009483679
00000000: 0d50 a83f b284 da3d 01df dc3e 5523 3abd
00000010: 8720 3b3e fb64 09bf 3322 2a3f 41c9 5b3e
00000020: c514 253f 55c0 f93e 1935 ac3e aa58 b13e
00000030: acb0 4e3e 057c 40be 6723 f9be f384 6f3f
00000040: cc15 0ebf b518 a8be ecfb 403e 62c8 90be
00000050: 8afc 1e3f 9d8b de3e aab6 5f3e ec19 c73d
00000060: 8ef9 a1be 3507 00bf aa51 313f 9705 b2be
00000070: 567d 4abe 9e32 e03e 1e9d 103f 4f06 033f
00000080: 7174 a9be 8e5d 833e ab0b dabe 69f2 083f
00000090: ccc5 18bd 27d6 3cbf 1835 c53e c387 6c3e
000000a0: 2ba2 39be d4dd e7be 03aa 8dbe 9093 0c3e
000000b0: ed22 74be 7258 62be c386 22be 97fa b9bd
000000c0: 62bf e1be c431 cb3e 3c31 4bbc 526b d6be
000000d0: a3bb aa3e 8a80 b3be 1701 bc3d 2d84 b7bc
000000e0: f7c1 81bf db79 71be 4431 24bf 48d8 183f
000000f0: 44ed 73bb 765f 46bf 8ff4 eabc e950 b13e
00000100: 867e 39bf 3c55 cfbe 4d49 7b3d d39a e43d
00000110: 07db 2cbe 98ba c8be 4fe6 a4be 6136 f13d
00000120: 8592 db3c bc9e b4be a92b 9abc 8907 233e
00000130: 7857 e6be 0e91 983d 56e7 103f 8b3d 9abe
00000140: ef8c 1bbf c499 f13e 8123 313e 3a17 4f3e
00000150: 4402 fc3d 36e3 a6bb 9a99 4f3e 8553 083f
00000160: 4faa abbf a087 8e3d 30ed 5e3f 096d 21bf
00000170: ff6b 86bf 2044 123f 4be6 da3d a4ee ec3d
00000180: c2a2 803e 3801 083e 2a7a d0be 1451 1f3e
00000190: 17dc 71be 868e 5abf 4266 0abe d1cc 52bf
000001a0: baa2 273c d56f d73c 69d9 393f c74f bc3e
000001b0: df43 ccbe 55ec a1be 67dc 923e 6f61 1bbc

generator.fc1.bias f4 [16]
-0.13748784 -0.012460869 -0.03772486 0.34612802 -0.3017565 -0.2194493 -0.009979318 0.36210975
-0.12084535 -0.15265708 -0.28232864 0.026404899 -0.1483001 -0.30375224 -0.038209833 0.03369213
00000000: 9dc9 0cbe ac28 4cbc 6285 1abd b137 b13e
00000010: d47f 9abe 51b7 60be 4b80 23bc 7366 b93e
00000020: c47d f7bd 2352 1cbe 618d 90be 164f d83c
00000030: fbdb 17be 6a85 9bbe ea81 1cbd c200 0a3d

generator.fc2.weight f4 [8, 16]
-0.30995858 -0.23659082 -0.051643282 0.3031909 0.57101196 -0.7142833 -0.22210431 0.011874529
0.4384766 -0.25745744 0.25784674 0.477824 0.19433154 0.5075963 0.17691289 -0.14546888
0.047364026 -0.0856311 -0.33646518 -0.21773258 0.5331782 0.010629185 0.24466382 -0.65738446
0.11350938 0.3949168 0.28303298 0.0056696823 -0.58235496 0.646205 0.1404054 0.3006917
-0.09373591 -0.65317273 0.23773684 0.31806934 0.32101503 0.120671906 0.059747677 0.2755888
-0.1504635 -0.10724338 0.063435815 -0.23840487 0.15213123 0.25281322 -0.17918888 0.041641988
0.43764123 -0.42929083 0.35294002 -0.050751496 0.051064298 -0.49743438 -0.19331476 0.36149144
0.104563214 0.06972251 -0.33352444 0.10201571 0.1553858 -0.66049206 -0.6139325 0.0074971067
0.035576575 0.1971217 -0.3490764 -0.11602504 0.3809158 -0.110174425 -0.2732968 -0.09822385
-0.36937007 0.31003428 -0.0012235944 0.20244683 0.19229305 -0.4822123 0.08324273 0.21034013
-0.13732079 -0.6168526 0.1402879 0.03312345 -0.17775096 0.05977195 0.22240674 -0.48972625
0.46593904 0.2728654 0.024363754 -0.2697828 -0.6211891 0.020511221 -0.18177386 0.19157222
0.26182437 -0.41528204 -0.054794054 -0.49510497 0.15266213 -0.2675205 -0.12406047 -0.016154617
0.19127832 0.108574025 -0.047016487 -0.6415293 -0.2602614 -0.5809839 -0.201911 0.36909375
-0.90318847 0.30563757 -0.117956415 0.12752242 -0.4567682 -0.0776461 -0.06434676 0.25382283
-0.014619119 -0.22394091 0.23854472 -0.22796991 -0.080300465 -0.11167031 -0.669258 -0.17023687
00000000: e4b2 9ebe dd44 72be e887 53bd d63b 9b3e
00000010: d72d 123f 45db 36bf 506f 63be 628d 423c
00000020: 0180 e03e 76d1 83be 7d04 843e 59a5 f43e
00000030: d9fe 463e d5f1 013f a728 353e cbf5 14be
00000040: c800 423d 5c5f afbd 2a45 acbe 4af5 5ebe
00000050: 5e7e 083f 0826 2e3c 2789 7a3e 594a 28bf
00000060: 9b77 e83d 8932 ca3e b3e9 903e bec8 b93b
00000070: 3715 15bf b16d 253f 6fc6 0f3e 43f4 993e
00000080: 9df8 bfbd 5436 27bf 4971 733e fcd9 a23e
00000090: 155c a43e d522 f73d fbb9 743d fa19 8d3e
000000a0: 1b13 1abe 6ba2 dbbd a3ea 813d 6820 74be
000000b0: 4ac8 1b3e bc70 813e 4a7d 37be ca90 2a3d
000000c0: 8312 e03e 02cc dbbe 8eb4 b43e cde0 4fbd
000000d0: cc28 513d b8af febe 4ef4 45be 6815 b93e
000000e0: 3d25 d63d adca 8e3d b7c3 aabe 9ded d03d
000000f0: 751d 1f3e 0216 29bf ae2a 1dbf 4aaa f53b
00000100: beb8 113d 45da 493e 24ba b2be 899e edbd
00000110: 6507 c33e 21a3 e1bd 8fed 8bbe 9629 c9bd
00000120: 131e bdbe d0bc 9e3e 0461 a0ba 394e 4f3e
00000130: 78e8 443e 88e4 f6be 2a7b aa3d 6763 573e
00000140: d29d 0cbe 0dea 1dbf a2a7 0f3e 74ac 073d
00000150: 5904 36be 6fd3 743d 98be 633e 66bd fabe
00000160: 908f ee3e 04b5 8b3e 7f96 c73c f920 8abe
00000170: 4006 1fbf 2607 a83c ed22 3abe 822b 443e
00000180: d80d 863e d99f d4be bb6f 60bd 667e fdbe
00000190: 7653 1c3e 72f8 88be 6a13 febd b056 84bc
000001a0: 77de 433e 0f5c de3d 5c94 40bd 443b 24bf
000001b0: fb40 85be 5cbb 14bf c2c1 4ebe dbf9 bc3e
000001c0: 5c37 67bf 877c 9c3e 2293 f1bd 3d95 023e
000001d0: 86dd e9be eb04 9fbd 3cc8 83bd 11f5 813e
000001e0: 0885 6fbc c450 65be 1145 743e f270 69be
000001f0: 9274 a4bd 67b3 e4bd 7e54 2bbf 9352 2ebe

generator.fc2.bias f4 [8]
0.22547197 -0.13807797 -0.13515073 0.17466334 -0.21354222 -0.08869395 -0.06606415 -0.012423884
00000000: 20e2 663e 5064 0dbe f464 0abe f2da 323e
00000010: d0aa 5abe 2ca5 b5bd a44c 87bd 8c8d 4bbc

generator.fc3.weight f4 [16, 8]
0.22017358 -0.49182016 -0.04860785 -0.075564004 -0.23315056 -0.26962084 -0.094636045 -0.37310672
-0.2373471 -0.65829057 0.006736165 -0.53739786 0.019327706 0.2505484 0.17053375 -0.43078855
-0.25851938 -0.32301557 0.57017636 -1.2373562 0.0931151 0.63544273 -0.8991597 0.2796489
0.3230092 0.16853729 0.11600306 0.19856545 0.2858754 0.14531326 0.17778844 -0.44392535
-0.1959993 -0.95042753 -0.8900928 0.07728084 -0.0807849 -0.38733009 -0.8766704 0.47310945
0.37346753 -0.8598927 0.77693516 0.25066268 0.39341846 0.03749242 -0.030004958 -0.30224127
0.9384043 0.30876032 0.4386205 -0.07081869 -0.42270842 0.29562384 0.056538783 -0.9117215
-0.40970436 0.32157993 0.8138001 -0.50073975 0.7587002 -0.77139497 0.5768913 -0.88536316
0.38910523 -0.42692786 0.7097016 -0.12509881 -0.2890462 -0.58704513 1.0416211 -0.26878124
-0.36511752 -0.053205147 -0.0055809803 0.11769138 0.06197286 -0.2754815 0.04165128 0.35399777
0.5996589 0.2149573 0.37650228 -0.064183585 0.31715265 -1.1997408 -0.3331781 -0.8840603
0.5918469 0.027657222 -0.5262057 0.23419991 0.16607872 0.05368052 0.38124663 -0.07450398
0.2034477 -0.60752136 -0.68895805 0.5517233 -0.035552442 -0.59362483 -0.47094163 0.1461356
0.11599997 0.14165173 -0.3139576 -0.25249374 0.1694164 0.18378836 0.5783997 0.13337961
-0.32587788 0.06692962 -0.7303706 0.3616324 0.03581148 0.07494828 -0.25414807 -0.25530717
-0.4052155 1.0497663 0.49553743 -0.15305933 -0.15889601 0.005352528 -1.1467246 -0.19608268
00000000: 2f75 613e dacf fbbe 0619 47bd 4dc1 9abd
00000010: 05bf 6ebe be0b 8abe 8bd0 c1bd d807 bfbe
00000020: 1e0b 73be bb85 28bf 0cbb dc3b e892 09bf
00000030: 2355 9e3c e147 803e 66a0 2e3e 5190 dcbe
00000040: a75c 84be 4c62 a5be 14f7 113f b061 9ebf
00000050: 21b3 be3d 60ac 223f 552f 66bf 242e 8f3e
00000060: 7661 a53e 0a95 2c3e 0393 ed3d be54 4b3e
00000070: 435e 923e 00cd 143e 2c0e 363e 2f4a e3be
00000080: 0ab4 48be 384f 73bf 1fdd 63bf 6b45 9e3d
00000090: 8e72 a5bd 2150 c6be 796d 60bf 673b f23e
000000a0: 2337 bf3e ee21 5cbf 39e5 463f dc56 803e
000000b0: 256e c93e a791 193d f5cc f5bc 5ebf 9abe
000000c0: 443b 703f d515 9e3e de92 e03e 6409 91bd
000000d0: 3d6d d8be 025c 973e 3695 673d 9566 69bf
000000e0: c5c4 d1be 20a6 a43e 3455 503f 7b30 00bf
000000f0: 2d3a 423f 247a 45bf 26af 133f 29a7 62bf
00000100: cd38 c73e 4a96 dabe 01af 353f e719 00be
00000110: ddfd 93be 9748 16bf d753 853f b29d 89be
00000120: aff0 babe a4ed 59bd a8e0 b6bb 2e08 f13d
00000130: 41d7 7d3d e90b 8dbe 889a 2a3d 323f b53e
00000140: 3f83 193f c41d 5c3e e8c4 c03e af72 83bd
00000150: d561 a23e 1b91 99bf 5296 aabe c751 62bf
00000160: 4783 173f 6691 e23c 6bb5 06bf 1ad2 6f3e
00000170: 8a10 2a3e 1be0 5b3d c232 c33e 8b95 98bd
00000180: 9854 503e 8586 1bbf 8e5f 30bf bd3d 0d3f
00000190: 709f 11bd ccf7 17bf 431f f1be 92a4 153e
000001a0: 6491 ed3d 270d 113e 0dbf a0be dc46 81be
000001b0: 7e7b 2d3e 0433 3c3e 0112 143f aa94 083e
000001c0: 77d9 a6be 6612 893d 91f9 3abf e227 b93e
000001d0: 0faf 123d 7c7e 993d b21f 82be 9fb7 82be
000001e0: 6878 cfbe be5e 863f 15b7 fd3e 96bb 1cbe
000001f0: a3b5 22be 4264 af3b dfc7 92bf e6c9 48be

generator.fc3.bias f4 [16]
-0.026801836 -0.0688771 -0.3361842 -0.06884433 0.17974651 0.08220726 0.31286392 -0.02844772
-0.16059773 0.10671583 0.073795825 -0.010293464 0.16888636 -0.3102189 -0.19204739 0.21434045
00000000: 868f dbbc 700f 8dbd 5620 acbe 42fe 8cbd
00000010: 780f 383e 485c a83d b32f a03e 310b e9bc
00000020: bb73 24be d48d da3d 4422 973d eba5 28bc
00000030: 8cf0 2c3e 03d5 9ebe 12a8 44be 107c 5b3e

generator.fc4.weight f4 [7, 16]
0.79250884 0.089489646 0.14645529 -0.3235911 1.0218992 -0.055407204 -0.25804 -0.13173363
-0.94009376 0.22151464 -0.5124529 0.10783924 -0.60878617 0.123417124 -0.00041109533 0.45510724
0.024509558 -0.3808613 -0.38387403 0.6676301 0.18610577 0.45682257 0.3947907 0.12717155
-0.20103507 -0.44719884 0.1951293 0.26051873 -0.10009352 0.17074934 -0.91322976 -0.18536574
0.024099898 0.1630498 0.0047224155 -0.31144494 -0.23062615 0.50620294 0.103039 0.3536691
0.2928021 0.33240637 0.066372 -0.33904946 0.09373426 -0.25795025 0.49814522 -0.51511145
-0.5565913 0.047585916 0.07280484 0.39999828 0.64131206 -0.06386651 -0.3353441 -0.4930848
0.019535616 -0.41006663 -0.86824197 -0.74488086 -0.13308664 0.55314326 0.198878 0.74634725
0.02616999 -0.54393446 0.019471945 0.5375514 -0.22843353 -0.009001682 -0.59840333 -0.18883443
-0.57393 0.13332796 0.489079 0.10620064 0.5003093 -0.29158655 0.4216941 -0.048617195
-0.3583189 0.11339828 0.35909942 -0.041079376 0.5602029 0.20030707 0.105399236 0.054599013
0.17288926 0.10753085 0.047647364 0.4993053 -0.017155956 0.29703227 0.4972364 -0.0934874
0.38428673 -1.1352584 -0.038603958 0.14798544 -0.11267541 -0.18764342 -0.29237753 -0.21661058
-0.066568196 0.06036396 -0.57429796 0.39709413 -0.0029035127 -0.004810095 -0.14811252 0.03548941
00000000: dce1 4a3f 5946 b73d 60f8 153e bcad a5be
00000010: 98cd 823f aaf2 62bd d21d 84be 2ee5 06be
00000020: fca9 70bf bcd4 623e 1d30 03bf d2da dc3d
00000030: 69d9 1bbf 1ec2 fc3d 4888 d7b9 d103 e93e
00000040: 45c8 c83c 4100 c3be 238b c4be cee9 2a3f
00000050: 8392 3e3e a6e4 e93e 0222 ca3e 4239 023e
00000060: 23dc 4dbe 3ff7 e4be facf 473e b662 853e
00000070: d5fd ccbd ead8 2e3e 6dc9 69bf 84d0 3dbe
00000080: 266d c53c 87f6 263e 7ebe 9a3b b675 9fbe
00000090: 4329 6cbe 8496 013f 1c06 d33d 1e14 b53e
000000a0: 28ea 953e 2b31 aa3e 0bee 873d e497 adbe
000000b0: bff7 bf3d 0e12 84be e40c ff3e 58de 03bf
000000c0: c47c 0ebf 73e9 423d b41a 953d 93cc cc3e
000000d0: 072d 243f 72cc 82bd 39b2 abbe 9c75 fcbe
000000e0: 2809 a03c 41f4 d1be 1b45 5ebf 83b0 3ebf
000000f0: dd47 08be cc9a 0d3f ada6 4b3e 9d10 3f3f
00000100: 7262 d63c 4a3f 0bbf a183 9f3c f89c 093f
00000110: 7bea 69be ca7b 13bc f630 19bf d05d 41be
00000120: 14ed 12bf 2087 083e 9068 fa3e b97f d93d
00000130: 4514 003f d54a 95be 4ae8 d73e d322 47bd
00000140: 9375 b7be 5c3d e83d e1db b73e d942 28bd
00000150: 7569 0f3f 4c1d 4d3e 8edb d73d 37a3 5f3d
00000160: e209 313e 2239 dc3d e229 433d f2a4 ff3e
00000170: a68a 8cbc 9d14 983e c595 fe3e 5276 bfbd
00000180: 3bc1 c43e 2650 91bf 2f1f 1ebd 7f89 173e
00000190: 5ec2 e6bd 9925 40be 82b2 95be 2acf 5dbe
000001a0: e854 88bd 3340 773d 3105 13bf ec4f cb3e
000001b0: dc48 3ebb 009e 9dbb cfaa 17be 585d 113d

generator.fc4.bias f4 [7]
-0.17799342 -0.19284052 -0.016126264 0.05431742 0.1520932 -0.23445761 0.13664946
00000000: e843 36be fc77 45be 3a1b 84bc f17b 5e3d
00000010: 52be 1b3e a815 70be d6ed 0b3e

generator.layer_norm_hidden_0.weight f4 [16]
0.9940001 0.9900001 0.998 0.9920001 0.9900001 0.9920001 0.9900001 0.9920001
0.9900001 0.9900001 0.9900001 0.9900001 0.9900001 1.0100005 0.9940001 0.9940001
00000000: ca76 7e3f a670 7d3f ee7c 7f3f b8f3 7d3f
00000010: a670 7d3f b8f3 7d3f a670 7d3f b8f3 7d3f
00000020: a670 7d3f a670 7d3f a670 7d3f a670 7d3f
00000030: a670 7d3f b247 813f ca76 7e3f ca76 7e3f

generator.layer_norm_hidden_0.bias f4 [16]
0.0 0.0 0.0060000005 0.0 -0.010000001 -0.004 0.010000001 0.010000001
0.010000001 -0.008 0.010000001 0.0060000005 0.010000001 -0.010000001 0.008 -0.010000001
00000000: 0000 0000 0000 0000 a79b c43b 0000 0000
00000010: 0bd7 23bc 6f12 83bb 0bd7 233c 0bd7 233c
00000020: 0bd7 233c 6f12 03bc 0bd7 233c a79b c43b
00000030: 0bd7 233c 0bd7 23bc 6f12 033c 0bd7 23bc

generator.layer_norm_hidden_1.weight f4 [8]
0.9900001 1.0100005 0.9900001 1.0100005 1.0100005 1.0080004 0.9900001 0.9900001
00000000: a670 7d3f b247 813f a670 7d3f b247 813f
00000010: b247 813f 2806 813f a670 7d3f a670 7d3f

generator.layer_norm_hidden_1.bias f4 [8]
0.010000001 -0.010000001 0.010000001 0.004 -0.010000001 -0.010000001 0.010000001 -0.010000001
00000000: 0bd7 233c 0bd7 23bc 0bd7 233c 6f12 833b
00000010: 0bd7 23bc 0bd7 23bc 0bd7 233c 0bd7 23bc

discriminator.fc1.weight f4 [8, 7]
-0.33912653 -0.6156382 0.12466526 0.09871195 -0.26718217 0.5508425 0.050248664 0.07319707
0.2493392 -0.43919012 -0.6192874 0.31610388 0.29253873 -0.74115884 -0.76594114 -0.2380668
0.13604334 -0.67370385 0.5910182 0.01625648 1.1715446 0.7920125 -0.46414828 0.46869183
0.5997545 0.854611 0.23527785 -0.2413956 0.50371516 0.23497014 -1.2619898 -0.5506597
-0.12551011 -0.35173088 0.2472827 -0.3912353 0.4544946 -1.1696792 0.06315935 0.53311723
-0.2166836 0.12744899 0.8452374 0.8512476 0.098297544 -0.6080875 -0.70551074 -0.17766787
0.24618469 0.0671327 0.30856162 -0.01580941 -0.2965947 -1.05552 -0.052494798 0.15776311
00000000: fea1 adbe 779a 1dbf 8050 ff3d 7e29 ca3d
00000010: 1acc 88be 0404 0d3f 8bd1 4d3d 58e8 953d
00000020: c652 7f3e 87dd e0be 9e89 1ebf 5ed8 a13e
00000030: a3c7 953e 96bc 3dbf b814 44bf c9c7 73be
00000040: f24e 0b3e db77 2cbf f84c 173f 4f2c 853c
00000050: 2cf5 953f 55c1 4a3f d8a4 edbe 60f8 ef3e
00000060: 8389 193f c9c7 5a3f adec 703e 6830 77be
00000070: 7af3 003f 039c 703e e288 a1bf 09f8 0cbf
00000080: b985 00be 1216 b4be ad37 7d3e fe4f c8be
00000090: 84b3 e83e 0cb8 95bf b059 813d 5f7a 083f
000000a0: 4ee2 5dbe fd81 023e 7a61 583f 5deb 593f
000000b0: 3950 c93d 9fab 1bbf 5a9c 34bf 91ee 35be
000000c0: d717 7c3e de7c 893d cafb 9d3e bc82 81bc
000000d0: 43db 97be 481b 87bf c904 57bd a78c 213e

discriminator.fc1.bias f4 [8]
-0.33935925 -0.033593684 -0.034209974 0.38434914 0.08372178 -0.28249788 -0.11871867 -0.26421052
00000000: 7fc0 adbe 8899 09bd c21f 0cbd 69c9 c43e
00000010: 5376 ab3d 90a3 90be c622 f3bd 9a46 87be

discriminator.fc2.weight f4 [1, 8]
-0.38758367 -0.56861573 -0.065470085 -0.30058265 -0.31938842 0.5496614 -0.14195496 0.28167576
00000000: 5e71 c6be cd90 11bf 2e15 86bd f8e5 99be
00000010: e186 a3be 9cb6 0c3f a45c 11be ce37 903e

discriminator.layer_norm_hidden_0.weight f4 [8]
0.9963975 0.99014443 0.9934996 0.9901826 1.0097172 0.9901231 1.0099509 0.99048054
00000000: e813 7f3f 1b7a 7d3f fd55 7e3f 9b7c 7d3f
00000010: 6a3e 813f b578 7d3f 1246 813f 2290 7d3f

discriminator.layer_norm_hidden_0.bias f4 [8]
-0.009211403 -0.009202231 -0.009180173 -0.00919347 -0.009230644 0.0092019085 -0.00925482 0.009192724
00000000: 6deb 16bc f4c4 16bc 7068 16bc 35a0 16bc
00000010: 213c 17bc 9ac3 163c 87a1 17bc 149d 163c

exp_avg f4 [16, 7]
-0.0048393607 -0.004990386 2.163784e-18 -0.005033044 -0.005320618 -0.0049477713 0.0029612724 0.002883698
0.0030346026 -2.9537013e-18 0.0031841807 0.003572433 0.0029671383 -0.007021588 9.035714e-06 -7.72443e-06
4.3207066e-19 1.2136046e-05 1.0021022e-05 -9.915392e-06 -0.0008429549 0.00053099135 0.0005455251 1.806668e-19
0.0005283798 0.0005449368 0.0005441354 0.0007069821 -0.003843393 -0.003973323 2.0138498e-18 -0.004083659
-0.0043873093 -0.0039249007 0.0048955586 0.0069742827 0.0071005505 -2.0853972e-18 0.007169848 0.0074529056
0.0070546786 -0.0031319114 -0.000992346 -0.00085384154 -2.1008975e-18 -0.0007391 -0.0003891631 -0.00090809184
-0.00427968 -0.007562373 -0.007600476 9.411112e-19 -0.007613895 -0.007739324 -0.0075766407 0.00050469
-0.0020941005 -0.0020949845 -7.5250693e-19 -0.0019903276 -0.0018351963 -0.0021263058 -0.0041892044 -0.003925379
-0.0038472982 -1.383334e-18 -0.0037526325 -0.0035222694 -0.0038823925 -0.00338321 8.302858e-05 0.00012556763
-7.237397e-19 0.00014996863 0.00023778144 0.00011205222 -0.0011619675 -0.003936526 -0.004002183 1.0945156e-18
-0.003990668 -0.004082326 -0.003991115 -0.0004192229 0.0019407988 0.0019098044 9.750693e-19 0.0018362828
0.0016706339 0.0019393828 0.0026130497 0.0042473576 0.004264196 3.380603e-19 0.0041144206 0.003974201
0.004296279 0.0059720958 0.0038428684 0.003690496 2.1362808e-18 0.003521848 0.0031419443 0.0037494597
0.0064588385 0.0011242381 0.0011402913 -4.816575e-19 0.0011546093 0.0011913801 0.001134342 -0.00029089922
00000000: 8093 9ebb 6486 a3bb b9a8 1f22 3cec a4bb
00000010: 9458 aebb ea20 a2bb e811 423b 6dfc 3c3b
00000020: 2fe0 463b d7f1 59a2 b0ad 503b 7b1f 6a3b
00000030: 5274 423b 5915 e6bb 1998 1737 2d98 01b7
00000040: ac0c ff20 ec9b 4b37 f61f 2837 495a 26b7
00000050: bff9 5cba 3a32 0b3a 9201 0f3a 314b 5520
00000060: f882 0a3a 17da 0e3a 4fa4 0e3a c454 393a
00000070: 6fe1 7bbb a632 82bb 8c98 1422 37d0 85bb
00000080: 6bc3 8fbb 749c 80bb ec6a a03b 8688 e43b
00000090: bcab e83b 0ae0 19a2 0bf1 ea3b 8137 f43b
000000a0: ef2a e73b c140 4dbb 9b11 82ba 56d4 5fba
000000b0: d504 1ba2 29c0 41ba 9608 ccb9 030d 6eba
000000c0: 8f3c 8cbb c8cd f7bb 6a0d f9bb 2de2 8a21
000000d0: fb7d f9bb 289a fdbb 7845 f8bb 2c4d 043a
000000e0: 2d3d 09bb 024c 09bb d119 5ea1 2870 02bb
000000f0: f88a f0ba 7e59 0bbb 9845 89bb 77a0 80bb
00000100: f422 7cbb e224 cca1 baee 75bb e0d5 66bb
00000110: bd6f 7ebb d8b8 5dbb a11f ae38 ceaa 0339
00000120: 3a9c 55a1 e640 1d39 f854 7939 94fd ea38
00000130: 294d 98ba f9fd 80bb bf24 83bb a185 a121
00000140: 26c4 82bb 08c5 85bb e6c7 82bb 25cb dbb9
00000150: 6762 fe3a 6752 fa3a 14e5 8f21 6daf f03a
00000160: 2cf9 da3a e332 fe3a b33f 2b3b 6b2d 8b3b
00000170: abba 8b3b 3a8e c720 43d2 863b 043a 823b
00000180: cdc7 8c3b 92b1 c33b a2d8 7b3b 40dc 713b
00000190: 34a1 1d22 cece 663b 14e9 4d3b 7fb9 753b
000001a0: aaa4 d33b 2c5b 933a d475 953a 0329 0ea1
000001b0: 4256 973a 1528 9c3a 34ae 943a d583 98b9

exp_avg f4 [16]
-0.019489633 0.026604574 -0.0038917467 -0.0016273019 -0.018139148 0.018783588 0.0189232 -0.008476777
0.006777979 0.012459965 0.0065188683 -0.00985852 -0.008782643 -0.0030449762 -0.019241907 0.004338385
00000000: b9a8 9fbc d6f1 d93c ad0c 7fbb 314b d5ba
00000010: 8d98 94bc 0ae0 993c d404 9b3c 2ee2 0abc
00000020: cf19 de3b e224 4c3c 3b9c d53b a185 21bc
00000030: 13e5 0fbc 398e 47bb 34a1 9dbc 0329 8e3b

exp_avg f4 [8, 16]
0.0031138523 -0.006356221 0.005870308 -0.012760539 0.0035094193 2.8661365e-05 -0.0020870452 -0.010694285
0.00065779337 0.0032408293 0.0040753954 0.00046164932 0.0072340597 0.005379586 -0.002753018 0.0010485522
0.0021647871 0.0075084115 -0.0018347263 0.004190468 -0.0010543035 0.0014664746 -0.0020678316 0.0034820482
-0.0023999691 -0.0028210075 -0.0031287898 0.0013799436 -0.002006007 -0.0029032894 -0.0017172184 -0.00023593134
0.01129274 0.00027649995 0.010937503 -0.011921952 0.0043491405 0.0023073119 -0.008601709 -0.009350027
-0.007951991 -0.00041021043 0.001535801 0.004019775 0.013695598 0.002380187 -0.014853574 0.0022419586
-0.0010115078 -0.0075365524 0.0003362444 -0.010758123 0.0023940895 -0.00020961888 0.0025757318 -0.009473575
0.005886881 0.0036121276 0.0041174893 -0.0016602632 0.0012283433 0.0050700987 0.0062079187 -0.0007905415
-0.0018366069 -0.0061754677 0.0011281527 -0.0018163809 -0.0018406305 -0.0030727985 0.002075796 -0.0012381414
0.0037216914 0.00089996296 0.0007150437 -0.0018194144 0.0025189104 0.0023952788 0.005459779 -0.0010972461
-0.0022369253 0.0061213463 -0.004490832 0.008140707 -0.0017240494 0.0008243301 0.0003941406 0.006552819
-0.0011224007 -0.0019601912 -0.0022288684 9.6542244e-05 -0.005524334 -0.0027581155 0.00028948905 -0.0003516151
6.152693e-05 -0.0033883066 0.00097504945 -0.0036736927 -0.00014476181 -0.0012960118 0.0007446465 -0.0030325754
0.002492565 0.00083281123 0.0007549519 -0.00079186814 0.0018510027 0.00196633 0.003265167 -0.00060290645
-0.008217175 0.0070991865 -0.009939674 0.022109335 -0.0069137313 -0.0020551137 0.005875779 0.018681547
0.0014716417 -0.004279852 -0.0067287316 -0.002006411 -0.012804524 -0.009079675 0.008800775 -0.0019614229
00000000: c611 4c3b d947 d0bb b65b c03b 9411 51bc
00000010: 49fe 653b d06d f037 cfc6 08bb 1537 2fbc
00000020: c46f 2c3a 1864 543b e58a 853b 8609 f239
00000030: b10b ed3b 3d47 b03b fa6b 34bb 936f 893a
00000040: 1adf 0d3b 1f09 f63b 337b f0ba 3250 893b
00000050: 8e30 8aba b936 c03a 7584 07bb 1333 643b
00000060: cd48 1dbb a7e0 38bb 620c 4dbb 39df b43a
00000070: 3677 03bb 1d45 3ebb 4a14 e1ba 5664 77b9
00000080: 2f05 393c 32f7 9039 3633 333c 4a54 43bc
00000090: 3c83 8e3b 4536 173b 2fee 0cbc db30 19bc
000000a0: 1149 02bc 8311 d7b9 ee4c c93a 51b8 833b
000000b0: 8063 603c e9fc 1b3b 685c 73bc d3ed 123b
000000c0: 9294 84ba 2ff5 f6bb f649 b039 d742 30bc
000000d0: 28e6 1c3b 24cd 5bb9 9ccd 283b 0e37 1bbc
000000e0: bde6 c03b 72b9 6c3b 01ec 863b 309d d9ba
000000f0: 5d00 a13a 1223 a63b cc6b cb3b 583c 4fba
00000100: 4dba f0ba 945b cabb 86de 933a a113 eeba
00000110: 5041 f1ba 0161 49bb 140a 083b 2249 a2ba
00000120: 9fe7 733b 7eeb 6b3a c571 3b3a 6b79 eeba
00000130: 4e14 253b 1cfa 1c3b f2e7 b23b 78d1 8fba
00000140: 6199 12bb 9395 c83b d427 93bb 9a60 053c
00000150: 80f9 e1ba db17 583a a8a4 ce39 08b9 d63b
00000160: 851d 93ba 8d76 00bb 3512 12bb b976 ca38
00000170: 7905 b5bb 80c1 34bb 90c6 9739 fb58 b8b9
00000180: 0508 8138 5a0e 5ebb 769a 7f3a 56c2 70bb
00000190: 34cb 17b9 f1de a9ba 6134 433a 2cbe 46bb
000001a0: 4d5a 233b 0451 5a3a f7e7 453a 5f95 4fba
000001b0: 589d f23a 8bdd 003b 69fc 553b 5e0c 1eba
000001c0: 54a1 06bc 4ba0 e83b 04da 22bc a31e b53c
000001d0: 958c e2bb 16af 06bb 9b89 c03b 0b0a 993c
000001e0: 1ae4 c03a 003e 8cbb b17c dcbb fe7d 03bb
000001f0: 11ca 51bc ebc2 14bc 2031 103c 378b 00bb

exp_avg f4 [8]
-0.008533114 0.0058416226 -0.0073671937 -0.0054464946 -5.8641053e-05 0.005562353 -0.00071088015 0.013114817
00000000: 79ce 0bbc 156b bf3b 8068 f1bb 8278 b2bb
00000010: 5af5 75b8 6644 b63b 5c5a 3aba 88df 563c

exp_avg f4 [16, 8]
0.0069755674 0.0014147013 -0.0035031154 -0.0071055247 -0.0031258322 0.0053306567 -0.0038475106 0.0038216626
-0.0048555234 -0.0025027373 0.0016781326 0.0042261016 0.0027403913 -0.0038449073 0.0013875948 0.0011807818
-0.010345229 -0.0050305976 0.0016601926 0.006806755 0.006349811 -0.0087613 0.0007076758 0.008623162
0.019922234 0.011009394 -0.0061765527 -0.01190554 -0.011933215 0.0136338845 -0.0052072266 -0.00935392
0.013354688 0.0013987912 -0.0020018278 -0.01329133 -0.0107363025 0.010503779 -0.004704922 0.005346199
0.004891853 0.0057156137 0.0016849603 -0.004097016 -0.0057649873 0.005709626 0.0026757866 -0.010806341
-0.011871695 -0.0024650171 0.0050546313 0.005734561 0.0059186285 -0.006812179 0.0053850343 -0.00090122095
0.0006783048 0.00014906852 0.00055247376 0.0003463382 -0.00072989875 0.00064573967 0.00061738066 -0.0022556297
-0.003691983 0.001282375 0.0014476449 0.00029533575 0.0021163851 -0.0007780003 0.00262081 -0.003265208
-0.005702848 -0.0043480317 -0.0016806326 0.0054583666 0.00731415 -0.0057250788 -0.0010102937 0.005720817
-0.0051836185 -0.0042029205 0.003867337 0.010626445 0.0013686679 -0.005078743 0.0033151512 -0.0046799495
0.01403269 0.006439078 -0.0042422926 -0.010656218 -0.008015853 0.010742085 -0.003532831 -0.0047968524
-0.0018032062 0.01068833 0.0041415053 -0.0032575792 5.4767577e-05 0.003996582 0.008195518 -0.021910524
0.018691918 0.008043832 -0.0068478645 -0.011334602 -0.010714306 0.013274376 -0.00603273 -0.005102691
-0.016072407 -0.01353384 -0.0044188616 0.015491989 0.017340608 -0.016794633 -0.0044538416 0.022475226
0.007388128 0.00173589 -0.0043879044 -0.004401727 -0.0034259022 0.0040096343 -0.0047892607 0.0038495627
00000000: 4d93 e43b 806d b93a 8694 65bb 76d5 e8bb
00000010: c3da 4cbb caac ae3b 8426 7cbb dc74 7a3b
00000020: 151b 9fbb f704 24bb c9f4 db3a 1c7b 8a3b
00000030: 2398 333b d7fa 7bbb f5df b53a 76c4 9a3a
00000040: 097f 29bc b6d7 a4bb d29a d93a 330b df3b
00000050: 1312 d03b 8e8b 0fbc 5283 393a 2a48 0d3c
00000060: f433 a33c bf60 343c ae64 cabb 740f 43bc
00000070: 8883 43bc a860 5f3c 62a1 aabb 2f41 19bc
00000080: 9fcd 5a3c a557 b73a 1931 03bb e1c3 59bc
00000090: 51e7 2fbc 0b18 2c3c bf2b 9abb 2b2f af3b
000000a0: d64b a03b 0b4a bb3b e3d9 dc3a 4340 86bb
000000b0: 38e8 bcbb d017 bb3b 405c 2f3b 140d 31bc
000000c0: 7f81 42bc 208c 21bb 52a1 a53b fce8 bb3b
000000d0: 0ef1 c13b b338 dfbb f174 b03b ea3f 6cba
000000e0: 44d0 313a 474f 1c39 e3d3 103a ba94 b539
000000f0: ad56 3fba db46 293a b7d7 213a 30d3 13bb
00000100: 32f5 71bb 5d15 a83a e7be bd3a 4bd7 9a39
00000110: 0db3 0a3b b7f2 4bba e5c1 2b3b 1afd 55bb
00000120: f5de babb ef79 8ebb ac48 dcba 19dc b23b
00000130: 8aab ef3b 7199 bbbb d56b 84ba b175 bb3b
00000140: 58db a9bb a7b8 89bb 2673 7d3b 8a1a 2e3c
00000150: e064 b33a 966b a6bb 0243 593b 435a 99bb
00000160: 5ee9 653c e7fe d23b ee02 8bbb 6b97 2ebc
00000170: ed54 03bc 92ff 2f3c 1287 67bb ea2e 9dbb
00000180: 8f59 ecba 1b1e 2f3c 77b5 873b 1c7d 55bb
00000190: 3db6 6538 c2f5 823b 7e46 063c b37d b3bc
000001a0: cb1f 993c 47ca 033c 0d64 e0bb c4b4 39bc
000001b0: 0e8b 2fbc c57c 593c 35ae c5bb 7934 a7bb
000001c0: 48aa 83bc 0abd 5dbc 19cc 90bb 1dd2 7d3c
000001d0: e40d 8e3c e694 89bc 88f1 91bb f71d b83c
000001e0: 1c18 f23b ce86 e33a 69c8 8fbb 5d3c 90bb
000001f0: 1a85 60bb 4063 833b 3bef 9cbb f248 7c3b

exp_avg f4 [16]
0.006302908 -0.002504056 -0.0019907022 0.010487388 0.0065573575 -0.004341265 -0.010208759 -0.00081672205
-0.0048598587 0.0022029937 -0.0042266557 0.006597972 -0.014204291 0.012060808 0.008437968 0.008775775
00000000: a088 ce3b 171b 24bb 7176 02bb 4bd3 2b3c
00000010: 1adf d63b 2c41 8ebb a442 27bc 4a19 56ba
00000020: 733f 9fbb 1a60 103b c27f 8abb cd33 d83b
00000030: 1db9 68bc b29a 453c 673f 0a3c 45c8 0f3c

exp_avg f4 [7, 16]
-0.0038904843 -0.007069027 0.003612844 -0.006356014 0.031216262 -0.004850101 0.011477079 -0.015313982
-0.010863477 0.0067829113 -0.009185746 -4.9426242e-05 0.017055908 -0.006698436 -0.005637411 -0.00013757944
0.0046953713 0.0011401074 0.011049105 0.009742069 -0.04464918 -0.0054618134 0.062278155 -0.006232065
-0.0009998692 -0.026257971 0.003309691 0.014030315 -0.03261208 0.0020939694 -0.00927987 0.01726583
0.0011609934 0.002854433 -0.005527239 -0.001002132 0.0020966744 0.006469348 -0.028322991 0.00838197
0.006266229 0.0056367205 0.003539047 -0.00531023 0.004943883 0.001474844 0.0051465435 -0.0079037035
-0.0025734068 -0.0034563676 0.0022665334 -0.002874845 0.014848995 -0.0034441557 0.0033067628 -0.006271739
-0.004711039 0.0041076657 -0.0045805536 -0.0007296609 0.007048215 -0.0021813014 -0.0026994469 0.0019928971
-0.0015118117 -0.0034781515 -0.0059581385 -0.0030815725 0.015283168 0.0023410115 -0.013557416 -0.0014478572
-0.00076723465 0.0066770697 0.00079016207 -0.00357403 0.013626055 -0.0029346056 0.0014779244 -0.003907413
3.8078426e-05 -0.0014284934 0.0033322624 -0.00014058496 0.00061002094 -0.0018208101 0.012586119 -0.005037474
-0.002493652 -0.0027179518 -0.0018150264 0.002123678 -0.0012945383 -0.0012710708 -0.003287424 0.0026564605
-0.0031607638 -0.0018526281 0.0037168716 -0.002450571 0.0134424325 -0.005729231 0.0035737355 -0.004345278
-0.005228925 0.0048165936 -0.005954232 -0.00028704572 0.0038607449 -0.0006382264 -0.0021099763 0.002404861
00000000: 7ff7 7ebb 4ca3 e7bb 77c5 6c3b 1c46 d0bb
00000010: 3fb9 ff3c 99ed 9ebb 5c0a 3c3c 7fe7 7abc
00000020: bafc 31bc 2f43 de3b d07f 16bc 064f 4fb8
00000030: d5b8 8b3c 8e7e dbbb 08ba b8bb 3343 10b9
00000040: a1db 993b a86f 953a 4e07 353c 339d 1f3c
00000050: 0fe2 36bd 03f9 b2bb 6117 7f3d 5a36 ccbb
00000060: 0b0e 83ba f51a d7bc 67e7 583b 68df 653c
00000070: 3f94 05bd fa3a 093b 990a 18bc 1271 8d3c
00000080: 792c 983a 7011 3b3b d71d b5bb f859 83ba
00000090: 5c68 093b d3fc d33b 9e05 e8bc 8854 093c
000000a0: f054 cd3b 3db4 b83b 5bef 673b 7001 aebb
000000b0: 4c00 a23b 8d4f c13a 56a4 a83b 897e 01bc
000000c0: 9aa6 28bb 3a84 62bb 1f8a 143b e567 3cbb
000000d0: 3349 733c 58b7 61bb 46b6 583b 2983 cdbb
000000e0: 0f5f 9abb 9999 863b 7818 96bb b746 3fba
000000f0: b6f4 e63b 2af4 0ebb 34e9 30bb 449b 023b
00000100: fc27 c6ba b3f1 63bb 7d3c c3bb 35f4 49bb
00000110: 4166 7a3c a86b 193b ed1f 5ebc 07c6 bdba
00000120: 3f20 49ba 52cb da3b e122 4f3a 463a 6abb
00000130: d13f 5f3c 8352 40bb eab6 c13a c209 80bb
00000140: 66b6 1f38 493c bbba 1662 5a3b fd69 13b9
00000150: d0e9 1f3a 40a8 eeba 0236 4e3c 6511 a5bb
00000160: 8a6c 23bb aa1f 32bb 2ee6 edba 682d 0b3b
00000170: 7fad a9ba 0f9a a6ba d371 57bb 0318 2e3b
00000180: d124 4fbb e2d3 f2ba c296 733b c299 20bb
00000190: a63d 5c3c 46bc bbbb 5535 6a3b d562 8ebb
000001a0: 6757 abbb 84d4 9d3b b81b c3bb a07e 96b9
000001b0: 8d04 7d3b a64e 27ba 8747 0abb df9a 1d3b

exp_avg f4 [7]
0.018706173 0.0017345462 -0.009287195 0.007866269 0.0032814606 0.0046489798 0.0066484967
00000000: b03d 993c b659 e33a 5229 18bc 86e1 003c
00000010: c60d 573b 7856 983b a2db d93b

exp_avg f4 [16]
0.002784964 0.0059524183 0.0008637746 0.0033675435 0.034675863 0.003450868 0.024953043 0.0021829153
0.0133543555 0.013955788 0.010882741 0.006461944 0.0093894405 -0.004495929 0.0021498564 0.002314661
00000000: f183 363b 810c c33b ef6e 623a 01b2 5c3b
00000010: 4708 0e3d f527 623b 536a cc3c 3e0f 0f3b
00000020: 3acc 5a3c d1a6 643c 864d 323c b7be d33b
00000030: 2bd6 193c 9652 93bb 9be4 0c3b 91b1 173b

exp_avg f4 [16]
-0.0006668791 0.0005542422 -0.0018187412 8.003607e-05 0.016162096 0.0014466647 -0.00644934 -0.018559799
-0.022616021 0.0016997566 -0.0150866965 -0.0018229821 -0.02340847 0.009501298 -0.007854789 0.019694174
00000000: 80d1 2eba 904a 113a d462 eeba 0ad9 a738
00000010: 5f66 843c 039e bd3a fc54 d3bb b80a 98bc
00000020: 3c45 b9bc 5eca de3a 312e 77bc 21f1 eeba
00000030: 1fc3 bfbc 55ab 1b3c 5fb1 00bc ad55 a13c

exp_avg f4 [8]
0.010346341 -0.0074668466 0.0116872955 -0.009731595 -0.0076170913 -0.004123833 0.0035930222 0.011017219
00000000: b383 293c 73ac f4bb 127c 3f3c 4571 1fbc
00000010: cb98 f9bb 3821 87bb e978 6b3b 9181 343c

exp_avg f4 [8]
-0.01505759 0.01654273 -0.019506842 -0.0007471884 0.0051839557 0.0120737925 -0.0041989735 0.009149561
00000000: 1cb4 76bc 9f84 873c d0cc 9fbc f7de 43ba
00000010: 2cde a93b 28d1 453c 8b97 89bb 0ae8 153c

exp_avg f4 [8, 7]
-0.06504056 -0.0704931 0.005612881 -0.062114805 -0.056558073 -0.062844165 -0.04147517 0.017185342
-0.08313435 0.07442195 0.02782461 0.0731545 0.02596873 -0.10198025 0.013293809 0.02096753
-0.008307354 0.012671297 0.0058392244 0.011675514 0.013372745 -0.017974397 -0.022037033 -0.00087811967
-0.01736281 -0.01831585 -0.018750563 0.01031577 -0.012765886 -0.11227386 0.086667396 -0.008634693
0.05221797 0.0004003851 -0.025410697 -0.065032504 0.08328475 -0.11526018 -0.07450662 -0.14609183
-0.07941152 0.06655693 0.0027767885 -0.031139895 0.029654672 0.0052687232 0.027804907 0.007635086
-0.01381815 0.11216557 0.19204421 -0.06445211 0.102550134 0.054368604 0.10177552 0.081563085
00000000: fc33 85bd b05e 90bd 42ec b73b 186c 7ebd
00000010: 70a9 67bd 71b4 80bd dee1 29bd 46c8 8c3c
00000020: 5842 aabd 896a 983d 70f0 e33c 07d2 953d
00000030: 60bc d43c 05db d0bd 47ce 593c 19c4 ab3c
00000040: 911b 08bc 469b 4f3c f756 bf3b a84a 3f3c
00000050: 5c19 5b3c 0b3f 93bc 0287 b4bc 9d31 66ba
00000060: 743c 8ebc 1f0b 96bc c89a 99bc 7a03 293c
00000070: 0228 51bc d6ef e5bd ad7e b13d 8778 0dbc
00000080: 83e2 553d c7ea d139 182a d0bc c32f 85bd
00000090: 3291 aa3d 870d ecbd ed96 98bd 1999 15be
000000a0: 82a2 a2bd 004f 883d c8fa 353b 1819 ffbc
000000b0: 5bee f23c 41a5 ac3b 1ec7 e33c be2f fa3b
000000c0: 8665 62bc 10b7 e53d 3da7 443e 78ff 83bd
000000d0: ce05 d23d 9db1 5e3d af6f d03d 8c0a a73d

exp_avg_sq f4 [8, 7]
0.00010511344 0.00012245271 7.825887e-07 9.6289485e-05 8.094438e-05 9.841342e-05 4.010071e-05 3.2492542e-05
0.00021807582 0.00013455072 3.82672e-05 0.00014672536 4.1340103e-05 0.0002546654 4.821693e-06 1.11306135e-05
1.8327867e-06 4.4175968e-06 1.2439511e-06 3.7825334e-06 4.73448e-06 1.24007565e-05 1.538047e-05 5.654674e-08
1.1694544e-05 1.4455059e-05 1.3127769e-05 6.3890143e-06 9.147796e-06 0.00030546208 0.00018387554 8.723919e-06
7.1294446e-05 6.9984058e-06 2.4859997e-05 0.00012679804 0.00024665333 0.0003214355 0.00015078238 0.00052926724
0.00017615344 0.00011194152 8.3041635e-07 2.490817e-05 2.1631591e-05 9.0101065e-07 1.8106937e-05 1.7130665e-06
5.1846164e-06 0.00030568248 0.00087838346 0.00010217207 0.0002574814 7.816464e-05 0.0002527113 0.00016018878
00000000: 5970 dc38 a666 0039 1613 5235 06ef c938
00000010: afc0 a938 4d63 ce38 cf31 2838 9a48 0838
00000020: 48ab 6439 2f16 0d39 1881 2038 4ada 1939
00000030: 9964 2d38 9d84 8539 07ca a136 9fbd 3a37
00000040: 12fe f535 de3a 9436 d6f5 a635 6ed7 7d36
00000050: e0dc 9e36 d80c 5037 4f05 8137 ccdd 7233
00000060: af33 4437 0184 7237 573f 5c37 3761 d636
00000070: 7c79 1937 6d26 a039 b7ce 4039 f25c 1237
00000080: ea83 9538 d9d3 ea36 708a d037 17f5 0439
00000090: 4051 8139 5886 a839 561b 1e39 86be 0a3a
000000a0: d4b5 3839 25c2 ea38 c7e9 5e35 e3f1 d037
000000b0: 7d75 b537 fbdc 7135 5ae4 9737 84ec e535
000000c0: 84f7 ad36 0244 a039 5143 663a 3645 d638
000000d0: 92fe 8639 52ec a338 567e 8439 59f8 2739

exp_avg f4 [8]
0.1639052 0.3405329 -0.03175593 -0.051235244 -0.023460457 -0.16792719 0.014832379 -0.24186663
00000000: c4d6 273e 545a ae3e 8212 02bd 0cdc 51bd
00000010: 2530 c0bc 1bf5 2bbe 8203 733c e3ab 77be

exp_avg_sq f4 [8]
0.0006408891 0.0029079972 2.8844821e-05 0.00015416443 0.00010712995 0.0006756695 9.580838e-06 0.0013993204
00000000: 5701 283a 1994 3e3b c8f7 f137 33a7 2139
00000010: f4aa e038 6a1f 313a 63bd 2037 6769 b73a

exp_avg f4 [1, 8]
-0.05490464 -0.15059114 -0.1620108 -0.5883627 0.19672252 0.30464545 0.32500374 0.13685746
00000000: b0e3 60bd 9034 1abe 29e6 25be f09e 16bf
00000010: a171 493e 7dfa 9b3e e466 a63e 5d24 0c3e

exp_avg_sq f4 [1, 8]
0.00016017954 0.00056187337 0.00070779235 0.008410138 0.0009818294 0.002223023 0.0024598045 0.00048408497
00000000: def5 2739 af4a 133a 248b 393a adca 093c
00000010: bab0 803a 23b0 113b ac34 213b c9cc fd39

exp_avg f4 [8]
0.021695616 0.08714491 0.01127909 0.18070213 -0.061416637 0.17009 -0.044358797 0.039546467
00000000: 01bb b13c 0879 b23d efcb 383c fb09 393e
00000010: 0390 7bbd 132c 2e3e 92b1 35bd 7afb 213d

exp_avg_sq f4 [8]
2.472281e-05 0.00018810366 3.5031294e-06 0.0007966705 9.546092e-05 0.0006933699 4.5463574e-05 4.0565807e-05
00000000: d563 cf37 b13d 4539 4e17 6b36 a7d7 503a
00000010: 3132 c838 44c3 353a 24b0 3e38 3425 2a38

exp_avg f4 [8]
0.05277244 0.07754589 0.009407618 0.041302543 0.042544547 -0.074986994 0.018532129 -0.03872438
00000000: ea27 583d 61d0 9e3d 6922 1a3c db2c 293d
00000010: 3143 2e3d c892 99bd b1d0 973c 759d 1ebd

exp_avg_sq f4 [8]
7.811292e-05 0.00016912389 2.5433899e-06 4.8189777e-05 5.0197985e-05 0.0001581722 9.412857e-06 4.2375377e-05
00000000: 8ed0 a338 d956 3139 1baf 2a36 611f 4a38
00000010: ad8b 5238 07db 2539 eaeb 1d37 37bc 3138
