saved/gan/j98aebt2/checkpoints/epoch=0-step=16.ckpt (torch, 21266 bytes, 39 tensors)

generator.fc1.weight f4 [16, 7]
00000000: ef64 9abe 0a98 893f e718 40bc 6aa5 a3be
00000010: a32d 1c3f 9449 2cbb 78a2 8f3f 9b1f 783e
00000020: d3f4 343f 9f8f e1be bd0b ce3e 7df9 98be
00000030: 4324 e13d 9600 ee3d 78be 8bbc e609 623d
00000040: 8a5a f2be 7ab3 f23e 57d7 45bf c836 413e
00000050: e73c 41bf 6b77 08bf 9b33 f83e 7dd0 cf3e
00000060: 0671 573f 6d7b 3b3f b604 9bbe 8c7a 2bbf
00000070: 8902 14be 19b1 5b3d 00d6 a73c a446 8bbd
00000080: 9c8f 61bf dc0d c5be f802 483f 45c3 dcbe
00000090: a4fe 76bf b58e 1cbe a296 203f b50d 7abe
000000a0: 2bd2 efbe 2ad7 163d 83b0 98be 1e93 1e3f
000000b0: 6d43 0fbe f9cd 1c3f b560 813f d768 0ebf
000000c0: fd85 cf3e 9d38 22be cec9 113f ce16 a43e
000000d0: 3236 2f3f 93e7 ecbe 045c 693f 229e 1a3d
000000e0: 0953 19bf 34b6 05bf d28b a9bf bed2 06bf
000000f0: a3eb 8dbd f6a4 15be 462a d9bd cb02 bbbe
00000100: c44c 503f 2bc3 29bf 45a5 e43d 9553 333e
00000110: 18ab 0bbf 837e cb3d 882c 1ebf c528 a3bc
00000120: 944d 27bd e2c1 303d 1819 bcbe e5b9 37bf
00000130: acc5 06be 7ef1 f4bd 2845 1c3f 7702 f33e
00000140: def9 293f 6358 bbbd 5a16 2c3e 42f8 963b
00000150: 24fb 553f ed33 03bf 6932 2f3f bd4f 833c
00000160: 40ce d5be 4373 223f a632 563e ae6c 16bf
00000170: 080d 5bbf 2cba 043f 929a 023e 25ac adbe
00000180: 25b2 953e 1768 8fbe c632 403f b493 573e
00000190: a6c7 9abe 9824 383d b554 23be 9292 163f
000001a0: cbe8 a63d 9e2c a43e 2719 b2be 867f c53d
000001b0: 0a4b 0cbe fc31 f13e 4cb8 113e c217 423f
-0.3015513 1.0749524 -0.011724687 -0.31962138 0.61007136 -0.0026288973 1.1221457 0.24230807
0.7068607 -0.44054887 0.4024333 -0.29877844 0.109932445 0.116212055 -0.017058596 0.05518522
-0.473347 0.47402555 -0.7728171 0.18868554 -0.75483555 -0.5330722 0.48476872 0.4058875
0.84156835 0.7323521 -0.30277032 -0.66983867 -0.14454092 0.05363569 0.020487785 -0.06800583
-0.88109756 -0.38487136 0.7812953 -0.4311773 -0.964823 -0.15288813 0.6272985 -0.24419291
-0.46840033 0.03682629 -0.29822168 0.61943233 -0.13990565 0.6125179 1.0107638 -0.5562872
0.40531912 -0.15841909 0.56948555 0.3204865 0.6844207 -0.46270427 0.9115603 0.037748463
-0.59892327 -0.52231145 -1.3245795 -0.5266532 -0.0692971 -0.14613709 -0.10603766 -0.36525568
0.81367135 -0.6631343 0.11164335 0.17512353 -0.54557943 0.099362396 -0.617867 -0.019916901
-0.04084547 0.04315365 -0.36737895 -0.7176803 -0.13161343 -0.119601235 0.61043024 0.47462818
0.6639689 -0.09147718 0.16805401 0.0046072314 0.83586335 -0.5125111 0.68436295 0.016029233
-0.4175892 0.63457125 0.20917758 -0.5875958 -0.8556676 0.51846576 0.12754276 -0.33920398
0.29237476 -0.28009102 0.75077474 0.21052438 -0.30230445 0.044956774 -0.15950282 0.588174
0.081498705 0.3206529 -0.34784815 0.09643464 -0.137005 0.47108448 0.1423046 0.758175

generator.fc1.bias f4 [16]
00000000: 73e8 21be ba58 5b3e fc8c 8fbd 68f9 9cbd
00000010: ccdd e53d 67d6 a5be 440c 213e b523 8bbe
00000020: f42f 1d3e c0d6 93bd 421b 8ebc 5da9 a33e
00000030: d11d b33e d0b9 193e 4eea 673e f6df b0be
-0.15811329 0.21420565 -0.070093125 -0.07664758 0.11223945 -0.32390139 0.15727335 -0.2717568
0.15350324 -0.07218695 -0.017346982 0.3196515 0.34983686 0.15012288 0.22647974 -0.3454587

generator.fc2.weight f4 [8, 16]
00000000: 55de 7bbe 576c ed3e 05e7 263e 5ba6 1b3f
00000010: aa2f 233f 4605 403e 632c 533e 8fa1 013e
00000020: 0e80 8ebd a562 3dbe 0634 013e 4bce e1be
00000030: e8b5 fcbe 64a7 7ebe ceb6 5a3e 15ea 0cbf
00000040: 5cb4 1b3d 1318 893e 45d1 f7bd feea dfbe
00000050: 1f50 93be 56d5 2e3e 8ce5 23be 4ad0 ec3d
00000060: 7a0d cf3d e6a3 7bbd b865 82bf eacb 7e3e
00000070: b0d7 20bf 95a4 59be 596b f93d f674 2a3f
00000080: df1b 3a3e 56f5 9d3e 17e4 0c3f 5bf8 503e
00000090: c4d9 0ebf 00b0 333e f82b 8f3e 095b cb3d
000000a0: d37f 3dbf fa7a f23d 9c4f 4d3f 3d57 023f
000000b0: 021f babe b2e5 f23e 892e 80be 4f7d bf3e
000000c0: 4d37 d5be 54ba 013e 743d 72be 024e 52be
000000d0: a273 a1be eb3d 28bd 80b2 3abe 8a27 dbbe
000000e0: 6f57 b53e b957 a53b 0397 aabe f536 8a3e
000000f0: bbb0 c5be 04f1 4f3e 0ffb 243e 09b8 813e
00000100: 26b1 2e3f 5599 e0bd 2575 4b3e 0986 403f
00000110: e458 fdbe ad73 303f 06a1 e03e 21b5 57bd
00000120: 3067 c03d 7e71 0abf 1383 81be 9e67 90bd
00000130: 56ae 4c3e 3c0d c63e 7b71 3abe 28a9 0f3f
00000140: bf0a 0d3f a5ef ca3e 7ae0 25bf 8266 adbe
00000150: ed5e cbbd 4797 8e3c 105b fd3e 6888 9cbd
00000160: 27a6 44bf 5ab1 033e 7a8a 09be e72c 83be
00000170: f71c 8b3e 5094 8bbe 9c75 213e d878 2dbc
00000180: 97ee 9bbe 3596 d5bd 877a 863e 8a82 8ebe
00000190: 1943 1d3e 02e2 c63e d1b2 39be ebbc b9be
000001a0: c0f3 99bc 13f4 9bbd 7dd6 a3be 5ac3 f9bd
000001b0: cc49 173e 6d48 b9be 602d 9fbe 3cb0 0cbe
000001c0: 474c 27be b330 3abe 1d33 0f3d 549f 073f
000001d0: 2bbb 193f aecb acbe 7f85 e43d e03e 9b3d
000001e0: 6c6b babd 8953 d93e b8a9 11be 4f42 9d3d
000001f0: 6b25 6dbd d43f 32be 0428 8bbe ba1e 1dbb
-0.24596532 0.4637172 0.16299064 0.60800713 0.63744605 0.18752012 0.20622401 0.12659286
-0.06958018 -0.18494661 0.12617502 -0.44102702 -0.49357533 -0.24868542 0.21358797 -0.5504468
0.0380138 0.2677618 -0.12100462 -0.43733972 -0.28772065 0.17073569 -0.16005534 0.115631655
0.10109992 -0.061435603 -1.0187292 0.24882475 -0.62829113 -0.2125419 0.12178678 0.6658472
0.18174694 0.3085124 0.5503554 0.2040724 -0.55801034 0.17547607 0.27963233 0.09929473
-0.7402317 0.11839862 0.801996 0.50914365 -0.36351782 0.4744087 -0.25035504 0.3740029
-0.41643754 0.12668735 -0.23656255 -0.2053757 -0.31533533 -0.041074675 -0.18232155 -0.42803603
0.3541827 0.0050458577 -0.33318338 0.26995054 -0.38611397 0.20306784 0.16111396 0.2533572
0.6823906 -0.10966746 0.19868906 0.7520452 -0.4948188 0.6892651 0.4387285 -0.052662972
0.093946815 -0.54079425 -0.25295314 -0.070510134 0.19988379 0.38681972 -0.18207352 0.56117487
0.5509452 0.3963596 -0.6479565 -0.3386727 -0.09930215 0.017406119 0.49483538 -0.07643205
-0.7681603 0.12860623 -0.13431731 -0.25620195 0.27170536 -0.2726159 0.1576752 -0.010587893
-0.30455467 -0.1042904 0.26265356 -0.27833968 0.15357627 0.38844305 -0.1813462 -0.36276945
-0.018792987 -0.07614913 -0.3199958 -0.121954635 0.14774245 -0.3618807 -0.31089306 -0.13739103
-0.16337691 -0.1818264 0.034960855 0.5297749 0.6005122 -0.33749145 0.11158275 0.07580352
-0.0910252 0.42446545 -0.14224899 0.07678663 -0.057897013 -0.17407161 -0.27178967 -0.0023974613

generator.fc2.bias f4 [8]
00000000: 3c7d 67be 6031 bc3d 0083 fbbd 4eaa 9ebc
00000010: 94f1 29be 6c23 c53d 325f 3b3d c0bd 1abe
-0.22606367 0.09189105 -0.12280846 -0.019368317 -0.16596061 0.09625897 0.045745082 -0.15111446

generator.fc3.weight f4 [16, 8]
00000000: bf3d e03e b2fb abbe bded 393d 5ec3 50be
00000010: e433 b7bc 71cc 4ebd 42a8 a33e b06e cdbd
00000020: f3c4 6dbf 50cd 41bc 4a73 ab3e 6b35 f33c
00000030: b5db 1fbf 68ba ed3d 90ca c93e 563a debe
00000040: 6172 b33d fdf2 8abe 4b2b 3fbe a6c7 ab3d
00000050: cec3 553f 2f9f 073e 95ae d43d 2b3d 99bd
00000060: 0974 1c3f 87a5 9ebe bd09 e03f 249d dcbd
00000070: ae56 823e 225a fbbe 9f33 833e 52a5 863e
00000080: 4758 1cbe fd6b 093f b033 7a3e b30f 4dbd
00000090: 0597 bcbe 4310 753e 1abc 873e 02d8 3e3f
000000a0: eff4 053e f5fb 823e 847e 253f 1d4d 673d
000000b0: 9116 a0bf 18b0 333f aa91 8e3e 2bfa 003f
000000c0: 405c 6cbe 3add d53e 3ce5 f23e 6670 863f
000000d0: 3920 67bf 4039 1a3e 2d3b 31be eb06 da3e
000000e0: 8dec 45bd 78bc 02bf f166 36be 5a0f 9cbe
000000f0: f765 153e 3ac0 8c3d 28ed 48be da01 c63d
00000100: df95 5abc 6b59 60bf c7ac 52be 4283 a73e
00000110: a6d3 04be b916 553f fb88 d63e 5831 8bbe
00000120: 7720 a73c 4472 103e 49cd 053f f23a 353f
00000130: f7c8 663c 0c87 e1be 0660 5cbf 0c0b 90be
00000140: 52d4 9fbe c98e 22be 933f 86bd 679d adbf
00000150: 75da b03e 5a85 55bf 36d9 f83e 15ca 25bf
00000160: d4d8 733e f537 0c3f b37e 813c 3551 bdbe
00000170: 8012 77bc 89de d23d dd13 f13e 03f6 39bf
00000180: 34d7 093e 904e b83e 39ca 5e3f 430e a43e
00000190: 2dae 9b3c 2ab9 a73b d95c 88bd b7af fa3e
000001a0: f522 993d b995 6d3d 9da8 1e3f 3f38 283f
000001b0: 0c22 ecbd 11b8 1bbf 255d ef3d 1086 493e
000001c0: 4e9d 92bc d6ff 2f3f 1613 aa3e 2225 96be
000001d0: 15ef 00be 9bfb de3d c00c 94be 8469 03bf
000001e0: 3068 3e3f e286 e4bc cd08 9f3f 21cb 023f
000001f0: c07d 8abe ef79 87bf 4217 ee3d 21b4 c9bd
0.4379711 -0.33590466 0.04539274 -0.20387027 -0.02236361 -0.05048794 0.31964308 -0.100308776
-0.92878646 -0.0118287355 0.33486396 0.029688558 -0.6244462 0.1160782 0.39412355 -0.43403882
0.087620504 -0.2713851 -0.18668859 0.08387689 0.835019 0.13244317 0.103848614 -0.0748237
0.61114556 -0.30985662 1.7502972 -0.1077216 0.25456756 -0.49092203 0.2562532 0.26298004
-0.1526805 0.536804 0.2443378 -0.0500638 -0.3683397 0.23931985 0.26510698 0.7454835
0.13081716 0.25582853 0.6464617 0.056470025 -1.2506887 0.7019057 0.27845508 0.50381726
-0.23082066 0.41770345 0.47440517 1.0503051 -0.9028354 0.15060902 -0.1730773 0.42583403
-0.048321296 -0.5106883 -0.17812707 -0.30480462 0.14589678 0.06872602 -0.19621718 0.09668322
-0.013341396 -0.8763644 -0.20573722 0.3271733 -0.12971362 0.832378 0.41901383 -0.27186084
0.020401223 0.14106089 0.52266365 0.7079307 0.014086 -0.44048345 -0.8608402 -0.28133428
-0.31216675 -0.1587478 -0.065550946 -1.356366 0.3454167 -0.83406603 0.4860322 -0.6476148
0.23813182 0.54772884 0.015807485 -0.3697602 -0.015080094 0.102963515 0.47085467 -0.7264101
0.13461 0.35997438 0.8702732 0.3204213 0.019003952 0.005118509 -0.06658334 0.48962185
0.07477371 0.058004115 0.61976033 0.65710825 -0.115299314 -0.6082774 0.11687688 0.19680047
-0.017897274 0.6874975 0.33217686 -0.29325205 -0.12591203 0.10887834 -0.28915977 -0.5133288
0.7437773 -0.027896348 1.2424561 0.510912 -0.27049065 -1.0584086 0.1162553 -0.0984881

generator.fc3.bias f4 [16]
00000000: 7c17 40bd 9bc0 853e 243a 0a3d 290f 9bbe
00000010: 080b bebc 2def 2fbe e406 cf3d fe6a 213e
00000020: 9468 a2be 8b47 23be a0d4 813d ab99 53be
00000030: ced7 373e 00b1 c0ba 983a 86bd 3696 593d
-0.046897396 0.2612351 0.033746853 -0.30285004 -0.02319862 -0.17181082 0.10108736 0.1576347
-0.31720412 -0.1594526 0.06339383 -0.20664088 0.17953417 -0.0014701188 -0.065541446 0.053121768

generator.fc4.weight f4 [7, 16]
00000000: 6c1f cb3e ce0d 28be 2317 c93d 8eae 1b3e
00000010: 4d9e 80be b98b 37be 3d65 5d3e ddea 88be
00000020: 504f f8bd d908 96bd 32a6 293f bb04 aabe
00000030: cdbf 0cbf 9c60 57be ed12 bdbe 9d28 af3c
00000040: a6f7 cbbe 6691 9d3d 349c cabd c720 84bd
00000050: e095 ff3c 4c0d db3e 4935 2dbc 2a4d 2ebf
00000060: 1e40 053e 1437 273f 466f 6b3d 007d e6be
00000070: a81d dc3a 63f1 24bf 467f acbe f5b7 2d3e
00000080: 160f dd3e 9a8b ef3d 8598 11be e6c0 14bf
00000090: af7d ecbc 7b7f 96bd 3444 68be ef31 e73d
000000a0: 6419 4d3b 5284 363e eaa2 353f 0ddc 94be
000000b0: fea7 f4be 126e 1c3f eaf5 213e ef40 46be
000000c0: e5be 9f3e 4a34 3abd 7f5b 9dbd a139 f2be
000000d0: 8f32 893c e16f 87be 1690 e93e 98eb ad3d
000000e0: a038 9abd db87 963e b73a 403e f271 68be
000000f0: a8a3 393e 41d4 bdbe 39e0 8bbe 0ba6 11bd
00000100: 3c24 853e cacd 653e 3204 233e 3f73 143f
00000110: 2026 093f 5950 75be 837c f63d 54f2 4ebe
00000120: 2ee4 73be 458e 06be 9509 793e 161f b5bc
00000130: 7858 533f 111d f0be c031 c33e d410 bfbb
00000140: a26c 82be c9ab fdbd b673 eabb e680 ab3d
00000150: 0cbc f93e 6002 4d3f 60e9 303f bb60 d4bd
00000160: a828 45be ede7 f23e aab1 b8be ca9b 543d
00000170: ea6e 003e cf70 73be fe94 c53e 9a10 b43d
00000180: fd06 b93e 7376 39be 0a3a 92bd e899 14bf
00000190: 180b e1be b8b8 903e cd01 d2be 263e 42be
000001a0: f94a 9f3e 267e 5b3e 59f3 943c eb0c 67bd
000001b0: 4ef7 7d3c b987 3abe 6f95 a9be 6a3a e5be
0.3967241 -0.16411516 0.09818866 0.15203306 -0.25120774 -0.17924394 0.2162065 -0.26741686
-0.12124503 -0.07325906 0.6626922 -0.33206734 -0.54980165 -0.21032947 -0.36928502 0.02138167
-0.39837378 0.07693748 -0.09893075 -0.06451564 0.031199396 0.42783582 -0.010571786 -0.68086493
0.1301274 0.6531842 0.057479165 -0.45017242 0.0016793506 -0.64430827 -0.33690852 0.16964705
0.43175572 0.11696549 -0.14218338 -0.5810684 -0.028868524 -0.07348534 -0.22682267 0.11288821
0.0031295652 0.17823914 0.7095171 -0.29074135 -0.47784418 0.61105454 0.15816465 -0.19360708
0.31200328 -0.045460023 -0.07683467 -0.47309592 0.016747741 -0.26452544 0.4561774 0.084922016
-0.075303316 0.29400524 0.18772398 -0.22699717 0.18128836 -0.37076 -0.27319506 -0.03555874
0.26004207 0.22441784 0.15919569 0.5798835 0.535738 -0.23956431 0.120354675 -0.20209628
-0.23817512 -0.13140209 0.24320062 -0.02210955 0.8255687 -0.46897176 0.38123894 -0.0058308635
-0.25473505 -0.12386281 -0.007154907 0.08374195 0.4877628 0.8008175 0.691061 -0.103700124
-0.1925379 0.4744257 -0.36073047 0.051906385 0.1254231 -0.23773502 0.38590235 0.08792229
0.36138144 -0.18111591 -0.07139976 -0.5804734 -0.43953776 0.2826593 -0.41017 -0.1896902
0.31111887 0.2143484 0.018182443 -0.056408804 0.015500857 -0.18215837 -0.3312182 -0.4477113

generator.fc4.bias f4 [7]
00000000: a4ef ca3d 50d7 793e 9a52 1dbd eca3 aa3d
00000010: 32c2 71be 30b4 183d 502c 373e
0.09908989 0.24398541 -0.038408853 0.08332047 -0.23609236 0.037281215 0.17887998

generator.layer_norm_hidden_0.weight f4 [16]
00000000: b8f3 7d3f 8a41 803f dcf9 7e3f b8f3 7d3f
00000010: b8f3 7d3f b8f3 7d3f b8f3 7d3f b8f3 7d3f
00000020: b8f3 7d3f 8a41 803f b8f3 7d3f b8f3 7d3f
00000030: b8f3 7d3f 2806 813f b8f3 7d3f b8f3 7d3f
0.9920001 1.0020001 0.99600005 0.9920001 0.9920001 0.9920001 0.9920001 0.9920001
0.9920001 1.0020001 0.9920001 0.9920001 0.9920001 1.0080004 0.9920001 0.9920001

generator.layer_norm_hidden_0.bias f4 [16]
00000000: 6f12 033c 6f12 833b a79b c43b 6f12 033c
00000010: a79b c43b 6f12 03bc 6f12 03bc 6f12 03bc
00000020: 6f12 03bc 6f12 03bc 6f12 033c 6f12 83bb
00000030: 6f12 033c 6f12 03bc a79b c4bb a79b c4bb
0.008 0.004 0.0060000005 0.008 0.0060000005 -0.008 -0.008 -0.008
-0.008 -0.008 0.008 -0.004 0.008 -0.008 -0.0060000005 -0.0060000005

generator.layer_norm_hidden_1.weight f4 [8]
00000000: 2806 813f b8f3 7d3f 9ec4 803f ee7c 7f3f
00000010: b8f3 7d3f b8f3 7d3f 2806 813f ee7c 7f3f
1.0080004 0.9920001 1.0060003 0.998 0.9920001 0.9920001 1.0080004 0.998

generator.layer_norm_hidden_1.bias f4 [8]
00000000: 6f12 03bc 6f12 03bc 6f12 833b 6f12 833b
00000010: 6e12 033b 0000 0000 6f12 033c 6f12 033b
-0.008 -0.008 0.004 0.004 0.0019999999 0.0 0.008 0.002

discriminator.fc1.weight f4 [8, 7]
00000000: 8c81 613e 72f7 2a3d f97b 893d 65cc 76be
00000010: 48dc c8bd 2a5c 8fbe 69cd a73d b43e 51bf
00000020: 09ab 843e fb60 3e3f 4948 193e 13b4 bcbe
00000030: e4d6 623f 3ab5 00be 0853 503e 077c 8fbe
00000040: f678 be3d 5e62 7dbe b787 f4be 3450 db3e
00000050: 5a81 99bf 242b 6bbe c1b3 edbd 841d 35bf
00000060: e341 15bc cd8b 6f3f 338b da3e b90c d83d
00000070: 766f 523f 11c1 96be 49c4 a23e 7c21 43bf
00000080: 9063 8d3e b3c7 7e3f fd98 42bf f349 ccbd
00000090: cc25 c43e 3a9c 9bbf 8df5 1cbf f63d 803f
000000a0: 2fb8 57bf 524a b3be 82a6 563f 6314 b43e
000000b0: baaf 783e c787 b1be d054 013f 209d 33bf
000000c0: fa78 2fbe 6361 48bf 8020 eebe bd9a 28bf
000000d0: 51fc 45be 673a 493f 2011 833e 416a 7ebf
0.22022074 0.04173989 0.06713099 -0.24101408 -0.0980764 -0.28000003 0.08193476 -0.817363
0.2591174 0.7436673 0.14968981 -0.36856136 0.8860915 -0.12569132 0.20344174 -0.28024313
0.09300415 -0.24744555 -0.47759792 0.42834628 -1.19926 -0.22965676 -0.11606551 -0.7074816
-0.009109947 0.93572694 0.42684326 0.10549302 0.82201326 -0.29444173 0.3179038 -0.7622297
0.27615023 0.99523467 -0.7601469 -0.09975042 0.38310087 -1.2157052 -0.6131218 1.0018909
-0.84265417 -0.3501764 0.8384782 0.35171804 0.24285784 -0.34673902 0.5052004 -0.7016163
-0.17135993 -0.782736 -0.4650917 -0.6586111 -0.19334532 0.7860474 0.25599003 -0.9938088

discriminator.fc1.bias f4 [8]
00000000: ee4f 383e 7610 dfbd d2e6 aabe 1056 38bd
00000010: 2ce7 393e 606e 8ebe 987c bebd 6bfb b63d
0.17999241 -0.108918115 -0.33379227 -0.04500395 0.18154591 -0.27818584 -0.09301108 0.08934673

discriminator.fc2.weight f4 [1, 8]
00000000: 8d2a 0c3e f2b1 db3e 45be 98be 7a68 1b3e
00000010: 3e1c d0be cac8 1abe 8b2f f83e 9241 653e
0.13688107 0.429092 -0.29832664 0.15176573 -0.40646547 -0.15115657 0.48473772 0.22388294

discriminator.layer_norm_hidden_0.weight f4 [8]
00000000: fafb 803f 44f6 7d3f 0640 7f3f 4ad5 803f
00000010: 3103 7e3f 14fa 7d3f e872 803f 4cf2 803f
1.0076897 0.99203897 0.99707067 1.0065091 0.9922362 0.99209714 1.0035067 1.0073943

discriminator.layer_norm_hidden_0.bias f4 [8]
00000000: 0a50 8dbb 0899 8cbb aabd 8c3b ec25 8dbb
00000010: d297 8c3b a549 8c3b e6d8 8cbb 6211 8dbb
-0.00431252 -0.0042907037 0.0042950707 -0.004307499 0.0042905593 0.00428124 -0.0042983172 -0.0043050507

exp_avg f4 [16, 7]
00000000: 81b3 ecb9 cfac ecb9 d9f8 d420 b897 f2b9
00000010: 1acf ecb9 c4c5 ecb9 c788 efb9 3366 413a
00000020: 8d5f 413a a148 2ba1 78c4 3f3a c277 413a
00000030: b06d 413a b21e 443a 0b7a 493a fad1 493a
00000040: 7d68 1821 872d 4b3a 67fc 493a edf9 493a
00000050: e38d 463a 8f4d 973a cd48 973a 62f0 c59f
00000060: cb85 963a 1943 973a 4f3e 973a d7ef 963a
00000070: 7a95 8839 4663 8839 367a 7320 6d21 9339
00000080: 48bb 8839 3704 8939 7e42 7a39 328d cbb9
00000090: fa40 cbb9 5f91 0d21 2eac c4b9 f7f3 cab9
000000a0: f9e0 cab9 4818 d7b9 08f0 9a39 11f1 9a39
000000b0: 4c8d c91f 5397 9739 b1e1 9a39 c2d5 9a39
000000c0: fc7a 9a39 1676 f239 3249 f239 e0f1 97a0
000000d0: b0a3 f139 d95a f239 9652 f239 996a f339
000000e0: cddf b7ba d1bd b7ba 35c0 a1a0 ddd4 b6ba
000000f0: 4dcd b7ba 88c9 b7ba 9cd2 b6ba e620 ecb9
00000100: d827 ecb9 15d7 2ba0 1e48 e8b9 d807 ecb9
00000110: 27f4 ebb9 acc1 e8b9 8965 f83a 332b f83a
00000120: a478 379f 60d0 fa3a 902b f83a 2424 f83a
00000130: 9b20 f83a 500f 6aba c00e 6aba eab1 b0a0
00000140: 7487 6cba 6406 6aba 9610 6aba 277a 66ba
00000150: a1d2 44ba 8fbf 44ba 7190 cf21 5938 43ba
00000160: dbdb 44ba 0ba7 44ba 5f78 4aba 9a1e f138
00000170: c858 f138 002c 1ca1 7e76 d438 9a22 f038
00000180: 4703 ef38 37ad 1339 1f92 2939 ff7b 2939
00000190: ef71 54a1 404a 2239 81b9 2939 f077 2939
000001a0: 66dc 3a39 c7cf a8ba a0c5 a8ba 45cf 5520
000001b0: 8156 a9ba bcd0 a8ba 3fd0 a8ba 6d77 a8ba
-0.0004514717 -0.0004514218 3.607887e-19 -0.00046270876 -0.0004516773 -0.00045160775 -0.0004568754 0.00073775946
0.0007376604 -5.8033177e-19 0.0007315348 0.0007380211 0.00073787104 0.00074813806 0.00076857273 0.00076988304
5.163789e-19 0.00077506196 0.00077051524 0.00077047833 0.00075742434 0.00115435 0.0011542082 -8.3830425e-20
0.0011483965 0.0011540382 0.0011538955 0.001151557 0.0002605131 0.00026013906 2.0623337e-19 0.0002806293
0.00026079477 0.00026133817 0.00023866628 -0.00038824376 -0.0003876759 4.7965055e-19 -0.00037512317 -0.0003871021
-0.0003869606 -0.00041026087 0.00029552006 0.00029552777 8.536057e-20 0.0002891371 0.00029541322 0.0002953243
0.000294648 0.00046245818 0.00046212372 -2.5740454e-19 0.0004608906 0.00046225524 0.00046219368 0.00046427993
-0.001402849 -0.0014018362 -2.7401653e-19 -0.0013948936 -0.0014022976 -0.0014021853 -0.0013948265 -0.0004503794
-0.00045043114 -1.4555428e-19 -0.0004430422 -0.00045019272 -0.000450046 -0.00044394785 0.0018951158 0.0018933773
-3.885155e-20 0.0019135587 0.0018933881 0.0018931669 0.0018930616 -0.00089286733 -0.00089285895 -2.9933293e-19
-0.00090228696 -0.0008927344 -0.0008928863 -0.0008792006 -0.0007508193 -0.0007505351 1.4065099e-18 -0.0007447056
-0.00075095677 -0.0007501698 -0.0007723625 0.000114974755 0.00011508312 -5.291309e-19 0.00010131019 0.00011450537
0.000113970185 0.0001408354 0.0001617153 0.00016163288 -7.1979184e-19 0.00015477184 0.00016186202 0.00016161776
0.00017820447 -0.0012879305 -0.001287628 1.8110382e-19 -0.0012919457 -0.001287959 -0.0012879445 -0.0012852974

exp_avg f4 [16]
00000000: daf8 54bb a048 ab3b 7d68 98bb 64f0 453a
00000010: 3a7a f3ba 5d91 8dbb 4c8d 49ba e2f1 173b
00000020: 34c0 213b 14d7 ab3a a378 b739 e7b1 303b
00000030: 7290 4fbc 002c 9c3b ee71 d43b 45cf d5ba
-0.003249696 0.0052271634 -0.004651128 0.00075507746 -0.0018575855 -0.004320307 -0.00076885964 0.0023184945
0.0024681212 0.0013110363 0.0003499436 0.0026961507 -0.012668716 0.0047659874 0.006483308 -0.0016312381

exp_avg f4 [8, 16]
00000000: d60b fa3a 8945 053b afd7 02bb 73e3 4bba
00000010: 0c80 b1ba 97c9 34bb da2f 2b3b b46e cb39
00000020: 7a83 ccba a0e8 afba a47e 0abb 1dad 253b
00000030: 5fcc ee3a f6c2 c3ba e0ad 253b 10e5 edb9
00000040: 68a6 a5ba b796 48b9 dbc5 fe38 510e 6dba
00000050: 486a d939 189f a339 ff97 f8b9 7c1c afba
00000060: e125 0f3b 228b 62ba ffe8 b83a bb72 ff38
00000070: c1b9 8839 5554 e63a 9712 59b9 27dd b0ba
00000080: 7982 953a 82bc a83a 195a 68ba d0f0 0d3a
00000090: 71d1 30ba b77e c8ba 2f0d a63a 6d05 5e3a
000000a0: bd1e 30bb c279 db39 e9c6 1cbb 4e93 bd3a
000000b0: d94b 9e3a cba6 10bb 6c36 bc3a c558 4e3a
000000c0: cffb c3ba ea7e 453a d0bf 11ba 2a58 5f37
000000d0: ff4e 503a 74a7 0bbb ffa5 43b9 78ee 70ba
000000e0: dd4f 9139 9f03 9739 2a89 6eba 00ca a33a
000000f0: b482 da3a 0870 e139 fcf4 713a 8e73 39b9
00000100: dc2d 9739 7d67 d0ba 9920 713a 14bb 7839
00000110: a13c a039 d8e2 e43a 1bdf a4ba 9110 313a
00000120: 9f55 943a 1a7c 9439 7ca5 c63a 78be 10bb
00000130: 54ea 0ebb 4c31 7e3a 9ceb e5ba d069 703a
00000140: 982d 3139 dbdd 6fb9 fd85 4a39 6a87 ae39
00000150: 467c 3c38 5e85 3b39 d896 11b9 2490 b939
00000160: 92f0 b2b9 ae19 c839 c337 d7b8 cfbc cfb9
00000170: 2a2d aeb9 abad 88b9 41dd 8ab9 b16c da39
00000180: 8794 273b 6fe2 d5ba 49bf fe3a 8d5c 133b
00000190: f7ce 82ba 29f5 803b 4d21 86b9 1238 4e3b
000001a0: 8737 76bb 1c50 143b fbfd ecb6 fcf4 5cbb
000001b0: af32 7cbb 4ae1 4ebb e9a6 04bb c276 423b
000001c0: 4a56 27b9 f623 cb39 72e7 34b9 2913 d037
000001d0: 31cd 12b7 536f e2b9 1a19 8439 c962 20b9
000001e0: 08ca cbb9 4105 6438 4bf3 e8b9 0a3c 093a
000001f0: b17c 113a 240c 9eb9 befd d239 a0c8 0fb9
0.0019077014 0.0020335636 -0.0019964983 -0.0007777728 -0.0013542189 -0.0027585977 0.002612105 0.00038801658
-0.0015603148 -0.0013420768 -0.0021132613 0.0025280186 0.0018218866 -0.0014935422 0.002528064 -0.00045374827
-0.0012638094 -0.00019129632 0.00012148517 -0.0009042966 0.0004146865 0.00031208317 -0.00047415492 -0.001335993
0.0021842646 -0.0008641948 0.0014107524 0.00012180718 0.0002607834 0.001757274 -0.00020701658 -0.0013493643
0.0011406682 0.0012873563 -0.0008863523 0.0005414607 -0.00067450764 -0.0015296553 0.0012668724 0.00084694364
-0.002687379 0.00041861652 -0.002392227 0.0014463456 0.0012077048 -0.0022072073 0.0014359481 0.0007871504
-0.0014952364 0.0007533865 -0.00055598933 1.3312363e-05 0.00079463416 -0.0021309527 -0.00018658488 -0.0009190808
0.00027716058 0.00028803662 -0.00090994185 0.0012496114 0.0016671033 0.00042998814 0.0009229926 -0.00017686022
0.00028835132 -0.0015899983 0.0009198278 0.00023720815 0.0003056275 0.0017462624 -0.0012578698 0.0006754483
0.0011317021 0.00028321223 0.0015155519 -0.0022086184 -0.002180715 0.0009696677 -0.001754153 0.0009171041
0.0001689702 -0.00022875464 0.00019314136 0.00033288758 4.493843e-05 0.00017883393 -0.00013884471 0.00035393343
-0.00034130045 0.00038166106 -0.00010262385 -0.0003962279 -0.00033221516 -0.00026069334 -0.00026486258 0.00041661182
0.0025570707 -0.0016318093 0.001943567 0.0022485584 -0.0009979893 0.0039354754 -0.00025583283 0.0031466526
-0.0037569718 0.0022630757 -7.0629153e-06 -0.0033715358 -0.0038482358 -0.0031567388 -0.0020241088 0.0029672836
-0.00015958506 0.0003874597 -0.00017252358 2.4804454e-05 -8.750053e-06 -0.00043189022 0.00025195704 -0.0001529559
-0.00038869702 5.436433e-05 -0.00044431756 0.0005235082 0.00055498915 -0.00030145154 0.00040243374 -0.00013712281

exp_avg f4 [8]
00000000: 5327 183b ac7c cc3a 2bc6 85ba 4471 71ba
00000010: a05c 9db6 92df 30ba 98e7 65bb f6fa 6db9
0.0023216798 0.001560112 -0.0010206153 -0.00092102983 -4.6897476e-06 -0.0006747182 -0.0035080668 -0.00022695572

exp_avg f4 [16, 8]
00000000: b7e7 413b e9b3 adbb fac2 5f3a 4ed1 b23b
00000010: 92f1 2939 61a6 3bbc b8e5 e63b ea43 bf39
00000020: e5fa a93b 5bae 53bb 7fda b63b 3429 67bb
00000030: 929c 8a3b 1e14 7fbc 6b4b 5f3a 94fb d63b
00000040: 8b9d 313a d653 c2ba c6ed 9136 d02a 083b
00000050: a335 4bb9 f13b 45bb 17cb 043b 0eb7 9bb8
00000060: d049 fcb9 b9bf f23a 8939 003a 3616 2fbb
00000070: ef03 1f3a 0a1a ff3a eac0 2bbb 3dde 603a
00000080: 868c a939 369b 68b8 184d d039 1abd 55b9
00000090: b984 a939 61d0 a4ba a60d 42b8 a0fd 083a
000000a0: 9702 aabb 0757 7e3b 8fa6 9fbb 927e 6b3a
000000b0: 1350 86bb 082f 933c 8082 62bb f271 abbb
000000c0: 1551 dc3b 70ec 4fbc 318c bd3a 2a0a 893c
000000d0: bab3 2aba 7e61 f1bc e5fa 873c f991 c53a
000000e0: 5984 aabb ed83 f13b f4fe 5abb d101 9bbb
000000f0: bbd1 77ba 41ae 8d3c 6994 c3bb 507b 96bb
00000100: 7d8f c839 6ca9 ad38 5d29 2e3a fc14 c2ba
00000110: d861 313a 562d e2b9 b9d2 d9b9 1510 0a3a
00000120: c34e 1539 f2c5 aebb 9ae9 3fbb cfa0 453c
00000130: d472 4abb 8f79 bfbb dd17 083c ef88 56bb
00000140: 3d93 ac3b c8ad 34bc ae7d 2439 c7d6 753c
00000150: c679 84ba 5544 bfbc bc5e 843c deff 85ba
00000160: 7e3f c4bb f126 0c3c e64c 5fbb 3c94 e1bb
00000170: 88df a2ba 09c6 b13c 2df0 0abc fe1a 90bb
00000180: 5abf 8eba 5bcc 873b 28fa 973a e394 0dbc
00000190: 5ca2 bb3a fb61 053c c810 d5bb 502b aa3a
000001a0: e9bc 6bbb 054e ef3b 4777 23ba e090 22bc
000001b0: ba34 293a 9cdc 843c 4aae 17bc 520f 65ba
000001c0: 2e76 9bba 8017 2c3b 7cd3 66b9 b6db 35bb
000001d0: 3605 023a 0859 843b cc28 2abb 6b3c dcb9
000001e0: 234f d4ba da1a 3a3b bacd b4b9 1079 45bb
000001f0: 7292 78b8 438e c63b 0485 84bb 0b39 0d39
0.0029587576 -0.005300988 0.00085358287 0.00545708 0.00016207088 -0.011453242 0.0070464276 0.0003648096
0.0051873797 -0.003229997 0.005580246 -0.0035272362 0.0042300904 -0.015568761 0.0008518013 0.006560752
0.000677549 -0.001482601 4.349017e-06 0.0020777471 -0.0001937957 -0.0030095542 0.0020262653 -7.4250725e-05
-0.0004812018 0.0018520273 0.0004891386 -0.002671612 0.0006065955 0.0019462716 -0.0026207515 0.0008578038
0.0003233889 -5.545766e-05 0.0003973029 -0.00020383709 0.00032333078 -0.0012574309 -4.6265915e-05 0.00052257814
-0.005188297 0.0038809197 -0.0048721503 0.0008983399 -0.004098901 0.017966762 -0.0034562647 -0.005232089
0.006723533 -0.012690648 0.0014461336 0.01672848 -0.00065117667 -0.029465433 0.016599128 0.001507341
-0.0052037654 0.007370463 -0.0033416124 -0.004730441 -0.00094535545 0.017295005 -0.0059686196 -0.0045923367
0.0003825388 8.28084e-05 0.0006643737 -0.0014807279 0.0006766594 -0.00043139857 -0.00041546466 0.00052666786
0.00014239088 -0.0053336555 -0.0029283524 0.012062266 -0.0030891197 -0.0058433483 0.008306471 -0.0032735427
0.0052665756 -0.011027761 0.00015687078 0.01500482 -0.0010107092 -0.023348013 0.016158454 -0.0010223349
-0.005989014 0.008554206 -0.0034072935 -0.006884126 -0.0012426237 0.021700876 -0.008480114 -0.004397749
-0.0010890767 0.004144234 0.0011594938 -0.008641454 0.0014315355 0.008141036 -0.0065022446 0.0012982879
-0.0035970754 0.007303002 -0.000623573 -0.009922236 0.0006454695 0.016218476 -0.009257862 -0.00087379396
-0.0011860782 0.0026259124 -0.00022013293 -0.0027749366 0.0004959883 0.0040389337 -0.0025964258 -0.00042006685
-0.0016197901 0.0028397352 -0.00034485554 -0.0030131973 -5.9264195e-05 0.0060594394 -0.004044177 0.00013468058

exp_avg f4 [16]
00000000: a929 5aba 2778 51bc 6586 df39 c7fe c1ba
00000010: 0ccc 6aba 6c43 253c b058 e6b7 94ee f93b
00000020: b9e9 d0ba d5d5 fb3b e4c6 4e3b 265a ec3b
00000030: 3133 8bbb 7a6b 4339 c612 d339 cb0a 77b9
-0.0008322248 -0.012784994 0.00042634006 -0.0014800661 -0.0008956797 0.010086875 -2.7459435e-05 0.0076273177
-0.0015938795 0.007685403 0.0031551654 0.007212895 -0.004248046 0.00018636687 0.00040259043 -0.00023559776

exp_avg f4 [7, 16]
00000000: 7748 263c 0a3a 79bc e326 ea3a d595 9a3c
00000010: c9f4 75bc e944 f8bc 5eb0 c43b 0b00 17bc
00000020: 76dc 23bc e0ae e43b a598 c03b 3041 9abc
00000030: f528 34ba 0eba 133d 02e1 1dbd 4445 563d
00000040: 5df2 db3a 62c6 95ba 4b5f aab9 510d 0d3b
00000050: f588 86bb 5c07 9dbb 512a 8e3b b1f3 29bb
00000060: d8a9 e53a 2d0b 6f3a 1e2c 18ba dfcb b5bb
00000070: 4862 a3ba 1c68 053c 74e7 25bc c6d4 3c3c
00000080: d9d4 813a 4b91 2d39 4f25 4fb9 4fea d539
00000090: 8d1c ecba 0d4e 3bbb 2e47 d338 2801 bcba
000000a0: 300d 45ba 77fa ecb9 1dc6 f639 81e4 b4ba
000000b0: 8291 85ba 4f4c 893b b55f 2dbb 08ff cb3b
000000c0: d0c5 9a3b 05de f7bb ea4c ae3a 0c11 0d3c
000000d0: a16a d5bb 112d 5abc 2833 813b cbba 6cbb
000000e0: ecfb 42bb 96ad 813b 4bac 2e3b fbcd 14bc
000000f0: 7353 e839 7277 783c 3d85 9abc f6a5 ad3c
00000100: 2779 9d3b fd4a 85bc cd9d ac3b 25d5 823c
00000110: e76a 6f3b b555 c9bb 615d 36bc da27 9e3b
00000120: 55f7 3cbc aa54 ad3b 678b 3d3c f181 703a
00000130: bb9f 0e3c 1742 abbb 060a aebb 474d aebb
00000140: d60e 82bb 6e56 293c 87a8 72bb b9eb 21bc
00000150: 2690 02ba 37cd f43b 7827 c63b fcdc f3ba
00000160: 8f1b d83b 6b64 64bb 2e6f dcbb b8a1 603a
00000170: d4a8 9abb 790a 40ba a542 c43b b505 eaba
00000180: db3d 11ba 3e3c 2e3a 4ded 643a 9ae7 aaba
00000190: efaf 613b 6f9e d83b 6807 36bb c639 463b
000001a0: 83bd 743b 20ec b9ba 6539 5e3a b7e9 453b
000001b0: f770 d13a 009f 19bc dbdc 983b a96d 56bc
0.010149113 -0.0152115915 0.0017864372 0.018870274 -0.015011975 -0.030306296 0.00600247 -0.009216319
-0.010001292 0.0069788545 0.0058775716 -0.018829912 -0.0006872558 0.036066107 -0.038544662 0.05231215
0.0016780604 -0.001142692 -0.00032495926 0.002152283 -0.004105682 -0.004792137 0.0043385406 -0.0025932605
0.0017521931 0.0009118792 -0.0005804914 -0.005547985 -0.0012465203 0.008142497 -0.0101259835 0.0115253385
0.0009905352 0.00016552692 -0.00019754957 0.000408011 -0.001801388 -0.0028580457 0.00010074522 -0.0014343606
-0.00075169187 -0.0004520004 0.00047068382 -0.001380101 -0.001019046 0.004190005 -0.002645475 0.0062254705
0.004723288 -0.0075643086 0.0013298069 0.008610021 -0.0065129553 -0.013316409 0.003942866 -0.003612208
-0.0029752208 0.0039574606 0.0026652988 -0.009082313 0.00044312663 0.015165197 -0.018862361 0.0211973
0.0048057023 -0.016271109 0.0052678348 0.015970776 0.0036532225 -0.0061442503 -0.011130662 0.004826528
-0.011533578 0.0052896338 0.011568881 0.0009174636 0.008705075 -0.0052263844 -0.0053112535 -0.005319271
-0.0039690537 0.010335548 -0.003702672 -0.009882861 -0.0004980586 0.0074707526 0.0060471855 -0.0018605287
0.006595082 -0.0034849893 -0.006727121 0.000856902 -0.004719833 -0.00073257793 0.00598939 -0.0017854484
-0.0005540528 0.000664655 0.00087328703 -0.0013038993 0.003443714 0.0066106836 -0.002777541 0.0030246838
0.0037344403 -0.0014184751 0.00084771804 0.003019912 0.0015979101 -0.009376287 0.004665 -0.013087668

exp_avg f4 [7]
00000000: 13ec 7cbb 5e50 863a b095 b23a e12d 58bb
00000010: 5013 8ebc 58fa 263c 934d 3abb
-0.003859286 0.001024734 0.0013624933 -0.003298633 -0.017343193 0.010191523 -0.0028427585

exp_avg f4 [16]
00000000: 1d35 f23b 7c6d edb9 a231 6c3a ac03 f33b
00000010: acce 373b 8405 9d3c 5f84 fc3b ea56 e53a
00000020: 0e32 f43b 6a68 a2ba 4c5b d73b 4b30 453c
00000030: 96da 923b 0f81 2abc ab37 ba3c 0d39 e93b
0.0073915855 -0.00045285735 0.00090100814 0.007416209 0.002804677 0.01916767 0.0077062096 0.0017497216
0.007452256 -0.0012390737 0.0065721627 0.01203544 0.004481624 -0.0104067465 0.022731623 0.0071173967

exp_avg f4 [16]
00000000: 4d34 28bc 34dc 12bb 03c9 7fbb 419e bfbb
00000010: c6e4 78ba f785 513c 8205 823b 5571 a73b
00000020: b23d 5a3b 775a c33b d21a 31bc d67c bd3a
00000030: a310 6cbc 86c8 093c 167d 203b 8dbf f13a
-0.010266376 -0.0022409083 -0.0039029724 -0.0058477228 -0.0009494539 0.012788287 0.0039679417 0.005109946
0.0033300933 0.005961712 -0.010809617 0.001445676 -0.014408263 0.008409625 0.002448862 0.0018443927

exp_avg f4 [8]
00000000: ccda 26bc 2c1b 4f3b cb2f 02ba 3c8c 84ba
00000010: e730 1a3b aa7e 7d3c b848 81bb 9844 413a
-0.010184001 0.003160189 -0.0004966228 -0.0010112594 0.0023527683 0.015472094 -0.0039454363 0.0007372587

exp_avg f4 [8]
00000000: 1eef 403c 4653 763b e4c5 ebba faa3 a9bb
00000010: 0001 12bb 5e3e cb39 3c1b dfbb 3452 96ba
0.01177576 0.0037586256 -0.0017988053 -0.005177018 -0.0022278428 0.00038765644 -0.0068086665 -0.001146859

exp_avg f4 [8, 7]
00000000: f513 963b db85 393c f517 443b 4763 dc3b
00000010: e38f f5bb 5b24 2b3c 43d2 e13b 7b5b 1cbc
00000020: 2570 d33b fa0e 943b 86da 11bb 0300 09bd
00000030: 803e ae3b bd9b 0ebb e605 50bd d09f 6fbd
00000040: 2a30 90bc 487c 39bd 0e1b cf3c 0f02 0cbd
00000050: 0854 19bd 72e4 57bc 6e08 2dbb 4796 8f3a
00000060: fe7a d8bb fa0c 38bc 1b60 0c3b 5301 053a
00000070: ecb0 aa3d 7f39 2b3d 5a71 3cbc 93a0 8d3d
00000080: 833d f43d 0550 123d 976b 583d 6fca 01bd
00000090: 5986 23bd 9e5d 20bb 53b1 0fbd e003 babc
000000a0: 5bb3 23bd 4ad8 1abd ad31 7ebd a7b1 3ebd
000000b0: d368 af3c c378 8bbd 626a 16be 8c49 93bd
000000c0: f352 8bbd f8b4 c53c 07ea 6f3d d1b7 c63a
000000d0: 0975 3b3d 7e46 143d 7229 9d3d 42a8 8c3d
0.004580016 0.011323418 0.0029921506 0.006725702 -0.0074939593 0.01044568 0.00689152 -0.009543295
0.0064525777 0.004518387 -0.0022255494 -0.033447277 0.005317509 -0.0021760308 -0.050786875 -0.05850202
-0.017601091 -0.04528454 0.025281455 -0.03418165 -0.037433654 -0.013177024 -0.002640273 0.001095482
-0.0066064587 -0.011233563 0.0021419588 0.00050737447 0.083345264 0.04180288 -0.0115016345 0.06915393
0.11925795 0.035720844 0.05283698 -0.031687196 -0.039923046 -0.0024469863 -0.03508122 -0.022706926
-0.03996597 -0.037803926 -0.062059093 -0.04655614 0.021412289 -0.06810143 -0.1468902 -0.07191762
-0.06802931 0.024134144 0.058572795 0.0015160983 0.04576591 0.03620004 0.07673921 0.0686803

exp_avg_sq f4 [8, 7]
00000000: ac15 d535 5c9c 6d36 8cfe 8734 8857 dd35
00000010: 27f7 fa35 6344 5e36 a443 b735 dabb a136
00000020: d449 5536 334f 4535 c798 1636 0390 0638
00000030: 019b 5136 ac01 6d34 4886 9238 c803 b538
00000040: 51d3 0d37 a759 6238 7c05 c637 387a 0a38
00000050: 1128 1038 1ca6 be36 c444 5a35 5a91 4b33
00000060: e70e 0b36 7a27 9936 f645 5f35 1243 4335
00000070: 8210 5839 cf88 6b38 def3 8936 df4e 0c39
00000080: e25b bc39 7621 2238 406a 9738 5ac1 e237
00000090: c948 2d38 1c24 2534 a650 0838 0032 7e37
000000a0: af78 2f38 672b 1b38 e97f f738 9f32 8338
000000b0: 3a0f 3d37 9da7 0139 f67c 0b3a 4b26 0539
000000c0: f41e f938 a340 b337 d2e2 b538 5ab2 1234
000000d0: ea41 6638 57eb 1238 14b6 1839 393a f338
1.5876044e-06 3.5406765e-06 2.5330917e-07 1.6491258e-06 1.8698382e-06 3.3120384e-06 1.3654249e-06 4.8200427e-06
3.1782447e-06 7.350347e-07 2.244067e-06 3.208221e-05 3.123365e-06 2.2072953e-07 6.986834e-05 8.631457e-05
8.453456e-06 5.3966094e-05 2.3605993e-05 3.301559e-05 3.436959e-05 5.681779e-06 8.1311396e-07 4.7396817e-08
2.0721288e-06 4.564351e-06 8.317578e-07 7.274076e-07 0.00020605515 5.615578e-05 4.111308e-06 0.00013380822
0.00035926612 3.8654973e-05 7.220032e-05 2.7031336e-05 4.13142e-05 1.5379959e-07 3.2500036e-05 1.5151221e-05
4.1835647e-05 3.69953e-05 0.00011801703 6.255996e-05 1.1268823e-05 0.0001236484 0.000532105 0.00012698134
0.00011879011 2.1368562e-05 8.673001e-05 1.3662194e-07 5.489766e-05 3.502829e-05 0.00014563679 0.00011597988

exp_avg f4 [8]
00000000: c767 83bd d474 4ebd 9d48 bb3d fc94 d4bc
00000010: b3c1 923e 6c36 953d 72e3 e7bd 02bd cebd
-0.06416278 -0.050404385 0.09144709 -0.025949948 0.28663406 0.07285771 -0.113226786 -0.10094644

exp_avg_sq f4 [8]
00000000: dbed 0239 0bd3 9038 5bab 6439 e713 e537
00000010: 5272 0d3b bd3f 1239 e53b be39 2f83 9239
0.00012486374 6.905765e-05 0.0002180761 2.7308195e-05 0.0021583033 0.0001394739 0.0003628425 0.0002794503

exp_avg f4 [1, 8]
00000000: ffac 8abd f37b 1d3f 0e23 e3bc 6df4 70bd
00000010: 11a9 18be 6471 9fbd ee1d 9cbc ca07 5fbe
-0.06771278 0.61517256 -0.027726676 -0.058826853 -0.14908244 -0.077852994 -0.01905724 -0.21780315

exp_avg_sq f4 [1, 8]
00000000: 99bb 1039 d962 1c3c 6cf9 e337 caea f138
00000010: d7bb 1d3a 87e6 2439 0af9 d338 1b1f aa3a
0.00013802796 0.0095450515 2.7176655e-05 0.000115355084 0.0006017065 0.00015726137 0.00010107651 0.0012979241

exp_avg f4 [8]
00000000: d086 12bc 72f6 883e 27e1 083c d5b6 0ebc
00000010: a4a6 7b3d 6eb4 463c 2740 16bc f4af 43bd
-0.008943275 0.26750523 0.008354462 -0.008710583 0.061438218 0.012127979 -0.009170569 -0.047775224

exp_avg_sq f4 [8]
00000000: 2aac 1f36 a2f0 ec3a dfbc 2536 fe6d 2836
00000010: 68ab d638 e6d1 8036 e5f9 c437 be5a 8238
2.379306e-06 0.0018077085 2.4696853e-06 2.5097975e-06 0.00010236242 3.8391327e-06 2.3481387e-05 6.215785e-05

exp_avg f4 [8]
00000000: 192f 5d3b ee52 333c 9862 f9bb 78a2 763b
00000010: 62e7 29bc 2142 80bb 9a62 483c 96bd b63b
0.0033749996 0.010945065 -0.0076106302 0.003763346 -0.010370107 -0.003914133 0.01223054 0.0055767996

exp_avg_sq f4 [8]
00000000: d24d ea34 c0a9 9b36 4952 1636 1a02 1235
00000010: 81bf 8b36 1d0c 2035 fea9 c136 be7d a035
4.3642518e-07 4.6391215e-06 2.2399638e-06 5.4392297e-07 4.164817e-06 5.962227e-07 5.771638e-06 1.1957525e-06
