saved/type_5_fold_4.ckpt (torch, 21906 bytes, 39 tensors)

generator.fc1.weight f4 [16, 7]
-0.5175839 0.2099095 0.045531403 1.3613412 0.8671096 0.3677419 0.033140358 0.12674654
-0.02434984 -0.66128945 -0.42299494 -0.71291566 0.79993933 -0.5041246 0.29204527 1.0150651
-0.64924866 -0.82787395 0.7169429 0.26925978 0.85918903 -0.25367156 1.0216061 -0.7020026
0.41840774 -0.15831982 -0.2720314 0.090403184 -0.10922109 -0.64233285 1.0139803 0.34822804
-0.5429728 0.50745237 -0.87858635 -0.9132873 1.0163381 0.5070186 -0.26369005 -0.48874366
-0.5391891 -0.386086 0.06250789 -0.29890296 -0.029726986 -0.372703 0.32044736 0.0952503
0.15406626 0.6515581 0.8544741 0.23304719 -0.2672317 -0.48410645 -0.31658873 0.15700653
0.07064553 -0.6749386 0.25220528 0.34968495 -0.20320848 -0.34360352 0.052593175 -0.025008237
0.28767714 -0.8728331 0.5340235 0.46497446 0.6716777 0.21965396 -0.255403 0.67572576
0.5725742 -0.2569984 0.3257342 -0.8498952 -0.537251 -0.039841928 0.2605245 -0.5025321
-0.38887942 0.78341454 0.2000494 0.15691033 0.2523961 0.7781233 -0.11245616 0.12755789
0.39102602 0.23090337 0.16688949 -0.02360699 -0.1533713 -0.6449296 0.18218614 0.7992312
-1.0549603 -0.6186199 0.6288936 0.7974421 -0.83344626 -0.8101947 0.35777128 0.5967602
0.04326031 -0.038412508 0.03349639 -0.4435543 -0.14508402 0.009083013 -0.75989306 -0.5690251
00000000: 6180 04bf 84f2 563e 237f 3a3d 6e40 ae3f
00000010: e5fa 5d3f ab48 bc3e 2fbe 073d d8c9 013e
00000020: 5179 c7bc 444a 29bf cb92 d8be a481 36bf
00000030: d3c8 4c3f 4f0e 01bf f586 953e a7ed 813f
00000040: 2935 26bf 8cef 53bf 9289 373f 6bdc 893e
00000050: d0f3 5b3f 3de1 81be fdc3 823f 71b6 33bf
00000060: 8a39 d63e 971e 22be b347 8bbe 4e25 b93d
00000070: 4faf dfbd ed6f 24bf 1bca 813f f24a b23e
00000080: 4400 0bbf 66e8 013f 09eb 60bf 32cd 69bf
00000090: 5e17 823f f9cb 013f 6202 87be 9c3c fabe
000000a0: 4c08 0abf 10ad c5be 2304 803d cf09 99be
000000b0: 0286 f3bc edd2 bebe ad11 a43e 9712 c33d
000000c0: 8cc3 1d3e 83cc 263f d1be 5a3f eca3 6e3e
000000d0: 98d2 88be cddc f7be eb17 a2be 52c6 203e
000000e0: 9bae 903d c7c8 2cbf 0d21 813e e809 b33e
000000f0: e215 50be cdec afbe f16b 573d 13de ccbc
00000100: 6b4a 933e fd71 5fbf c4b5 083f 2211 ee3e
00000110: 12f3 2b3f f8ec 603e 2fc4 82be 5dfc 2c3f
00000120: 3994 123f 4b95 83be a2c6 a63e bb92 59bf
00000130: 4889 09bf 4a31 23bd 7863 853e f2a5 00bf
00000140: 341b c7be db8d 483f c0d9 4c3e 1aad 203e
00000150: 103a 813e 1733 473f 6a4f e6bd 899e 023e
00000160: 9034 c83e ef71 6c3e 14e5 2a3e 7263 c1bc
00000170: 5e0d 1dbe 1b1a 25bf 018f 3a3e 6a9a 4c3f
00000180: f008 87bf e05d 1ebf 2cff 203f 2a25 4c3f
00000190: bc5c 55bf eb68 4fbf cc2d b73e 47c5 183f
000001a0: b931 313d 6f56 1dbd 8333 093d 8d19 e3be
000001b0: e890 14be ebd0 143c 5a88 42bf a1ab 11bf

generator.fc1.bias f4 [16]
-0.24809763 0.008250311 0.14899361 0.25342652 0.29787055 -0.11125773 0.18193388 0.24388364
-0.3253991 0.25655714 0.134386 0.31912938 -0.19549394 0.12548622 0.1703946 0.1493431
00000000: 4e0d 7ebe 502c 073c c891 183e 1fc1 813e
00000010: 7d82 983e 18db e3bd e04c 3a3e a2bc 793e
00000020: b69a a6be 755b 833e 7c9c 093e ed64 a33e
00000030: 902f 48be 767f 003e ec7b 2e3e 66ed 183e

generator.fc2.weight f4 [8, 16]
0.51324016 0.13904572 -0.42155835 0.044848997 0.1141504 0.26926437 0.113884486 0.082507975
-0.08638276 -0.053022765 0.47398975 0.1318599 -0.10393082 -0.18200837 -0.35864648 0.3927595
0.26248148 -0.3545982 -0.5494693 -0.056605656 0.074680954 -0.19334355 -0.019971648 0.17167658
0.4232152 -0.4521377 -0.091228686 0.18447602 -0.15979479 -0.1365573 -0.022773758 0.29520023
0.31569162 -0.15932849 -0.58005 -0.09401049 0.06847273 0.84303993 0.30901033 -0.33882397
0.21992438 -0.43795872 -0.26377302 0.40856788 0.6681741 0.30843 0.22664897 -0.5256397
0.32055482 -0.090676256 -0.6032172 0.0931151 -0.32120878 -0.05575001 -0.33966368 0.19239973
-0.38115537 -0.09667031 0.013561102 -0.04769465 -0.33485165 0.50445306 0.16343452 0.41310027
-0.06445517 0.31244528 -0.13735929 0.011164352 -0.08276319 0.46050298 0.4163573 0.61598927
-0.18633841 -0.3316056 -0.41357568 -0.3910129 0.5526729 0.3250332 0.4803377 -0.3310788
-0.25673229 0.16766337 -0.02815599 0.36304477 -0.08162211 -0.20193377 0.23852848 -0.8980372
-0.08827582 0.38279045 0.65174615 -0.26714674 0.36874276 0.14750965 -0.35535467 0.5813261
0.32248488 -0.5742271 0.16881609 -0.3865268 -0.13365135 0.5811731 0.90952325 -0.0855759
-0.35426265 -0.8245249 0.100739375 0.17843276 0.4786025 -0.309957 0.18806717 -0.45677203
-0.23068763 -0.03267518 -0.5017457 -0.10977522 -0.26161635 0.43525058 -0.32121086 -0.4335699
-0.3856655 -0.247727 0.3872648 0.56835616 -0.21530594 -0.66339356 -0.25345916 0.38355073
00000000: b563 033f 0062 0e3e 7fd6 d7be 95b3 373d
00000010: afc7 e93d 05dd 893e 453c e93d f1f9 a83d
00000020: 72e9 b0bd 662e 59bd c9ae f23e 4806 073e
00000030: afd9 d4bd 6760 3abe 83a0 b7be c617 c93e
00000040: f963 863e e58d b5be 05aa 0cbf 55db 67bd
00000050: 54f2 983d dafb 45be 959b a3bc fccb 2f3e
00000060: aaaf d83e 987e e7be 1bd6 babd 48e7 3c3e
00000070: 3fa1 23be add5 0bbe 0890 babc 7c24 973e
00000080: 55a2 a13e 0227 23be 287e 14bf 9288 c0bd
00000090: 6e3b 8c3d 77d1 573f 9a36 9e3e 567a adbe
000000a0: db33 613e 203c e0be 420d 87be cf2f d13e
000000b0: 750d 2b3f 89ea 9d3e ab16 683e 5390 06bf
000000c0: c31f a43e 79b4 b9bd 716c 1abf 21b3 be3d
000000d0: 7a75 a4be 1f5a 64bd 66e8 adbe 6f04 453e
000000e0: cc26 c3be 15fb c5bd 622f 5e3c 775b 43bd
000000f0: ad71 abbe d623 013f 615b 273e e181 d33e
00000100: 1201 84bd d4f8 9f3e eaa7 0cbe b0ea 363c
00000110: bf7f a9bd 0cc7 eb3e c92c d53e 79b1 1d3f
00000120: 7fcf 3ebe 36c8 a9be 31c0 d3be d832 c8be
00000130: f97b 0d3f c06a a63e d3ee f53e 2983 a9be
00000140: 6a72 83be f2af 2b3e 64a7 e6bc 01e1 b93e
00000150: 7e29 a7bd bac7 4ebe cf40 743e c4e5 65bf
00000160: f4c9 b4bd 1cfd c33e d6d8 263f 75c7 88be
00000170: dacb bc3e c50c 173e 0cf1 b5be cad1 143f
00000180: bd1c a53e 8c00 13bf 20de 2c3e d7e6 c5be
00000190: e6db 08be c3c7 143f 84d6 683f 6b42 afbd
000001a0: ea61 b5be 1014 53bf 7250 ce3d 14b7 363e
000001b0: 630b f53e afb2 9ebe ae94 403e 06de e9be
000001c0: 6139 6cbe 69d6 05bd 6872 00bf d5d1 e0bd
000001d0: 94f2 85be 2ad9 de3e c075 a4be e0fc ddbe
000001e0: f375 c5be 26ac 7dbe 9247 c63e ca7f 113f
000001f0: 2979 5cbe 29d4 29bf 66c5 81be c360 c43e

generator.fc2.bias f4 [8]
0.06892401 -0.11274612 0.007991268 -0.22425196 -0.094661176 -0.07062781 -0.11905256 0.20256844
00000000: 0828 8d3d 70e7 e6bd cfed 023c 4ea2 65be
00000010: b8dd c1bd 50a5 90bd d4d1 f3bd 1a6e 4f3e

generator.fc3.weight f4 [16, 8]
-0.8576377 0.07793841 0.82549447 -0.15520312 1.197306 0.48413855 0.25752023 -0.37985283
-0.30487758 0.12644872 0.021523658 0.37786087 0.18715332 -0.42823693 -0.2656233 -0.7177692
-0.28548685 -0.069514215 0.19259171 0.5401459 0.050193626 -0.043929324 -0.4994014 0.929605
-0.39181852 0.19797584 -0.14246322 0.11213634 0.40275982 -0.021225886 -0.30560088 -0.190174
0.6483693 0.1483561 -0.103555806 0.42104682 0.7343225 0.9395118 0.7039854 -0.10245689
-0.15870655 -0.20078167 -0.26567173 -0.005923902 0.3218754 -0.0789092 -0.1084035 -0.042555183
0.13289626 0.01904129 0.2500757 0.29101828 0.5048058 0.2830751 0.013941748 0.43758833
-0.7664362 0.76270634 0.07814203 0.4109261 -0.10805412 0.3754972 -0.6208774 -0.24169071
0.0015020861 -0.106564865 -0.9100119 0.01996664 -0.17977695 0.1734668 0.847675 0.839226
-0.46536276 -0.106603034 -0.40754625 0.6373626 -0.5526548 -0.31123546 0.6171339 1.0680928
0.2980157 -0.57013226 0.09676964 -0.21031527 -0.38989884 -0.47734174 -0.39772907 -0.069974415
-0.14703691 -0.115216784 -0.91701055 -0.5341063 -0.09462292 0.080135144 0.17528403 -0.035639446
-0.32479525 -0.12258726 -0.8188192 -0.5056056 -0.4197859 0.2333268 0.4423111 -0.0546797
0.24367699 0.43843478 -0.10941441 -0.21342763 -0.17326063 0.26757887 -0.0020756787 -0.09346593
-0.39012522 0.049670007 -0.20160504 -0.7703138 1.0310657 0.4693111 -0.6507138 -0.55266607
0.30465046 0.18904227 0.23137929 0.6297473 -0.045471996 0.06024896 -0.6412101 0.06743229
00000000: 258e 5bbf 2c9e 9f3d 9b53 533f 91ed 1ebe
00000010: 5341 993f 02e1 f73e b1d9 833e 127c c2be
00000020: ea18 9cbe c67b 013e 6252 b03c fb76 c13e
00000030: 1fa5 3f3e df41 dbbe c7ff 87be b9bf 37bf
00000040: 552b 92be 785d 8ebd c336 453e 0047 0a3f
00000050: d597 4d3d 3cef 33bd 8ab1 ffbe 98fa 6d3f
00000060: 709c c8be 2eba 4a3e e1e1 11be bda7 e53d
00000070: 8936 ce3e e9e1 adbc b877 9cbe f9bc 42be
00000080: 88fb 253f a9ea 173e 1115 d4bd 7393 d73e
00000090: 8ffc 3b3f d883 703f 6338 343f ebd4 d1bd
000000a0: f883 22be b699 4dbe 2006 88be 4b1d c2bb
000000b0: dacc a43e 269b a1bd a702 debd 584e 2ebd
000000c0: f515 083e 7bfc 9b3c ec09 803e 5900 953e
000000d0: f43a 013f 38ef 903e ee6b 643c 940b e03e
000000e0: 2a35 44bf b940 433f ee08 a03d e864 d23e
000000f0: 7a4b ddbd 2b41 c03e d2f1 1ebf c57d 77be
00000100: a5e1 c43a ae3e dabd 8af6 68bf 1491 a33c
00000110: 7317 38be 48a1 313e 3b01 593f 84d7 563f
00000120: 0744 eebe b152 dabd e7a9 d0be 322a 233f
00000130: c97a 0dbf 415a 9fbe 7dfc 1d3f 44b7 883f
00000140: 8495 983e 30f4 11bf 292f c63d e35c 57be
00000150: d2a0 c7be 2366 f4be 25a3 cbbe bf4e 8fbd
00000160: d890 16be c7f6 ebbd 34c1 6abf 31bb 08bf
00000170: a9c9 c1bd e51d a43d a87d 333e abfa 11bd
00000180: 904b a6be 080f fbbd 239e 51bf 5e6f 01bf
00000190: 2dee d6be 38ed 6e3e 9a76 e23e d2f7 5fbd
000001a0: 7686 793e 867a e03e aa14 e0bd c68c 5abe
000001b0: 3c6b 31be 1900 893e 1c08 08bb 116b bfbd
000001c0: 7ebe c7be c772 4b3d 8d71 4ebe 4933 45bf
000001d0: f6f9 833f 8b49 f03e 2e95 26bf 867b 0dbf
000001e0: 25fb 9b3e 4c94 413e b1ee 6c3e 1e37 213f
000001f0: d840 3abd 9dc7 763d 5826 24bf f119 8a3d

generator.fc3.bias f4 [16]
0.23940417 -0.011750802 -0.21418658 -0.116116926 -0.1624734 0.052192986 -0.14157812 0.32971254
0.2868413 -0.11610597 0.039607167 -0.007911815 -0.20505363 0.17397735 0.0054252893 0.05005777
00000000: 5e26 753e 7086 40bc ba53 5bbe b6ce edbd
00000010: 6d5f 26be 50c8 553d dbf9 10be 15d0 a83e
00000020: dddc 923e f8c8 edbd 203b 223d 8fa0 01bc
00000030: 94f9 51be 1e27 323e a0c6 b13b 6009 4d3d

generator.fc4.weight f4 [7, 16]
0.76702523 0.08182565 0.1207443 -0.15410213 0.32293928 0.080583915 -0.2404057 0.10566376
0.048307624 -0.11843389 -0.26101813 -0.1612133 -0.16699106 -0.5518053 -0.6008723 -0.13473356
-0.56284654 0.8370259 0.09098672 -0.5687748 -0.24872324 0.26947388 0.3337981 0.13566871
-0.35379475 0.006751035 0.06777385 0.22064227 -0.057625692 0.022481909 -0.4164571 -0.22145405
0.2511828 0.33164704 0.17520733 -0.25100353 -0.48493734 0.047679093 -0.38653123 0.5396014
0.18858841 -0.26990157 0.6588792 0.13740563 0.05127551 0.36615503 -0.2562359 -0.4657761
0.18936959 -0.23976651 0.3350936 0.0019542025 -0.08143457 0.36711058 -0.19289443 0.22440846
-0.059755053 0.024743352 -0.022788316 -0.2294433 0.45475578 -0.67711467 0.38348204 -0.2886178
-0.40874645 -0.33125517 -0.30890015 0.089266814 -0.25261828 -0.33332837 -0.50023097 0.2968235
0.32167128 0.03120591 -0.06319381 -0.12380086 -0.67283916 -0.0128433015 -0.23825215 0.34292084
0.45758918 0.68902045 0.11987428 -0.023497894 -0.932477 0.21310641 0.076592214 0.35429332
0.009607356 0.29108077 -0.17023577 0.36802274 0.1751844 0.5483334 0.054951116 -0.5835742
0.14570451 -0.45537853 0.26455986 0.60815495 -0.39205673 -0.33870727 0.5137023 -0.28907147
0.19050074 0.120457545 0.2579063 0.44520053 0.14302266 -0.4292925 -0.22579482 0.28746948
00000000: c45b 443f 3594 a73d ca48 f73d f3cc 1dbe
00000010: 4c58 a53e 2e09 a53d e92c 76be 3e66 d83d
00000020: 37de 453d 788d f2bd 2ba4 85be 1915 25be
00000030: b4ff 2abe 1d43 0dbf c4d2 19bf 98f7 09be
00000040: b616 10bf 5447 563f 3f57 ba3d 3a9b 11bf
00000050: 4eb1 7ebe 7bf8 893e 96e7 aa3e bdec 0a3e
00000060: 9624 b5be c937 dd3b 04cd 8a3d 0cf0 613e
00000070: eb08 6cbd fb2b b83c dd39 d5be dac4 62be
00000080: 089b 803e a4cd a93e 8d69 333e 8983 80be
00000090: b549 f8be 274b 433d 6ce7 c5be 5123 0a3f
000000a0: 521d 413e 8a30 8abe 4fac 283f 10b4 0c3e
000000b0: 4506 523d ac78 bb3e 5a31 83be 347a eebe
000000c0: 1aea 413e 5a85 75be 6391 ab3e 1412 003b
000000d0: 2bc7 a6bd ebf5 bb3e 1e86 45be 55cb 653e
000000e0: b7c1 74bd 92b2 ca3c 90ae babc 2ff3 6abe
000000f0: c0d5 e83e 6357 2dbf c257 c43e b6c5 93be
00000100: 3747 d1be 479a a9be 2928 9ebe 85d1 b63d
00000110: 2f57 81be 04aa aabe 230f 00bf 40f9 973e
00000120: 19b2 a43e 89a3 ff3c c26b 81bd 4e8b fdbd
00000130: 303f 2cbf b66c 52bc 5ff8 73be 5293 af3e
00000140: 2149 ea3e a563 303f a680 f53d a87e c0bc
00000150: d0b6 6ebf 9138 5a3e 61dc 9c3d ef65 b53e
00000160: 2c68 1d3c 8a08 953e 4952 2ebe 7a6d bc3e
00000170: 8a63 333e 945f 0c3f 6c14 613d 1e65 15bf
00000180: 9033 153e 6027 e9be 6474 873e 0bb0 1b3f
00000190: a9bb c8be 0a6b adbe fe81 033f 2d01 94be
000001a0: a012 433e 72b2 f63d 4b0c 843e 53f1 e33e
000001b0: 8874 123e 3acc dbbe c236 67be 332f 933e

generator.fc4.bias f4 [7]
-0.17759255 -0.2189948 0.106971085 0.084760934 0.01353161 0.15772367 0.035847872
00000000: d2da 35be 2c40 60be a813 db3d 2497 ad3d
00000010: b0b3 5d3c 5082 213e 38d5 123d

generator.layer_norm_hidden_0.weight f4 [16]
0.9920001 0.9920001 0.9940001 1.0080004 0.9920001 0.99600005 1.0080004 0.9920001
0.9920001 0.99600005 1.0080004 0.9920001 0.9920001 0.9920001 1.0060003 1.0040002
00000000: b8f3 7d3f b8f3 7d3f ca76 7e3f 2806 813f
00000010: b8f3 7d3f dcf9 7e3f 2806 813f b8f3 7d3f
00000020: b8f3 7d3f dcf9 7e3f 2806 813f b8f3 7d3f
00000030: b8f3 7d3f b8f3 7d3f 9ec4 803f 1483 803f

generator.layer_norm_hidden_0.bias f4 [16]
0.008 0.008 -0.008 -0.008 -0.0019999999 0.008 -0.008 0.008
-0.0019999999 -0.008 -0.008 -0.008 -0.0060000005 0.008 0.008 -0.008
00000000: 6f12 033c 6f12 033c 6f12 03bc 6f12 03bc
00000010: 6e12 03bb 6f12 033c 6f12 03bc 6f12 033c
00000020: 6e12 03bb 6f12 03bc 6f12 03bc 6f12 03bc
00000030: a79b c4bb 6f12 033c 6f12 033c 6f12 03bc

generator.layer_norm_hidden_1.weight f4 [8]
1.0020001 0.9920001 1.0080004 0.9920001 1.0080004 1.0080004 0.9920001 1.0080004
00000000: 8a41 803f b8f3 7d3f 2806 813f b8f3 7d3f
00000010: 2806 813f 2806 813f b8f3 7d3f 2806 813f

generator.layer_norm_hidden_1.bias f4 [8]
-0.008 0.008 -0.008 0.004 -0.008 -0.008 0.002 -0.008
00000000: 6f12 03bc 6f12 033c 6f12 03bc 6f12 833b
00000010: 6f12 03bc 6f12 03bc 6f12 033b 6f12 03bc

discriminator.fc1.weight f4 [8, 7]
0.043777235 -0.70048773 -0.016427342 -0.2141287 0.9247989 0.03931598 0.8913573 0.7671636
-0.021810763 -0.40686786 0.22349235 -0.38334545 -0.13663758 0.088684455 0.5202532 0.11337871
0.32989755 -0.22011054 0.040553246 0.40839648 -0.5315389 0.4686437 0.69605994 0.48903108
-0.39910904 -1.4331083 0.116536945 0.24875027 0.15220754 0.29856712 0.55084974 -0.5277031
0.10405182 0.5189196 -0.30173463 0.90087044 -0.2105069 -0.11240265 -0.12802303 0.246736
-0.30973047 -0.39075795 -0.8289734 -0.25235775 1.2715832 0.19274084 -0.25369737 0.57350165
-0.5825368 0.04481699 0.27256593 0.2954769 -0.11259025 0.20297882 0.35791287 0.2576699
00000000: c24f 333d 2a53 33bf a292 86bc 8e44 5bbe
00000010: 9fbf 6c3f cb09 213d fe2f 643f d564 443f
00000020: 7cac b2bc fc50 d0be 2edb 643e db45 c4be
00000030: b9ea 0bbe 32a0 b53d 502f 053f 1933 e83d
00000040: 55e8 a83e a864 61be 291b 263d 5819 d13e
00000050: ef12 08bf 11f2 ef3e fc30 323f 4862 fa3e
00000060: 0558 ccbe 1870 b7bf ecaa ee3d 64b8 7e3e
00000070: 4bdc 1b3e cadd 983e 7d04 0d3f 8d17 07bf
00000080: 1f19 d53d ead7 043f f67c 9abe 729f 663f
00000090: 1f8f 57be 5c33 e6bd 7818 03be 5da8 7c3e
000000a0: fe94 9ebe 6d11 c8be 9a37 54bf 0935 81be
000000b0: 3dc3 a23f db5d 453e 9fe4 81be 01d1 123f
000000c0: 2221 15bf 0592 373d c38d 8b3e c048 973e
000000d0: b895 e6bd aed9 4f3e 5b40 b73e 4fed 833e

discriminator.fc1.bias f4 [8]
0.20687999 -0.25383443 0.1748137 0.049598016 -0.11305154 -0.13026704 -0.25623444 -0.08911536
00000000: 59d8 533e 96f6 81be 5d02 333e 4a27 4b3d
00000010: 9187 e7bd b964 05be 2931 83be 1d82 b6bd

discriminator.fc2.weight f4 [1, 8]
-1.4044676 -0.8724864 1.2699001 -0.5391393 0.018133795 -0.17696497 0.49332574 0.14030714
00000000: 98c5 b3bf 455b 5fbf 168c a23f 0805 0abf
00000010: 538d 943c 4e36 35be 3195 fc3e adac 0f3e

discriminator.layer_norm_hidden_0.weight f4 [8]
0.9921683 1.007951 1.0076691 1.007753 0.99228853 1.0079849 0.9923618 1.0078675
00000000: befe 7d3f 8a04 813f 4dfb 803f 0dfe 803f
00000010: 9f06 7e3f a605 813f 6c0b 7e3f cd01 813f

discriminator.layer_norm_hidden_0.bias f4 [8]
-0.007891211 -0.007893838 0.007893308 -0.007894774 0.007819566 -0.007900305 0.007889425 0.0079022115
00000000: 234a 01bc 2855 01bc ef52 013c 1559 01bc
00000010: a31d 003c 4870 01bc a642 013c 4778 013c

exp_avg f4 [16, 7]
-0.009308199 -0.0093317935 1.3766626e-18 -0.009330862 -0.009330771 -0.009332063 -0.009304734 -0.0034637868
-0.0034675882 -1.2227425e-18 -0.0034674343 -0.0034676765 -0.0034678113 -0.0034931705 0.01071726 0.010741531
-6.57379e-19 0.010741787 0.010741666 0.010743779 0.010730251 -0.00022486814 -0.00022302142 -3.4802826e-19
-0.00022308515 -0.00022331363 -0.0002234075 -0.00023378292 0.0018757529 0.0018766401 4.5850006e-19 0.0018771702
0.0018770221 0.0018776195 0.0018639368 0.0024511665 0.0024552317 -2.5371263e-19 0.002454905 0.0024549472
0.0024546885 0.0024584548 0.016724762 0.016737852 -3.8107327e-19 0.016738225 0.016738487 0.016741185
0.016735265 -0.022929735 -0.022978751 1.6404508e-18 -0.02297865 -0.0229782 -0.022979211 -0.022968484
0.0029101155 0.002907363 1.1036768e-18 0.0029078189 0.0029076817 0.0029080631 0.0029062093 0.0013572426
0.0013701704 -9.172089e-19 0.0013706456 0.0013698159 0.0013697852 0.0013321888 0.00731421 0.007315741
2.237746e-19 0.0073139034 0.0073150313 0.007314717 0.007325486 0.0058560017 0.005881227 8.97352e-19
0.005879827 0.005880087 0.0058773807 0.005926417 0.010333058 0.010336171 -1.423999e-18 0.010336201
0.0103363395 0.010338353 0.010323906 -0.013152615 -0.013166949 -1.5769684e-18 -0.013165471 -0.013166052
-0.013166465 -0.013183208 -0.0110948635 -0.011118132 1.3505362e-18 -0.011117668 -0.011117421 -0.011117087
-0.0110901045 0.0011095403 0.0011066674 1.3651436e-19 0.0011056656 0.0011061388 0.0011052978 0.0011204208
00000000: 6b81 18bc 61e4 18bc d828 cb21 79e0 18bc
00000010: 17e0 18bc 82e5 18bc e272 18bc b300 63bb
00000020: 7a40 63bb e871 b4a1 e53d 63bb f541 63bb
00000030: 3844 63bb aded 64bb 7297 2f3c 3ffd 2f3c
00000040: 2706 42a1 52fe 2f3c d0fd 2f3c ad06 303c
00000050: efcd 2f3c 95ca 6bb9 dbda 69b9 8b70 cda0
00000060: f7eb 69b9 4c29 6ab9 7e42 6ab9 a023 75b9
00000070: d3db f53a 98f9 f53a 4953 0721 610b f63a
00000080: 6906 f63a 751a f63a 574f f43a c0a3 203b
00000090: f4e7 203b f8c3 95a0 79e2 203b 2ee3 203b
000000a0: d7de 203b 071e 213b 5e02 893c d21d 893c
000000b0: 2af2 e0a0 9a1e 893c 271f 893c cf24 893c
000000c0: 6518 893c 24d7 bbbc ef3d bcbc 7b16 f221
000000d0: b93d bcbc c73c bcbc e63e bcbc 6728 bcbc
000000e0: a3b7 3e3b 7589 3e3b bbdf a221 1b91 3e3b
000000f0: ce8e 3e3b 3495 3e3b 1a76 3e3b 81e5 b13a
00000100: 4a97 b33a 2c5b 87a1 3ca7 b33a 658b b33a
00000110: 5d8a b33a d79c ae3a 0aac ef3b e2b8 ef3b
00000120: dd17 8420 78a9 ef3b eeb2 ef3b 4bb0 ef3b
00000130: a10a f03b b4e3 bf3b 4fb7 c03b 006d 8421
00000140: 90ab c03b bfad c03b 0b97 c03b 6432 c23b
00000150: fd4b 293c 0b59 293c 2925 d2a1 2b59 293c
00000160: c059 293c 3262 293c 9a25 293c 117e 57bc
00000170: 30ba 57bc 2fb8 e8a1 fdb3 57bc 6db6 57bc
00000180: 28b8 57bc 62fe 57bc 3bc7 35bc d328 36bc
00000190: d14d c721 e126 36bc d825 36bc 7124 36bc
000001a0: 45b3 35bc ff6d 913a 990d 913a ef2a 2120
000001b0: fbeb 903a dcfb 903a a4df 903a 15db 923a

exp_avg f4 [16]
-0.012399875 0.0110134855 0.005921143 0.0031347596 -0.0041298014 0.0022852402 0.0034324029 -0.014775867
-0.009941037 0.008261483 -0.0020155825 -0.008082629 0.0128262425 0.014204067 -0.012164549 -0.001229611
00000000: d828 4bbc e871 343c 2606 c23b 8a70 4d3b
00000010: 4953 87bb f8c3 153b 2af2 603b 7a16 72bc
00000020: bbdf 22bc 2c5b 073c dd17 04bb 016d 04bc
00000030: 2925 523c 2db8 683c d14d 47bc e62a a1ba

exp_avg f4 [8, 16]
-0.00059354317 -0.003657585 0.0038823874 0.00041493072 0.006010403 -0.0033054557 -0.002039223 -0.00035014783
-0.009515225 0.0044918885 -0.00014176176 0.0021261307 -0.0011136143 3.329894e-05 0.0010242008 0.0026530232
-0.001399989 0.006633062 -0.010308191 -0.0014380869 -0.002913154 0.0048123617 0.005283141 0.00068828755
0.012480786 -0.011174771 0.0034740726 -0.0040844786 -0.00015952408 0.0032102827 -0.004779734 -0.0001542466
-0.009025915 0.005217908 -0.010161029 -0.001784193 0.007420539 0.0064544305 0.0040176045 -6.247032e-05
0.0045258594 -0.009630487 0.0061175157 -0.0027138565 -0.006997167 0.005904659 -0.0063105947 0.007113123
-0.026842399 0.01688259 -0.031662844 -0.009747003 0.02758182 0.026408354 0.006870581 -0.0050088
0.012965509 -0.030426148 0.020218186 -0.012549229 -0.022034526 0.020117423 -0.020844785 0.028175637
-0.0049659302 9.110779e-05 -0.0010662515 0.0005294759 0.0037968804 0.0010133511 0.0006072814 0.00052639964
-0.0019853339 1.35108785e-05 0.0013451531 0.0011323238 -0.004299975 0.0012785228 -0.00075053045 0.002741291
0.019883731 -0.014039192 0.026393795 0.0065465816 -0.01818316 -0.018944643 -0.007938768 0.002248047
-0.013529971 0.025576236 -0.0154716745 0.009428885 0.015676515 -0.015276417 0.016366284 -0.018901426
0.018734826 -0.010420509 0.020324655 0.0039087054 -0.015788827 -0.014172374 -0.0068155 0.0007766529
-0.008556063 0.01866257 -0.012329403 0.0055535655 0.015102999 -0.012037447 0.0124255065 -0.01552926
0.020838879 -0.014640816 0.027613318 0.0073360694 -0.021326933 -0.019434191 -0.008054245 0.002861093
-0.011682582 0.026794773 -0.016813423 0.010166376 0.016776295 -0.016690437 0.017453525 -0.021365067
00000000: 0298 1bba 18b4 6fbb a76f 7e3b 0f8b d939
00000010: eaf2 c43b 58a0 58bb 7ca4 05bb 0c94 b7b9
00000020: bfe5 1bbc b130 933b e2a5 14b9 8e56 0b3b
00000030: b2f6 91ba 77aa 0b38 7a3e 863a 58de 2d3b
00000040: d67f b7ba 285a d93b b0e3 28bc 307e bcba
00000050: 9dea 3ebb 04b1 9d3b 331e ad3b 326e 343a
00000060: 367c 4c3c 6316 37bc 44ad 633b 17d7 85bb
00000070: eb45 27b9 9b63 523b 519f 9cbb 42bd 21b9
00000080: 6ee1 13bc fcfa aa3b 727a 26bc 95db e9ba
00000090: fe27 f33b b07f d33b 1ca6 833b 7f02 83b8
000000a0: a94d 943b 31c9 1dbc 7175 c83b f5da 31bb
000000b0: 7e48 e5bb df7b c13b 1bc9 cebb 3315 e93b
000000c0: 97e4 dbbc 5b4d 8a3c e6b0 01bd e5b1 1fbc
000000d0: 45f3 e13c 5556 d83c 9c22 e13b dc20 a4bb
000000e0: 496d 543c 4240 f9bc 9ca0 a53c 489b 4dbc
000000f0: c081 b4bc 4bcd a43c afc2 aabc 98d0 e63c
00000100: 3eb9 a2bb 1f11 bf38 77c1 8bba 87cc 0a3a
00000110: 15d5 783b 6cd2 843a f731 1f3a 15fe 093a
00000120: 601c 02bb c8ac 6237 d94f b03a 7b6a 943a
00000130: cee6 8cbb 1b94 a73a 3fbf 44ba 3ba7 333b
00000140: 35e3 a23c a404 66bc cd37 d83c b584 d63b
00000150: daf4 94bc cc31 9bbc 9b11 02bc f853 133b
00000160: d0ac 5dbc 4185 d13c e87c 7dbc 9c7b 1a3c
00000170: 096c 803c f049 7abc 9612 863c 2ad7 9abc
00000180: c779 993c c8ba 2abc e47f a63c 9914 803b
00000190: 9257 81bc 3f33 68bc 8f54 dfbb 4b98 4b3a
000001a0: bb2e 0cbc 3fe2 983c 4401 4abc affa b53b
000001b0: 9272 773c b638 45bc 5a94 4b3c 706e 7ebc
000001c0: 4cb6 aa3c 08e0 6fbc 5335 e23c 6963 f03b
000001d0: d2b5 aebc 7434 9fbc f4f5 03bc 2d81 3b3b
000001e0: 4d68 3fbc b680 db3c 4ebc 89bc df90 263c
000001f0: 716e 893c 62ba 88bc b2fa 8e3c cb05 afbc

exp_avg f4 [8]
0.010954718 -0.017272256 -0.0052863983 -0.005543832 0.0029247385 0.012054993 0.007580704 0.009981975
00000000: 6b7b 333c 8c7e 8dbc 8639 adbb 09a9 b5bb
00000010: f8ac 3f3b 4e82 453c 8e67 f83b 708b 233c

exp_avg f4 [16, 8]
-0.0019442553 -0.001783261 -0.0007388393 0.000228129 0.0005096701 -0.00029073123 0.003790271 0.00017645159
0.016199373 0.016933275 0.010542241 0.001701072 -0.0048150825 0.004890979 -0.052678227 0.007868813
-0.012478621 0.0011886712 0.008063746 -0.0011556728 0.011800544 -0.008100056 0.016308587 -0.01561579
-0.0029083309 -0.008145172 -0.010677975 0.000172491 -0.0027158582 0.0027113073 0.014186545 0.007106696
-0.004487016 -0.0042240163 -0.0033104788 -0.0005876442 0.0020276431 -0.0017105445 0.014449232 -0.0023121464
0.011081249 0.013742863 0.008350791 0.002682404 -0.0024500873 0.0023732516 -0.038127266 0.0027364588
0.0062459204 -0.0065117194 -0.010546653 0.00017200543 -0.008573718 0.006084384 -0.0010546709 0.014045774
0.0062800786 0.004151958 0.003935726 0.0002857533 -0.0025079192 0.0013757003 -0.015534906 0.0021665257
0.0005345938 0.0009834325 0.0006675564 0.0005157426 -0.0006552092 7.0103033e-06 -0.0018887308 -0.00017352724
0.00054791477 0.002535928 0.0017992555 -1.1380223e-05 0.00090124056 -0.00047809057 -0.0036176024 -0.0016280863
0.0018277764 -0.0013203768 -0.002455871 -8.322454e-05 -0.0023539376 0.0016872027 -0.00048527066 0.0031527902
0.0072253244 -0.0038647887 -0.0067041386 -0.0003926817 -0.008801543 0.005256786 -0.0052350597 0.012442234
-0.013054212 -0.003986984 0.0043963934 -0.0023881649 0.010077251 -0.007697911 0.025618017 -0.013058031
-0.014175982 0.007604265 0.019280845 6.4990076e-05 0.017663773 -0.012063726 0.008186425 -0.026322119
-0.0022232127 -0.0013148108 -0.00057108694 -0.00037141144 0.0013776227 -0.0008604878 0.0058799875 -0.0019575555
0.013337728 -0.0072252 -0.017327286 0.0009337843 -0.016523523 0.0114040105 -0.008600638 0.023800703
00000000: 62d6 feba 4fbc e9ba abae 41ba ea35 6f39
00000010: 629b 053a 496d 98b9 3266 783b dd05 3939
00000020: 8cb4 843c a7b7 8a3c 5db9 2c3c 81f6 de3a
00000030: d7c7 9dbb 8144 a03b 20c5 57bd 32ec 003c
00000040: 2173 4cbc 30cd 9b3a cd1d 043c f279 97ba
00000050: 1257 413c 19b6 04bc 9699 853c 5fd9 7fbc
00000060: b299 3ebb 5473 05bc acf2 2ebc b3de 3439
00000070: 8afc 31bb 30b0 313b af6e 683c 49df e83b
00000080: d107 93bb 9e69 8abb 9ef4 58bb 220c 1aba
00000090: 35e2 043b 5934 e0ba 79bc 6c3c 6187 17bb
000000a0: 218e 353c bf29 613c c2d1 083c 45cb 2f3b
000000b0: a591 20bb 8e88 1b3b 562b 1cbd 2956 333b
000000c0: 94aa cc3b 4360 d5bb decb 2cbc 5b5c 3439
000000d0: c878 0cbc 835f c73b e23c 8aba 3f20 663c
000000e0: 1ec9 cd3b 260d 883b 43f7 803b 29d1 9539
000000f0: e75b 24bb d850 b43a 1e86 7ebc 45fc 0d3b
00000100: fc23 0c3a 85e6 803a f4fe 2e3a e632 073a
00000110: 58c2 2bba 0c3a eb36 4a8f f7ba ddf4 35b9
00000120: f0a1 0f3a d031 263b ffd4 eb3a b0ed 3eb7
00000130: 3b41 6c3a 3ba8 fab9 4c15 6dbb 8365 d5ba
00000140: 0092 ef3a 7e10 adba aef2 20bb d688 aeb8
00000150: 8544 1abb 2125 dd3a ed6b feb9 0b9f 4e3b
00000160: 6ac2 ec3b 6548 7dbb 64ae dbbb d8e0 cdb9
00000170: 5934 10bc 1e41 ac3b dd8a abbb 83da 4b3c
00000180: 55e1 55bc 3fa5 82bb 9f0f 903b c282 1cbb
00000190: 0e1b 253c c23e fcbb e0dc d13c 5af1 55bc
000001a0: 6142 68bc 332d f93b ddf2 9d3c 484b 8838
000001b0: 9eb3 903c efa6 45bc 5b20 063c 7ca1 d7bc
000001c0: 52b3 11bb bb55 acba ffb4 15ba 00ba c2b9
000001d0: 5991 b43a 5c92 61ba e9ac c03b 554a 00bb
000001e0: 7c86 5a3c 5fc1 ecbb f4f1 8dbc 34c9 743a
000001f0: 575c 87bc e3d7 3a3c b1e9 0cbc b1f9 c23c

exp_avg f4 [16]
0.0025931918 -0.028460102 -0.0082999645 0.017287726 0.006436189 -0.02128922 0.014915448 -0.007095805
-0.00033826637 -0.003882056 0.0034166472 0.010725625 0.00018450504 -0.024940928 0.0015775785 0.021962017
00000000: 8af2 293b 2925 e9bc 93fc 07bc fd9e 8d3c
00000010: abe6 d23b bb66 aebc ec5f 743c ed83 e8bb
00000020: 5859 b1b9 186a 7ebb d4e9 5f3b 88ba 2f3c
00000030: b277 4139 eb50 ccbc c0c6 ce3a b0e9 b33c

exp_avg f4 [7, 16]
-0.002978292 0.004021787 0.0040176744 0.0039945226 -0.0029529007 0.0019887297 0.003426914 0.004837121
-0.012697304 -0.004440978 0.0022362529 -0.004391283 -0.0065112542 0.0018482315 0.004113983 0.003596134
-0.0328975 0.006271661 0.020573674 0.009640105 -0.011337935 0.0025166676 0.011275983 0.013970157
-0.033445936 -0.014761793 0.015257443 -0.010200283 -0.020956123 0.0118969 0.009846545 0.022905417
-0.0053974567 0.006564888 0.003723 0.006620629 -0.0018011992 0.0027256096 0.005793333 0.006749404
-0.021615714 -0.010978301 0.0043028877 -0.005773006 -0.0076748477 0.0039104135 0.007366734 0.005762566
-0.00032197277 0.0003238632 0.00060126313 0.0006294283 -0.00061771594 0.0005245436 0.0004593316 0.0005825913
-0.0013626632 4.502908e-05 2.7682447e-05 -0.0005384054 -0.00085626147 -0.00011428886 0.00076767796 -0.00013259151
-0.044231676 -0.013699929 0.034904543 -0.00727064 -0.018471774 -0.008077988 0.0011518962 0.0032404817
0.009164778 0.0066447533 0.021221181 -0.0032954102 -0.018969266 0.012976071 -0.009220529 0.03409538
-0.00330687 0.012111832 0.0016367789 0.011645718 -0.0014538355 0.005871814 0.008719404 0.010813061
-0.033962384 -0.015619667 0.0025728494 -0.008455072 -0.009972591 0.0036536097 0.012775883 0.0033425458
0.0076224683 -0.03530561 0.003303417 -0.03278931 -0.001571039 -0.017114751 -0.023387302 -0.02886043
0.09226112 0.045090277 -0.0033329364 0.019997155 0.022138895 -0.008493552 -0.035974298 -0.004575475
00000000: 732f 43bb 32c9 833b b2a6 833b 7ce4 823b
00000010: 7485 41bb 5955 023b 1496 603b b680 9e3b
00000020: 5a08 50bc a085 91bb 198e 123b c0e4 8fbb
00000030: 5c5c d5bb 5c40 f23a 97ce 863b 1ead 6b3b
00000040: 87bf 06bd 8182 cd3b 1f8a a83c 88f1 1d3c
00000050: bfc2 39bc adee 243b e7be 383c 16e3 643c
00000060: 9bfe 08bd 73db 71bc 5bfa 793c 161f 27bc
00000070: 2dac abbc 37eb 423c 6753 213c 24a4 bb3c
00000080: 26dd b0bb 461e d73b 93fd 733b ddf1 d83b
00000090: 3716 ecba 24a0 323b 00d6 bd3b 1b2a dd3b
000000a0: 7013 b1bc 55de 33bc 3dff 8c3b 7c2b bdbb
000000b0: 4a7d fbbb ed22 803b a564 f13b e8d3 bc3b
000000c0: 74ce a8b9 2fcc a939 169e 1d3a 3800 253a
000000d0: 37ee 21ba 8681 093a 72d2 f039 0ab9 183a
000000e0: 649b b2ba 9bdd 3c38 9a37 e837 c623 0dba
000000f0: bc76 60ba 5dae efb8 ff3d 493a 4308 0bb9
00000100: 462c 35bd ab75 60bc 11f8 0e3d 8d3e eebb
00000110: 1e52 97bc 8a59 04bc 39fb 963a 435e 543b
00000120: dd27 163c 3bbc d93b 0bd8 ad3c cff7 57bb
00000130: 6f65 9bbc 9699 543c b411 17bc 99a7 0b3d
00000140: 13b8 58bb b570 463c 3089 d63a aecd 3e3c
00000150: a08e beba 5968 c03b d5db 0e3c 4429 313c
00000160: 241c 0bbd a2e9 7fbc 409d 283b 2487 0abc
00000170: 1464 23bc 6671 6f3b f051 513c 9d0e 5b3b
00000180: e6c5 f93b 9e9c 10bd 247e 583b 154e 06bd
00000190: 52eb cdba 3c34 8cbc ba96 bfbc b56c ecbc
000001a0: 66f3 bc3d 95b0 383d 656d 5abb 13d1 a33c
000001b0: a15c b53c 8a28 0bbc c959 13bd deed 95bb

exp_avg f4 [7]
-0.0054299636 -0.016292058 -0.010411925 -0.00051776087 0.0066862716 -0.016664501 0.046879902
00000000: d6ed b1bb ec76 85bc c796 2abc 58ba 07ba
00000010: 8318 db3b fe83 88bc 2405 403d

exp_avg f4 [16]
0.017663922 0.036455017 0.0123389 -0.028510062 0.01099619 0.0011989172 -0.01743417 0.01602152
0.039976664 0.0051030414 -0.018800966 0.0072733043 0.026367068 0.031481337 -0.0098099075 -0.0030337705
00000000: eeb3 903c db51 153d 1929 4a3c ef8d e9bc
00000010: 5d29 343c fc24 9d3a 1bd2 8ebc 903f 833c
00000020: 92be 233d 6a37 a73b 7c04 9abc e654 ee3b
00000030: c0ff d73c 93f2 003d bcb9 20bc 39d2 46bb

exp_avg f4 [16]
-0.006361365 -0.04589373 0.01116627 0.04380031 -0.0005259687 -0.018047877 0.02843177 -0.04164797
-0.0007794308 0.010022044 0.026792489 0.009561925 0.008329856 -0.04105269 -0.010420941 0.040508877
00000000: ff72 d0bb 10fb 3bbd bbf2 363c f467 333d
00000010: 29e1 09ba 24d9 93bc bee9 e83c 1097 2abd
00000020: b752 4cba 8033 243c ec7b db3c 9fa9 1c3c
00000030: f379 083c de26 28bd 98bc 2abc a3ec 253d

exp_avg f4 [8]
-0.0017243439 0.0035928932 -0.006042788 0.002270067 -0.0074155387 -0.00608046 0.03589622 -0.011840023
00000000: 6103 e2ba bf76 6b3b 9402 c6bb 68c5 143b
00000010: 0cfe f2bb 983e c7bb ea07 133d a8fc 41bc

exp_avg f4 [8]
0.018218715 -0.009482257 0.004640752 -0.00072913955 0.015028223 0.018772906 0.0014594082 0.015035637
00000000: 6a3f 953c 785b 1bbc 7311 983b ba23 3fba
00000010: f038 763c a3c9 993c 9d49 bf3a 0858 763c

exp_avg f4 [8, 7]
0.20923193 0.35786763 -0.012893024 0.26648462 0.3144223 0.25917536 0.28437984 0.21602128
0.2941084 -0.009030636 0.24797428 0.2692165 0.23993023 0.25576857 -0.42296672 -0.6279448
0.018193144 -0.50098926 -0.5658109 -0.48839936 -0.52414083 -0.02822987 0.029283453 -0.0061040833
-0.005555448 0.010334286 -0.010206121 -0.00047888618 -0.003919774 -0.008019812 0.0009488358 -0.006564935
-0.007968494 -0.0050240005 -0.007810878 0.07372978 0.05683779 -0.00020728976 0.06881825 0.061844602
0.067004584 0.06667233 0.009450206 -0.020794814 0.004885651 -0.004191121 -0.0120262755 0.0012172083
-0.007575014 -0.21631058 -0.22499496 0.003519992 -0.22083026 -0.21410035 -0.2180013 -0.21502133
00000000: e540 563e 6d3a b73e 433d 53bc ac70 883e
00000010: f6fb a03e a2b2 843e 3c9a 913e af34 5d3e
00000020: 6095 963e 3cf5 13bc f8ec 7d3e bfd6 893e
00000030: 45b0 753e 19f4 823e 188f d8be fec0 20bf
00000040: ca09 953c d540 00bf fcd8 10bf 7b0f fabe
00000050: 182e 06bf 5442 e7bc dae3 ef3c c304 c8bb
00000060: 7a0a b6bb 2351 293c 9337 27bc 0413 fbb9
00000070: 7371 80bb 8865 03bc 4bbb 783a ab1e d7bb
00000080: 498e 02bc 5fa0 a4bb 65f2 ffbb a4ff 963d
00000090: bece 683d ec5b 59b9 95f0 8c3d c450 7d3d
000000a0: b339 893d 818b 883d 09d5 1a3c e359 aabc
000000b0: d017 a03b ac55 89bb db09 45bc bc8a 9f3a
000000c0: d337 f8bb 8580 5dbe 1465 66be abaf 663b
000000d0: 5421 62be 1f3d 5bbe bc3b 5fbe 8d2e 5cbe

exp_avg_sq f4 [8, 7]
0.0013146459 0.0032238446 5.4787997e-06 0.0018934715 0.0025274933 0.0018016293 0.0020996672 0.0013660613
0.002273073 3.285867e-06 0.0016854038 0.001939938 0.00159019 0.0017712987 0.0053404793 0.010293251
1.1926743e-05 0.006910215 0.008504505 0.006616472 0.00740529 3.9790713e-05 4.8771373e-05 1.4530577e-06
1.720378e-05 2.4946294e-05 1.853572e-05 1.7705128e-05 8.043516e-07 2.4319968e-06 6.488884e-08 1.2468225e-06
2.1846747e-06 7.8606246e-07 1.927777e-06 0.00014218628 8.795165e-05 2.6398848e-08 0.0001250331 0.00010291986
0.00011918006 0.000118649805 1.4025944e-05 1.5466545e-05 1.2623843e-06 2.5758934e-06 6.918955e-06 5.3387284e-06
3.427106e-06 0.0012526021 0.0013388633 5.7463023e-07 0.0012941995 0.0012264062 0.0012665783 0.0012360384
00000000: 3250 ac3a 2347 533b 88d6 b736 5c2e f83a
00000010: 4da4 253b a624 ec3a 929a 093b 690d b33a
00000020: d6f7 143b c482 5c36 c4e8 dc3a 8545 fe3a
00000030: ec6d d03a ec2a e83a 30ff ae3b 06a5 283c
00000040: f918 4837 166f e23b 7b56 0b3c fdce d83b
00000050: 13a8 f23b f4e4 2638 dd8f 4c38 af06 c335
00000060: d650 9037 c243 d137 287d 9b37 7985 9437
00000070: 9fea 5735 6335 2336 0459 8b33 7f58 a735
00000080: 6d9c 1236 cd01 5335 f55e 0136 d717 1539
00000090: af72 b838 aec3 e232 511b 0339 aed6 d738
000000a0: 4ff0 f938 a1d3 f838 f950 6b37 27be 8137
000000b0: 326f a935 83dd 2c36 5f29 e836 5423 b336
000000c0: 3cfd 6536 5a2e a43a cc7c af3a 4a40 1a35
000000d0: 21a2 a93a 5dbf a03a 5103 a63a 9102 a23a

exp_avg f4 [8]
0.6676637 0.30634376 -1.1127065 0.25903252 -0.02623515 0.05841914 -0.08765702 -0.26642868
00000000: 02ec 2a3f 17d9 9c3e 2b6d 8ebf e99f 843e
00000010: 19eb d6bc e848 6f3d 8685 b3bd 5769 88be

exp_avg_sq f4 [8]
0.0122258505 0.0026458357 0.033116683 0.001762066 1.6741871e-05 9.291039e-05 0.00019484248 0.0019011999
00000000: ef4e 483c c265 2d3b 5ca5 073d 20f5 e63a
00000010: e570 8c37 e3d8 c238 a14e 4c39 af31 f93a

exp_avg f4 [1, 8]
-0.34908414 0.08363338 -0.08798349 0.1144504 0.086788066 0.17668656 0.18555897 -0.20930618
00000000: 28bb b2be fa47 ab3d b030 b4bd f964 ea3d
00000010: f1bd b13d 52ed 343e 2c03 3e3e 5c54 56be

exp_avg_sq f4 [1, 8]
0.0033449738 0.00017250607 0.00022924558 0.00036923328 0.00022283284 0.00078149175 0.0010457389 0.0011486156
00000000: 5937 5b3b bfe2 3439 a461 7039 a795 c139
00000010: 3ca8 6939 06dd 4c3a 2d11 893a 258d 963a

exp_avg f4 [8]
0.49468055 -0.07166919 -0.10997502 -0.060601477 0.0019696834 -0.030327192 0.093025 -0.02835063
00000000: c546 fd3e 4cc7 92bd 953a e1bd 4139 78bd
00000010: ce15 013b bb70 f8bc e483 be3d 953f e8bc

exp_avg_sq f4 [8]
0.006710156 0.00012673413 0.00036001828 0.000103693026 1.2291696e-07 2.2976741e-05 0.00026259664 2.102214e-05
00000000: dee0 db3b efe3 0439 d6c0 bc39 c575 d938
00000010: 28fb 0334 2dbe c037 20ad 8939 b458 b037

exp_avg f4 [8]
0.29565588 0.18225375 -0.265718 0.11231178 -0.0046524773 0.036262207 -0.10438016 -0.028582718
00000000: 3560 973e baa0 3a3e 310c 88be b803 e63d
00000010: cf73 98bb ae87 143d 44c5 d5bd 4e26 eabc

exp_avg_sq f4 [8]
0.002349703 0.0008906784 0.001894219 0.00033793398 6.21108e-07 3.504485e-05 0.0002933593 2.1733093e-05
00000000: 7afd 193b 6a7c 693a 7147 f83a bb2c b139
00000010: 37ba 2635 1ffd 1238 05ce 9939 764f b637
