saved/type_7_fold_4.ckpt (torch, 21266 bytes, 39 tensors)

generator.fc1.weight f4 [16, 7]
00000000: fd29 50bf 48af 0e3f a9e6 81be 7e81 ffbe
00000010: e286 c83e fd6d 623d 30a0 173f 9e1b 10be
00000020: b8dd 4cbe d431 8cbf 0d97 8abe 34b8 ef3e
00000030: 09ae 5b3e bf99 813f c1bb 61bd 0a40 4d3d
00000040: 7839 39be 31e4 003e 8214 093e 559a 0dbf
00000050: 2fd3 c73e 41bd cfbe 107a 3a3f 47fc 4abf
00000060: 5174 043f 6bad 8f3f 0b8c 003f d965 b9be
00000070: d3a9 3ebf 3f19 0d3f 86bb fa3e 67d9 023f
00000080: 60c0 95bd 7711 aabe 9243 23bf 355d 103e
00000090: b93a d3be d8c0 87be a50b 0a3f fb1e 603e
000000a0: b175 333e bae7 0f3f c5cf 3b3e e6d8 b6be
000000b0: e100 87bf d9a0 a53e fb79 06be 697a 753f
000000c0: 185a 953e 76bf 15be d255 843f e9a7 d6be
000000d0: aa03 8a3f 61af 243e 06f7 b6bb e002 11be
000000e0: 80c8 8ebe c2a9 9abe be10 423d b54e c93d
000000f0: 84bf 4b3f e97b 303f 90cb f43e 7b9d 24bf
00000100: 4756 303f 960e 5e3f 41d6 0abf 47bb 48bf
00000110: 0f67 8abe d8f9 2ebd e3ab 6e3f f95c f93c
00000120: aadd 97bf 2d13 6cbe d215 8b3e 3234 afbf
00000130: 3cf9 3cbe 2282 7d3f 30b6 2b3e 679d a33f
00000140: 1bb6 de3e b4b8 3fbf 5925 08bf 368c 003f
00000150: c4c3 153f d5a7 9a3e 06ef 60be 5437 74bf
00000160: e4ae 473f a33b e93d 36af 343f c3c6 abbe
00000170: b89a 693d 3bbd 81bf 6e7c 7ebf f967 3abe
00000180: db8b 68be 1107 e33d ee78 433f 17f3 ae3e
00000190: 84f6 423f 0c4d fbbe ba88 873f aa93 f93d
000001a0: 13ec 88be d794 22bf 7ab3 16bf c845 91be
000001b0: cc56 18bb 7230 46bd f949 5cbf 381a 2dbf
-0.8131407 0.5573621 -0.25371292 -0.49903482 0.39165407 0.055280674 0.592288 -0.14073035
-0.20006454 -1.0952706 -0.27068368 0.46820223 0.21453108 1.0125045 -0.055110697 0.0501099
-0.18088329 0.12587048 0.1338673 -0.55313617 0.39028308 -0.40574077 0.728425 -0.79291195
0.51739985 1.1224798 0.5021369 -0.36210516 -0.7447788 0.5511665 0.48971194 0.5111298
-0.07312083 -0.3321645 -0.6377498 0.14098056 -0.4125574 -0.26514316 0.5392402 0.21886818
0.17525364 0.5621296 0.18340977 -0.35712355 -1.0547143 0.3234928 -0.1313247 0.9588991
0.291703 -0.14623818 1.033869 -0.4192498 1.0782368 0.16082527 -0.0055836467 -0.14161253
-0.27887344 -0.3020764 0.047379248 0.09829465 0.79589105 0.6893907 0.47811556 -0.64302796
0.6888165 0.86741006 -0.54233176 -0.7841076 -0.27031752 -0.04271874 0.9323103 0.03043984
-1.1864522 -0.2305419 0.27165085 -1.3687804 -0.1845445 0.9902669 0.16768718 1.278241
0.4349831 -0.7489121 -0.5318199 0.50213945 0.5850184 0.3020617 -0.2196618 -0.95396924
0.78001237 0.11388328 0.7057985 -0.3355008 0.057032317 -1.0135874 -0.99408615 -0.18203725
-0.227096 0.11085332 0.763564 0.34169838 0.76157403 -0.4908222 1.0588601 0.12186368
-0.2674261 -0.6350836 -0.5886761 -0.2837355 -0.0023245094 -0.048386045 -0.86050373 -0.6761813

generator.fc1.bias f4 [16]
00000000: e515 923e 5e6b a83d 667a 85be eba5 a73e
00000010: 3eb9 a93d 26d9 11be e8c4 8ebe f3dd 23bd
00000020: 8722 c33e 96c1 cf3d 7699 f8bd d0d7 34be
00000030: 516e 47be 2ff7 ba3e ac52 63be 5aba dcbd
0.2853233 0.08223604 -0.26069945 0.32743773 0.08287285 -0.14242992 -0.27884603 -0.04000659
0.3811228 0.101443455 -0.12138645 -0.17660451 -0.19475676 0.3651671 -0.22199506 -0.10777731

generator.fc2.weight f4 [8, 16]
00000000: b087 0fbf 8447 863d 681a 513e 1824 813d
00000010: a0e9 b23d a5a2 acbe 0f82 c73e a781 8d3e
00000020: 63f6 863d ac58 cfbc cb4c 5cbc 6af4 25bf
00000030: 894c 0c3e 52d4 4bbf adb8 2fbd 36b4 99be
00000040: 10b2 ab3e f24a 3c3d 928d 113f 41e7 84be
00000050: 1e40 15bf d2d1 d03d e82f 223f 79a8 77be
00000060: 2b4c c2be 4d53 063f c07b 163f 288e 2d3e
00000070: 01d3 d13e 371b f1be 58a4 ecbd 42f1 ccbe
00000080: ad37 0dbd 5c53 823e 0f79 353e 5a76 7d3d
00000090: dda7 bf3d 80dc 383f f7a0 5cbe 0e57 c1bc
000000a0: 5541 17bf 1908 dbbe 3cc0 a53c d223 83be
000000b0: fb6c 93be 031c 0dbe d443 f53e 7ac2 63be
000000c0: 8c28 443f da5d 323f db5a 863e bc9b a1be
000000d0: a810 253e b7b5 5cbe fb62 e4be 2cd0 83bd
000000e0: 361c b1be d531 913e a81e 543e 1457 993d
000000f0: 8c43 003f 7bf7 943e 2037 993e 836a 7d3d
00000100: c340 33bf eea6 4ebe c07c 5fbf caf2 293e
00000110: a9d9 d7bd 5894 1f3f 4ece 0a3f 4594 d93c
00000120: d336 e7be 023e f13e 9e12 3c3e c46d 423e
00000130: fa9f 3dbe 20b7 0dbd 7c65 c83b 54f6 f2bd
00000140: 99b5 a33e c5d4 27bf 94f3 31bd e5c0 cb3d
00000150: 0b52 1ebe 4432 863e eede b93d 87fb 31bf
00000160: e6c2 f9bb c5fd 073f ddcb dd3d b20c ec3e
00000170: 250a b8bc 1d13 a0be 7575 3e3f 5ba8 8d3d
00000180: 4441 433c bce1 86bd 72f4 dcbd b87b c4be
00000190: bdf7 3bbe 75cd 2f3e 4b09 473f 8082 c93e
000001a0: 9a02 f43d 1d2f 9f3e 7114 91be 4d07 913e
000001b0: 6734 c13e 1351 e33e a94e a6be d976 933e
000001c0: c127 273f a2a8 10be 6caf 96bc 1e55 43be
000001d0: 407c 86be 598b 95be 4362 9b3e 5888 883e
000001e0: be29 333e f21c 923b 4404 1abe c71c 47be
000001f0: b7dc 133e 6321 0d3e df2e 38be 03cf e5be
-0.5606642 0.06556609 0.2042023 0.063057125 0.08735967 -0.33717838 0.38966414 0.2763798
0.06589963 -0.025310837 -0.013446043 -0.6482607 0.13701071 -0.7962085 -0.04290073 -0.30020303
0.33534288 0.04596991 0.56856644 -0.25957683 -0.5830096 0.1019627 0.6335435 -0.24185361
-0.37948737 0.52470857 0.5878258 0.1694876 0.40981296 -0.47091076 -0.115547836 -0.40027815
-0.034476925 0.25454223 0.17721961 0.061880447 0.09358189 0.72211456 -0.21545778 -0.023601081
-0.59084064 -0.42779616 0.020233266 -0.25613266 -0.28794083 -0.13780217 0.4790331 -0.22242156
0.7662437 0.69674456 0.26241192 -0.31564128 0.16119635 -0.21553694 -0.44606766 -0.0643619
-0.34591836 0.2835833 0.2071482 0.07487312 0.5010307 0.29095063 0.2992487 0.061869156
-0.70020694 -0.20180866 -0.8729973 0.16596523 -0.10539562 0.6233573 0.54221046 0.026559958
-0.45159015 0.4711762 0.18366477 0.18987185 -0.18518057 -0.03459847 0.0061156135 -0.118633896
0.31974486 -0.65559036 -0.043445185 0.09948901 -0.15460984 0.26210225 0.090757236 -0.69524425
-0.0076221107 0.53121597 0.108298995 0.46103436 -0.022465775 -0.31264582 0.74397975 0.06916877
0.011917416 -0.06586024 -0.10788812 -0.3837564 -0.18356223 0.1716822 0.77748555 0.39357376
0.11914559 0.31090632 -0.28335908 0.28325883 0.37735292 0.44397792 -0.32481888 0.2880161
0.65295035 -0.14126828 -0.018394195 -0.19075438 -0.2626667 -0.29207876 0.30348405 0.26666522
0.17496392 0.004459017 -0.1504069 -0.19444571 0.14439665 0.13782267 -0.1798663 -0.448845

generator.fc2.bias f4 [8]
00000000: 4702 77be a53e 4e3d 0b58 803e 1b1a 203d
00000010: e3b2 e7bc 7382 6cbe b685 f73d 3ca8 e9bb
-0.24121962 0.05035271 0.2506717 0.039087396 -0.028283542 -0.23096637 0.1208605 -0.007130651

generator.fc3.weight f4 [16, 8]
00000000: e81a b4bd 340c 6b3c b461 d1be 2457 9dbf
00000010: 348a febd 6f01 083f 400f 29bf a5ab 2cbe
00000020: f81d a13e aabb cb3e 1a67 92be 7e36 393f
00000030: fd63 76be ef0b cc3d 2f29 163e a6fd f4bd
00000040: 3ff2 3cbf 4aae 0bbf bab9 1a3f ecb7 073f
00000050: 9fe2 45bf fe7f 5a3d 3344 1f3e 7f40 7b3f
00000060: 7505 cfbd cc3a b6be 9ca8 aa3e dfe6 8bbe
00000070: 1318 cc3e ea4d a6bd f7e3 973e 92e2 94bd
00000080: edda 8fbe cee5 f73d 339d 4d3e 8bc3 47be
00000090: 679f d93e 8299 833b 0a4f 3d3f e7b7 2f3d
000000a0: bd6e e93d a4b4 1ebe a6ba 0b3f 82f3 8bbc
000000b0: ccde 683f 0744 15be 5d2a 733f b237 ef3e
000000c0: 0968 06bd a603 9a3f 1f15 01be bec8 1a3d
000000d0: 7785 f63e dcb7 e2be 09dd 913e 40be 9bbe
000000e0: ecb2 943c 9091 603f 2034 cc3d aa8c ec3e
000000f0: 9d97 c23d 6655 2ebf d84c 013e 223c b2be
00000100: 99a8 f7be 6899 07bc 082f 9b3d 9d76 6b3f
00000110: 228d e2bb 1535 e03e 3a94 713f a4f6 9e3e
00000120: ed1b f93d 389b d13e dc69 4a3f 99c7 86be
00000130: 69ea e1be 2e0e b6be 5bcd 6c3e 520d c3be
00000140: 8824 5ebe c523 b6be 55ef 24bf 631d 2dbf
00000150: 18f1 7c3f d1d1 df3c 5b17 72bf 7a42 56bf
00000160: c486 943e 5d3c 1fbf a0f1 a8be d186 f13e
00000170: 4c3e 1dbe 06a5 403f 9755 203f bf8b bcbc
00000180: 4495 553e 17b0 b3bf f610 4cbe 4521 3c3e
00000190: 1312 a4be 5dcf 313e 4227 053c 517c e5be
000001a0: 1b49 7abe 701a 9cbe e737 fbbe 5e6f bbbe
000001b0: adc0 a7bc 3f39 17bd a1dc 823e 30a0 60be
000001c0: 5a75 88be 5110 6e3f c3b7 18bf 4051 fd3e
000001d0: f612 db3e 881b 19bd 084a c7be 35d5 8a3f
000001e0: d0bc e3bc 80c7 32be 3f1a 233e 110f c03e
000001f0: 0a98 ecbe 8d36 363e 4bbf 1abe 48b5 40bf
-0.087941945 0.014346171 -0.40894854 -1.2292218 -0.12428704 0.5312719 -0.66038895 -0.16862352
0.31468177 0.39791614 -0.28594285 0.72348773 -0.2406158 0.09963214 0.14664148 -0.11962442
-0.7380714 -0.5456282 0.60439646 0.5301502 -0.7729892 0.05334472 0.1555336 0.9814529
-0.10108463 -0.35591733 0.33331764 -0.27324578 0.39862117 -0.0812033 0.2966611 -0.07269777
-0.28096715 0.12104379 0.20079498 -0.19508187 0.42504427 0.0040161023 0.7394873 0.042899992
0.11398075 -0.15498596 0.5458168 -0.017083887 0.9096496 -0.14576732 0.94986516 0.4672218
-0.03281406 1.2032363 -0.12605713 0.0377891 0.481487 -0.442809 0.2848895 -0.30418587
0.018151723 0.8772211 0.099708796 0.46201068 0.09501574 -0.6809906 0.1262697 -0.34811503
-0.48370817 -0.008276321 0.0757733 0.91977865 -0.006913797 0.43790498 0.943668 0.31047547
0.121635295 0.40938735 0.7906778 -0.26324156 -0.44124153 -0.35557693 0.23125212 -0.380961
-0.21693623 -0.35574165 -0.6442769 -0.67622966 0.9880538 0.027321728 -0.9456689 -0.83695185
0.29009068 -0.6220148 -0.32996845 0.4717317 -0.15355796 0.75251806 0.626306 -0.023015855
0.20857722 -1.4038113 -0.19928345 0.18372066 -0.3204504 0.17364259 0.008127036 -0.44821408
-0.2444195 -0.3048892 -0.49066088 -0.36608404 -0.020477617 -0.03691983 0.25558951 -0.21936107
-0.26652032 0.92993647 -0.596554 0.4947605 0.42787904 -0.03737977 -0.3892367 1.0846316
-0.027799994 -0.17458916 0.15927981 0.37511495 -0.46209747 0.17794247 -0.15112035 -0.75276613

generator.fc3.bias f4 [16]
00000000: 896c 7c3e 15c8 093e fe06 a3bd 627b 24be
00000010: 654d 3e3e abe1 02be a70b 73be 03f3 103e
00000020: b712 163e d173 d73c d128 073e aa5a d9bd
00000030: c092 5bbe 229e c23d cddb 793d 3c99 9abe
0.24650778 0.13455231 -0.07960318 -0.16062692 0.18584211 -0.12781398 -0.23734914 0.14155202
0.14655577 0.026300343 0.13199164 -0.10612996 -0.214427 0.09502818 0.061000634 -0.30195034

generator.fc4.weight f4 [7, 16]
00000000: af45 163f 25ff a7bd c2f9 803c a9c4 e03e
00000010: d633 a8bd 1be4 5c3e b478 b5bb b992 0dbe
00000020: cce0 bfbe ed3e b5be a038 0abc a821 263f
00000030: 42a2 083f 4272 b93e 8913 2bbe 72c4 a0bd
00000040: bbd0 acbc e94d ca3c 18c0 20bf 8a25 2bbf
00000050: d54c a33e 441c 09bf 2b75 04be 3a55 01bf
00000060: 9589 1abf be2a a63e b0f4 a8be 2406 0fbc
00000070: 352e 1abf 4143 a9bd 961f 153f 6e82 f43d
00000080: 9cfc bfbe 8958 323c 06cf 93be 28bd 0f3f
00000090: 5c99 033e b975 71bd 1518 8fbe 25f1 91be
000000a0: 64bd d4be aaf2 f7be cca0 2b3f 72bb c7be
000000b0: 8879 213f 8819 303e f2b3 56be a638 633e
000000c0: 5d93 6cbd ebb4 50be f5f9 bb3e c38a 9bbe
000000d0: 335d 05bf b98a 16be f998 06bd 46b9 043e
000000e0: 3094 a03e df42 16be a722 afbe 3df3 233e
000000f0: 96ae 233e a530 9dbd f7f1 0a3f f118 10bf
00000100: 425a 083f 6a2e f13d d186 2abe f432 4d3f
00000110: 7f68 133f a422 1d3c f636 51bb a1d7 ecbe
00000120: 78a5 b0be df55 0d3f 9822 5bbb e834 e53e
00000130: ad13 6cbe 1f19 abbd bf43 77be e34c 3e3f
00000140: 841b adbd 0747 adbe 1658 9fbe ae94 353e
00000150: 7ded d53e 4f5f f03d f1c5 2f3e f548 de3d
00000160: 4f87 c0be f841 fb3d 0ee3 f6bd 0fbe 273d
00000170: 5819 11bd 2d9c 13bf 652d 8e3e 6efc d23e
00000180: 63b6 34be 5726 593e 8371 193d 0889 78bd
00000190: 112d eebe 2301 77be fd6f b33e 6df8 8abe
000001a0: 340c 8b3c c661 373f c0e9 9b3e 800f d73e
000001b0: 5557 30bd 8b34 cb3e a5ac 8fbd 44c4 113e
0.5870008 -0.08202962 0.015744094 0.4390004 -0.08213012 0.2157139 -0.0055380706 -0.13825502
-0.37476194 -0.3539957 -0.008436352 0.64895105 0.53372586 0.36219984 -0.16706671 -0.07849969
-0.021095624 0.024695354 -0.6279311 -0.66854155 0.31894556 -0.53558755 -0.12935321 -0.5052067
-0.60366184 0.32454485 -0.32999182 -0.008729491 -0.60226756 -0.08264781 0.5825132 0.1193894
-0.37497413 0.010885366 -0.28868884 0.56148005 0.1285147 -0.05895016 -0.2794806 -0.2850429
-0.41550744 -0.48427325 0.6704223 -0.39010197 0.63076067 0.1719724 -0.20967081 0.22189578
-0.057757724 -0.20381515 0.3671414 -0.30379304 -0.52095336 -0.14701356 -0.03286073 0.12961301
0.31363058 -0.14673947 -0.34206125 0.16010757 0.15984568 -0.07675294 0.5427546 -0.5628806
0.5326272 0.11776431 -0.16652991 0.80155873 0.57581323 0.0095907785 -0.0031923628 -0.46258262
-0.34501243 0.55209154 -0.0033437368 0.44766927 -0.2305438 -0.08354401 -0.24146937 0.7433607
-0.08452514 -0.33843252 -0.31121892 0.17732498 0.41782752 0.11736929 0.17165352 0.10853759
-0.37603232 0.12268442 -0.12055026 0.04095274 -0.03542456 -0.5766018 0.27769008 0.41208214
-0.176477 0.21206032 0.03746177 -0.06067756 -0.46518758 -0.24121527 0.35046378 -0.2714266
0.016973592 0.71633565 0.30451775 0.42004013 -0.043052036 0.39688525 -0.07015351 0.14235026

generator.fc4.bias f4 [7]
00000000: 7581 3e3e d5a4 2fbe 036d 56be 6dd4 043e
00000010: 4545 053e 1b93 6abe 65ba 763e
0.18604071 -0.17152722 -0.20940022 0.12971659 0.13014705 -0.22907679 0.24094541

generator.layer_norm_hidden_0.weight f4 [16]
00000000: 4135 7e3f 63e5 803f 4135 7e3f 4135 7e3f
00000010: 63e5 803f 4135 7e3f 4135 7e3f 653b 7f3f
00000020: 4135 7e3f 63e5 803f 4135 7e3f 4135 7e3f
00000030: 53b8 7e3f 4f62 803f 4135 7e3f 63e5 803f
0.9930001 1.0070003 0.9930001 0.9930001 1.0070003 0.9930001 0.9930001 0.99700004
0.9930001 1.0070003 0.9930001 0.9930001 0.99500006 1.0030001 0.9930001 1.0070003

generator.layer_norm_hidden_0.bias f4 [16]
00000000: 0bd7 a33b 4360 e5bb a69b 443b 4360 e5bb
00000010: 4360 e53b 0bd7 a3bb 4360 e53b 4360 e5bb
00000020: 4360 e5bb a69b 443b 0bd7 a3bb 4360 e5bb
00000030: 4360 e5bb 4360 e5bb a69b 443b 0bd7 a33b
0.0050000004 -0.0070000007 0.003 -0.0070000007 0.0070000007 -0.0050000004 0.0070000007 -0.0070000007
-0.0070000007 0.003 -0.0050000004 -0.0070000007 -0.0070000007 -0.0070000007 0.003 0.0050000004

generator.layer_norm_hidden_1.weight f4 [8]
00000000: 77be 7f3f 4135 7e3f c520 803f 77be 7f3f
00000010: 653b 7f3f c520 803f 63e5 803f 63e5 803f
0.999 0.9930001 1.001 0.999 0.99700004 1.001 1.0070003 1.0070003

generator.layer_norm_hidden_1.bias f4 [8]
00000000: 0bd7 a33b 4360 e53b 4360 e53b 4360 e5bb
00000010: 0bd7 a3bb 6f12 833a a69b 44bb 0bd7 a3bb
0.0050000004 0.0070000007 0.0070000007 -0.0070000007 -0.0050000004 0.001 -0.003 -0.0050000004

discriminator.fc1.weight f4 [8, 7]
00000000: 521c 57bf 6b73 28be e770 28bf e5cb 14bf
00000010: c226 17bf f9f0 ae3f 9463 933e 11e4 84be
00000020: b05b fa3e 42e6 f3be dbb3 1c3f 2639 e6be
00000030: 05a1 ec3e a574 9fbe 8c41 ddbf caa4 a1be
00000040: b741 263e 50de b03d 0f76 573e b34d 2cbf
00000050: 091b 9dbe d896 973e 6029 443f f365 7d3e
00000060: 8382 ff3d fab6 7fbd 0988 2f3d 42c0 133f
00000070: fbfc 5dbf a6dd e43c 3105 a8bc 69a6 163f
00000080: 4389 5cbf ff68 cabe 7ea4 153f 29a0 8dbe
00000090: e85a f8bc 29d1 cf3e b1b1 1e3f 8df9 bc3c
000000a0: cda9 eebe 4d43 ff3d 4b2a c93d 46db 3dbe
000000b0: 6601 fc3e 3057 c53f 9fba 4abe c7e0 9ebe
000000c0: c4a0 acbe 9440 c2be b532 db3c 86d8 863d
000000d0: e8bb d63e 023d 1ebf 4941 f83e 6de0 463e
-0.8402759 -0.16450278 -0.65797275 -0.5812362 -0.59043515 1.3667289 0.2878691 -0.2595525
0.48898077 -0.4763661 0.6121194 -0.44965476 0.46216598 -0.3114368 -1.7285628 -0.31571037
0.16236006 0.08636153 0.2104113 -0.6730606 -0.3068469 0.29607272 0.76625633 0.24745922
0.12476065 -0.06243036 0.042854343 0.5771524 -0.8671414 0.027937721 -0.020510288 0.5884767
-0.86146945 -0.3953323 0.5845412 -0.27661255 -0.030316785 0.40589264 0.61989886 0.023068214
-0.46613923 0.124640085 0.0982252 -0.18540677 0.49219817 1.5417233 -0.19797753 -0.31030867
-0.33716404 -0.37939894 0.026757577 0.06584267 0.41940236 -0.6181184 0.4848731 0.19421549

discriminator.fc1.bias f4 [8]
00000000: 481b 6bbd b227 5abe b7cc 97be 88c3 b1be
00000010: ec2c 65bd e146 ddbc 5d36 02bd ae17 0abe
-0.057399064 -0.21304205 -0.29648373 -0.3471949 -0.055951044 -0.027011337 -0.031790126 -0.13485596

discriminator.fc2.weight f4 [1, 8]
00000000: 6357 043e 8c5a 843f de77 903e 6041 80be
00000010: e927 453e 03af 0b3e b165 9d3e 3bd1 793e
0.1292396 1.0340133 0.2821645 -0.25049877 0.19253506 0.1364098 0.30741647 0.24396221

discriminator.layer_norm_hidden_0.weight f4 [8]
00000000: cae3 803f bacc 7e3f 633b 803f 5d3c 7e3f
00000010: 363b 7e3f a651 7e3f 9c3b 7e3f 1e75 7f3f
1.0069516 0.9953114 1.0018123 0.9931086 0.993091 0.99343336 0.99309707 0.9978808

discriminator.layer_norm_hidden_0.bias f4 [8]
00000000: 1d99 d33b 0455 d33b 6954 d33b 6338 d3bb
00000010: 9f2e d33b 2921 d33b 023f d33b 2748 d33b
0.0064574615 0.0064493436 0.0064492715 -0.006445931 0.0064447667 0.006443162 0.00644672 0.00644781

exp_avg f4 [16, 7]
00000000: 0b8e 3bbd 2d70 3bbd 6dc0 bb21 0e69 3bbd
00000010: 8a6b 3bbd 006b 3bbd d143 3bbd 21bc 0abc
00000020: 2f95 0abc 165f 5220 c193 0abc 8992 0abc
00000030: ef96 0abc 6b2f 0abc f6a8 36bc 689a 36bc
00000040: a740 3921 0c9b 36bc 639b 36bc 959c 36bc
00000050: dd69 36bc a34b 193c ee36 193c 7f8a 8ca0
00000060: d028 193c 4b2e 193c 4d31 193c faca 183c
00000070: dbc0 36bb 902a 37bb 3cb3 3ba1 0f38 37bb
00000080: 8834 37bb 322c 37bb 7cae 37bb f5da b23c
00000090: 8aff b23c 0a03 a7a1 0ef7 b23c f6fc b23c
000000a0: c7fa b23c 5ee7 b23c d714 703c 74f6 6f3c
000000b0: 1737 16a1 a4f0 6f3c 23f2 6f3c b7f2 6f3c
000000c0: 3eb1 6f3c c25c 4d3a 6fb4 4d3a cb3a 4820
000000d0: a0af 4d3a 51b2 4d3a 49bd 4d3a e69a 4c3a
000000e0: c391 0fbc 0be4 0fbc 96ce 7821 73dd 0fbc
000000f0: 47e4 0fbc 6adf 0fbc 0a08 10bc 027e 303c
00000100: 3772 303c 93a7 1220 3676 303c 5c75 303c
00000110: 7773 303c 7c8e 303c 57a3 783a fdc2 793a
00000120: 8bce 8e9f 94b3 793a 8cb6 793a 75bb 793a
00000130: ff38 7a3a 66c1 533c a6d1 533c e322 a9a1
00000140: bdd4 533c 8ed4 533c 1fd7 533c b099 533c
00000150: fe18 04bc a030 04bc d563 0f21 3d2a 04bc
00000160: 762e 04bc 952e 04bc 6809 04bc 9ff3 87b8
00000170: 6c82 82b8 a9b5 8ea1 0768 7eb8 a6e1 7fb8
00000180: bb0e 81b8 0c29 4eb8 1289 8b3a 980c 8b3a
00000190: 074f a3a0 51b5 8a3a d0e0 8a3a ddd2 8a3a
000001a0: 369d 8a3a 8aed a63b 1fb2 a63b daf4 6420
000001b0: fbb2 a63b 34af a63b ecac a63b ee8c a63b
-0.04578976 -0.045761276 1.2722548e-18 -0.045754485 -0.045756854 -0.04575634 -0.04571897 -0.008467705
-0.00845842 1.7819153e-19 -0.008458079 -0.008457788 -0.008458837 -0.008434157 -0.011148682 -0.011145212
6.2766005e-19 -0.0111453645 -0.0111454455 -0.0111457305 -0.011133638 0.009356412 0.009351475 -2.3808572e-19
0.009348109 0.009349416 0.009350133 0.009325737 -0.0027885947 -0.0027948953 -6.359528e-19 -0.0027956998
-0.0027954895 -0.0027949926 -0.0028027585 0.021832922 0.021850366 -1.1317165e-18 0.02184632 0.021849137
0.021848096 0.02183884 0.014653406 0.014646161 -5.089489e-19 0.014644776 0.014645132 0.01464527
0.01462966 0.00078339514 0.0007847016 1.6960112e-19 0.00078462996 0.00078467006 0.0007848335 0.0007805064
-0.00876278 -0.008782397 8.429908e-19 -0.008780825 -0.008782453 -0.008781293 -0.008790979 0.01077223
0.010769418 1.2422127e-19 0.010770371 0.010770168 0.010769716 0.010776158 0.0009484789 0.0009527652
-6.0481036e-20 0.00095253554 0.0009525798 0.00095265295 0.0009545236 0.012924528 0.012928402 -1.146112e-18
0.012929139 0.012929095 0.012929707 0.01291506 -0.008062599 -0.008068234 4.858241e-19 -0.008066711
-0.008067718 -0.008067747 -0.008058883 -6.4826796e-05 -6.223176e-05 -9.670379e-19 -6.0655202e-05 -6.100689e-05
-6.153943e-05 -4.9152455e-05 0.0010645709 0.0010608612 -2.766557e-19 0.0010582601 0.0010595564 0.0010591407
0.0010575417 0.005094235 0.0050871517 1.9393366e-19 0.005087254 0.005086804 0.005086532 0.005082718

exp_avg f4 [16]
00000000: 6dc0 3bbc 135f d2ba a740 b9bb 7f8a 0c3b
00000010: 3cb3 bb3b 0a03 273c 1737 963b ca3a c8ba
00000020: 96ce f8bb 94a7 92ba 8bce 0e3a e522 293c
00000030: d563 8fbb a9b5 0e3c 074f 233b daf4 e4ba
-0.011459452 -0.0016050063 -0.005653459 0.0021444855 0.0057281535 0.010193596 0.004584204 -0.001527631
-0.0075929863 -0.0011188858 0.00054476474 0.010323261 -0.0043759146 0.008710303 0.002491893 -0.0017467991

exp_avg f4 [8, 16]
00000000: 2af9 5939 2d33 ef39 eb5f 1f39 61fc 613a
00000010: dc75 d8b9 bba2 3a39 e381 c1b8 2845 193a
00000020: 9a61 463a 4780 09ba 1532 c937 5442 16b8
00000030: d524 8c39 3964 b4ba 07bb 0939 6c34 a4ba
00000040: 35ce 033b 087f 5ebb b84a 263c 3574 9cbc
00000050: f971 0b3c 59b6 ffba 7e01 dcb9 12a8 3ebc
00000060: 936d 4cbc 96b7 043c 5580 1f3c 6eb9 403b
00000070: c31f 77bb 0913 db3b 6d79 7abb 4820 0e3c
00000080: 970f 43b9 a70b 47bb 207f ef3b 1bc6 77bc
00000090: 42ed d03b 701d 9fba cc05 2639 41bd 09bc
000000a0: 665c 32bc c042 e43b eacc f33b 23c2 153b
000000b0: 247c 25bb 884f 9e3b edea 22bb 5b38 0f3c
000000c0: 8814 6eba ae2f abbb 41ef 08bc 4e67 76ba
000000d0: b1f1 963b b146 f9bb 76f1 0fbc 64b6 cbbb
000000e0: ce96 c1b9 4aad 703c 6970 15bb a27d 04bc
000000f0: 12bc 08bc 6b71 af3c 4f7f 09bc e8e5 cc3c
00000100: 3f9b 37bb d890 a03c 4d88 a4bc 7911 833d
00000110: e200 12bd 6086 a23c 9e95 8e3c 8bdd 463d
00000120: ec9a 2e3d 4b7a 59bd 2075 f8bc f347 983b
00000130: 4024 df3c ec81 5ebd c304 e53c bb1c 9dbd
00000140: 2877 5eba d1b3 273a 8912 0abb df0a 883b
00000150: 6d0b f1ba 6044 c439 affd 6936 d582 163b
00000160: 1414 253b 7cc7 bcba 4f93 e1ba 3a5d 35ba
00000170: b335 133a c370 e8ba 49f1 263a 31a2 56ba
00000180: 7166 e63a f1da da3b babc ab39 12a9 6d3c
00000190: 6487 12bc f0ec d73b ee36 d53b b3ac 393c
000001a0: e0f1 2f3c bb74 8fbc ead9 8fbb 50bc 8c3b
000001b0: 1c25 003c c4c0 a4bc 1231 023c d505 e4bc
000001c0: 54fd 1a3a 7b7f 1cbc 6dbc 0f3c 9b92 fabc
000001d0: 16ca 873c cc47 10bc 94cc fbbb 638f b4bc
000001e0: 416e abbc 7b57 cc3c 5239 5b3c 1579 09bb
000001f0: 24a7 46bc a2ed d43c 8037 49bc 0018 153d
0.00020787554 0.0004562376 0.00015199154 0.0008620676 -0.00041286543 0.00017798964 -9.2271504e-05 0.0005846792
0.00075676444 -0.000524525 2.3984388e-05 -3.582456e-05 0.00026730323 -0.0013762779 0.00013135011 -0.001252783
0.0020111923 -0.0033950228 0.01014965 -0.01909838 0.00851106 -0.00195093 -0.00041962782 -0.011636751
-0.012477296 0.008100411 0.009735187 0.00294074 -0.003770814 0.006685619 -0.0038219348 0.008674689
-0.00018602457 -0.0030371936 0.0073088557 -0.015122916 0.0063759396 -0.001213951 0.00015833153 -0.008406938
-0.010886287 0.006965965 0.007440199 0.002285131 -0.0025250996 0.004831258 -0.0024859265 0.008741464
-0.0009082039 -0.0052241897 -0.008357824 -0.0009399549 0.0046064486 -0.007607304 -0.008785596 -0.006216811
-0.00036924187 0.014689753 -0.0022802597 -0.008086594 -0.008345621 0.021416387 -0.008392169 0.025011972
-0.0028016118 0.019600317 -0.020084525 0.06399817 -0.035645373 0.019839466 0.017405327 0.048551124
0.042628214 -0.053095143 -0.030329287 0.004647249 0.027238965 -0.054323122 0.027956372 -0.076714955
-0.00084863836 0.0006397339 -0.0021068177 0.0041516866 -0.0018390246 0.00037434977 3.486737e-06 0.0022966166
0.002518897 -0.0014402713 -0.0017210039 -0.0006918494 0.0005615607 -0.0017733801 0.0006368352 -0.00081876206
0.0017578137 0.006678932 0.00032756274 0.014505642 -0.008943412 0.0065895244 0.0065067923 0.011332679
0.01073882 -0.017511716 -0.004389991 0.0042949095 0.007821348 -0.020111449 0.00794627 -0.027834812
0.00059123826 -0.009551878 0.008772952 -0.030587485 0.016575854 -0.00880618 -0.0076842997 -0.022041028
-0.020926597 0.024944058 0.013380365 -0.0020976712 -0.01212481 0.025992218 -0.012281299 0.03639984

exp_avg f4 [8]
00000000: 7806 75b9 e679 5dbc 1ea0 14bc eea7 853c
00000010: 7c41 863c fac2 4c3b 6f7f aabb dd9f e1bb
-0.0002336743 -0.013517832 -0.009071378 0.016315427 0.016388647 0.0031244145 -0.0052031795 -0.0068855123

exp_avg f4 [16, 8]
00000000: cf4f 9ebc 6be8 e43b 482d dcbb 093f 543c
00000010: 2f9c 32bb 83c5 fd3b e0e7 033c 265b e3bb
00000020: 3d0e aa3b c459 a93a 562f 273b 9fc9 b6bb
00000030: fad3 08b9 ae8b 09ba 6bb9 a9bb 556c 1a3b
00000040: 1a84 3dbc 86c3 e3bb 03e5 d2bb 0b0a 7d3c
00000050: 1157 053b d6cb 77ba a04a 853c 2b32 ffbb
00000060: 1f02 1a3d f762 5bbc 2709 4b3c 139c c6bc
00000070: c0bd 793b 9af4 75bc c56b 69bc f5e6 553c
00000080: e327 bf3c 84a0 893c e40a 623c 15e8 fcbc
00000090: eff9 b0ba 5ba9 633b 9442 00bd 72f0 c23b
000000a0: 5462 063a 6117 5fba 9e8b e737 3d92 9839
000000b0: 6347 d8b9 424b b5b9 86f0 7eb9 609e 863a
000000c0: 74dd 14bb c8e8 94ba 3f91 a4ba 15d9 253b
000000d0: cf6e 54b9 adc0 0bb9 f765 133b 310c 7739
000000e0: dfdb e7bb 1cb7 8cbb 455a 7fbb bfce 133c
000000f0: 7bc4 23ba 57ac 3fba 7d44 ff3b f82c 11b9
00000100: 13b8 18bb 8712 84bb 9678 f9ba 073f 1b3b
00000110: a236 e2ba 00a2 e7ba f53b c63a 41d8 013c
00000120: 7cb6 14bd de23 873c a371 2dbc 2f25 af3c
00000130: c061 1bbb 1d6f 823c 89d9 463c dab5 88bc
00000140: 8270 553c 9313 adbb 57b7 943b 110d 02bc
00000150: 7525 e23a a79a bbbb d29a 92bb d1ce 863b
00000160: 27e2 83ba 30b7 e9ba 572b adba eb46 a93a
00000170: 3e4d 3f3a 3b72 f8b9 078d 453b 9602 e0b9
00000180: 148c f73b 02a5 24bc 78af 123a 977e 8dba
00000190: 4e63 e63a de30 d6bb a991 373b bc2a a53b
000001a0: 6e22 c1ba f87b d8bb 6147 18bb 5b0e b23b
000001b0: f447 7539 beee 42bb a28c cc3b 5a63 c73a
000001c0: e1c6 78bc 7886 b53b 0962 93bb 7059 243c
000001d0: d75a edb9 d961 c93b 1329 d03b c11c 02bc
000001e0: 898e 993c f21d 273c 46a0 2a3c bda0 bfbc
000001f0: 786e 4ab9 3481 933a 2ffc b6bc 230e ae3b
-0.019325165 0.006985714 -0.006719265 0.012954482 -0.0027253737 0.0077444925 0.008050889 -0.006938356
0.0051896856 0.0012920429 0.0025510392 -0.0055782343 -0.00013048938 -0.0005246949 -0.0051795742 0.0023563106
-0.01156714 -0.0069507984 -0.0064359917 0.015444289 0.0020346085 -0.0009452676 0.016270936 -0.007787963
0.03759968 -0.013390294 0.012392319 -0.024244344 0.0038107485 -0.015011931 -0.014246886 0.013055553
0.02333445 0.016800173 0.013796542 -0.030872384 -0.001350222 0.0034738395 -0.031313494 0.0059490735
0.00051263464 -0.00085102586 2.760236e-05 0.00029100655 -0.00041251918 -0.00034579082 -0.0002431293 0.0010270588
-0.0022715004 -0.0011360878 -0.0012555494 0.0025306393 -0.00020259175 -0.0001332785 0.0022491196 0.00023560297
-0.007075771 -0.0042942893 -0.0038963717 0.00902146 -0.00062472344 -0.00073117524 0.007790147 -0.0001384503
-0.0023303076 -0.004030529 -0.001903313 0.002368869 -0.0017258713 -0.0017672181 0.001512407 0.007925094
-0.036306843 0.016496595 -0.010586175 0.021380035 -0.0023709387 0.015922124 0.012136825 -0.016688276
0.013027312 -0.0052818744 0.0045384574 -0.007937686 0.0017253595 -0.005725223 -0.0044740224 0.00411401
-0.0010061905 -0.0017831083 -0.0013211769 0.0012914812 0.0007297582 -0.00047387354 0.0030143873 -0.00042726536
0.0075545404 -0.010049107 0.0005595605 -0.0010795173 0.0017577203 -0.006536587 0.0028010404 0.0050404947
-0.0014734992 -0.006606575 -0.0023235905 0.00543384 0.00023391825 -0.0029744352 0.0062423507 0.0015212104
-0.015184135 0.0055397116 -0.0044977707 0.010031089 -0.00045271844 0.0061456976 0.0063525527 -0.007941426
0.018744724 0.010200011 0.010414189 -0.023392076 -0.00019305374 0.0011253715 -0.022337047 0.005311744

exp_avg f4 [16]
00000000: 1f17 0abc f410 bbba b15c 043c 2e55 883c
00000010: f8fe a0bc b4d2 4e3a 0963 b23a adf5 a13b
00000020: a0c7 9c3b 6f5a a2bc b064 d63b 8418 103b
00000030: c3bb 403c 7fa8 fe3b 46d6 e1bb 7f58 44bc
-0.008428364 -0.001427202 0.00807874 0.01664218 -0.019652829 0.00078896736 0.0013609837 0.004942617
0.0047845393 -0.019818513 0.0065427646 0.0021987269 0.011763516 0.007771551 -0.0068919985 -0.01198399

exp_avg f4 [7, 16]
00000000: 9056 cb3b f8e1 feba 27a0 953a 9952 e7b9
00000010: 7def 4c3a 81a0 ca3b 33c8 06bc 58f9 81bb
00000020: b51c 9c3b d39e cdba 43c9 3dbb cbf9 623b
00000030: 39f5 073c a458 8a39 5b40 c8bb 135d c8bb
00000040: 225e 1fbb ee6b 2b3b 4a22 a1bb 7bb4 0f3a
00000050: de18 06b9 da15 10bc 311d 4e3c 4727 b73b
00000060: 308d 4cbc d79c 5f3b bdd4 3c3a 4da5 b0bb
00000070: fb2c 27bc 6abb 943a b2da 123c 167e 133c
00000080: fbc4 773c 9fc0 6abb e2b2 43bc afc6 dc3b
00000090: 7bee 2abb d771 a53b f40a aa3a 8067 34ba
000000a0: 5e9a 99bc 13b3 103c 707a 483c d004 f2bb
000000b0: 9209 063b 634d d3ba ae96 8bbb 9d3e e8b9
000000c0: 9023 09bd 1d88 e23b 81e9 c63c e1c3 6abc
000000d0: 0807 ea3b 07b3 efbb 9e34 d9bb f8a4 55b9
000000e0: 8c1f 393d 264c adbc c0f2 d9bc 0a00 9b3c
000000f0: 1eb5 ec39 3638 883b 09a3 873b d58d d7ba
00000100: bed7 463c 2034 fdba 467e 46bc dd25 9e3b
00000110: cec0 87ba 4160 1d3b dd72 523b d5f9 373a
00000120: 5fc1 7dbc e233 f83b 29b8 f33b 482f b8bb
00000130: 90f0 4039 084b 9fb9 7882 5dbb e6d1 bf3a
00000140: 7ef1 ddba f889 c13a acb5 10bc 4a7e 083b
00000150: 0da7 103a 9383 a3bb 6a5f 233c de24 943b
00000160: 8cae 27bc c20b 663b b64f 6d3b 905b 89bb
00000170: 0b1f e1bb f37b 883a 33d7 503b acbf e63b
00000180: a748 1dbc 5cd4 093b fd24 37ba 3419 40bb
00000190: ec4a 593b 4823 b9b9 f4fc f2ba 66b2 103a
000001a0: c85c 723c 155c 9dbb ea3b afbb 7d97 df3b
000001b0: 0c63 be3a d402 e73a 8f2f acbb b190 9137
0.0062053874 -0.0019446006 0.0011415527 -0.00044121293 0.0007817669 0.0061836843 -0.008226442 -0.0039664917
0.0047641643 -0.0015687592 -0.0028959073 0.0034633751 0.008298212 0.00026387454 -0.0061111874 -0.006114611
-0.0024317582 0.002615686 -0.0049174177 0.0005481911 -0.000127885 -0.008794272 0.012580202 0.005589399
-0.012484834 0.0034120583 0.00072033313 -0.005390799 -0.010203595 0.0011347358 0.008963274 0.009002229
0.015122647 -0.0035820378 -0.011944504 0.006737552 -0.0026082087 0.005048971 0.0012973235 -0.0006881878
-0.018750366 0.008831757 0.012236223 -0.0073858276 0.0020452482 -0.0016121086 -0.004259906 -0.0004429714
-0.03348118 0.0069131986 0.024281265 -0.014328928 0.0071419515 -0.007315043 -0.006628587 -0.00020374719
0.0451961 -0.021154474 -0.02660501 0.018920917 0.0004514837 0.0041570915 0.0041393084 -0.0016445467
0.012136398 -0.0019317903 -0.012115067 0.004826291 -0.0010357143 0.002401367 0.003211192 0.0007018124
-0.015487998 0.0075745443 0.007437725 -0.0056208707 0.00018400163 -0.00030382746 -0.003379969 0.0014634698
-0.0016932932 0.0014765849 -0.008832376 0.0020827227 0.00055180566 -0.00499005 0.009971479 0.0045209965
-0.010234486 0.0035102223 0.0036210841 -0.0041918233 -0.0068701557 0.0010412916 0.003186655 0.007041892
-0.009599841 0.0021031117 -0.00069864077 -0.0029311897 0.003315623 -0.00035312236 -0.0018538521 0.00055197475
0.014792629 -0.004802237 -0.0053477185 0.0068234787 0.0014525368 0.0017624744 -0.005254693 1.7352724e-05

exp_avg f4 [7]
00000000: d861 183c 2fdb 77bc e06b b7ba ecf7 ef3b
00000010: f8ee 7cbb 42c5 41bc c863 263b
0.0093006715 -0.015127941 -0.0013993941 0.0073232558 -0.0038594585 -0.011826815 0.0025389064

exp_avg f4 [16]
00000000: fef5 2d3c 7a64 16bc 4dc5 303d 3db6 e93c
00000010: e51f 02bc 47ea bf3c 8fd8 7d3c 4947 9e39
00000020: 6378 e43c 9c24 bebc 68dd 6c3c ff78 283c
00000030: 342d 723b d3b3 483a 1d89 113c d941 3dbc
0.010617731 -0.009179229 0.04315691 0.02852928 -0.007942175 0.023427142 0.015493526 0.0003018922
0.027889436 -0.023210816 0.014457084 0.010282754 0.0036953213 0.00076561904 0.008882788 -0.011551344

exp_avg f4 [16]
00000000: 4cba 1bbb 9047 bf3b f70c e8ba 2af3 233c
00000010: 82a7 ffbb 9b0f 043c 39d4 26bc b44e 8a3b
00000020: 4586 283c f8e3 c2ba d038 913b d0d4 4f3c
00000030: ec7d 753c 5588 a03c 17e3 9eba ff54 ccbb
-0.0023762165 0.0058373883 -0.0017704059 0.010006705 -0.007801951 0.008060361 -0.010182434 0.004220808
0.010285919 -0.0014868965 0.0044318214 0.012685016 0.014983635 0.019596258 -0.0012122121 -0.0062357183

exp_avg f4 [8]
00000000: d1e4 bc3a 4a26 143d fb9a ddb9 bee6 1e3b
00000010: 712d aa3a 2a4e f3ba e85c 83bc 8a64 86bc
0.0014411454 0.036169328 -0.00042267874 0.002424642 0.0012983513 -0.0018562723 -0.016035512 -0.016405363

exp_avg f4 [8]
00000000: 7186 90bb b6bc 30bd 6c74 56bc feac 523c
00000010: 9d17 143c e81c 2c3a 5d49 013a 2019 823b
-0.004410558 -0.04314872 -0.013089281 0.012858627 0.009038833 0.00065655867 0.00049318915 0.0039702803

exp_avg f4 [8, 7]
00000000: b901 20bc 0cb1 ffba ef52 583b 0c31 2ebc
00000010: cc8b a4bb f4b4 2cbb 92cc c2bb 8321 07be
00000020: edec 82be 7a99 bebd 9904 783c bb34 83be
00000030: bb95 78be 4eb0 20be 28a3 ec3b 1326 513b
00000040: 3669 85bb 3420 803c 72c6 923a 5ba4 4b3b
00000050: 667b b63b 3b1f 183d e4e1 bc3d fcf8 3c3c
00000060: fcb7 1f3d 84d5 8e3d 37aa b13d 063d 8b3d
00000070: 6944 703b 3b4e c33c 1bb9 d43c 90b5 23bd
00000080: fcc3 013d 3d67 c33c cca4 993b 2ca3 6ebb
00000090: 3871 203d faba 573c a662 a3bc 1633 e13c
000000a0: 135c 023d deb9 523c 0438 d3bc 9193 c5bc
000000b0: a5b4 ef3b 3729 38bd e841 88bc 66f8 bdbc
000000c0: 62d5 cbbc c39c 9a3b 2383 3c3b 73d8 8b3a
000000d0: a041 493b bc5d 973b 5369 6f3b e24c 723b
-0.009766036 -0.001950772 0.0033008417 -0.010631811 -0.005021548 -0.0026352974 -0.005944797 -0.13196377
-0.25571385 -0.09306617 0.015137815 -0.25626168 -0.24275868 -0.15692255 0.007221598 0.0031913563
-0.00407138 0.015640356 0.0011198057 0.0031073305 0.0055689095 0.03713916 0.09222773 0.011533972
0.03899382 0.069743186 0.08675044 0.06798749 0.003666187 0.023841014 0.025967171 -0.039968073
0.031681046 0.023852939 0.004688835 -0.0036413176 0.039170474 0.013167137 -0.0199445 0.02749018
0.03182609 0.012861697 -0.025783546 -0.024118217 0.0073152357 -0.04496118 -0.016632989 -0.023189735
-0.024882022 0.0047183945 0.0028764687 0.0010669365 0.0030709282 0.0046193283 0.0036531284 0.0036972095

exp_avg_sq f4 [8, 7]
00000000: 28fb 7a36 0eef 9c34 b6b4 4035 3452 5436
00000010: 9c8a d835 f6fa 1d35 b198 a935 e629 093a
00000020: 711f ed3a 322f 8639 818e 8338 0368 f13a
00000030: 4d6e d83a e1e6 3a3a 5ad9 f135 ac19 3935
00000040: e4a1 0b35 f482 dc36 cffc 8c34 a631 fe34
00000050: 74e9 7735 2eda 1f38 37e2 6b39 f123 be36
00000060: 1928 6838 8762 0439 01d5 5439 972b 0a39
00000070: d4a6 af35 2403 7437 3c20 a037 7ae8 3538
00000080: eccd e637 98f1 7a37 67b8 8935 724b b035
00000090: 70aa 2a38 9ae1 9836 d8ea 2c37 088a aa37
000000a0: e289 df37 b6af ae36 6493 b037 67a9 8a37
000000b0: 3e5e 1d36 f074 6938 6cd5 1c37 c433 8237
000000c0: ccac 9237 6437 7a35 bea6 9f34 c00f fe33
000000d0: ebf6 a334 0729 6235 d49d df34 d23d ea34
3.7399095e-06 2.92312e-07 7.178854e-07 3.163831e-06 1.6133595e-06 5.8852254e-07 1.263592e-06 0.00052323786
0.0018091035 0.00025593635 6.27311e-05 0.0018417839 0.0016512364 0.00071297406 1.8019157e-06 6.895523e-07
5.2017117e-07 6.571756e-06 2.6260975e-07 4.734731e-07 9.235439e-07 3.811175e-05 0.00022495618 5.6666254e-06
5.5350454e-05 0.00012625205 0.00020297246 0.00013176944 1.3087069e-06 1.4544265e-05 1.9088497e-05 4.3370273e-05
2.7514026e-05 1.4957412e-05 1.0260964e-06 1.3134979e-06 4.068989e-05 4.5562165e-06 1.0306678e-05 2.0329855e-05
2.6647878e-05 5.2060595e-06 2.1049469e-05 1.6529766e-05 2.344968e-06 5.5660435e-05 9.348016e-06 1.5521313e-05
1.7485021e-05 9.321286e-07 2.973738e-07 1.18306616e-07 3.0540772e-07 8.4251263e-07 4.1651822e-07 4.3630877e-07

exp_avg f4 [8]
00000000: 0aac 743d e145 83be ae35 333c 75d6 473e
00000010: d1da f73c e324 8a3c 85b6 97bd bb92 ee3b
0.05973438 -0.2563925 0.010938091 0.19515403 0.030255707 0.016863292 -0.0740786 0.007280675

exp_avg_sq f4 [8]
00000000: 1ebb cf38 0b64 f73a 3bea bd36 7ae0 853a
00000010: f195 db37 bfab 1037 226e 2c39 d7f7 cb35
9.9053825e-05 0.001887442 5.659907e-06 0.0010213994 2.6176656e-05 8.623057e-06 0.00016444226 1.519681e-06

exp_avg f4 [1, 8]
00000000: 955d 46be 5ca2 553c 827c 52bd 7b31 a9be
00000010: 165c 4d3e 914f 883d 1fdc 943e f025 193b
-0.19371636 0.013039198 -0.05138827 -0.33045563 0.20054659 0.06655801 0.2907419 0.002336856

exp_avg_sq f4 [1, 8]
00000000: ee0b 7c3a 8fdc 8d37 8a65 3a39 e5da 473b
00000010: dcb7 913a 7f95 fe38 3f63 0f3b b869 2e37
0.0009614815 1.6911215e-05 0.00017776169 0.0030495462 0.0011117416 0.000121395096 0.0021879224 1.0395823e-05

exp_avg f4 [8]
00000000: 4d10 c7bc d1b2 5f3c 9609 6cbc faac ac3d
00000010: e7d6 213d cea9 183c 35ac b93d 962e 203a
-0.024299765 0.013653473 -0.014406582 0.0843143 0.039511587 0.009317828 0.09066049 0.00061104575

exp_avg_sq f4 [8]
00000000: 3285 7d37 96ec 9937 c477 6b37 5af6 5039
00000010: 00ee 3538 94ac 1f36 a003 5f39 e295 2a35
1.5110987e-05 1.834919e-05 1.4034977e-05 0.00019928199 4.3375418e-05 2.37933e-06 0.00021268288 6.3548043e-07

exp_avg f4 [8]
00000000: 814b cabb 2bc2 52bd be64 64bc e07a 4f3c
00000010: 7e60 20bc 191a e5bb c5c5 7dbc 4d24 48bc
-0.0061735515 -0.051454704 -0.013940034 0.012663573 -0.0097886305 -0.0069916365 -0.015489046 -0.012215686

exp_avg_sq f4 [8]
00000000: a1b8 fd35 77ef 0939 d40a 2237 81ca 0537
00000010: 6aec 9f36 b23c 2336 441c 4837 9fcd f836
1.8903703e-06 0.00013154546 9.658474e-06 7.974567e-06 4.7660915e-06 2.4324222e-06 1.192751e-05 7.4149134e-06
