saved/type_2_fold_2.ckpt (torch, 21266 bytes, 39 tensors)

generator.fc1.weight f4 [16, 7]
-0.55761 0.38009816 -0.8021754 -0.118452 1.2314948 -0.31363776 0.84421426 0.41404256
-0.11311795 -0.26953647 -0.057324186 -0.26367855 0.77601194 0.25017524 -0.45881647 -0.44475514
-0.14533517 -0.7300683 0.40538967 -0.25602007 -0.3368359 -0.6944598 0.59752434 0.10628381
-1.1715379 0.107905366 -0.9123151 -0.10916214 -0.5060779 -0.4201492 0.4001304 0.4326437
-0.11248028 -0.27203313 0.6216124 -0.15867317 -0.39845783 0.9564264 -0.64577514 -0.023944896
-1.5622414 1.0408081 0.44534132 -0.57809234 0.32720566 -0.6858148 0.093579985 0.7788448
0.4176641 -0.14519605 -0.18686666 -0.4312739 0.025575837 -0.15233582 -0.5386917 0.22143213
0.19118048 0.10862589 0.6401713 0.5957692 0.09919196 -0.5393757 -0.051526718 -0.4679398
-0.3383008 -0.5244418 -0.7704271 -0.20913863 0.09588033 0.7197929 -1.1398904 -0.3245281
0.029535118 -0.16417706 -0.019059906 -0.54169285 -0.38625425 0.37852094 -0.21459565 0.29761413
-0.070925824 -0.6768817 -0.0036063334 0.2570479 0.83408064 -0.26496768 0.06963464 0.3772441
-0.67258817 -0.83748025 -0.39004463 0.026700802 -0.72906244 0.5251555 -0.1947551 0.44726154
1.1132082 0.6070828 -0.6119533 0.9632255 0.19711326 0.0101495255 -0.3820979 -0.09966667
1.4153006 0.22123289 0.2299449 -0.30763295 0.0038948683 0.5243696 -0.564247 -0.31882462
00000000: 87bf 0ebf 3a9c c23e 5e5b 4dbf f696 f2bd
00000010: 9fa1 9d3f 2195 a0be 6d1e 583f 63fd d33e
00000020: 62aa e7bd af00 8abe c4cc 6abd e000 87be
00000030: b8a8 463f f816 803e fee9 eabe f2b6 e3be
00000040: bed2 14be c2e5 3abf 3c8f cf3e 1015 83be
00000050: c175 acbe 1ec8 31bf 5bf7 183f 54ab d93d
00000060: f4f4 95bf 7dfd dc3d 7b8d 69bf 6690 dfbd
00000070: 528e 01bf cc1d d7be e4dd cc3e 7a83 dd3e
00000080: 105c e6bd ed47 8bbe fe21 1f3f 387b 22be
00000090: aa02 ccbe 5cd8 743f 8551 25bf 1628 c4bc
000000a0: 87f7 c7bf 3339 853f c703 e43e dcfd 13bf
000000b0: 8087 a73e 8f91 2fbf dda6 bf3d 5f62 473f
000000c0: 12d8 d53e 46ae 14be f959 3fbe efcf dcbe
000000d0: 6b84 d13c ecfd 1bbe b3e7 09bf 1bbf 623e
000000e0: d1c4 433e 4077 de3d 44e2 233f 5584 183f
000000f0: 2825 cb3d 8714 0abf ae0d 53bd ce95 efbe
00000100: c335 adbe d141 06bf b63a 45bf 7028 56be
00000110: e85c c43d 5944 383f eee7 91bf 8c28 a6be
00000120: a2f3 f13c 081e 28be 8523 9cbc 62ac 0abf
00000130: 1ec3 c5be 7fcd c13e f6be 5bbe e160 983e
00000140: 8f41 91bd 1e48 2dbf 3c58 6cbb c89b 833e
00000150: 4f86 553f d8a9 87be 9b9c 8e3d 2426 c13e
00000160: bd2e 2cbf 1b65 56bf eeb3 c7be a4bb da3c
00000170: d6a3 3abf 9770 063f e26d 47be 77ff e43e
00000180: 9b7d 8e3f c769 1b3f f9a8 1cbf f295 763f
00000190: 0fd8 493e 324a 263c 56a2 c3be 0a1e ccbd
000001a0: 9228 b53f e08a 623e ad76 6b3e 1182 9dbe
000001b0: 0c41 7f3b 163d 063f 7e72 10bf fb3c a3be

generator.fc1.bias f4 [16]
-0.069744736 0.04772178 -0.2165315 0.23624128 -0.25388557 -0.16645375 -0.16391416 -0.08880374
0.12739202 -0.351895 -0.38192144 0.20750111 0.09457198 -0.2920855 0.28406033 0.25777712
00000000: 54d6 8ebd ea77 433d 6fba 5dbe 3ce9 713e
00000010: 4afd 81be da72 2abe 1dd9 27be bcde b5bd
00000020: 0e73 023e 952b b4be 358b c3be 2c7b 543e
00000030: f4ae c13d 3b8c 95be 5b70 913e 5dfb 833e

generator.fc2.weight f4 [8, 16]
0.09399541 -0.708701 -0.1669579 -0.487325 0.24454933 0.24642561 0.092294864 0.32651702
-0.182867 -0.2997982 0.029540004 0.49845648 0.31636238 -0.020160949 -0.25559345 -0.16528313
0.04248008 0.5723857 0.08317026 0.21311238 -0.5806793 0.2769851 0.6033064 0.3863331
-0.2610616 -0.1686665 -0.46043184 0.15466902 -0.029802151 0.21856867 -0.1599526 0.43674487
-0.27629665 -0.6206247 -0.025802534 -0.36115846 -0.023429533 -0.5359494 0.44338638 0.13720323
-0.10552482 0.14480859 -0.049132727 0.21312013 -0.02957115 -0.2314137 -0.14116496 -0.33708742
0.13281459 -0.25020978 -0.0648414 -0.17980042 0.36519808 0.20086601 -0.09322132 0.5596114
-0.114839435 0.5181346 -0.61780965 -0.2047625 -0.25013447 -0.08053946 0.3160378 0.2091594
0.2914785 0.5359226 -0.19731042 0.2900226 0.2571481 -0.3362374 0.08037962 -0.119741246
-0.124092706 -0.23452957 -0.091537595 -0.41764295 0.8644946 -0.26175955 0.36965865 0.042305425
-0.3088273 0.12195139 -0.18687662 -0.08306796 0.0035407492 0.18024506 -0.49913943 0.032614417
0.27911267 0.16858508 -0.056178328 0.26093465 -0.013993123 0.042343847 0.23448347 -0.12855244
0.37712896 0.12126005 0.29364353 0.30586404 0.10814418 0.46766627 0.0778174 -0.121429086
-0.6683646 0.480289 0.04267096 -0.12915933 0.009547088 0.21437547 -0.4428028 -0.23921913
-0.023854546 -0.29940358 0.19794682 -0.23577946 0.5323869 -0.06404487 0.063439876 0.67552686
-0.5910442 0.050306108 0.40599748 -0.5343833 -0.3485121 0.14419901 0.21158704 -0.34026492
00000000: aa80 c03d 6e6d 35bf 03f7 2abe aa82 f9be
00000010: 246b 7a3e ff56 7c3e 1705 bd3d 3d2d a73e
00000020: 7d41 3bbe 267f 99be e1fd f13c b035 ff3e
00000030: 40fa a13e 9328 a5bc 25dd 82be fb3f 29be
00000040: 98ff 2d3d df87 123f 2b55 aa3d 223a 5a3e
00000050: 66a7 14bf fed0 8d3e 4a72 1a3f 74cd c53e
00000060: dea9 85be e9b6 2cbe b9bd ebbe 8e61 1e3e
00000070: a423 f4bc 77d0 5f3e 9dca 23be 069d df3e
00000080: c176 8dbe 43e1 1ebf d65f d3bc c3e9 b8be
00000090: 4bef bfbc fb33 09bf 8a03 e33e 017f 0c3e
000000a0: 661d d8bd b448 143e 663f 49bd 2a3c 5a3e
000000b0: 323f f2bc b7f7 6cbe 8c8d 10be b996 acbe
000000c0: 8c00 083e 7f1b 80be 91cb 84bd 9a1d 38be
000000d0: 3efb ba3e d2af 4d3e d2ea bebd b142 0f3f
000000e0: f030 ebbd 78a4 043f c628 1ebf 43ad 51be
000000f0: a011 80be dff1 a4bd b5cf a13e e22d 563e
00000100: ac3c 953e 3932 093f be0b 4abe d87d 943e
00000110: eaa8 833e 4f27 acbe 129e a43d e63a f5bd
00000120: 5124 febd 8528 70be 1078 bbbd 4cd5 d5be
00000130: 854f 5d3f 5905 86be e643 bd3e 7448 2d3d
00000140: 9d1e 9ebe a6c1 f93d 965c 3fbe 891f aabd
00000150: ea0b 683b 2992 383e 348f ffbe b296 053d
00000160: dbe7 8e3e 91a1 2c3e 3f1b 66bd 3a99 853e
00000170: 6943 65bc be70 2d3d 6f1c 703e 40a3 03be
00000180: 0c17 c13e 3057 f83d 7258 963e 369a 9c3e
00000190: b27a dd3d f471 ef3e bb5e 9f3d d0af f8bd
000001a0: f119 2bbf 71e8 f53e bfc7 2e3d 5842 04be
000001b0: 646b 1c3c 3e85 5b3e 0cb7 e2be dcf5 74be
000001c0: 9c6a c3bc 6d4b 99be 92b2 4a3e 2c70 71be
000001d0: 824a 083f f529 83bd c4ec 813d 54ef 2c3f
000001e0: ac4e 17bf c70d 4e3d e7de cf3e 58cd 08bf
000001f0: 2e70 b2be e8a8 133e 46aa 583e 3437 aebe

generator.fc2.bias f4 [8]
-0.23191741 -0.09802136 0.21072665 0.00500844 -0.21760035 0.13151553 0.04223325 0.15963006
00000000: c27b 6dbe 6cbf c8bd bac8 573e d71d a43b
00000010: a0d2 5ebe 02ac 063e c6fc 2c3d 1076 233e

generator.fc3.weight f4 [16, 8]
-0.904483 -0.35912853 0.22950576 -0.41362637 -0.0072655696 0.3647917 -0.31146586 0.010432352
0.08946967 -0.27913526 -0.21175224 -0.01611507 -0.46286586 -0.6666421 -0.15426646 -0.16152067
0.29635867 -0.56829405 -0.20567338 0.13944818 -0.0099895615 -0.3458095 -0.035101112 -0.11948845
-0.15213668 -0.37596256 0.25517493 -0.6177961 -0.94087917 0.141107 0.31415996 0.22982787
-0.7156696 -0.2620523 -0.30793718 0.6037279 0.50069034 -0.6945443 -0.50716126 -0.4841828
0.51016396 -0.48214766 0.1467946 0.39210555 -0.24727392 0.29133213 0.86957633 -0.00054894877
-0.5089418 0.43704033 -1.1102078 -0.24468428 0.47558254 0.31700766 -0.08421424 0.7163535
0.22961438 -0.9237537 0.6324708 0.49746078 0.14822723 0.45192063 0.014650472 -0.09364044
0.16630964 -0.21862401 -0.116834335 0.9631462 0.83315533 0.053091917 0.5302504 -0.011422989
0.17141022 -1.2198497 -0.65846086 -0.5251284 0.0027914946 1.2856498 0.05495002 -0.59172124
-0.54752666 0.26907882 -0.18515316 0.17667821 -0.07575769 0.6566941 -0.66773504 -0.45566624
0.90289456 0.17661454 0.25293213 -0.417966 -1.0032792 0.26112652 -0.7731632 -0.021517474
-0.9591503 -0.074917965 0.2046391 -0.22855608 0.021656776 0.6661836 -0.10537372 -0.26685494
-0.13675494 0.2492401 -0.75417745 -0.20753352 0.13214181 0.088972986 -0.25732765 -0.061148908
-0.32592955 -0.6292711 -0.6080353 -0.15359232 0.6302804 0.79445565 0.5451628 -0.55426776
0.45541623 -0.061988283 0.59396875 -0.030313274 -0.33482 -0.7440934 -0.17905763 0.32541484
00000000: 338c 67bf b2df b7be 8f03 6b3e d6c6 d3be
00000010: 0414 eebb fac5 ba3e 7478 9fbe 75ec 2a3c
00000020: e03b b73d d1ea 8ebe 94d5 58be c003 84bc
00000030: c1fc ecbe 0fa9 2abf 07f8 1dbe ad65 25be
00000040: 53bc 973e b87b 11bf 0b9c 52be 81cb 0e3e
00000050: 42ab 23bc f10d b1be 2fc6 0fbd 5cb6 f4bd
00000060: b8c9 1bbe 2a7e c0be 4aa6 823e e327 1ebf
00000070: 75dd 70bf 5a7e 103e 93d9 a03e ff57 6b3e
00000080: 1f36 37bf b82b 86be f1a9 9dbe e98d 1a3f
00000090: 3e2d 003f a8cd 31bf 52d5 01bf cfe6 f7be
000000a0: 1b9a 023f 0fdc f6be 5351 163e 0fc2 c83e
000000b0: 6035 7dbe 7c29 953e 8e9c 5e3f 54e7 0fba
000000c0: 034a 02bf c0c3 df3e 4a1b 8ebf 848e 7abe
000000d0: 8e7f f33e d44e a23e 8478 acbd f162 373f
000000e0: 0820 6b3e 1f7b 6cbf 9be9 213f 2eb3 fe3e
000000f0: e1c8 173e 2462 e73e 8908 703c 8fc6 bfbd
00000100: 134d 2a3e f9de 5fbe d746 efbd c090 763f
00000110: ab49 553f e976 593d 7dbe 073f 7d27 3bbc
00000120: 2986 2f3e 0924 9cbf e490 28bf d16e 06bf
00000130: 82f1 363b 2c90 a43f 4613 613d 0b7b 17bf
00000140: b52a 0cbf b3c4 893e ca98 3dbe 22eb 343e
00000150: d926 9bbd 1b1d 283f aff0 2abf 164d e9be
00000160: 1924 673f 71da 343e 5280 813e a4ff d5be
00000170: 746b 80bf 60b2 853e 06ee 45bf 6a45 b0bc
00000180: e08a 75bf 976e 99bd ea8c 513e 9b0a 6abe
00000190: 8d69 b13c 028b 2a3f 2dce d7bd 36a1 88be
000001a0: 7d09 0cbe cc38 7f3e c611 41bf ab83 54be
000001b0: 2f50 073e 7837 b63d 73c0 83be 4777 7abd
000001c0: 3de0 a6be e917 21bf 34a8 1bbf 4e47 1dbe
000001d0: 0e5a 213f 7261 4b3f ca8f 0b3f 7ee4 0dbf
000001e0: 512c e93e 6de7 7dbd 560e 183f 8b53 f8bc
000001f0: 876d abbe e87c 3ebf e25a 37be c69c a63e

generator.fc3.bias f4 [16]
-0.3589035 -0.035050575 -0.16381249 0.2721112 -0.19027996 -0.12883583 -0.1306957 -0.1580127
-0.11020212 0.21260291 0.08491394 0.14019746 0.015987772 0.32166633 -0.11527461 -0.19856751
00000000: 33c2 b7be 3191 0fbd 76be 27be 2952 8b3e
00000010: c0d8 42be 8aed 03be 18d5 05be 15ce 21be
00000020: a6b1 e1bd 94b4 593e 5ce7 ad3d ec8f 0f3e
00000030: caf8 823c 73b1 a43e 1815 ecbd 4855 4bbe

generator.fc4.weight f4 [7, 16]
-0.17855136 0.43711963 -0.60596627 -0.41972485 -0.080934145 -0.4923931 0.22301276 -0.08273177
0.29852507 0.09233456 0.34124133 -0.582067 0.21461557 -0.6409551 -0.14078642 0.14937042
0.14193003 0.029590905 -0.023147358 0.34909198 0.16210777 -0.29368162 0.6274894 0.29810533
0.28914902 -0.2940396 -0.6300503 0.030394495 0.6509598 0.012276569 -0.3275118 -0.051696643
0.22671665 -0.2118655 0.24259128 -0.21469168 -0.0042498964 -0.16955851 0.3626995 0.33653912
-0.09366667 -0.108639255 0.021450762 -0.10607951 -0.13799784 -0.20283198 0.672171 0.5153236
-0.09193605 0.029639635 -0.014118132 0.21130027 -0.15376827 0.26045024 -0.5268704 -0.26566163
0.47438154 0.055988353 0.5773561 0.11261899 -0.8757372 0.2513096 -0.6718528 -0.52120435
0.38348824 0.3928863 -0.31250912 -0.091065824 0.39519006 0.1239751 0.5506194 -0.22306281
-0.5605087 0.23464407 -0.32099554 -0.056264047 0.6428011 -0.20142113 -0.04957298 0.2346404
-0.6141011 0.11301123 0.27881074 0.549943 -0.60396004 -0.34734458 0.24830288 -0.12085481
-0.034567915 0.1987707 0.06913222 0.38447124 0.26527238 0.45236117 -0.07632272 0.1078077
0.056264218 -0.025493367 0.74415624 -0.24622601 -0.15978605 0.53029615 0.17125754 -0.3542798
1.0066831 -0.036998864 0.29334596 -0.164172 0.32290444 -0.21056157 -0.003980412 -0.31215975
00000000: 2bd6 36be 25ce df3e 9b20 1bbf 2de6 d6be
00000010: cdc0 a5bd f31a fcbe 755d 643e 466f a9bd
00000020: 47d8 983e e719 bd3d 2fb7 ae3e 5802 15bf
00000030: 2fc4 5b3e a215 24bf 512a 10be 8ff4 183e
00000040: 1b56 113e a068 f23c 879f bdbc 2fbc b23e
00000050: 94ff 253e 705d 96be 25a3 203f 43a1 983e
00000060: 570b 943e 5c8c 96be fa4a 21bf e0fd f83c
00000070: 4da5 263f aa23 493c a0af a7be dcbf 53bd
00000080: 6928 683e 45f3 58be d969 783e 23d8 5bbe
00000090: b742 8bbb bfa0 2dbe c0b3 b93e db4e ac3e
000000a0: 50d4 bfbd 427e debd 82b9 af3c 3740 d9bd
000000b0: 4e4f 0dbe 30b3 4fbe 6613 2c3f 3fec 033f
000000c0: f848 bcbd d2ce f23c bd4f 67bc 195f 583e
000000d0: 6e75 1dbe bc59 853e fbe0 06bf cd04 88be
000000e0: 23e2 f23e 0b54 653d 9ccd 133f c9a4 e63d
000000f0: 5030 60bf a7ab 803e 8cfe 2bbf a66d 05bf
00000100: 9258 c43e 6528 c93e 3201 a0be b880 babd
00000110: 5a56 ca3e a8e6 fd3d 65f5 0c3f 946a 64be
00000120: 807d 0fbf 8946 703e 8759 a4be 2175 66bd
00000130: 9d8e 243f 5741 4ebe 090d 4bbd 9345 703e
00000140: bb35 1dbf 6f72 e73d 48c0 8e3e 10c9 0c3f
00000150: 209d 1abf 26d7 b1be 1c43 7e3e ba82 f7bd
00000160: 1697 0dbd 8c8a 4b3e 3195 8d3d 6ad9 c43e
00000170: c8d1 873e e29b e73e 164f 9cbd 49ca dc3d
00000180: 4f75 663d 77d7 d0bc 0681 3e3f ac22 7cbe
00000190: f49e 23be 7dc1 073f 235e 2f3e 2964 b5be
000001a0: feda 803f 1f8c 17bd 7131 963e b41c 28be
000001b0: bb53 a53e 749d 57be 1e6e 82bb 67d3 9fbe

generator.fc4.bias f4 [7]
-0.12070835 0.029230269 -0.083823144 -0.17158175 0.19898239 0.09140682 -0.0067005344
00000000: f035 f7bd 5174 ef3c 78ab abbd 20b3 2fbe
00000010: 0ac2 4b3e 8033 bb3d 2890 dbbb

generator.layer_norm_hidden_0.weight f4 [16]
0.9900001 0.998 0.9900001 0.9900001 0.9900001 1.0100005 0.9900001 1.0
0.9900001 0.9900001 0.998 1.0100005 1.0 1.0100005 1.0080004 1.0100005
00000000: a670 7d3f ee7c 7f3f a670 7d3f a670 7d3f
00000010: a670 7d3f b247 813f a670 7d3f 0000 803f
00000020: a670 7d3f a670 7d3f ee7c 7f3f b247 813f
00000030: 0000 803f b247 813f 2806 813f b247 813f

generator.layer_norm_hidden_0.bias f4 [16]
0.010000001 -0.010000001 0.010000001 -0.010000001 -0.008 0.010000001 -0.010000001 -0.010000001
0.010000001 0.010000001 -0.0019999999 0.0060000005 -0.008 -0.010000001 -0.010000001 -0.010000001
00000000: 0bd7 233c 0bd7 23bc 0bd7 233c 0bd7 23bc
00000010: 6f12 03bc 0bd7 233c 0bd7 23bc 0bd7 23bc
00000020: 0bd7 233c 0bd7 233c 6e12 03bb a79b c43b
00000030: 6f12 03bc 0bd7 23bc 0bd7 23bc 0bd7 23bc

generator.layer_norm_hidden_1.weight f4 [8]
0.9900001 1.0100005 0.9900001 0.9900001 0.9900001 1.0 1.0100005 0.998
00000000: a670 7d3f b247 813f a670 7d3f a670 7d3f
00000010: a670 7d3f 0000 803f b247 813f ee7c 7f3f

generator.layer_norm_hidden_1.bias f4 [8]
0.010000001 -0.010000001 0.010000001 0.010000001 0.010000001 -0.0019999999 0.010000001 -0.010000001
00000000: 0bd7 233c 0bd7 23bc 0bd7 233c 0bd7 233c
00000010: 0bd7 233c 6e12 03bb 0bd7 233c 0bd7 23bc

discriminator.fc1.weight f4 [8, 7]
-0.38364857 -0.12888816 0.5471379 -0.2787222 0.26097947 0.3317255 0.08626555 -0.14471698
0.60607034 0.33250177 -0.13874175 0.34763116 0.094437785 -0.3437516 -0.56657344 0.012499121
0.44239768 0.94097024 -0.5409186 -0.09965205 -0.28637367 -0.34476188 0.28146505 0.5367574
0.57306254 0.13389586 0.62502164 -0.53545624 0.04555254 -0.07367134 -0.8689218 -1.2408038
-0.33058116 -0.20161277 -0.01362393 0.7767205 -0.17837997 -1.2990476 0.22743416 -0.19902895
-0.35913402 -0.16297953 -0.01816468 -1.1050838 -0.03421759 0.20086028 -0.85636413 -0.6062424
0.36643186 -0.10115167 0.61344236 -0.6666338 0.886616 -0.2300988 -0.3669714 1.0163251
00000000: 966d c4be 42fb 03be 3b11 0c3f adb4 8ebe
00000010: 1a9f 853e edd7 a93e feab b03d b030 14be
00000020: 6d27 1b3f ac3d aa3e 5112 0ebe b6fc b13e
00000030: 9968 c13d 3600 b0be f50a 11bf 1dc9 4c3c
00000040: f381 e23e 6de3 703f a479 0abf 6016 ccbd
00000050: 929f 92be a184 b0be 301c 903e ef68 093f
00000060: 3ab4 123f ff1b 093e 6b01 203f a913 09bf
00000070: 4d95 3a3d 00e1 96bd a971 5ebf a9d2 9ebf
00000080: ef41 a9be 9473 4ebe e736 5fbc 28d7 463f
00000090: 3da9 36be 3147 a6bf 80e4 683e 3fce 4bbe
000000a0: 6ae0 b7be 1be4 26be 18ce 94bc 6373 8dbf
000000b0: be27 0cbd 51ae 4d3e ae3a 5bbf b432 1bbf
000000c0: f59c bb3e 9b28 cfbd 8f0a 1d3f 83a8 2abf
000000d0: 44f9 623f 059f 6bbe ade3 bbbe f116 823f

discriminator.fc1.bias f4 [8]
-0.21750136 -0.3628348 0.26270536 0.018283525 -0.009487199 -0.19301681 0.31064993 0.35051984
00000000: adb8 5ebe 7cc5 b9be 5181 863e 55c7 953c
00000010: 3270 1bbc 33a6 45be 820d 9f3e 5677 b33e

discriminator.fc2.weight f4 [1, 8]
0.120872326 -0.34628773 0.33909452 -0.6950744 0.18246925 0.25563508 -0.27674243 0.24230894
00000000: e98b f73d a04c b1be cc9d ad3e 65f0 31bf
00000010: 38d9 3a3e 9ae2 823e 2fb1 8dbe d61f 783e

discriminator.layer_norm_hidden_0.weight f4 [8]
0.99028426 1.0079231 1.0094042 0.9903821 0.9907364 0.9900514 0.99201584 1.0093849
00000000: 4583 7d3f a003 813f 2834 813f ae89 7d3f
00000010: e7a0 7d3f 0274 7d3f c0f4 7d3f 8633 813f

discriminator.layer_norm_hidden_0.bias f4 [8]
0.0095026065 -0.009556443 0.009557927 -0.009535768 0.009516705 0.009523306 -0.009527296 0.009564057
00000000: d2b0 1b3c a192 1cbc da98 1c3c e93b 1cbc
00000010: f4eb 1b3c a407 1c3c 6018 1cbc 90b2 1c3c

exp_avg f4 [16, 7]
0.0035442696 0.0035357797 4.59584e-19 0.0035602516 0.0035762216 0.003529937 -0.0006600211 0.008512937
0.008592722 -1.5440724e-18 0.008724659 0.008999714 0.008538915 -0.006024605 -0.0044775833 -0.004472588
-4.447449e-19 -0.004435544 -0.004365544 -0.0044848844 -0.0017039315 0.0055937828 0.00560685 2.1900514e-19
0.005668234 0.005797811 0.005581917 -0.0015237828 -0.0022130993 -0.0022379572 -4.789464e-19 -0.002220013
-0.0022458225 -0.0022357875 -0.0010578033 0.00550698 0.0055149575 7.268052e-19 0.005493126 0.0054916763
0.0055159163 0.0012125167 -0.0038085834 -0.0037920482 2.755116e-19 -0.0038132546 -0.0038216196 -0.0037884088
0.0006240802 -0.025884079 -0.025870789 -3.0324696e-18 -0.025804872 -0.025754737 -0.02588241 -0.0052041477
0.0031500838 0.0030588035 4.3070082e-19 0.0030081563 0.0028298018 0.0030884612 0.0027386767 0.0071765217
0.0071438854 1.3392898e-18 0.0071136467 0.0070337914 0.0071568005 0.0020564916 -0.009238814 -0.009264087
-1.5345956e-18 -0.00919087 -0.009141915 -0.009275855 -0.00423976 0.0105790775 0.010563385 1.3717547e-18
0.0103873275 0.0101575395 0.010611498 0.008124272 0.017887585 0.017857803 1.1891534e-18 0.017780513
0.017610213 0.017884618 0.004055848 -0.0036069 -0.0036018877 5.2193872e-20 -0.0035826867 -0.0035559898
-0.0036068466 -0.0011343675 0.001703878 0.0017192845 -1.3366628e-18 0.0016882018 0.0015933949 0.001734861
-0.0008351499 -0.009490075 -0.0094879465 1.2255091e-18 -0.009519284 -0.009553187 -0.0094788885 0.0017012699
00000000: fa46 683b 8ab8 673b 2fa5 0721 1c53 693b
00000010: 0b5f 6a3b 8456 673b 4405 2dba d979 0b3c
00000020: 7dc8 0c3c 68dd e3a1 dff1 0e3c 8973 133c
00000030: cee6 0b3c 0d6a c5bb b1b8 92bb ca8e 92bb
00000040: f943 03a1 0a58 91bb d60c 8fbb f0f5 92bb
00000050: 7456 dfba 0d4c b73b abb9 b73b 1f47 8120
00000060: 98bc b93b 90fb bd3b 83e8 b63b abb9 c7ba
00000070: a509 11bb b1aa 12bb 2b5c 0da1 a37d 11bb
00000080: a62e 13bb 4a86 12bb fda5 8aba e573 b43b
00000090: d1b6 b43b d983 5621 aeff b33b 85f3 b33b
000000a0: dcbe b43b 4fed 9e3a 6d99 79bb 0384 78bb
000000b0: 23a2 a220 cce7 79bb 2374 7abb f446 78bb
000000c0: 5099 233a d90a d4bc faee d3bc bbc1 5fa2
000000d0: bd64 d3bc 99fb d2bc 5907 d4bc 8e87 aabb
000000e0: a371 4e3b 3576 483b ab3d fe20 7d24 453b
000000f0: 3274 393b c867 4a3b 5f7b 333b 0729 eb3b
00000100: 4117 ea3b f0a4 c521 9819 e93b b87b e63b
00000110: 9883 ea3b 34c6 063b 655e 17bc 66c8 17bc
00000120: 6277 e2a1 4e95 16bc f8c7 15bc c1f9 17bc
00000130: afed 8abb de53 2d3c 0c12 2d3c 6d6f ca21
00000140: 9c2f 2a3c cf6b 263c d9db 2d3c ab1b 053c
00000150: fc88 923c 874a 923c f27c af21 70a8 913c
00000160: 4b43 903c c382 923c ebe6 843b be61 6cbb
00000170: a60d 6cbb 857a 761f 82cb 6abb 9c0b 69bb
00000180: d860 6cbb 0faf 94ba a954 df3a 9d59 e13a
00000190: b141 c5a1 a746 dd3a 76d9 d03a 4764 e33a
000001a0: f6ed 5aba 427c 1bbc 5573 1bbc 6dda b421
000001b0: c5f6 1bbc f884 1cbc 574d 1bbc 25fd de3a

exp_avg f4 [16]
-0.0041395645 0.013907768 0.0040059057 -0.001972623 0.0043139663 -0.006546479 -0.002481588 0.027314058
-0.0038794081 -0.01206325 0.013822408 -0.012355668 -0.010710941 -0.00047012055 0.012039588 -0.011038404
00000000: 2fa5 87bb 68dd 633c f943 833b 1f47 01bb
00000010: 2c5c 8d3b d983 d6bb 23a2 22bb bbc1 df3c
00000020: ab3d 7ebb f0a4 45bc 6277 623c 6d6f 4abc
00000030: f17c 2fbc 837a f6b9 b141 453c 6cda 34bc

exp_avg f4 [8, 16]
0.007904866 0.004961269 -0.0070612174 -0.013807636 0.0026797757 -0.010236696 0.0071297674 -0.0014981192
0.0036331709 -0.0021639273 -0.011937413 0.0008504612 -0.0010661721 0.00851955 0.009683479 0.0025300244
-0.017340656 -0.020300515 0.012538826 0.030223731 -0.0024441425 0.025318595 -0.009935376 0.0043702093
-0.0163995 0.0045356625 0.019414846 0.0030919695 0.004011527 -0.015698094 -0.008981942 -0.012622068
0.0016197508 -0.00047646175 -0.0012947157 -0.0047464715 0.0025535282 -0.00060390634 0.002454677 0.00032658083
-0.0011205953 0.001959316 -0.0016799057 -0.00043145323 -0.001307041 0.0022349681 0.0034236165 -0.002864249
0.0031598932 -0.0019047337 -0.0022081828 -0.012917574 0.0065410025 -0.0010266689 0.0066119893 0.0016024037
-0.0026853096 0.0053484533 -0.0029963562 -0.0014275985 -0.0029994429 0.0057467637 0.0067046783 -0.0073936307
0.00918613 0.014961071 -0.0063031786 -0.009994082 -0.0035021207 -0.015533517 0.0015400928 -0.0038724183
0.0125175975 -0.0074346075 -0.0103881955 -0.0011464454 -0.00061601214 0.006364293 0.00069658767 0.013575448
-0.0004627454 0.00489891 -0.0004934115 0.008228864 -0.0063899513 0.0013634954 -0.006710984 -0.0026554044
0.0049011535 -0.004198296 0.00052667205 0.00023261167 0.0007719397 -0.005010948 -0.0039379154 0.00880889
0.019228602 0.022840189 -0.014109285 -0.034937773 0.0028117087 -0.03905954 0.015657688 -0.0043072263
0.020700095 -0.010465418 -0.025710333 -0.0006589971 0.00023471838 0.020395923 0.009112273 0.018638248
-0.02787792 -0.02422469 0.021762291 0.053426553 -0.009789977 0.04509015 -0.025148291 0.004515414
-0.01985903 0.0076809437 0.037517846 0.00092543947 0.0036829584 -0.030529212 -0.023926841 -0.013857368
00000000: 6983 013c 2492 a23b c961 e7bb 6c39 62bc
00000010: 2d9f 2f3b d1b7 27bc d3a0 e93b 8a5c c4ba
00000020: 7e1a 6e3b add0 0dbb 2495 43bc 7cf1 5e3a
00000030: cdbe 8bba 9595 0b3c 74a7 1e3c c4ce 253b
00000040: fe0d 8ebc 444d a6bc a66f 4d3c c297 f73c
00000050: e82d 20bb f168 cf3c fdc7 22bc f933 8f3b
00000060: 3f58 86bc e59f 943b e20b 9f3c a4a2 4a3b
00000070: 2173 833b 4a99 80bc ff28 13bc cacc 4ebc
00000080: d14d d43a 9dcd f9b9 73b3 a9ba 4a88 9bbb
00000090: 1859 273b 784f 1eba a5de 203b f038 ab39
000000a0: f0e0 92ba de67 003b 4830 dcba ac34 e2b9
000000b0: 0551 abba 8b78 123b c15e 603b 20b6 3bbb
000000c0: 3616 4f3b 42a8 f9ba 29b7 10bb 3ba4 53bc
000000d0: e855 d63b 4b91 86ba 63a9 d83b bf07 d23a
000000e0: 05fc 2fbb 1442 af3b 845e 44bb 421e bbba
000000f0: 4d92 44bb 594f bc3b ebb2 db3b 4546 f2bb
00000100: 6c81 163c 481f 753c e58a cebb 38be 23bc
00000110: d683 65bb 4b80 7ebc f0dc c93a 66c8 7dbb
00000120: 9c16 4d3c 029e f3bb 4033 2abc 5344 96ba
00000130: e07b 21ba 8f8b d03b 359b 363a 8e6b 5e3c
00000140: a39c f2b9 0987 a03b 4958 01ba 5bd2 063c
00000150: cc62 d1bb 50b7 b23a d0e7 dbbb 4b06 2ebb
00000160: db99 a03b dc91 89bb 5d10 0a3a 38e9 7339
00000170: ff5b 4a3a e132 a4bb a109 81bb 2a53 103c
00000180: 4d85 9d3c 591b bb3c a12a 67bc e91a 0fbd
00000190: a544 383b e5fc 1fbd 8d44 803c a223 8dbb
000001a0: 3f93 a93c 2577 2bbc 7a9e d2bc 8cc0 2cba
000001b0: bc1e 7639 5a15 a73c a54b 153c 3daf 983c
000001c0: 3c60 e4bc db72 c6bc d546 b23c cdd5 5a3d
000001d0: 2466 20bc 73b0 383d ca03 cebc 0af6 933b
000001e0: 68af a2bc 6db0 fb3b 50ac 193d 3199 723a
000001f0: ca5d 713b 6618 fabc 3902 c4bc 040a 63bc

exp_avg f4 [8]
-0.008328845 0.0062268344 -0.0037208006 -0.01146296 0.0044060275 0.014479891 -0.017692532 0.030322555
00000000: b575 08bc 790a cc3b add8 73bb 24cf 3bbc
00000010: 7060 903b 113d 6d3c eeef 90bc 0267 f83c

exp_avg f4 [16, 8]
-0.001841972 0.005442344 -0.00054799 0.0015418166 0.0071357307 -0.00019934247 -0.007586198 -0.0039775013
-0.0028185355 -0.00888947 -0.0045860047 -0.0029003734 -0.010293064 0.000873059 0.018881716 0.009931452
0.0021466576 0.0030992986 0.0027954546 -0.0020245763 0.0029399476 -0.000582335 -0.0048008896 -0.0036495123
-0.0035000215 -0.007001582 -0.0057240706 -0.004052538 -0.009647733 0.0016044935 0.021307005 0.0073368447
-0.00024173506 0.00019926617 0.0005539569 0.0018700917 0.0016908513 -0.0006755598 -0.0033811403 -7.904283e-05
0.008486494 0.009651149 0.011533714 0.013031853 0.014109416 -0.0017234479 -0.040695272 -0.01497794
-0.011071238 0.011410807 -0.0106075825 -0.019490391 0.008167666 0.0010147216 0.021354636 -0.00023654326
-0.0011356923 0.0033548411 -0.0005670632 -0.00039808915 0.003965309 -0.000119728684 -0.002864112 -0.0022265192
0.01080443 -0.01763676 0.0086916825 0.008004491 -0.018507332 -0.00013910154 -0.0008091362 0.009223325
-0.0010745235 -0.0037727 -0.0019748681 -0.0014838531 -0.0043722647 0.0005154255 0.00870134 0.0035812675
0.008340412 -0.022567004 0.0050678393 0.011708494 -0.022479828 0.00044093252 0.0064444547 0.012780349
-0.0010561001 -0.001512238 -0.0016942195 -0.0014822594 -0.002494736 0.00042388405 0.006009025 0.0018992425
-0.0030837639 -0.002322072 -0.002429752 -0.008495407 -0.0025213903 -7.965815e-05 0.01310546 0.0059135584
-0.00029700014 -0.0107536465 -0.0033918428 -0.00033810886 -0.0150808515 0.00070133636 0.01972657 0.009583486
-0.0056165205 0.030087646 -0.0007245424 -0.001490499 0.032916285 -0.0013087017 -0.031297173 -0.022579696
-0.0032039105 0.004863662 -0.0028023133 -0.0033009262 0.004524602 0.000439162 0.001882778 -0.0022691656
00000000: 536e f1ba b155 b23b fda6 0fba c816 ca3a
00000010: d9d2 e93b 9606 51b9 a495 f8bb b355 82bb
00000020: 2eb7 38bb 24a5 11bc 3246 96bb 3114 3ebb
00000030: 3da4 28bc ffdd 643a d4ad 9a3c 87b7 223c
00000040: f0ae 0c3b 9a1d 4b3b f233 373b c1ae 04bb
00000050: 23ac 403b d7a7 18ba c850 9dbb a82c 6fbb
00000060: 9e60 65bb 876d e5bb fc90 bbbb 27cb 84bb
00000070: 8611 1ebc de4d d23a 078c ae3c ea69 f03b
00000080: 437a 7db9 1bf2 5039 6b37 113a dd1d f53a
00000090: 8e9f dd3a 0d18 31ba 1f96 5dbb ccc3 a5b8
000000a0: f00a 0b3c da1f 1e3c e7f7 3c3c 8e83 553c
000000b0: 2e2b 673c 51e5 e1ba 16b0 26bd 0966 75bc
000000c0: 2364 35bc 65f4 3a3c 6dcb 2dbc 50aa 9fbc
000000d0: add1 053c 6800 853a ebef ae3c 9908 78b9
000000e0: 83db 94ba e5dc 5b3b f8a6 14ba 9fb6 d0b9
000000f0: 6cef 813b d916 fbb8 d3b3 3bbb cbea 11bb
00000100: 1005 313c f77a 90bc 8f67 0e3c 4525 033c
00000110: b09c 97bc c9db 11b9 361c 54ba 6e1d 173c
00000120: 07d7 8cba 673f 77bb ca6c 01bb d97d c2ba
00000130: 3745 8fbb 9f1d 073a 1190 0e3c b3b3 6a3b
00000140: 39a6 083c 70de b8bc 1e10 a63b fcd4 3f3c
00000150: 9e27 b8bc f62c e739 012c d33b ab64 513c
00000160: d76c 8aba 4a36 c6ba 9310 deba 5f48 c2ba
00000170: ba7e 23bb c13c de39 5be7 c43b 01f0 f83a
00000180: f918 4abb e72d 18bb 793c 1fbb 5230 0bbc
00000190: e93d 25bb 250e a7b8 49b8 563c 86c6 c13b
000001a0: afb6 9bb9 1030 30bc ae49 5ebb 3444 b1b9
000001b0: ad15 77bc e3d9 373a 9e99 a13c 0e04 1d3c
000001c0: ca0a b8bb 5e7a f63c 38ef 3dba d95c c3ba
000001d0: 3ad3 063d be88 abba 7731 00bd 0ef9 b8bc
000001e0: b3f8 51bb 5b5f 9f3b 04a7 37bb 5a54 58bb
000001f0: 1d43 943b 533f e639 8cc7 f63a 48b6 14bb

exp_avg f4 [16]
0.0011101271 0.00825866 -0.0044095623 0.010319206 -0.0012954662 -0.022294639 0.023330983 0.0012194116
-0.018078273 0.0037382694 -0.012567055 0.0030840798 0.006379729 0.0043084635 0.0037234686 0.005988642
00000000: af81 913a 554f 073c 177e 90bb e311 293c
00000010: a2cc a9ba 3fa3 b6bc 9e20 bf3c aad4 9f3a
00000020: e318 94bc c1fd 743b 0de6 4dbc 461e 4a3b
00000030: 0c0d d13b 032e 8d3b 7005 743b 5f3c c43b

exp_avg f4 [7, 16]
0.0014339786 0.0027891297 0.002916002 0.0034208468 -0.0050147898 0.0047440957 -0.0066770283 0.004742587
0.002275953 0.0021803342 -0.006029241 0.0022707577 -0.002726076 -0.0073337313 -0.0017650108 0.002882986
-0.0024326877 -0.0014378808 -0.002760004 0.009869438 -0.002207916 0.004216233 0.0050977133 -0.00341235
-0.002468479 0.0025282262 -0.0018170044 -0.003639924 -0.00092987006 0.0010615572 0.0014478983 -0.003178739
-0.008041025 -0.014429486 -0.015249206 -0.013493795 0.0213442 -0.019160062 0.03072185 -0.020475026
-0.008681231 -0.007180126 0.030303253 -0.014516566 0.013475592 0.031929933 0.010919488 -0.017945625
-0.003230408 0.0005591662 3.5483063e-05 0.012377683 -0.007926867 0.011614129 -0.005161408 0.0019468126
0.0012208674 0.008329426 -0.0075606345 -0.0020929037 -0.0043775393 -0.006147877 0.0023157967 -0.001949044
-0.010342771 -0.009565996 -0.013182451 0.032584317 -0.007280874 0.015438645 0.01492422 -0.01730775
-0.012064888 0.014556643 -0.0009944442 -0.015547288 0.0009670252 0.007087818 0.015916422 -0.015576737
-0.013195949 -0.008802412 -0.013750867 0.05529762 -0.02152247 0.03188802 0.008384792 -0.017956425
-0.01500389 0.026827235 -0.013828457 -0.01733491 -0.0040952866 -0.0018796065 0.021139322 -0.016606536
0.009069395 0.007470116 0.0097468095 -0.018307833 1.3371273e-06 -0.0091 -0.012878763 0.011185762
0.0049575777 -0.00822599 -0.002600011 0.012953315 -0.00027262466 -0.0073496676 -0.009384201 0.013087971
00000000: 56f4 bb3a d5c9 363b 651a 3f3b 4930 603b
00000010: 1b53 a4bb 5c74 9b3b f9ca dabb b467 9b3b
00000020: 2828 153b f0e3 0e3b f090 c5bb fed0 143b
00000030: f7a7 32bb cc4f f0bb ef57 e7ba 7bf0 3c3b
00000040: ba6d 1fbb 4677 bcba 2fe1 34bb 6cb3 213c
00000050: afb2 10bb 5328 8a3b b80a a73b bca1 5fbb
00000060: 35c6 21bb 99b0 253b 8d28 eeba cb8b 6ebb
00000070: 86c2 73ba f323 8b3a 68c7 bd3a 6452 50bb
00000080: 81be 03bc a769 6cbc ced7 79bc 1415 5dbc
00000090: 08da ae3c 90f5 9cbc 64ac fb3c 3ebb a7bc
000000a0: b93b 0ebc 4347 ebbb 873e f83c e4d6 6dbc
000000b0: bbc8 5c3c f6c8 023d a7e7 323c b402 93bc
000000c0: 41b5 53bb 0295 123a a6d3 1438 c4cb 4a3c
000000d0: b1df 01bc 3049 3e3c 0721 a9bb 312c ff3a
000000e0: 8305 a03a 2578 083c 33bf f7bb 1929 09bb
000000f0: 7671 8fbb 2174 c9bb 9fc4 173b 1077 ffba
00000100: ba74 29bc b2ba 1cbc 35fb 57bc 2277 053d
00000110: 6694 eebb 5ff2 7c3c b784 743c fcc8 8dbc
00000120: cfab 45bc fc7e 6e3c 0358 82ba 0dba 7ebc
00000130: f67f 7d3a ed40 e83b 2863 823c 9235 7fbc
00000140: d233 58bc fe37 10bc 514b 61bc c27f 623d
00000150: e44f b0bc 039d 023d 5e60 093c 5a19 93bc
00000160: e0d2 75bc cac4 db3c c190 62bc f101 8ebc
00000170: c131 86bb 215d f6ba 5f2c ad3c 6e0a 88bc
00000180: cd97 143c e0c7 f43b 15b1 1f3c 4ffa 95bc
00000190: 5877 b335 2b18 15bc 7201 53bc 7c44 373c
000001a0: 2d73 a23b 4ec6 06bc f264 2abb 243a 543c
000001b0: 10ef 8eb9 7bd5 f0bb 31c0 19bc ee6e 563c

exp_avg f4 [7]
-0.0040690466 0.0053624525 0.022203533 0.0025046903 0.023201441 0.026388746 -0.0181306
00000000: a355 85bb 83b7 af3b 2fe4 b53c bb25 243b
00000010: f310 be3c 362d d83c a086 94bc

exp_avg f4 [16]
0.014114386 0.0043937233 0.006780181 0.03177455 0.010458438 -0.020860171 0.023019483 -4.6199048e-06
0.016344707 0.009745709 0.002636879 -0.0063872454 -0.0010131267 -0.009545106 -0.0051508932 -0.022975173
00000000: 0740 673c 39f9 8f3b 482c de3b 0826 023d
00000010: de59 2b3c f3e2 aabc 5b93 bc3c ae04 9bb6
00000020: 56e5 853c 77ac 1f3c 7dcf 2c3b 194c d1bb
00000030: e4ca 84ba 1463 1cbc d3c8 a8bb 6e36 bcbc

exp_avg f4 [16]
-0.014583181 0.013091611 -0.0058867685 0.013369314 0.0018685666 -0.027718063 0.021493051 0.021793215
-0.034472615 -0.0029568882 0.0011363783 -0.0016688097 0.0069096615 0.013000789 0.026239123 0.017675184
00000000: 4bee 6ebc 327e 563c cbe5 c0bb f80a 5b3c
00000010: b1ea f43a fe10 e3bc 3212 b03c af87 b23c
00000020: 2833 0dbd 5ac8 41bb 87f2 943a f6bb daba
00000030: 716a e23b 4301 553c 6ef3 d63c 8ccb 903c

exp_avg f4 [8]
0.012423141 -0.02013714 0.012026745 0.026753599 0.02263902 -0.00024310657 -0.060428742 0.0028460883
00000000: 6e8a 4b3c a5f6 a4bc d30b 453c 5d2a db3c
00000010: 7775 b93c 6cea 7eb9 2184 77bd 7085 3a3b

exp_avg f4 [8]
-0.023800403 0.010509301 -0.024588995 -0.04880664 -0.01351678 0.00019555923 -0.022682274 0.020463353
00000000: 10f9 c2bc 342f 2c3c dc6e c9bc 79e9 47bd
00000010: 7c75 5dbc 080f 4d39 2dd0 b9bc c3a2 a73c

exp_avg f4 [8, 7]
0.020786345 0.000120887584 -0.00479754 -0.006920159 0.027840534 0.013049287 0.005568519 -0.029660443
0.042692333 -0.0028228739 0.11507397 -0.013544264 0.062977664 -0.022486394 0.0004240867 -0.032389138
-0.021275721 -0.024607243 0.01671782 -0.0019452523 0.057050783 0.084882066 0.12623553 0.04078468
0.11365995 0.034624897 0.05297118 -0.0574877 0.070895165 0.023052253 -0.008049498 -0.005508051
0.07207534 0.037041955 0.013800824 0.007036699 -0.039244566 -0.0052248533 -0.07491039 0.0015362585
-0.040468425 0.015104248 -0.015667647 0.0085202595 0.016756158 -0.0055204877 -0.031022163 -0.025455084
-0.031327326 -0.08590905 -0.123387575 -0.018897388 -0.13200395 -0.07136668 -0.095968924 0.03597688
00000000: 2048 aa3c 0785 fd38 af34 9dbb 80c2 e2bb
00000010: d511 e43c adcc 553c 1f78 b63b 75fa f2bc
00000020: 28de 2e3d f7ff 38bb e7ab eb3d c3e8 5dbc
00000030: 6ffa 803d 6335 b8bc f457 de39 79aa 04bd
00000040: 6c4a aebc 2195 c9bc cff3 883c d6f7 feba
00000050: 15ae 693d a6d6 ad3d e343 013e d60d 273d
00000060: 8cc6 e83d d6d2 0d3d 4ff8 583d 3978 6bbd
00000070: 7c31 913d 14d8 bc3c 0be2 03bc e17c b4bb
00000080: 3c9c 933d 4eb9 173d da1c 623c 1c94 e63b
00000090: e9be 20bd 3f35 abbb 9e6a 99bd 485c c93a
000000a0: 38c2 25bd cf77 773c 7059 80bc 8f98 0b3c
000000b0: 3644 893c 35e5 b4bb 3122 febc 2e87 d0bc
000000c0: 1551 00bd 16f1 afbd a0b2 fcbd b2ce 9abc
000000d0: 0b2c 07be b228 92bd 5b8b c4bd 7e5c 133d

exp_avg_sq f4 [8, 7]
3.300843e-05 1.0451326e-06 5.164953e-06 1.0071255e-05 1.8807057e-05 1.0050226e-05 1.3015067e-06 3.904714e-05
6.410973e-05 1.2213506e-05 0.000410916 8.320038e-06 0.00015195266 1.4361975e-05 3.0776766e-05 4.7490154e-05
3.133485e-05 0.0001380361 2.7570204e-05 0.00011087726 8.719927e-05 0.00020405411 0.0003987256 7.852377e-05
0.0005541415 8.9121786e-05 0.00035259916 0.00010284245 0.00015064307 1.7967026e-05 4.84485e-06 1.4207376e-05
0.000133294 3.2939693e-05 5.5671835e-06 1.446914e-05 4.692742e-05 1.7808543e-06 0.00017990606 1.120318e-05
6.96307e-05 6.9519565e-06 5.0236944e-05 7.502595e-06 1.8866998e-05 4.4309592e-05 3.0254807e-05 6.322239e-05
2.4883415e-05 0.00017405747 0.0003872957 2.0456344e-05 0.00057462277 0.00018587864 0.0004071089 3.7873106e-05
00000000: 8872 0a38 7c46 8c35 9c4e ad36 b6f7 2837
00000010: d9c3 9d37 649d 2837 6eaf ae35 8cc6 2338
00000020: a672 8638 9ce8 4c37 3670 d739 4b96 0b37
00000030: 7b55 1f39 37f4 7037 4d16 0138 2a30 4738
00000040: 8a6d 0338 c9bd 1039 9046 e737 c786 e838
00000050: c0de b638 5cf7 5539 0b0c d139 21ad a438
00000060: ce43 113a e5e6 ba38 0fdd b839 1fad d738
00000070: f1f5 1d39 e5b7 9637 f290 a236 375c 6e37
00000080: d6c4 0b39 ba28 0a38 becd ba36 7cc0 7237
00000090: efd3 4438 b005 ef35 2aa5 3c39 4bf5 3b37
000000a0: b306 9238 da44 e936 82b5 5238 cdbe fb36
000000b0: 9244 9e37 10d9 3938 b4cb fd37 4396 8438
000000c0: babc d037 3283 3639 f30d cb39 aa99 ab37
000000d0: 48a2 163a 6be8 4239 3b71 d539 f0d9 1e38

exp_avg f4 [8]
0.010679467 0.031066881 -0.16881514 0.19294716 0.004595636 -0.0137514835 0.08382188 -0.14576368
00000000: eef8 2e3c f97f fe3c e0dd 2cbe f193 453e
00000010: fd96 963b e74d 61bc ceaa ab3d 1343 15be

exp_avg_sq f4 [8]
3.6025676e-06 3.271704e-05 0.00094276346 0.001549522 1.6992024e-05 2.5739382e-05 0.00021677307 0.00081933424
00000000: a4c3 7136 a739 0938 c923 773a 5519 cb3a
00000010: 188a 8e37 e7ea d737 944d 6339 97c8 563a

exp_avg f4 [1, 8]
0.16397455 0.058440477 -0.13452417 -0.2976776 0.19536474 0.29590827 -0.14056402 -0.14448963
00000000: f2e8 273e 485f 6f3d b4c0 09be 3369 98be
00000010: b20d 483e 4a81 973e 04f0 0fbe 17f5 13be

exp_avg_sq f4 [1, 8]
0.00073596905 0.00018810219 0.0008096781 0.0038580191 0.0024300953 0.0024709215 0.00079530565 0.00113949
00000000: 0cee 403a 4c3d 4539 9440 543a d2d6 7c3b
00000010: 3c42 1f3b 2fef 213b 0f7c 503a f15a 953a

exp_avg f4 [8]
0.020832794 -0.019641161 -0.04446916 0.20996863 0.037039377 0.07760491 0.039658874 -0.03388683
00000000: 89a9 aa3c 80e6 a0bc 4b25 36bd 0402 573e
00000010: 9ab6 173d 53ef 9e3d 5871 223d ebcc 0abd

exp_avg_sq f4 [8]
1.2064281e-05 2.154324e-05 8.92694e-05 0.0019134568 8.5766434e-05 0.00016961995 6.281919e-05 6.355783e-05
00000000: b167 4a37 c1b7 b437 2536 bb38 f5cc fa3a
00000010: 81dd b338 02dc 3139 ccbd 8338 5a4a 8538

exp_avg f4 [8]
-0.022997063 0.06238472 -0.060868118 0.1276108 -0.03415691 -0.04758324 0.051178157 -0.043235935
00000000: 5664 bcbc 1f87 7f3d d950 79bd 68ac 023e
00000010: 1ee8 0bbd a5e6 42bd 30a0 513d 2a18 31bd

exp_avg_sq f4 [8]
1.680348e-05 0.00011984067 0.00011392451 0.00050732377 3.6763046e-05 7.106541e-05 8.196019e-05 5.7272802e-05
00000000: 33f5 8c37 f852 fb38 c1ea ee38 ecfd 043a
00000010: 0532 1a38 f408 9538 0be2 ab38 3438 7038
