saved/type_1_fold_4.ckpt (torch, 21266 bytes, 39 tensors)

generator.fc1.weight f4 [16, 7]
000000 f7 81 9e be 55 f7 cc 3e a0 ea 08 3f b9 07 c0 be
       -0.3095853 0.4003245 0.5348301 -0.37505892
000010 5c 51 38 3f e9 15 20 bf 29 68 0d 3f 80 8a 9e 3f
       0.71999145 -0.6253343 0.5523706 1.2386017
000020 5b f6 40 bf 8c 2b 3e bf d1 c1 5d bf 39 c2 34 bc
       -0.7537591 -0.742852 -0.86623865 -0.011032634
000030 1d ef 41 bf 63 d5 1a be 5a 93 99 bf dd c6 03 be
       -0.7575548 -0.15120463 -1.1998093 -0.12868829
000040 75 ea 03 3f 1a 7d d5 3f 18 a0 31 bf 26 3d e8 3d
       0.5152963 1.6678803 -0.6938491 0.11339788
000050 ab 1a 88 bf 1a 17 51 3e a7 d4 e3 3f fd 9c 29 3f
       -1.0633138 0.20418969 1.7799271 0.6625517
000060 56 6e 11 3e 34 41 43 3d ef 29 1f 3f aa e7 3f bf
       0.14202246 0.047669604 0.6217336 -0.74962866
000070 03 47 99 3e 3a 7a 06 3e e2 16 46 3e 07 8d c0 bd
       0.2993699 0.13132563 0.19344667 -0.09401899
000080 aa ea fc be c9 97 96 be 90 e0 17 3e 1f 9c 16 bf
       -0.49397784 -0.29412678 0.14831758 -0.5883197
000090 7c 57 85 be 49 22 83 3f 76 b9 92 3f 0c 78 47 3c
       -0.26043308 1.0244838 1.1462848 0.0121746175
0000a0 7c c5 13 3e 88 4d 65 3f b3 5f 86 bf f7 15 28 be
       0.14430803 0.8957143 -1.0497955 -0.16414629
0000b0 67 0e 49 bd 93 47 2a 3f 6e 10 2c 3f 95 4e 23 be
       -0.049086 0.66515464 0.6721257 -0.15947945
0000c0 68 43 79 3d a0 c0 e7 bd de 86 24 3e 11 db de 3e
       0.0608553 -0.11316037 0.16067073 0.4352651
0000d0 e1 f7 d7 bd f6 58 c0 3e 62 13 52 be 65 c0 e7 bc
       -0.10545326 0.37567872 -0.20515206 -0.028289983
0000e0 e8 6a 9c 3e 05 6a 26 be 15 68 ca be 6d c2 26 3f
       0.30550313 -0.1625138 -0.39532533 0.6514042
0000f0 59 6b cd 3e 52 fe 84 3f 02 68 42 3f 9d 39 82 be
       0.40120962 1.0390112 0.75939953 -0.2543458
000100 34 c2 0b 3f ba 62 02 3f 95 12 b4 be dd 0a de 3e
       0.54593205 0.50931895 -0.35170427 0.43367663
000110 7c 7c 8d 3f f4 cc b5 3e 35 3b 70 3d 60 98 3d bf
       1.1053615 0.3550793 0.058650214 -0.7406063
000120 43 1a f0 be 86 98 9f 3e 62 e2 dd 3d 6d cc 8c 3f
       -0.46895036 0.31171054 0.10834195 1.0999886
000130 06 8d a4 3e b7 a8 c1 be 4c 39 61 bf 5b a9 98 bd
       0.32138842 -0.37824032 -0.87978053 -0.07454177
000140 e5 64 8a 3f 41 cb 8c be c5 36 76 bc e4 89 27 3f
       1.081204 -0.2749882 -0.0150277065 0.6544478
000150 5c 72 2e be 3d 07 01 3f de f8 69 3e 26 c8 4a 3d
       -0.17035812 0.5040167 0.22848842 0.049507283
000160 0f c2 18 3f 86 79 45 3f 7f c0 b4 be 01 2c 83 be
       0.5967111 0.77138555 -0.35303113 -0.2561951
000170 10 3e 70 3e 34 17 80 be f8 e2 f0 3d 80 ea b7 be
       0.23461175 -0.25017703 0.11762041 -0.35921097
000180 2b 9e bc 3e e8 53 ed 3d e8 4d 6c 3e 24 9d 7e 3e
       0.36839423 0.115882695 0.23076594 0.24864632
000190 5f 39 43 3f 1d 9e 2a bf 9c f6 c3 3e 12 9f b0 bd
       0.76259416 -0.6664751 0.38274086 -0.0862409
0001a0 fd 5c df bd 4f 0e 22 3c 59 40 d5 3d 6d 18 e7 3e
       -0.10906408 0.009891107 0.10412664 0.45135823
0001b0 c6 9b 81 3e a3 96 34 be 40 fa c5 bc da 87 3d 3f
       0.25314158 -0.17635588 -0.02416718 0.7403542

generator.fc1.bias f4 [16]
000000 63 7c 4d 3e 15 c6 98 be 76 18 bd be e3 17 af 3e
       0.20066981 -0.29838625 -0.36932725 0.34197912
000010 36 3f 8b bd b1 d4 e5 bc 48 70 8a be 0b 1c 86 3e
       -0.06799166 -0.02805552 -0.2703879 0.2619327
000020 b4 ea 14 bd 93 d0 81 3e 33 a5 1d bd 36 6d c1 bd
       -0.036356643 0.25354442 -0.038487624 -0.094446585
000030 19 07 93 3e b7 6c a3 3e ae 30 20 be 2a a6 80 bd
       0.28716353 0.3191888 -0.1564357 -0.06281693

generator.fc2.weight f4 [8, 16]
000000 8f ed 5b be b1 66 4a 3e 4a e1 2d be 2e 53 cf bd
       -0.2147734 0.19765736 -0.16980472 -0.10123287
000010 b3 e2 19 be 70 64 f8 bd da 1c d4 3e 09 70 d5 be
       -0.15027885 -0.12128532 0.41428262 -0.4168704
000020 72 e5 55 be 2d 59 09 be 88 03 0c 3f 1d 99 4c 3e
       -0.20888308 -0.13412924 0.5469289 0.19980283
000030 34 bc 9d 3c 1b b5 8b be 1f 6f 8c be b4 d5 b1 3e
       0.019254781 -0.2728661 -0.2742853 0.34733355
000040 9a d3 88 be 86 ca 36 3f d0 30 b7 3e bd 41 b1 be
       -0.2672394 0.71402776 0.35779428 -0.34620467
000050 d9 9c b8 3d 30 89 f0 bd 3d 52 85 3e e6 15 3a bd
       0.09014291 -0.117449164 0.26039305 -0.04543104
000060 74 be 92 be 05 14 c3 be 0c b8 5d be ec f9 97 bd
       -0.2866093 -0.3810121 -0.2165224 -0.07420716
000070 f6 10 50 3e 2f 6b e3 3d 7d 8d 16 bf 11 14 a5 bd
       0.2031897 0.11104428 -0.58809644 -0.08060468
000080 9a dd 2c 3f f5 99 07 bf 84 2b 6e 3e 6c 5b 20 3e
       0.6752564 -0.52969295 0.23258787 0.15659875
000090 21 fd f6 3d d6 1b 1e bf bc db ee 3e 49 ae 1c 3e
       0.12059999 -0.61761224 0.4665202 0.1530086
0000a0 1e 1a 29 3f 6a 1d 46 3e e4 9f 14 3e 5a 02 9d 3f
       0.66055477 0.19347158 0.14514118 1.2266343
0000b0 4c 70 8e 3e 5c 55 96 bd af b3 3a be ce bb 20 3d
       0.2782005 -0.073405 -0.18232606 0.039241605
0000c0 7a 9b a8 be 42 b2 84 3e da 72 f3 3d fb 81 15 be
       -0.3293112 0.2591725 0.118871406 -0.14600365
0000d0 ca 4e 34 3f f7 ed b1 bc 9d e1 4c bf 7b ae 08 3f
       0.7043272 -0.021719916 -0.8003176 0.53391236
0000e0 af 52 2b be 75 91 81 bd fa 80 91 be 9e 97 af 3e
       -0.1673076 -0.06326572 -0.28418714 0.34295362
0000f0 dc 3b 62 bc 87 be 30 3e 75 03 9a 3d 35 45 8b bb
       -0.013808217 0.1726018 0.075201906 -0.0042501935
000100 0f aa 5b be 5a 97 fd 3d d0 83 bf bc 41 1d 0c 3e
       -0.21451591 0.12382384 -0.023378283 0.13683034
000110 ee 70 31 3f 4d f9 1c be 3a 1b 0c 3f 86 89 32 bf
       0.6931294 -0.15329476 0.54729044 -0.69741094
000120 1b 16 9e 3c 31 d7 b5 3d 10 08 44 3d 94 6a f4 3e
       0.01929765 0.08878935 0.04785925 0.47737563
000130 ab 13 88 3d e4 8a 4b 3e dd bd 92 be e8 69 22 3f
       0.06644376 0.19877201 -0.2866048 0.6344285
000140 90 f5 c9 bd cc 3a 11 bc 0e 66 56 bc b8 1d 38 bd
       -0.098612905 -0.008864116 -0.013085855 -0.044950217
000150 14 8a 51 be 6b 3f 6f 3e f4 8c 1d bf 09 5d 72 3e
       -0.20462829 0.23364036 -0.615432 0.23668303
000160 7e 02 82 be f9 7a 0a 3d 67 62 a0 3e 3d b5 4f be
       -0.25392526 0.033808682 0.31325075 -0.2028398
000170 7b d6 96 3e 18 6f c0 3d 0b 26 91 3d ef c7 20 bf
       0.2946051 0.093961895 0.07087334 -0.62805074
000180 8b 51 43 bc 3e 79 5d 3e 13 d3 09 bf 3f d0 8a 3d
       -0.011921297 0.21628281 -0.538377 0.06778001
000190 a7 b7 4d 3e 7c 1b bb bb 31 36 a7 3e e4 41 10 bf
       0.20089589 -0.0057100635 0.32658532 -0.5635054
0001a0 ea f2 c7 be a2 d2 d3 3d 3c 4b 36 3d 46 11 15 bf
       -0.39052516 0.103429094 0.044505343 -0.5822948
0001b0 c0 3a 94 3e ca 1a 0b 3e 0b 8e 91 bd 01 fd 2c 3e
       0.28951073 0.13584438 -0.07107171 0.16893388
0001c0 a2 e1 f7 3d c8 bd 68 3e 5d 72 d6 be 6f f4 1c be
       0.12103583 0.22728646 -0.41884127 -0.15327619
0001d0 7a 3f bc 3e c1 ca 9d be 06 53 d8 bd ca 4d 29 3e
       0.3676718 -0.3081875 -0.105627105 0.1653358
0001e0 a0 83 fe 3d cb 75 7c 3d 50 74 bf bc 63 dc 86 be
       0.12427449 0.061635774 -0.023370892 -0.26340017
0001f0 82 a9 86 be 58 23 ca 3e 4d 57 6f 3e 42 d3 b3 3d
       -0.263012 0.3948009 0.23373146 0.087805286

generator.fc2.bias f4 [8]
000000 7f fe 44 3d 46 aa ce 3d e1 10 50 3e d7 79 46 be
       0.04809427 0.10091071 0.20318939 -0.19382416
000010 4e 48 d8 bd ba 0e ec bd 3a 8b ee 3d 8f ec 0f 3e
       -0.10560666 -0.11526246 0.11647649 0.14055084

generator.fc3.weight f4 [16, 8]
000000 bc 47 b1 bd c2 8c a2 bd 39 f7 4f be 92 6e b6 be
       -0.0865626 -0.07937004 -0.20309152 -0.35631233
000010 cd 28 e5 3d 27 ac 28 3f 28 d7 09 bf 73 6a b9 be
       0.11189423 0.65887684 -0.5384393 -0.36214027
000020 bb 05 e0 be 7e 60 0c 3f 41 32 63 3e 88 96 1d 3e
       -0.43754372 0.54834735 0.22187139 0.15389454
000030 5d 78 f4 3e 3e ee 06 bf e9 9c 21 bf 8b d5 a1 3d
       0.4774808 -0.5270728 -0.6313005 0.07902058
000040 d4 8c 6c 3e 74 1c da 3e 74 0f fd 3e 42 9d 0c bf
       0.23100597 0.42599833 0.49425852 -0.54927456
000050 c4 fa 31 3e d3 87 80 3e f7 e6 9f bf 90 10 80 bc
       0.17380816 0.25103626 -1.249236 -0.015632898
000060 37 3b 8d bf ac 8b 64 be 39 0a c4 be 1b 14 d1 be
       -1.1033696 -0.22318906 -0.3828905 -0.40835652
000070 cd 07 96 3e 4f 5f 79 bd d8 d0 84 be ec e2 e5 be
       0.29302827 -0.06088191 -0.25940585 -0.4489969
000080 e2 3f 9c 3c 6c 42 fa be 91 0d 36 3f 3c dd f2 be
       0.01907343 -0.488788 0.7111445 -0.47434413
000090 ca b1 25 3f 8f b9 03 3f 75 f0 98 bf c7 ee 22 bc
       0.6472441 0.51455015 -1.1948382 -0.009944624
0000a0 2c f6 6b bd ac fa c2 3e 90 32 08 3e c0 43 71 3f
       -0.057607815 0.38081872 0.13300538 0.94244003
0000b0 9c 8f a1 3e bf e5 28 3f ca ee f3 3e b1 6c 32 bf
       0.31554878 0.65975565 0.4764312 -0.696971
0000c0 5c e9 1c 3f 49 0a ed 3e cb c1 23 bf ca 7f 28 3f
       0.6129358 0.4629691 -0.6396758 0.6581999
0000d0 da 92 87 3e 9a 12 c6 be bf 67 2d 3d 58 cb 38 bf
       0.26479226 -0.38686067 0.042335268 -0.7218528
0000e0 e1 7e 80 be 7a 50 08 3e cb 9c d7 3d 4c e4 0c 3d
       -0.250968 0.1331195 0.10527953 0.03439741
0000f0 32 b1 a2 be ea e7 9e be 3c b8 3f 3f 70 3e 61 3f
       -0.31775814 -0.3103631 0.74890494 0.879859
000100 3d a2 56 3f 78 07 a0 3e c2 25 c0 be 4e e6 98 be
       0.83841306 0.31255698 -0.37528807 -0.2986321
000110 07 62 06 bf 91 d0 14 3f 9a 3a cb be 3c 42 59 bf
       -0.5249333 0.5813075 -0.39693147 -0.8486669
000120 e4 d5 91 bf 9e c0 70 bf 50 9f 2f bf 7c 41 26 3f
       -1.1393399 -0.9404391 -0.68602467 0.6494367
000130 16 5d 7b bc 0e 4b ee 3e 69 cc 72 be 42 8a 60 be
       -0.015342018 0.46541637 -0.23710789 -0.21927741
000140 85 fd 11 3f 83 d5 06 3f c9 7c 23 bf f6 18 13 bf
       0.57027465 0.52669543 -0.6386228 -0.5745996
000150 f7 98 f8 be 70 09 b1 be ef 8b 15 3e 6c 9b 24 3f
       -0.48554203 -0.34577513 0.14604162 0.64299655
000160 de 45 33 3d 83 38 bb 3e d8 14 15 bf cc 36 fe 3e
       0.043767802 0.36566553 -0.5823493 0.49651182
000170 43 ef d1 3e 9a 36 26 3e 38 aa 3c bf f8 8c 09 3f
       0.41002855 0.16231766 -0.73697233 0.53730726
000180 34 68 c8 3e 20 b8 72 be da 93 d5 3d 65 c8 d5 bc
       0.39142 -0.2370305 0.10428591 -0.026096532
000190 12 2f e8 be 99 cd 65 3d 4c 28 1b be e9 32 88 be
       -0.45348412 0.056104276 -0.15152091 -0.2660134
0001a0 c0 52 13 bf 02 43 2f 3e 4f 10 ee be 9c 7b 17 bc
       -0.5754814 0.17115405 -0.46496817 -0.009245779
0001b0 38 2f a8 bf d0 e1 49 3f de 84 81 3e a6 af 67 3f
       -1.313941 0.7886019 0.25296682 0.90502393
0001c0 77 98 14 3f 8c 47 9a bf 13 95 94 3e 7b 82 1e 3f
       0.5804514 -1.2053084 0.29019985 0.6191785
0001d0 66 b2 36 3e 70 0d b0 be 86 3d 58 bd 0b ff 89 bd
       0.17841491 -0.34385252 -0.05279305 -0.06738099
0001e0 dc 6c b6 3e 18 41 2b 3f 1b 5c 64 3e cc f8 4d bf
       0.35629928 0.668962 0.2230076 -0.8045776
0001f0 f4 1f 88 3d c7 39 f9 3e 76 27 c8 bd 36 bf 03 3e
       0.066467196 0.48676893 -0.097731516 0.1286591

generator.fc3.bias f4 [16]
000000 56 1e a4 bd b0 37 cf bd 07 c0 38 3e bf b2 5c be
       -0.080135986 -0.101180434 0.18042003 -0.21552561
000010 97 42 53 3d 93 d3 a5 bc e5 70 92 be 1d ae 08 3e
       0.051577177 -0.020242488 -0.28601757 0.13347669
000020 09 d3 2e bd e6 1a f8 3d 3e da 42 be 07 0f 13 bd
       -0.042681728 0.121145055 -0.19028565 -0.035903003
000030 c0 31 95 be 90 de a9 be bd 1c 83 3e cf 2d 5f 3e
       -0.2913952 -0.33177614 0.25607863 0.21794818

generator.fc4.weight f4 [7, 16]
000000 d9 67 95 3e 87 4d 12 bf 5c 6f 02 bf 5e 9d e3 bd
       0.29180792 -0.5714955 -0.5095117 -0.11114
000010 ee 78 13 3f 6b cf 17 bf 0b d0 f1 be fb 3c a9 3e
       0.576064 -0.5930087 -0.47229037 0.33054337
000020 c3 78 a0 be f8 bf 8d be e3 8e 99 3e 28 56 fe be
       -0.31342134 -0.27685523 0.29991826 -0.49675107
000030 40 50 b7 bd 9f 81 14 bd 37 cb 10 be eb 02 42 bf
       -0.08950853 -0.03625643 -0.1414002 -0.757857
000040 a4 5d dd bb 8b 0f 48 3e d2 bc 9f 3e 90 ac 1b bf
       -0.0067555476 0.19537179 0.31198746 -0.60810184
000050 ed bb 50 3c 44 1c be 3e e7 4b 24 3f 8c 7d 86 be
       0.0127401175 0.3713094 0.6417832 -0.2626766
000060 7c 77 fc 3e 74 60 e1 bd e5 5f 4a be d5 f5 6d bf
       0.4930991 -0.11004725 -0.19763143 -0.92953235
000070 05 a6 52 be c2 9e 06 3e ee 2a e3 3e 90 e3 ec 3e
       -0.20571144 0.13146499 0.4436869 0.46267366
000080 df 11 56 3e 92 bc 53 be 0f be bd be 58 c8 43 3f
       0.20905255 -0.20677403 -0.37059066 0.76477575
000090 27 ea ca be 49 fe bc 3e 43 9d e4 3e 82 f1 c3 be
       -0.3963177 0.36912754 0.4465123 -0.38270193
0000a0 a0 c1 8d 3d 0e fa 8e 3e f8 79 ef be 34 ee 73 3e
       0.06921697 0.27925152 -0.46772742 0.23821336
0000b0 81 3c 13 3f 64 bd 9e 3d ee 30 16 bf 52 ee 38 3e
       0.57514197 0.07750967 -0.5866841 0.18059662
0000c0 64 23 3a bd 64 aa 48 be 0a 16 f5 3d 8c ef 36 be
       -0.045443907 -0.19596249 0.11967094 -0.17864817
0000d0 d4 89 a5 bc 1b 13 0f 3e 29 23 d6 bd dd 5f 14 bf
       -0.020207323 0.13972132 -0.10455925 -0.57958776
0000e0 83 90 1c 3f 1f 0c 06 3e 52 2a 1a 3f 95 cc a9 3e
       0.6115801 0.13090561 0.60220826 0.33163896
0000f0 22 2c dc 3d 55 63 58 be dd 08 a9 3e e0 a1 2b 3f
       0.10750605 -0.21131642 0.33014575 0.67043877
000100 0a 91 99 3e 97 b0 a0 be 50 58 a2 3e 1e 3d 4b 3e
       0.2999347 -0.31384727 0.31708002 0.19847533
000110 f9 ef 4b 3e f9 96 01 be 9e 3a b7 3e 3a 0c 59 3d
       0.19915761 -0.12655248 0.3578691 0.052990176
000120 e9 7e 7d be b6 f4 f6 3d 6e b2 a1 be 13 56 c8 be
       -0.24755444 0.12058394 -0.31581444 -0.3912817
000130 2d 23 9b 3c 1c 11 0a 3b 26 8a 8c be c2 1e 7c 3e
       0.018937672 0.0021067327 -0.2744915 0.24621108
000140 f8 e7 69 3e 35 d5 20 be 15 8e fd 3b a3 30 07 bf
       0.22842395 -0.15706332 0.0077378848 -0.5280859
000150 a9 f5 c2 3d 64 8e 0f 3c 0d 73 95 be e3 3c 2b be
       0.09519512 0.008761976 -0.2918934 -0.16722445
000160 ef 07 20 bf 1b 52 6a be cd 80 82 3e 8f 53 7d 3e
       -0.62512106 -0.22882883 0.25488892 0.24738906
000170 f8 61 49 3e c2 1b 52 3e 67 af 24 be db d1 85 3e
       0.19666278 0.20518401 -0.16082536 0.2613667
000180 a8 6f c6 bd 52 e3 19 be 8e 5e f5 3e 7a 93 ae be
       -0.096892655 -0.15028122 0.47923702 -0.3409689
000190 aa 54 3b 3d 82 82 26 bf ae 0e 16 3d 29 4b bf 3c
       0.04573504 -0.6504289 0.036635093 0.023351269
0001a0 b9 fe 89 bd a8 2d 80 be 99 b1 bc bd 1a a7 8a 3e
       -0.067380376 -0.25034833 -0.092135616 0.27080613
0001b0 ef a6 57 bf 51 77 12 bd df 7b d4 3e 8d 0a e8 3e
       -0.84239095 -0.03575832 0.41500756 0.4532055

generator.fc4.bias f4 [7]
000000 f9 68 38 3e 6b ca 1f 3e 11 87 b5 3c 59 64 30 be
       0.18008794 0.1560456 0.022159131 -0.1722578
000010 41 e2 81 bd d1 b7 43 be d5 7d 6f 3e
       -0.06341983 -0.19113089 0.23387845

generator.layer_norm_hidden_0.weight f4 [16]
000000 1d 2f 7d 3f 1d 2f 7d 3f 41 35 7e 3f c5 20 80 3f
       0.98900014 0.98900014 0.9930001 1.001
000010 1d 2f 7d 3f 1d 2f 7d 3f 1d 2f 7d 3f 41 35 7e 3f
       0.98900014 0.98900014 0.98900014 0.9930001
000020 1d 2f 7d 3f 1d 2f 7d 3f 77 68 81 3f 77 be 7f 3f
       0.98900014 0.98900014 1.0110005 0.999
000030 65 3b 7f 3f 77 68 81 3f ed 26 81 3f 1d 2f 7d 3f
       0.99700004 1.0110005 1.0090004 0.98900014

generator.layer_norm_hidden_0.bias f4 [16]
000000 0b d7 a3 bb 59 39 34 3c 59 39 34 bc 59 39 34 bc
       -0.0050000004 0.011000001 -0.011000001 -0.011000001
000010 59 39 34 3c 42 60 e5 bb 59 39 34 bc 59 39 34 3c
       0.011000001 -0.007 -0.011000001 0.011000001
000020 59 39 34 bc 59 39 34 bc 59 39 34 bc 59 39 34 bc
       -0.011000001 -0.011000001 -0.011000001 -0.011000001
000030 59 39 34 bc 59 39 34 3c 59 39 34 3c 59 39 34 bc
       -0.011000001 0.011000001 0.011000001 -0.011000001

generator.layer_norm_hidden_1.weight f4 [8]
000000 65 3b 7f 3f 1d 2f 7d 3f 77 68 81 3f 1d 2f 7d 3f
       0.99700004 0.98900014 1.0110005 0.98900014
000010 77 68 81 3f 77 68 81 3f d9 a3 80 3f 1d 2f 7d 3f
       1.0110005 1.0110005 1.0050002 0.98900014

generator.layer_norm_hidden_1.bias f4 [8]
000000 6d 12 83 ba 59 39 34 bc 59 39 34 bc 59 39 34 3c
       -0.0009999998 -0.011000001 -0.011000001 0.011000001
000010 59 39 34 bc 59 39 34 bc 59 39 34 3c 59 39 34 3c
       -0.011000001 -0.011000001 0.011000001 0.011000001

discriminator.fc1.weight f4 [8, 7]
000000 5b 37 a6 be 1e 72 f3 bd ea ae da 3e 40 d1 f8 3e
       -0.32464108 -0.118870005 0.42711574 0.48597145
000010 b0 e4 bd 3f 9d 33 a2 be d9 89 0c 3e ea a4 9e bd
       1.4835415 -0.31680003 0.1372446 -0.077462986
000020 ae c5 c3 3c 51 b9 cd 3d ce c6 7e be 95 8f 99 3f
       0.023897972 0.10045112 -0.24880525 1.1996943
000030 ee 84 5b bf 45 eb c5 3e c1 4d 4b bf a7 70 06 3f
       -0.8574971 0.3865606 -0.7941552 0.52515644
000040 3e 27 66 3f 2b 0b a6 be e0 02 86 3f cf b0 e6 be
       0.8990363 -0.32430395 1.0469627 -0.4505677
000050 60 05 39 3f da ce 4f 3f 7f 81 77 3d 08 b6 47 bd
       0.72273827 0.81175005 0.06042623 -0.048757583
000060 aa 27 84 3f b0 ad f8 bf 0c 01 08 bf 35 3b ea 3e
       1.0324605 -1.9428005 -0.531266 0.45748296
000070 d9 72 ca be 83 98 56 3f 3c 0c a6 3e 56 9a b8 bf
       -0.39540747 0.83826464 0.3243121 -1.44221
000080 92 e3 88 3e 89 d3 4c bf 8d 9f 18 3f 19 19 0f 3d
       0.26736122 -0.8001028 0.59618455 0.034936044
000090 bf 28 8f be d2 18 01 bf 27 8a 59 be 30 37 03 be
       -0.27960774 -0.504285 -0.21244107 -0.12814021
0000a0 da a3 ac bd 2b d0 12 be 37 d4 19 bf c5 43 9f 3f
       -0.0842969 -0.14337222 -0.6008944 1.2442557
0000b0 6e 56 c3 3f 5f 12 92 3e f7 b3 b1 be 8e 5b 4d 3e
       1.5260751 0.2852964 -0.34707615 0.20054457
0000c0 8e 7f 06 bf 85 a0 c6 3e 72 82 b1 3e 16 c8 02 3e
       -0.52538383 0.38794342 0.34669834 0.12771639
0000d0 33 58 a3 be 38 de e7 be da 3d d8 3e 31 c1 7f 3e
       -0.31903228 -0.45286727 0.4223469 0.2497604

discriminator.fc1.bias f4 [8]
000000 5e 9f 5f be 85 1f 6e 3d 57 86 c0 3d 61 d5 97 be
       -0.21838138 0.058135528 0.09400623 -0.29654983
000010 63 d6 b7 bd 57 42 a6 be a0 70 c0 3e 83 d7 84 3e
       -0.08976438 -0.32472488 0.37585926 0.25945672

discriminator.fc2.weight f4 [1, 8]
000000 64 a0 56 bf 1d 4f b3 bf 7f 05 41 3e 17 bf 8d 3d
       -0.83838487 -1.4008518 0.18849753 0.06921213
000010 f6 ad 46 3f c5 99 25 3f 5a e1 38 3e 96 a5 d8 3e
       0.77609193 0.6468776 0.18054715 0.42313832

discriminator.layer_norm_hidden_0.weight f4 [8]
000000 31 37 7d 3f b4 4e 7d 3f 4a fb 7d 3f e6 6b 7d 3f
       0.9891234 0.98948216 0.9921156 0.98992765
000010 1d 34 7d 3f 84 5c 7d 3f 37 63 7d 3f 83 54 81 3f
       0.98907644 0.9896929 0.98979515 1.0103916

discriminator.layer_norm_hidden_0.bias f4 [8]
000000 5c 03 ff bb 5c fe fe bb 30 29 ff 3b 27 7d ff 3b
       -0.007782383 -0.007781787 0.0077868924 0.0077969017
000010 5e 04 ff 3b 36 07 ff 3b 45 2c ff 3b 53 dc fe 3b
       0.007782503 0.007782842 0.0077872598 0.0077777295

exp_avg f4 [16, 7]
000000 7e e7 4d bb fc 03 4e bb 00 00 00 00 b1 19 4e bb
       -0.0031418498 -0.003143548 0.0 -0.0031448419
000010 92 20 4e bb c0 23 4e bb 29 e8 4e bb be af 2e 3b
       -0.003145252 -0.0031454414 -0.0031571484 0.0026655043
000020 7e 75 2e 3b 00 00 00 00 fa 72 2e 3b e3 82 2e 3b
       0.0026620324 0.0 0.0026618824 0.0026628308
000030 b6 9c 2e 3b 23 30 2f 3b 8f e7 01 bd e6 f4 01 bd
       0.00266437 0.0026731573 -0.031714972 -0.031727694
000040 00 00 00 00 23 f4 01 bd 0d f5 01 bd 3f f6 01 bd
       0.0 -0.031726968 -0.03172784 -0.03172898
000050 fb f1 01 bd 91 a2 99 bb e3 8a 99 bb 00 00 00 00
       -0.03172491 -0.004688569 -0.004685746 0.0
000060 6c 8b 99 bb 5e 90 99 bb 21 91 99 bb 29 ce 99 bb
       -0.00468581 -0.0046863994 -0.00468649 -0.0046937657
000070 d3 a9 5b 3d 3b b6 5b 3d 00 00 00 00 ab b7 5b 3d
       0.053628754 0.053640585 0.0 0.053641956
000080 6a b7 5b 3d cc b6 5b 3d 36 ba 5b 3d c7 8f 0f 3b
       0.053641714 0.053641126 0.05364438 0.0021905766
000090 7a 49 10 3b 00 00 00 00 86 54 10 3b 29 52 10 3b
       0.0022016452 0.0 0.0022023036 0.0022021628
0000a0 8f 56 10 3b 38 59 10 3b 08 da 68 bc b1 e4 68 bc
       0.002202425 0.0022025835 -0.014212139 -0.0142146805
0000b0 00 00 00 00 4a e5 68 bc b8 e6 68 bc f9 e5 68 bc
       0.0 -0.014214823 -0.014215164 -0.014214986
0000c0 78 ec 68 bc 27 a0 37 3d 53 ae 37 3d 00 00 00 00
       -0.014216535 0.044830468 0.044843983 0.0
0000d0 41 af 37 3d cb af 37 3d 75 ae 37 3d 18 b5 37 3d
       0.04484487 0.044845384 0.04484411 0.04485044
0000e0 c8 ed 09 3c 7a ed 09 3c 00 00 00 00 79 ee 09 3c
       0.008418508 0.008418435 0.0 0.008418673
0000f0 0b ee 09 3c da e7 09 3c 37 96 09 3c 0e af 2b bb
       0.00841857 0.008417094 0.00839763 -0.002619687
000100 f2 ff 2b bb 00 00 00 00 70 0c 2c bb 41 0a 2c bb
       -0.0026245085 0.0 -0.002625253 -0.002625123
000110 fd 03 2c bb a0 f9 2b bb 9a f2 2b ba 29 29 2a ba
       -0.0026247494 -0.0026241317 -0.0006559283 -0.00064911187
000120 00 00 00 00 67 27 2a ba 25 26 2a ba dc 1e 2a ba
       0.0 -0.0006490857 -0.00064906693 -0.0006489584
000130 10 6e 2b ba 0b 89 34 3c f7 7a 34 3c 00 00 00 00
       -0.0006539533 0.011019002 0.011015645 0.0
000140 10 82 34 3c 84 7e 34 3c 26 79 34 3c 6d 8f 34 3c
       0.011017337 0.011016492 0.011015212 0.0110205235
000150 02 df 7d bb 17 48 7d bb 00 00 00 00 13 3d 7d bb
       -0.003873766 -0.0038647705 0.0 -0.003864114
000160 76 46 7d bb df 43 7d bb 40 d1 7d bb 32 2c 99 3c
       -0.0038646734 -0.003864519 -0.003872946 0.018697832
000170 7f 12 99 3c 00 00 00 00 4c 10 99 3c 13 14 99 3c
       0.018685577 0.0 0.018684529 0.01868633
000180 96 17 99 3c 7a 42 99 3c c2 31 f4 3b 4a 45 f4 3b
       0.018688004 0.018708456 0.0074522207 0.007454549
000190 00 00 00 00 e8 41 f4 3b 40 45 f4 3b d6 46 f4 3b
       0.0 0.0074541457 0.0074545443 0.0074547334
0001a0 32 62 f4 3b 35 fa a8 bc 64 0d a9 bc 00 00 00 00
       0.007457995 -0.02062712 -0.020636268 0.0
0001b0 8c 0e a9 bc b9 0f a9 bc 90 0c a9 bc 44 01 a9 bc
       -0.02063682 -0.02063738 -0.020635873 -0.020630486

exp_avg f4 [16]
000000 b4 30 c4 3a f2 df 8b bc 27 04 69 3d 9f f5 3d 3a
       0.0014968128 -0.017074559 0.056888726 0.0007246378
000010 71 e9 81 bd e8 f2 09 3c 73 39 cb 3b e1 3a 15 bc
       -0.063433535 0.00841973 0.006201917 -0.009108276
000020 42 0f a5 3c a8 44 37 bc 24 56 ae 3c 24 73 1e 3d
       0.020148877 -0.0111858025 0.02128131 0.038684025
000030 15 c5 17 3c 34 4a 32 bd 16 3e 75 bc a7 85 38 bd
       0.009263297 -0.043527797 -0.014968416 -0.045049336

exp_avg f4 [8, 16]
000000 c0 e9 f8 39 76 03 0b 3d 87 7c 0e 3d 14 18 a3 bc
       0.00047476403 0.033938847 0.034786727 -0.019908942
000010 cc e4 3c 3c b0 3f 2a bc 3c f7 b0 3b b9 53 8c 3b
       0.011529159 -0.010391161 0.0054005664 0.0042824415
000020 73 88 f7 bc e5 e4 88 bc 03 e6 f4 bb 75 94 59 3b
       -0.030216431 -0.016710708 -0.0074737086 0.003320006
000030 83 20 42 bc d2 ed a4 3a 8d 68 ab 3b 74 bd 7d bb
       -0.011848572 0.0012583083 0.0052309693 -0.003871766
000040 45 e2 04 bb 66 f2 60 3c 38 db 5f 3c 65 8f b0 3b
       -0.0020276469 0.013729667 0.013663106 0.0053881877
000050 09 2f 3b bb 67 c8 55 bb 95 06 18 bc bf 61 6c 3a
       -0.002856197 -0.003262067 -0.009278913 0.0009017251
000060 e2 8e 22 3b bb fa 4a 3b af a8 85 bb f7 a6 02 bc
       0.0024804403 0.00309722 -0.0040789465 -0.007974378
000070 60 52 29 3b 04 04 9c 3a ee 02 0c bc 46 77 b6 bb
       0.0025836453 0.0011903052 -0.00854562 -0.0055684177
000080 24 c6 27 3b db 00 94 3a 46 64 06 3a 27 10 c3 3b
       0.0025600279 0.0011291759 0.0005126636 0.0059528532
000090 d0 8a 0b bb 7f 9a 54 bb 01 11 9f bb 2e e7 93 3b
       -0.0021292455 -0.003244072 -0.004854322 0.0045136428
0000a0 49 80 4d bb ba e4 5d 3b 25 a3 60 bb c6 22 86 bb
       -0.0031356981 0.0033858255 -0.003427693 -0.004093501
0000b0 9a 02 9a 3b df 6a bb 3b 6d c6 86 bb ea 70 75 bb
       0.004700017 0.005719527 -0.0041130097 -0.0037451335
0000c0 61 da 21 ba a4 73 dc bc 7b 79 de bc dc 72 d8 bb
       -0.00061742036 -0.02691061 -0.027157536 -0.006605489
0000d0 a3 ac 1d 3b e5 34 25 3c ce cb 71 3c fd b6 e0 bb
       0.0024059198 0.010083412 0.0147580635 -0.0068577514
0000e0 5a 38 08 3c e5 13 f7 ba f7 cb 2a 3c f3 98 4f 3c
       0.0083142165 -0.0018850534 0.010424606 0.012670743
0000f0 b6 23 94 bb 5f 17 fd bb 28 f7 56 3c 1d 65 3b 3c
       -0.0045208586 -0.0077237333 0.01312045 0.0114376815
000100 03 0a a9 36 37 89 8d bc 40 05 97 bc 31 cf dc 3c
       5.037758e-06 -0.017277343 -0.01843512 0.026954265
000110 46 18 69 bc c0 ca 6a 3b 43 17 86 bc c6 07 da 39
       -0.014226979 0.0035826415 -0.016368514 0.00041585992
000120 51 58 d0 3c a7 07 a5 3c f8 0c 30 3a dc 0f 55 bc
       0.025432738 0.02014525 0.00067157997 -0.013004269
000130 9c 38 88 3c 7d 49 91 3b cd f8 76 bc 28 34 8d bb
       0.016628556 0.0044338093 -0.015073967 -0.004309196
000140 27 56 c6 bb e2 07 6f bc 91 51 80 bc 6c 17 4f 3d
       -0.0060527506 -0.014589282 -0.015663894 0.050559446
000150 1a 4b dc bc 6e 05 c6 3b 90 da 12 bd cf 53 a0 bb
       -0.02689128 0.0060431277 -0.03585297 -0.0048928033
000160 45 8c 4e 3d e2 f1 1a 3d 7e f7 46 b9 7e 59 ec bc
       0.05042674 0.037828334 -0.0001897495 -0.028851267
000170 e7 be f4 3c 75 97 a8 3a 62 62 08 bd 79 2a 33 bc
       0.029876186 0.001286252 -0.03329695 -0.010935419
000180 77 30 18 3b f4 35 37 3d 0c 30 41 3d 1e d5 94 bd
       0.0023222247 0.044729188 0.04716496 -0.072672114
000190 55 4c 1d 3d ca 58 34 bc 45 8d 33 3d cd 27 66 3b
       0.038402874 -0.011007497 0.043835897 0.0035118938
0001a0 bf 8d 94 bd a0 a2 60 bd bc d2 46 bb 92 30 10 3d
       -0.072535984 -0.05484259 -0.003033801 0.03520257
0001b0 34 50 34 bd 41 1a e0 bb 40 91 26 3d 59 82 2a 3c
       -0.0440218 -0.006839067 0.040665865 0.010407054
0001c0 99 59 20 3a cc 48 4d bd e1 32 4c bd 57 7f af 3b
       0.0006116867 -0.050118253 -0.04985321 0.0053557563
0001d0 17 c7 a3 bb 63 42 8b 3c 93 af 41 3c fc a9 31 bc
       -0.0049980986 0.01699943 0.011821645 -0.01084375
0001e0 3a fa e8 3c 72 37 f1 3b 6f a9 84 3c 9a 27 32 3c
       0.02843963 0.007361346 0.016194073 0.0108737
0001f0 66 79 37 3b 7c 8b 13 bc 54 92 22 3c d3 cb 7d 3c
       0.0027995943 -0.009005424 0.009922583 0.01549049

exp_avg f4 [8]
000000 ed 95 97 3b 96 11 a5 3c cf f8 ef 3b c9 7b 09 bd
       0.004626027 0.020149987 0.0073233615 -0.033565316
000010 82 3f 99 3c b9 c0 50 3d 71 83 52 bd dd b6 14 bd
       0.01870704 0.050965045 -0.051394884 -0.036307205

exp_avg f4 [16, 8]
000000 e8 27 df bb d9 ef 57 bc 42 a1 7a 3c e6 c5 02 bc
       -0.006810177 -0.013179743 0.015297236 -0.007981753
000010 70 c0 f0 bb 0d 5e 7a 3c 19 98 ad 3b 9e 11 bc b9
       -0.007347159 0.0152812125 0.0052976725 -0.0003587128
000020 1d 1f f4 3b 52 43 42 bc c9 73 7e bb 1b e1 a3 ba
       0.007449998 -0.011856871 -0.0038826338 -0.0012503
000030 86 cd 0f 3c bb c1 a6 bb 3f 40 d8 3a d4 5b 8d 3b
       0.008777028 -0.0050890124 0.0016498639 0.0043139253
000040 23 df 48 bc 71 18 18 3c 20 84 9c 3c 94 fa a4 bb
       -0.012260231 0.009283171 0.01910597 -0.005034754
000050 7e 87 75 bc 42 3e 49 3c 57 26 2e 3a bc 77 14 bc
       -0.014985917 0.01228291 0.00066432863 -0.00906175
000060 25 3e 73 bc 5f 52 05 bd 1e 12 1b 3d 40 f1 a8 bc
       -0.014846359 -0.03254926 0.037859075 -0.02062285
000070 d4 d9 78 bc 4e 52 12 3d 5b 5a 40 3c 3f aa dd ba
       -0.015188653 0.035723023 0.011740292 -0.0016911699
000080 6f 92 81 ba dc e2 c2 bb 1e 57 87 3a 0e c5 ad ba
       -0.000988556 -0.005947454 0.0010325646 -0.0013257579
000090 a6 bc 84 ba 78 23 85 3b 5f 64 25 3b 67 65 e6 3a
       -0.0010127022 0.004063066 0.0025236828 0.0017577828
0000a0 dd 18 c0 3b 5b 35 a2 3c de 78 96 bc 0f 2b 33 3c
       0.005862339 0.019800832 -0.01836818 0.010935559
0000b0 0d ad c5 3b 75 bc 8e bc 90 e5 e7 bb 30 4e 2a b8
       0.006032592 -0.017423848 -0.0070769265 -4.0603976e-05
0000c0 7f 8e 71 bb 22 92 43 3b 73 4d af 3b 7c 28 c3 ba
       -0.0036858616 0.002984174 0.005349809 -0.0014889385
0000d0 12 b8 8f bb b6 7f 7b 3b be 5d 42 39 99 f7 37 bb
       -0.0043859566 0.0038375682 0.00018536203 -0.0028071164
0000e0 c2 25 f0 3b 2b b7 18 bd 68 60 67 3c 28 e6 54 bc
       0.00732872 -0.037284058 0.014122106 -0.012994327
0000f0 89 ad 04 3c b5 8b ce 3b 9c 15 18 3c 08 74 bb 3b
       0.008098015 0.0063032755 0.009282496 0.005720619
000100 99 f2 6b bb dc 93 7d 3c 7d 45 f9 ba 2b 08 79 3b
       -0.0036002754 0.015477147 -0.0019017902 0.0037999253
000110 c8 ad 95 bb 9b 88 dd ba 67 d9 58 bb af 7b 8f bb
       -0.0045678355 -0.0016901674 -0.0033088566 -0.004378758
000120 68 e7 b7 bb e8 39 36 bc 20 eb 99 3c 6f c0 22 bc
       -0.0056123026 -0.011122204 0.018788874 -0.009933575
000130 d9 6f ce bb fc 9a 5c 3c 4d 04 98 3b 63 dd 75 bb
       -0.0062999544 0.0134646855 0.0046391846 -0.003751599
000140 cb 2c bc 3b 85 d8 f5 bc 3d 60 3e 3c 0e 3d 45 bc
       0.0057426444 -0.030010471 0.011619625 -0.012038482
000150 9a bc e5 3b 5a 95 ca 3b 34 46 00 3c 9b e5 83 3b
       0.0070110084 0.006182355 0.007829238 0.004025174
000160 f1 d7 0d 3b c8 69 86 bc ce 3b 1b 3b 61 f4 4d bb
       0.0021643604 -0.016407862 0.002368677 -0.0031426179
000170 88 c5 5d 3b b1 7e 59 3b a4 0d 31 3b 01 fa bb 3b
       0.0033839662 0.0033187086 0.0027016187 0.00573659
000180 a9 69 49 3a 26 a9 df 3b b0 6b 52 bc 4b 54 ce 3b
       0.0007683286 0.006825584 -0.0128430575 0.0062966696
000190 b6 03 f2 3a 04 24 4c bb 46 23 2f bb 57 e6 31 3b
       0.0018464241 -0.0031149397 -0.0026723905 0.002714535
0001a0 a5 26 6a 3c 39 fb e5 3b 2f f1 a8 bc 4b 8e 09 3c
       0.01429144 0.0070184735 -0.020622818 0.008395742
0001b0 fc be 7f 3c ee 2e bf bc ac be 9f bb 60 e4 5e 3b
       0.015609499 -0.023337808 -0.004875025 0.0034010634
0001c0 78 bf d6 3b eb a6 e1 3c eb a2 f0 bc e6 02 8a 3c
       0.0065535866 0.027545413 -0.02937456 0.016847085
0001d0 98 c1 e3 3b c5 a3 af bc b6 57 1c bc 3f 8e 07 3b
       0.0069505684 -0.021440396 -0.009542396 0.002068415
0001e0 b4 ec a7 bc d6 67 8f 3d f9 ee 57 bc d4 d2 ae 3c
       -0.020498611 0.07002227 -0.013179534 0.021340765
0001f0 c8 1d c7 bc 5a 1e 4b bb 79 8e 88 bc f1 6a 6d bc
       -0.024306193 -0.0030993433 -0.016669499 -0.014490829

exp_avg f4 [16]
000000 6f 42 27 3c 58 74 74 bc b4 04 e8 3c 41 a5 b8 3c
       0.01020871 -0.014920317 0.028322555 0.022539737
000010 1d ce 25 ba ee 67 02 bc c1 43 07 3c f5 60 61 bc
       -0.0006324964 -0.007959349 0.0082559 -0.0137560265
000020 11 cd 16 3c 68 e2 40 3c 72 57 42 bc d4 59 0a bc
       0.009204165 0.011772729 -0.011861669 -0.008444268
000030 83 b7 d0 bb 09 ed b9 bc 27 c6 46 bc 90 27 2e 3d
       -0.0063695326 -0.022696035 -0.012132204 0.0425182

exp_avg f4 [7, 16]
000000 5d fd 61 3c ee 24 ca bc a6 ab 81 bb a2 fe 1d 3c
       0.013793317 -0.024675813 -0.0039572297 0.009643229
000010 f2 19 e4 3c 61 cd 4f bc f3 c9 fa bc 12 39 1a 3c
       0.027844403 -0.0126832435 -0.030613875 0.009413021
000020 dc c4 1f bc b9 75 8b 3c 1d 71 36 bc f7 7f d7 bc
       -0.009751525 0.017023908 -0.011135367 -0.026306136
000030 c1 2b 4b 3c d2 0c 5e 3b b4 3a b9 3c e7 72 55 3b
       0.012400568 0.0033882153 0.022611 0.0032569708
000040 b8 ce 8a bc 20 5a fd 3c 8d a0 63 b9 84 d0 a2 bb
       -0.016944274 0.030926764 -0.00021708217 -0.0049687047
000050 2b 85 43 bd b0 a5 6b 3c ec de 36 3d 05 9f 00 bc
       -0.04773442 0.014382765 0.04464619 -0.007850413
000060 6f ca 7f 3c ca 36 c8 bc 4b 21 b7 3c 91 55 01 3d
       0.015612229 -0.024440188 0.022354743 0.031575743
000070 40 61 06 bc 19 b4 90 bc c8 1b b6 bc 1b fd 15 bc
       -0.008201897 -0.017664002 -0.022230044 -0.009154583
000080 f8 66 03 bc de d3 69 3c 5c c0 47 bb 42 ce 78 bb
       -0.008020155 0.0142717045 -0.0030479645 -0.0037964736
000090 af d0 e5 bc 4f 69 0a 3c 5b 6c 9d 3c 52 a5 7a bb
       -0.02805361 0.008447959 0.019216707 -0.0038245511
0000a0 79 b2 bb 3b 5c 76 37 bb f5 76 0e 3c 69 83 a1 3c
       0.0057280627 -0.0027994132 0.008695354 0.019715982
0000b0 14 83 09 bc ae 45 01 3c c1 da 9f bc b2 5b d4 bb
       -0.008393068 0.007890148 -0.01951349 -0.0064806575
0000c0 d0 72 dd 3b 38 ec ef bb 8d 46 4d 3c 36 9e 2f bc
       0.0067580715 -0.0073218606 0.012529028 -0.010718873
0000d0 40 25 2a 3d 3f 46 09 b9 a0 53 73 bc 94 47 1e bc
       0.04153943 -0.00013091507 -0.014851481 -0.00966062
0000e0 91 46 44 bb e0 fe 27 3b a2 45 a2 bc 68 06 8f bc
       -0.0029949287 0.0025634095 -0.019808594 -0.01745911
0000f0 40 1e 18 bc 20 e7 28 3c e5 b8 05 bb 1b 45 a1 3c
       -0.009284556 0.010309011 -0.0020404395 0.019686272
000100 d5 bf ed 3c 0d ca 46 bd d0 30 a9 3c 00 27 4f bc
       0.029022137 -0.048532534 0.020653158 -0.012643576
000110 ff c0 02 3e 80 09 99 bc 4e ff a2 bd 9f 94 9f bb
       0.12768935 -0.018681288 -0.07958852 -0.004870012
000120 1b e9 bf bc ee ab ef 3c 3d 5c 66 bd 52 09 87 bd
       -0.023426583 0.029256787 -0.05624031 -0.065935746
000130 c3 81 32 bb b4 fa ef 3c fb ca 07 3d fc cf 2b 3d
       -0.0027237989 0.02929435 0.03315256 0.041946396
000140 64 b9 77 bc ad 3d d3 3c 74 50 0e bc b7 d2 56 3a
       -0.015119884 0.025786245 -0.008686174 0.0008194851
000150 bc e0 78 bd 2e a6 3f 3c ac 35 23 3d fc f0 61 ba
       -0.0607612 0.011697335 0.039846107 -0.00086189783
000160 cb 2d 3a 3c ce bd 30 bc 44 f7 bf 3c 55 ad 0c 3d
       0.011363457 -0.01078744 0.023433335 0.03434499
000170 81 c3 c2 bb a9 7f c8 ba 39 b8 d5 bc 41 87 8b bc
       -0.005943716 -0.0015296835 -0.02608882 -0.017032268
000180 7a 93 0d bc f1 dc 66 3c c9 38 3d 3b e3 89 05 bc
       -0.008641118 0.0140907625 0.0028872958 -0.008150551
000190 8e 92 43 bc 55 45 e4 3b b6 12 85 3c ff 0d be bb
       -0.011936797 0.006966273 0.016244274 -0.0058000083
0001a0 dd da a7 3b 3e 0c 15 bc ed f4 94 3b 99 8c 6a 3c
       0.005122526 -0.009097157 0.004545799 0.014315748
0001b0 d0 5d 12 bc 4c 2d bc 39 f4 34 4a bc 7f 53 07 38
       -0.008933499 0.00035891903 -0.012341727 3.226427e-05

exp_avg f4 [7]
000000 98 0f 04 bc ef 43 d8 bb 3f 37 d1 3a 25 19 fe 3c
       -0.008060358 -0.006599895 0.0015961899 0.03101785
000010 57 ed 6a 3d 38 33 80 bc 0b da 24 3c
       0.05735525 -0.015649423 0.010061751

exp_avg f4 [16]
000000 4c 8d 45 3c a1 5c 11 3d 19 8b d2 3b 2c d8 18 38
       0.012057614 0.03548873 0.006425273 3.644095e-05
000010 f1 41 48 3d 9c dc 63 3c 99 11 e7 3c d0 65 22 3b
       0.04889101 0.013907578 0.028206633 0.0024779923
000020 8e 03 01 3d 1f 7f e5 3b fd 23 d1 bb b4 c7 7f b9
       0.03149753 0.0070036794 -0.006382464 -0.0002439309
000030 3a 00 5d 39 f1 58 12 bc a7 b1 80 bb 55 f0 96 3c
       0.00021076287 -0.008932338 -0.003927428 0.018425146

exp_avg f4 [16]
000000 07 ce c5 3b 3a 5d 11 bd 8c 11 99 3d 0f 7e 92 3c
       0.0060365233 -0.0354893 0.0747405 0.017882375
000010 d6 2b 1e bd f7 f4 dc 3b 43 2a c5 3c 52 a0 3b bc
       -0.038616024 0.0067430693 0.024068004 -0.011451798
000020 9e b0 a1 3c 02 73 f8 3b a2 a4 8c 3c 7b 09 f9 3c
       0.019737538 0.0075820694 0.017168347 0.030400028
000030 c8 cd 63 3c f0 0e de bc 90 8d d5 bc eb 3b d0 3b
       0.013904043 -0.027106732 -0.026068479 0.006354799

exp_avg f4 [8]
000000 0c 20 21 3b 7c 9e af 3c 78 1a 11 bd 6c 64 7b 3c
       0.0024585752 0.021437876 -0.035425633 0.015343767
000010 22 21 d7 bc 9c 0f e5 bb b0 5d bb bb b3 38 a2 3c
       -0.026260916 -0.006990386 -0.0057179555 0.019802427

exp_avg f4 [8]
000000 43 56 3b 3a cc 71 aa 3c fd 49 12 3c 5c e7 88 bd
       0.0007146338 0.020806216 0.008928773 -0.06684753
000010 c4 66 1d 3d 82 5b 15 3d cb 13 78 bd 00 dd 83 bd
       0.038428083 0.03646422 -0.06056575 -0.06438637

exp_avg f4 [8, 7]
000000 24 d1 c7 3e 4c 45 6e 3e da c9 e8 bd 06 01 48 3e
       0.3902675 0.23268622 -0.11366625 0.1953164
000010 f2 6f a1 3e 21 71 5f 3e 50 ae 69 3e 84 29 37 3f
       0.3153072 0.21820499 0.22820401 0.7154772
000020 f7 e2 4c 3f 7f 6f a3 bd 7d b2 5d 3f 5f 19 4e 3f
       0.8003382 -0.079802506 0.86600477 0.80507463
000030 1f 59 2b 3f 45 8e 37 3f 3e cd 4a be 11 74 7f be
       0.66932863 0.7170146 -0.19804856 -0.2494662
000040 a2 23 0c 3b 28 4b 78 be 3a ea 65 be 97 66 58 be
       0.0021383543 -0.2424742 -0.22452632 -0.21132885
000050 3e 39 66 be 3d 16 cc 3b b1 51 07 3d 20 53 4e 3c
       -0.22482774 0.006228237 0.03303689 0.012593061
000060 72 9c 88 3c 2c a4 af 3c d0 3e 2c 3d 33 35 4a 3d
       0.016676161 0.021440588 0.04205209 0.04936714
000070 20 49 a4 be b2 9b 05 be 5f ce 2e 3e 68 00 0e be
       -0.3208704 -0.13047674 0.17070912 -0.13867342
000080 06 f2 69 be 0a 39 05 bd 76 fe 2a bd 58 28 81 bd
       -0.22846231 -0.0325251 -0.04174658 -0.06306523
000090 f4 77 ea bd 15 86 85 3d 7e 4a 00 be 79 87 c4 bd
       -0.114486605 0.06519715 -0.12528417 -0.09596152
0000a0 a4 e7 2f 3c f6 de 87 bc 3e b9 2b bc e5 d3 35 be
       0.01073638 -0.016585808 -0.010481177 -0.17756613
0000b0 93 03 5b bd 72 4e 2c be c2 d5 c2 bd 34 41 1a be
       -0.053470206 -0.168268 -0.09513427 -0.15063936
0000c0 28 ab 2e be ed 70 1c bf 7a 0e a9 be df c7 d1 3d
       -0.17057478 -0.6110981 -0.33018857 0.102432005
0000d0 c5 06 a3 be 9d d5 fc be aa d7 dc be 0b ba d8 be
       -0.31841102 -0.49381724 -0.4313329 -0.4232944

exp_avg_sq f4 [8, 7]
000000 ca ce 94 3b f0 e9 a6 3a 72 42 14 3a d6 57 5b 3a
       0.0045412527 0.0012734514 0.0005655653 0.00083672756
000010 a1 18 2b 3b e8 53 96 3a 74 0b a9 3a 25 be 82 3c
       0.002610721 0.0011469098 0.001289709 0.015959809
000020 2f 27 80 3c 32 af 8e 3a 29 17 89 3c ee 76 85 3c
       0.015643684 0.0010885953 0.016734676 0.016292062
000030 92 25 35 3c 00 a4 51 3c 92 0a 80 3a 64 7b c0 3a
       0.011056321 0.012795448 0.0009768775 0.0014685211
000040 2b 3e af 35 ff 24 b3 3a 2f c9 9f 3a 95 77 8d 3a
       1.3056609e-06 0.0013667642 0.0012190695 0.0010793085
000050 34 a8 9e 3a 5a 03 8f 37 59 de 00 38 a4 8e 9e 36
       0.0012104572 1.704849e-05 3.0724656e-05 4.7253725e-06
000060 dd 7f 4e 37 0c e3 af 37 6a c8 31 38 14 11 78 38
       1.2308327e-05 2.0967353e-05 4.238674e-05 5.9143713e-05
000070 63 02 56 3b f1 d5 0f 3a cb 51 7c 3a f7 b1 f2 39
       0.0032655231 0.0005486897 0.0009625225 0.0004629043
000080 0e 9c ba 3a f0 20 7d 38 95 65 97 38 f6 37 f2 39
       0.0014237182 6.0350576e-05 7.219162e-05 0.0004619953
000090 f4 5d f1 39 02 85 ba 39 3e 17 d4 39 4b 84 95 39
       0.00046037103 0.00035575783 0.00040453108 0.0002851806
0000a0 2f 84 a1 37 5f 23 2b 38 49 a2 3a 38 3c cd 45 3a
       1.9254248e-05 4.080252e-05 4.4496996e-05 0.0007545536
0000b0 63 94 91 38 aa 26 32 3a 44 e2 79 39 d5 ee 0c 3a
       6.941778e-05 0.00067959225 0.00023830781 0.0005376165
0000c0 db 3b 30 3a 3e 08 25 3c 0b 6e 40 3b 94 67 1c 3a
       0.00067227863 0.010072766 0.0029362466 0.0005966362
0000d0 40 64 20 3b 38 a6 ce 3b 8b 9b 94 3b 0c f7 99 3b
       0.0024473816 0.006306436 0.0045351437 0.0046986397

exp_avg f4 [8]
000000 91 98 a1 3e 86 73 64 3f 2e 8d 87 be 6c 5b 6f 3d
       0.3156171 0.89238775 -0.264749 0.058436796
000010 c8 0f 4b 3c 4c a8 cf 3c 1c e3 66 be 6e 8e 08 bf
       0.012393899 0.025348805 -0.22547573 -0.5334233

exp_avg_sq f4 [8]
000000 b6 88 35 3b e7 a4 ac 3c 95 91 e0 3a 0f 6f b2 38
       0.0027699894 0.021074725 0.001713323 8.508388e-05
000010 3c 4c 95 38 7b 70 7c 38 e0 e3 a6 3a c4 dc f9 3b
       7.1190734e-05 6.0186238e-05 0.0012732707 0.0076251943

exp_avg f4 [1, 8]
000000 69 4f 1a bf 2d 1d b2 be 4c ac c2 bb f7 22 44 3e
       -0.6027742 -0.34787884 -0.0059409495 0.19153963
000010 03 a7 04 3f 03 5b 89 3e e6 84 85 3e f0 2c 92 be
       0.5181734 0.2682725 0.26077956 -0.2854991

exp_avg_sq f4 [1, 8]
000000 96 a8 0b 3c 3e d1 79 3b 04 33 a5 39 cf 58 87 3a
       0.008524081 0.0038119103 0.00031509262 0.001032615
000010 83 fb cb 3b a9 e8 f4 3a 24 06 34 3b 34 23 30 3b
       0.006225051 0.0018685061 0.002746948 0.0026876451

exp_avg f4 [8]
000000 f3 ef 02 3f fc d8 fb 3e 58 96 75 ba cd 2c 68 3c
       0.51147383 0.49188983 -0.0009368411 0.014170838
000010 3d 82 d0 3e c9 11 34 3e 44 10 48 3d cf ea f2 bd
       0.40724364 0.1758491 0.048843637 -0.118611924

exp_avg_sq f4 [8]
000000 b8 35 c9 3b be 7c f9 3b e7 ee 42 37 42 19 c3 36
       0.006140437 0.0076137474 1.1618925e-05 5.8143933e-06
000010 7f 29 7c 3b 30 da 52 3a cc 29 cc 38 11 25 f2 39
       0.0038476882 0.0008043377 9.735263e-05 0.00046185454

exp_avg f4 [8]
000000 b6 16 3d 3d 8a 57 9d 3d 10 11 2d bc 1a c5 88 bb
       0.046164237 0.076827124 -0.01056315 -0.004173887
000010 23 2e 2f bd c4 32 12 bd 80 e5 27 bc 6b bd b9 bc
       -0.04276861 -0.035692945 -0.010247588 -0.02267333

exp_avg_sq f4 [8]
000000 83 81 a0 39 06 3f 5e 3a 2b 61 86 37 24 1a 28 36
       0.00030614072 0.0008478019 1.6019292e-05 2.5049167e-06
000010 fc c3 89 39 61 e2 3f 39 a5 3a 7d 37 4d d0 9a 38
       0.00026276696 0.00018299512 1.5093629e-05 7.382091e-05
