saved/type_3_fold_1.ckpt (torch, 21266 bytes, 39 tensors)

generator.fc1.weight f4 [16, 7]
0	0xbf895c54	-1.0731301
1	0x3e1704bf	0.14747904
2	0xbd876bf7	-0.066123895
3	0xbf394762	-0.72374547
4	0xbda1fc1d	-0.07909415
5	0x3d403f38	0.04693529
6	0xbf5036df	-0.81333727
7	0x3ef225ae	0.47294372
8	0x3f0a19e9	0.53945786
9	0xbf2c7c08	-0.67376757
10	0xbf586cf8	-0.84541273
11	0xbe107a96	-0.14109263
12	0xbe507580	-0.20357323
13	0x3e80affa	0.2513426
14	0xbd0a1b4e	-0.033717446
15	0xbeac25fc	-0.3362273
16	0x3e871798	0.26385188
17	0x3f002691	0.5005885
18	0xbd147670	-0.036245763
19	0x3ddb1ec1	0.10699225
20	0x3f51c55b	0.81941766
21	0x3f70987e	0.93982685
22	0xbdd80649	-0.10548074
23	0x3f4750f8	0.77857924
24	0xbe0d97ce	-0.1382744
25	0xbf5db97b	-0.86611146
26	0xbf53b369	-0.82695633
27	0xbfb15f43	-1.3857197
28	0xbd5abd87	-0.053403404
29	0xbe8bfdbf	-0.2734203
30	0xbd5075a4	-0.05089344
31	0xbdb27051	-0.08712829
32	0xbead4495	-0.33841386
33	0xbef8a2ca	-0.48561698
34	0x3f6a67ec	0.9156482
35	0xbd813cb4	-0.06310406
36	0x3f057890	0.5213709
37	0xbea5f67a	-0.3241461
38	0x3c9faa61	0.019490423
39	0xbd3be868	-0.045875937
40	0xbf260d60	-0.6486416
41	0x3f16c7c9	0.588986
42	0xbdfde392	-0.12396921
43	0xbe9c1df2	-0.30491596
44	0xbe5dcc60	-0.21659994
45	0x3ebf5102	0.37366492
46	0xbebed56e	-0.3727221
47	0xbe67b054	-0.22625858
48	0x3de7ea72	0.11324014
49	0xbf0adcfa	-0.54243433
50	0x3e056f70	0.13030791
51	0xbdff4ba8	-0.12465602
52	0xbed646ec	-0.41850984
53	0x3ec4f9d8	0.38471866
54	0xbeacb403	-0.33731088
55	0x3ec7358c	0.3890804
56	0x3f71b195	0.94411594
57	0xbf2b48c6	-0.6690792
58	0xbe02dbdb	-0.1277918
59	0x3e2a2e41	0.16619207
60	0x3eafee37	0.3436143
61	0xbdb4ea6f	-0.08833777
62	0x3f626398	0.8843322
63	0xbeeb673a	-0.45977193
64	0x3f19cb36	0.600757
65	0x3f4648ab	0.7745463
66	0xbed55577	-0.41666767
67	0xbdb1851b	-0.08667966
68	0x3e9d51d9	0.30726507
69	0xbf022b7a	-0.5084759
70	0x3df0f534	0.11765519
71	0x3ee222b3	0.44167098
72	0x3f046bbe	0.517269
73	0x3eae12e9	0.33998802
74	0xbfa59a69	-1.2937747
75	0x3edbade7	0.42906114
76	0x3f176e2f	0.591525
77	0xbead9d6a	-0.3390916
78	0x3f1e58b2	0.6185409
79	0x3df95e8e	0.12176238
80	0x3f3d5b5e	0.7396754
81	0xbf13c733	-0.5772583
82	0x3f702028	0.93799067
83	0xbf2a316f	-0.6648168
84	0xbce56dc6	-0.028006446
85	0xbc90f1a2	-0.017693345
86	0x3d5a7296	0.053331934
87	0xbed048f6	-0.40680665
88	0xbebce904	-0.36896527
89	0x3f7fb804	0.9989016
90	0x3ebcb95e	0.36860174
91	0xbe0945ec	-0.1340558
92	0xbd80054d	-0.06251011
93	0x3e7b700b	0.2455446
94	0x3f716639	0.94296604
95	0x3f10044a	0.56256545
96	0xbdd1a48f	-0.10236465
97	0x3e056d0e	0.13029882
98	0x3e2fc485	0.1716481
99	0x3fbdfa9b	1.4842104
100	0xbeed05a9	-0.4629338
101	0x3eb72c74	0.35776103
102	0x3e0cba7d	0.13743015
103	0x3ecffbc9	0.40621784
104	0x3cd289c1	0.025700452
105	0xbe54aab4	-0.20768243
106	0x3f6738af	0.9032087
107	0x3dbf2e05	0.093349494
108	0xbf96b329	-1.1773425
109	0xbdc1abec	-0.094566196
110	0xbf167eb0	-0.5878706
111	0x3eaa988b	0.33319506

generator.fc1.bias f4 [16]
0	0x3e8c4563	0.27396688
1	0xbeb49026	-0.35266227
2	0x3e197f16	0.14989886
3	0x3e8246ef	0.25444743
4	0x3d9aa480	0.07550907
5	0xbeaefd3b	-0.34177575
6	0x3dea0a04	0.114276916
7	0xbea36af0	-0.31917524
8	0xbe6fbded	-0.23412295
9	0xbe8e1bd1	-0.27755597
10	0x3e94b625	0.29045215
11	0x3e79a680	0.24379921
12	0x3e574ade	0.21024653
13	0xbe28af43	-0.16473107
14	0x3dc53284	0.09628776
15	0xbec0a61c	-0.3762673

generator.fc2.weight f4 [8, 16]
0	0xbe9e4e29	-0.30919006
1	0x3f2f76e4	0.6854079
2	0xbdbfb4e2	-0.093606725
3	0xbe674b1a	-0.22587243
4	0x3cc7bdaf	0.02438244
5	0xbd2b9c1b	-0.04189692
6	0x3e990a73	0.29890785
7	0x3e397a7b	0.18113129
8	0x3ed1442a	0.40872318
9	0x3e2c3a00	0.16819
10	0xbf039cbb	-0.51411027
11	0x3ec2665d	0.37968722
12	0xbe8c6162	-0.27418047
13	0x3f09f99f	0.53896517
14	0xbd558692	-0.05213029
15	0x3e892d3a	0.26792318
16	0xbc2a4d98	-0.010394476
17	0x3ed74129	0.420419
18	0x3e721015	0.23638947
19	0xbe733e93	-0.23754339
20	0xbe5c08a3	-0.2148767
21	0xbd44d8d0	-0.04805833
22	0x3debabe4	0.11507395
23	0xbe5de9d6	-0.21671233
24	0xbe0f247a	-0.13978758
25	0xbeeffe92	-0.4687391
26	0xbe17069a	-0.14748612
27	0x3e5f101f	0.21783493
28	0x3e6f412c	0.23364705
29	0x3e9cabe6	0.30599898
30	0x3cc637b4	0.024196483
31	0x3ede9221	0.43470863
32	0x3efd4d5c	0.49473083
33	0xbd054121	-0.032532815
34	0xbeef7316	-0.4676749
35	0x3ef74f7e	0.48302835
36	0xbe1d6d92	-0.15373829
37	0xbf6417a2	-0.8909856
38	0x3e542ce9	0.20720257
39	0xbe476a23	-0.19474082
40	0xbea5d803	-0.32391366
41	0xbe19e3c5	-0.15028293
42	0xbd9e2e1f	-0.07723641
43	0x3e83747e	0.25674814
44	0xbd16c436	-0.036808215
45	0xbeb7b7da	-0.35882455
46	0x3f086906	0.53285253
47	0x3d8f020c	0.06982812
48	0x3e93e69a	0.28886873
49	0xbc87bd80	-0.016569853
50	0xbdfd7430	-0.12375677
51	0xbf555a86	-0.8334125
52	0xbea6f16b	-0.32606062
53	0x3d80a854	0.06282106
54	0xbebf687f	-0.37384412
55	0xbde2ca60	-0.11073756
56	0x3d46863b	0.048467856
57	0x3d4c63d9	0.04989991
58	0xbee0fe54	-0.43944037
59	0x3ecee62f	0.4040999
60	0xbe889c2c	-0.2668165
61	0x3e3ec73d	0.18630691
62	0x3edf6e55	0.43638864
63	0x3ed8a2b7	0.42311642
64	0x3eb1e9d4	0.3474871
65	0xbcc86a77	-0.024464829
66	0x3e0059a7	0.125342
67	0xbee09dc8	-0.43870378
68	0xbf29f9fc	-0.6639707
69	0x3daa2063	0.083069585
70	0x3a822079	0.000992789
71	0x3f07675f	0.52892107
72	0xbef9840d	-0.4873356
73	0x3ed793b4	0.42104876
74	0xbea67900	-0.3251419
75	0x3e2a626a	0.16639104
76	0x3f4f07e6	0.8087143
77	0xbbc855a8	-0.0061137266
78	0x3eb8ce16	0.3609473
79	0x3eb4f950	0.3534646
80	0x3f349505	0.70539886
81	0xbea2fa1f	-0.31831452
82	0xbd120d3e	-0.03565716
83	0x3ed7c62f	0.4214339
84	0xbd2ee263	-0.042696368
85	0x3e333e76	0.17504296
86	0xbb97fd90	-0.0046383813
87	0x3b0d3c5c	0.002155087
88	0x3f0af15a	0.54274523
89	0xbf0a72bf	-0.5408134
90	0x3ec9773e	0.39348787
91	0xbbfc04e7	-0.007691014
92	0xbf0c9ad4	-0.5492375
93	0xbc8be4b3	-0.017076826
94	0xbe4254b0	-0.18977618
95	0xbd13681b	-0.035987955
96	0xbec16c2d	-0.37777844
97	0xbed78b05	-0.4209825
98	0xbe138483	-0.14406018
99	0xbe4df865	-0.20114286
100	0x3d253993	0.04033811
101	0x3d6b3980	0.057427883
102	0x3ea003fd	0.31253043
103	0xbd43628e	-0.04770141
104	0x3e803935	0.25043646
105	0x3f0b25c8	0.54354525
106	0xbec34c73	-0.38144264
107	0x3eb79e83	0.35863122
108	0x3dd28236	0.10278742
109	0xbe0be0fe	-0.13660046
110	0x3f0df743	0.55455416
111	0xbe77ba7f	-0.24192236
112	0x3eccefa8	0.40026593
113	0x3e1c3ec5	0.1525832
114	0xbe8444e5	-0.25833812
115	0xbb33d9a0	-0.0027442947
116	0xbe43bc4c	-0.19114798
117	0xbe6acdac	-0.2293002
118	0x3ea05f02	0.31322485
119	0x3ee25510	0.44205523
120	0x3e178095	0.14795144
121	0xbdb79d61	-0.089655645
122	0xbd7b2f84	-0.06132461
123	0xbd5ebb16	-0.054377638
124	0xbed25a60	-0.41084576
125	0xbe9c4109	-0.30518368
126	0xbf0ad801	-0.54235846
127	0xbe69a9b3	-0.22818641

generator.fc2.bias f4 [8]
0	0x3b6734be	0.003527924
1	0xbe4e4990	-0.2014525
2	0x3d729d64	0.05923213
3	0xbe76ab86	-0.24088868
4	0x3b845d58	0.0040394478
5	0xbdfd3120	-0.123628855
6	0xbd8d8ec8	-0.06911999
7	0x3e123b2c	0.14280385

generator.fc3.weight f4 [16, 8]
0	0xbe96c9c4	-0.2945081
1	0xbe8222ba	-0.2541712
2	0xbf3ce74c	-0.7379043
3	0x3f41cb7a	0.75701106
4	0x3e0a889e	0.13528678
5	0xbef4c6bb	-0.4780787
6	0xbd36c300	-0.04461956
7	0x3e38efc8	0.1806022
8	0x3e5ca6cb	0.21548001
9	0xbde7a8c1	-0.11311484
10	0xbf26d6c4	-0.65171456
11	0xbf03da1c	-0.51504683
12	0x3ee77cda	0.45212442
13	0x3e6e0e48	0.23247635
14	0xbeb297be	-0.34881395
15	0x3e02a1dc	0.12757057
16	0x3f4bc017	0.7958998
17	0x3d18c691	0.037298743
18	0x3ed64c46	0.41855067
19	0xbd145fea	-0.036224283
20	0xbf28b3e6	-0.65899503
21	0x3daac214	0.08337799
22	0x3ef920dd	0.48657885
23	0x3f3bcd4c	0.73360133
24	0xbf4055bf	-0.7513084
25	0xbda223a8	-0.07916957
26	0xbead5ca1	-0.33859733
27	0xbf0e8c11	-0.55682474
28	0xbe88d414	-0.26724303
29	0x3ef6cfdd	0.48205462
30	0xbd6b1415	-0.0573922
31	0xbebba0fc	-0.3664626
32	0x3f559744	0.8343394
33	0x3f3a2df3	0.7272636
34	0xbf47f7c0	-0.7811241
35	0xbec7d71d	-0.39031306
36	0xbdfa9058	-0.12234563
37	0x3e3aaa3a	0.18228999
38	0xbe81dbb6	-0.2536294
39	0xbf0054f2	-0.50129616
40	0x3d4a3fa8	0.049377114
41	0xbe89aa53	-0.2688776
42	0xbebc542f	-0.36782977
43	0x3b9f31cc	0.004858231
44	0xbe9e7345	-0.3094732
45	0x3f6e587f	0.93103784
46	0x3d68c71e	0.056830518
47	0xbbfd0b1c	-0.0077222716
48	0x3ca298d3	0.019848263
49	0xbe761f78	-0.24035442
50	0x3f36eb66	0.7145294
51	0xbeb3eb56	-0.35140485
52	0x3f882408	1.0635996
53	0x3e45eb67	0.1932808
54	0x3f329ede	0.6977366
55	0xbe77c15a	-0.24194852
56	0xbee7d6e4	-0.45281136
57	0x3ed9454a	0.42435676
58	0xbde815c5	-0.11332277
59	0x3f2e12cb	0.67997426
60	0x3efff912	0.49994713
61	0x3d61c3ff	0.055118557
62	0xbe07ba79	-0.13254727
63	0x3e9c03e2	0.30471712
64	0xbf0406f2	-0.515731
65	0x3cbe0ec2	0.023200396
66	0x3f4e663f	0.80624765
67	0xbe87be54	-0.26512396
68	0x3e95f9a9	0.29292038
69	0xbe7f4ce1	-0.2493167
70	0xbed85ca2	-0.42258173
71	0x3e9d97d3	0.30779895
72	0xbeb5edeb	-0.3553308
73	0x3c818fcf	0.015815644
74	0xbf1adf35	-0.60496837
75	0x3ec6cecf	0.38829657
76	0xbe230b5a	-0.15922299
77	0xbecd3d94	-0.40086043
78	0xbf11e1d0	-0.5698519
79	0xbe197178	-0.14984691
80	0xbda57cd4	-0.0808045
81	0x3ee9a058	0.45630145
82	0x3ecd1169	0.40052345
83	0x3e5dbe8a	0.21654716
84	0x3ba9d154	0.0051824246
85	0x3da2b61f	0.07944893
86	0xbe70d240	-0.23517704
87	0x3dc6ea1d	0.09712622
88	0x3e4c3416	0.19941744
89	0xbf7db4c0	-0.9910393
90	0xbf3bc90d	-0.73353654
91	0x3f17bc04	0.59271264
92	0x3f29254b	0.6607253
93	0x3e5f61e6	0.21814689
94	0x3ec18620	0.37797642
95	0x3e8aea35	0.2713181
96	0xbc80767d	-0.0156815
97	0x3dc3e1ba	0.09564538
98	0xbe56fae4	-0.20994145
99	0x3f11307e	0.5671462
100	0x3e6a31e5	0.22870596
101	0xbe840e58	-0.25792193
102	0x3f6e86bd	0.93174344
103	0xbe874f81	-0.26427844
104	0xbe58522e	-0.21125099
105	0x3e457309	0.19282164
106	0x3e70b638	0.23507011
107	0xbec5bfc1	-0.3862286
108	0x3f1a9ad3	0.60392493
109	0xbf2d8058	-0.6777396
110	0x3f59df3c	0.85106254
111	0xbdb5d7e5	-0.08879069
112	0x3e785092	0.24249485
113	0x3e195d85	0.14977081
114	0x3f28c8af	0.6593122
115	0xbba9f68d	-0.005186862
116	0xbef8d128	-0.48597074
117	0xbf367588	-0.7127309
118	0x3db2c000	0.08728027
119	0x3e6be6ee	0.23037311
120	0xbd266fb4	-0.040633872
121	0x3d7877a5	0.060660977
122	0xbffc8a64	-1.9729733
123	0x3f1e3082	0.6179277
124	0x3c89dd56	0.016829174
125	0x3e9fdd85	0.31223693
126	0x3ed6ba47	0.41938993
127	0x3f080293	0.5312893

generator.fc3.bias f4 [16]
0	0xbce30986	-0.027714502
1	0x3e74429c	0.23853534
2	0xbe7b293f	-0.24527453
3	0x3d89ac90	0.06722367
4	0xbe048d45	-0.12944515
5	0xbe551b84	-0.20811278
6	0xbd27d18e	-0.04097133
7	0xbe423de7	-0.18968926
8	0xbe0b9a65	-0.13633116
9	0xbdea8fa4	-0.114531785
10	0x3e305228	0.1721884
11	0xbe9df7cf	-0.30853125
12	0x3ea48c1f	0.32138154
13	0x3e2743f6	0.16334519
14	0xbdd24bca	-0.10268362
15	0x3d10d0a0	0.03535521

generator.fc4.weight f4 [7, 16]
0	0x3dcb95d0	0.09940684
1	0x3da8168a	0.08207424
2	0xbe98dea8	-0.29857373
3	0xbe96550c	-0.2936176
4	0x3e614b2a	0.22001329
5	0xbded147c	-0.11576173
6	0x39c88228	0.00038243947
7	0x3e7cf3c9	0.24702372
8	0x3e9c7cce	0.30563968
9	0xbd15fd92	-0.036618777
10	0xbeda9e69	-0.42698982
11	0x3c88dc24	0.016706534
12	0x3ec81fd8	0.39086795
13	0x3e73264e	0.23745081
14	0x3dd8887e	0.10572909
15	0x3d990a19	0.07472629
16	0x3d9fde86	0.07806115
17	0xbd1cb7a5	-0.038261075
18	0xbda7b4a3	-0.081887506
19	0x3e4e1718	0.20125997
20	0xbf387fc5	-0.7206996
21	0xbd68b6dc	-0.056815013
22	0x3f46a2f9	0.77592427
23	0x3d2f6dcc	0.04282932
24	0xbebabd5a	-0.3647259
25	0xbe396731	-0.1810577
26	0xbdce609d	-0.10077021
27	0xbe242b22	-0.16032079
28	0x3e66d3c3	0.22541718
29	0x3e001888	0.12509358
30	0xbe7cf08d	-0.24701138
31	0xbdc56bb3	-0.096396826
32	0x3e91abe2	0.2845145
33	0xbf5a00ee	-0.8515767
34	0xbe96145a	-0.29312402
35	0x3e867cf1	0.26267198
36	0xbe895323	-0.2682124
37	0xbc954d50	-0.018225342
38	0xbee3fd20	-0.44529057
39	0x3efde12e	0.4958586
40	0xbe56c644	-0.2097407
41	0x3ed3c197	0.41358635
42	0x3d9ffd09	0.078119345
43	0x3d8e3db6	0.06945364
44	0x3e567122	0.20941594
45	0xbe091ba1	-0.13389446
46	0x3d975455	0.07389132
47	0xbec39841	-0.38202098
48	0x3dc78485	0.09742073
49	0x3ead2e17	0.33824226
50	0x3e099f09	0.13439573
51	0xbf533fc5	-0.8251918
52	0x3ed6da6f	0.41963527
53	0x3f1afe22	0.60544026
54	0x3e3384b4	0.17531091
55	0x3f24c2e7	0.643599
56	0x3eac0a89	0.33601788
57	0x3e7fa87d	0.24966617
58	0xbe5c1c89	-0.2149526
59	0xbe8029aa	-0.25031787
60	0x3de25a67	0.11052399
61	0x3ef70124	0.48243058
62	0xbcdabc90	-0.026701242
63	0x3e0c20d7	0.13684402
64	0xbebf5077	-0.37366077
65	0x3df18bb5	0.11794225
66	0xbef843c7	-0.4848921
67	0x3f14ea14	0.58169675
68	0x3e92474c	0.2857002
69	0xbda2b936	-0.079454824
70	0xbe154456	-0.1457685
71	0xbeee51d5	-0.46546808
72	0x3f6a2daa	0.9147593
73	0xbd1abfe1	-0.037780646
74	0xbebb2ca5	-0.365575
75	0xbe5de24a	-0.21668354
76	0xbea2ed2c	-0.31821573
77	0x3f559dc0	0.8344383
78	0xbeb4fbd9	-0.35348395
79	0xbe5ceab4	-0.21573907
80	0x3e092152	0.13391617
81	0x3ef6d0a5	0.48206058
82	0xbdf08f98	-0.11746138
83	0xbeb4e675	-0.35332075
84	0x3eebb5ce	0.46037143
85	0x3d155bec	0.036464617
86	0xbe97f366	-0.29677886
87	0xbebc2d93	-0.3675352
88	0xbf3a5a17	-0.72793716
89	0x3e46e915	0.19424851
90	0xbe443ef3	-0.19164638
91	0x3e8477c6	0.2587263
92	0x3e9a8464	0.3017913
93	0xbd360772	-0.044440694
94	0x3e825d82	0.25461966
95	0x3e9a72e6	0.30165786
96	0x3e43fe08	0.19139874
97	0x3e886037	0.26635906
98	0xbea19136	-0.315561
99	0xbd242f74	-0.040084317
100	0xbea93991	-0.33051732
101	0x3f140637	0.57821983
102	0xbe90a370	-0.28249693
103	0x3e6eaa67	0.23307191
104	0xbdd1d73e	-0.10246132
105	0xbdf5462e	-0.11976276
106	0xbed59123	-0.41712293
107	0x3d2350a6	0.039871834
108	0x3e471b6d	0.19444056
109	0x3e9c17f6	0.3048703
110	0xbeac855a	-0.3369549
111	0xbec7cb36	-0.39022225

generator.fc4.bias f4 [7]
0	0x3d909188	0.07059008
1	0xbe680434	-0.22657853
2	0x3c8ddf96	0.017318528
3	0x3e5803e6	0.21095237
4	0x3e34b936	0.17648777
5	0xbd79ce42	-0.06098772
6	0x3e35a0e4	0.17737156

generator.layer_norm_hidden_0.weight f4 [16]
0	0x3f7d70a6	0.9900001
1	0x3f7d70a6	0.9900001
2	0x3f8147b2	1.0100005
3	0x3f7d70a6	0.9900001
4	0x3f7d70a6	0.9900001
5	0x3f7e76ca	0.9940001
6	0x3f7d70a6	0.9900001
7	0x3f7df3b8	0.9920001
8	0x3f7d70a6	0.9900001
9	0x3f7d70a6	0.9900001
10	0x3f8147b2	1.0100005
11	0x3f7d70a6	0.9900001
12	0x3f7d70a6	0.9900001
13	0x3f8147b2	1.0100005
14	0x3f8147b2	1.0100005
15	0x3f7f7cee	0.998

generator.layer_norm_hidden_0.bias f4 [16]
0	0xbbc49ba7	-0.0060000005
1	0x3c23d70b	0.010000001
2	0x3c23d70b	0.010000001
3	0xbc23d70b	-0.010000001
4	0x3c23d70b	0.010000001
5	0x3c23d70b	0.010000001
6	0x3bc49ba7	0.0060000005
7	0x3c03126f	0.008
8	0xbc23d70b	-0.010000001
9	0x3c23d70b	0.010000001
10	0xbbc49ba7	-0.0060000005
11	0x3c23d70b	0.010000001
12	0x3c03126f	0.008
13	0xbc23d70b	-0.010000001
14	0x3c23d70b	0.010000001
15	0xbc03126f	-0.008

generator.layer_norm_hidden_1.weight f4 [8]
0	0x3f7d70a6	0.9900001
1	0x3f7d70a6	0.9900001
2	0x3f8147b2	1.0100005
3	0x3f7d70a6	0.9900001
4	0x3f8147b2	1.0100005
5	0x3f8147b2	1.0100005
6	0x3f8147b2	1.0100005
7	0x3f8147b2	1.0100005

generator.layer_norm_hidden_1.bias f4 [8]
0	0x3c23d70b	0.010000001
1	0x3c23d70b	0.010000001
2	0x3c23d70b	0.010000001
3	0x3b83126f	0.004
4	0xbc23d70b	-0.010000001
5	0x3c23d70b	0.010000001
6	0x3c23d70b	0.010000001
7	0x3c23d70b	0.010000001

discriminator.fc1.weight f4 [8, 7]
0	0x3f6a1a4c	0.91446376
1	0x3f3c0cc7	0.73456997
2	0x3f0e766e	0.5564946
3	0x3e8c83ef	0.27444407
4	0xbd9131d3	-0.07089581
5	0xbee0697c	-0.43830478
6	0x3ec326f8	0.38115668
7	0xbe80083f	-0.2500629
8	0x3eda8e47	0.42686674
9	0xbf1d3248	-0.6140485
10	0xbfa50df9	-1.2894889
11	0xbea375f8	-0.3192594
12	0x3efc71c1	0.49305537
13	0xbd96c6f5	-0.07362167
14	0x3efde380	0.4958763
15	0x3ecd9d61	0.40159133
16	0x3ea551bc	0.3228892
17	0x3e826f73	0.25475654
18	0xbf304fa5	-0.6887153
19	0xbd38b09b	-0.0450903
20	0x3f21fca1	0.63276106
21	0x3eb99d3f	0.36252782
22	0x3e941657	0.28923294
23	0x3d81d6d4	0.06339803
24	0x3ebbe795	0.3670012
25	0x3d81049b	0.062997065
26	0xbeba29b6	-0.36359948
27	0x3f4214c7	0.75812954
28	0xbd20073f	-0.03906941
29	0xbea1a359	-0.31569937
30	0xbd9f5171	-0.077792056
31	0x3ea2948e	0.31753963
32	0xbe4885ec	-0.19582337
33	0x3e897233	0.2684494
34	0x3f05ac6b	0.52216214
35	0xbdd990fa	-0.10623355
36	0x3fa8298e	1.3137681
37	0x3f5fb8d6	0.8739141
38	0xbf79ed6f	-0.9762792
39	0xbe7cf10b	-0.24701326
40	0xbe94af3c	-0.29039943
41	0x3ea530ce	0.32263798
42	0x3c758d2c	0.014987271
43	0xbf03163f	-0.5120582
44	0x3dbb9e4f	0.09161054
45	0x3ce718b4	0.028210022
46	0xbe4bf64c	-0.19918174
47	0xbe696089	-0.22790731
48	0xbf3394ff	-0.70149225
49	0x3f062f73	0.5241615
50	0x3eee3892	0.46527535
51	0x3f1671e3	0.5876753
52	0xbde42d98	-0.11141509
53	0xbe07e165	-0.13269575
54	0x3e887b95	0.26656786
55	0x3f9758a5	1.1823927

discriminator.fc1.bias f4 [8]
0	0xbd52fe32	-0.05151195
1	0xbe95f5d3	-0.29289111
2	0xbd375e11	-0.044767443
3	0xbea528fc	-0.3225783
4	0xbd0ab378	-0.03386256
5	0xbe1dc486	-0.15406999
6	0x3e0016d7	0.12508713
7	0x3d946866	0.07246475

discriminator.fc2.weight f4 [1, 8]
0	0xbf3436c9	-0.70396096
1	0xbf23a893	-0.639291
2	0x3daae797	0.083449535
3	0x3df3afa3	0.118987344
4	0x3f66aaaa	0.9010416
5	0xbd136673	-0.035986375
6	0xbf12f2e2	-0.5740186
7	0xbcf45f09	-0.029830473

discriminator.layer_norm_hidden_0.weight f4 [8]
0	0x3f809039	1.0044013
1	0x3f7dc9c7	0.9913601
2	0x3f7d7ad4	0.99015546
3	0x3f7da93d	0.9908636
4	0x3f7d7843	0.9901163
5	0x3f814445	1.0098959
6	0x3f7d709f	0.9899997
7	0x3f81384c	1.0095305

discriminator.layer_norm_hidden_0.bias f4 [8]
0	0xbc241883	-0.01001561
1	0xbc240406	-0.010010725
2	0x3c238e6b	0.009982686
3	0x3c23befa	0.009994263
4	0x3c240730	0.010011479
5	0xbc25415d	-0.010086385
6	0xbc23ffdc	-0.010009732
7	0xbc2575f6	-0.010098925

exp_avg f4 [16, 7]
0	0x3b866272	0.004101091
1	0x3b8609f8	0.004090544
2	0xa219b671	-2.083195e-18
3	0x3b85f9c7	0.0040886137
4	0x3b860cb0	0.004090868
5	0x3b8610ef	0.004091374
6	0x3b86168f	0.0040920447
7	0x3b01adf8	0.0019787531
8	0x3b021559	0.001984915
9	0x9fcd66c0	-8.699086e-20
10	0x3b021c11	0.0019853155
11	0x3b0217a6	0.0019850521
12	0x3b021616	0.001984959
13	0x3b0220b7	0.0019855925
14	0xbab8c6c0	-0.0014097318
15	0xbabba7d4	-0.0014316984
16	0xa0f236d8	-4.1032687e-19
17	0xbabbd523	-0.0014330487
18	0xbabbb0a1	-0.0014319607
19	0xbabba2ee	-0.0014315525
20	0xbabbbc08	-0.0014323005
21	0xbb0683da	-0.0020525367
22	0xbb064761	-0.0020489322
23	0x20627662	1.9182114e-19
24	0xbb0630db	-0.0020475897
25	0xbb06405e	-0.0020485143
26	0xbb063c27	-0.002048263
27	0xbb067249	-0.0020514897
28	0x3ab708c9	0.001396441
29	0x3ab94b8b	0.0014136893
30	0x224f969a	2.813346e-18
31	0x3ab941a7	0.0014133946
32	0x3ab949eb	0.0014136409
33	0x3ab940f7	0.0014133741
34	0x3ab8cb9b	0.0014098765
35	0x3adb7c37	0.0016745393
36	0x3ada8c89	0.0016673963
37	0x1f477a46	4.224103e-20
38	0x3ada73ea	0.0016666625
39	0x3ada8c71	0.0016673935
40	0x3ada8abc	0.0016673426
41	0x3ada36c4	0.0016648402
42	0xbaae0fd9	-0.001327987
43	0xbaaddae6	-0.0013264089
44	0x218dc25f	9.605981e-19
45	0xbaadd05f	-0.0013260952
46	0xbaade5df	-0.001326736
47	0xbaade515	-0.0013267124
48	0xbaae04bb	-0.0013276556
49	0x3a904951	0.0011008178
50	0x3a8e34fa	0.0010849528
51	0xa11d0152	-5.3195417e-19
52	0x3a8e15bc	0.0010840218
53	0x3a8e29d4	0.0010846206
54	0x3a8e2f68	0.0010847868
55	0x3a8e1568	0.001084012
56	0x3b317ed6	0.0027083657
57	0x3b3480a7	0.0027542503
58	0x225c1606	2.9827219e-18
59	0x3b34b2ed	0.0027572468
60	0x3b34a308	0.0027562995
61	0x3b3486ba	0.0027546124
62	0x3b348a8e	0.0027548405
63	0xbb4d9517	-0.0031369382
64	0xbb4dea17	-0.0031420046
65	0x1ff9b307	1.0575178e-19
66	0xbb4df233	-0.003142488
67	0xbb4df2b9	-0.0031425192
68	0xbb4df5e0	-0.003142707
69	0xbb4dbfdf	-0.0031394882
70	0x3b257d11	0.0025251547
71	0x3b243923	0.002505847
72	0xa1fbdc63	-1.7066757e-18
73	0x3b2443e6	0.0025064885
74	0x3b243e9a	0.0025061728
75	0x3b2450d3	0.002507259
76	0x3b23ed3b	0.0025013227
77	0x3acdcbe0	0.0015701018
78	0x3ad23d37	0.0016039972
79	0x21abd55f	1.164389e-18
80	0x3ad25438	0.0016046828
81	0x3ad24930	0.001604354
82	0x3ad228d7	0.00160339
83	0x3ad2a361	0.0016070419
84	0xbc6571cd	-0.014004183
85	0xbc669033	-0.014072466
86	0xa20d0114	-1.9109634e-18
87	0xbc669d0b	-0.014075528
88	0xbc669a9c	-0.014074948
89	0xbc669482	-0.014073493
90	0xbc667e4f	-0.0140682
91	0x3bbb6964	0.0057193507
92	0x3bbc697b	0.005749879
93	0x20ba92da	3.1606804e-19
94	0x3bbc7050	0.0057506934
95	0x3bbc7088	0.0057507195
96	0x3bbc6a6b	0.0057499907
97	0x3bbc7837	0.0057516354
98	0xbb53b9f2	-0.0032306877
99	0xbb52fe88	-0.003219517
100	0x218dc593	9.606829e-19
101	0xbb530fe2	-0.0032205512
102	0xbb530c22	-0.0032203277
103	0xbb531544	-0.003220872
104	0xbb52c24c	-0.0032159267
105	0x3a91a064	0.0011110422
106	0x3a9201af	0.0011139418
107	0xa19a2fd8	-1.044811e-18
108	0x3a91faa7	0.0011137322
109	0x3a920023	0.0011138957
110	0x3a92003b	0.0011138985
111	0x3a9245a6	0.0011159673

exp_avg f4 [16]
0	0x3c19b671	0.009381876
1	0x39cd66c0	0.00039177202
2	0x3af236d8	0.001847948
3	0xba627662	-0.0008638856
4	0xbc4f969a	-0.012670184
5	0xb9477a50	-0.00019023684
6	0xbb8dc25e	-0.004326149
7	0x3b1d0152	0.0023957086
8	0xbc5c1606	-0.013432985
9	0xb9f9b307	-0.00047626367
10	0x3bfbdc62	0.007686184
11	0xbbabd55f	-0.0052439417
12	0x3c0d0115	0.008606215
13	0xbaba92d9	-0.0014234438
14	0xbb8dc593	-0.004326531
15	0x3b9a2fd7	0.00470541

exp_avg f4 [8, 16]
0	0xbc1d4914	-0.009599943
1	0x3b04a76a	0.0020241388
2	0x3a9c1c0e	0.0011910216
3	0xbc150063	-0.0090943305
4	0xb9f72162	-0.00047136383
5	0x3b30f2be	0.0027000154
6	0xbade0163	-0.0016937669
7	0x3aac7d10	0.001315983
8	0x3ba453da	0.0050148787
9	0x39f815be	0.00047318445
10	0xb9caba01	-0.00038667026
11	0x3961f217	0.00021547858
12	0x36aa057c	5.0670333e-06
13	0x3b88d776	0.0041760756
14	0x3b79b28a	0.0038100802
15	0x3990d2f7	0.00027623
16	0x3c27848a	0.010224471
17	0x3b83b415	0.00401927
18	0xbbd81283	-0.0065940036
19	0x3c24dfc9	0.01006312
20	0x3b90d588	0.004419986
21	0x3b361d91	0.002778862
22	0x3ba8ed04	0.0051552076
23	0x3ba547d0	0.005043961
24	0xbc03dab9	-0.008047753
25	0x3bb633df	0.0055603827
26	0xbb9c9883	-0.004778923
27	0xbba30ad5	-0.0049756565
28	0xbb3295c4	-0.0027249912
29	0xbbe0adc5	-0.0068566524
30	0xbca2a97f	-0.019856213
31	0x3bcb65ba	0.006207195
32	0x3ba2d5bf	0.004969328
33	0xbaf216be	-0.0018469912
34	0xb78b22f2	-1.6586364e-05
35	0x3b98237b	0.0046429015
36	0xb96234e3	-0.00021572741
37	0xbb026f3b	-0.0019902724
38	0x39f6d79d	0.0004708142
39	0xbad1ffd0	-0.0016021673
40	0xbaf136b6	-0.0018403146
41	0xbaa302c6	-0.001243674
42	0x3a43f475	0.00074750866
43	0x39d6a615	0.00040941001
44	0x3967d3f9	0.00022108843
45	0xbacbd548	-0.0015551234
46	0x38937c90	7.032708e-05
47	0xba9d741f	-0.0012012756
48	0xbcdea62d	-0.027178848
49	0xbc1350a0	-0.0089913905
50	0x3c7e6cd5	0.015528877
51	0xbcdcdbe2	-0.026960317
52	0xbc3368b5	-0.010950257
53	0xbbb3803b	-0.0054779327
54	0xbc552032	-0.013008164
55	0xbc3e4aaa	-0.011614481
56	0x3cbc98cb	0.023022076
57	0xbc5c83a7	-0.013459123
58	0x3c249d6b	0.010047297
59	0x3c33b798	0.010969065
60	0x3bb39482	0.00548035
61	0x3c9e1739	0.019298183
62	0x3d48d559	0.04903159
63	0xbc754900	-0.014971018
64	0x3c8e08d8	0.017338201
65	0xbb8866d2	-0.0041626478
66	0xbac4430f	-0.0014973598
67	0x3c89aa4a	0.016804833
68	0x3a5039f2	0.0007943205
69	0xbbb284bf	-0.0054479535
70	0x3b461b96	0.0030228845
71	0xbb41c303	-0.00295657
72	0xbc28fc73	-0.010314095
73	0xbaa22114	-0.0012369477
74	0x3b01337f	0.0019714532
75	0x3a244d67	0.00062676374
76	0x3a662305	0.0008779022
77	0xbc0a274a	-0.008432219
78	0xbbcce2fa	-0.0062526437
79	0xba860818	-0.0010225801
80	0xbbd14804	-0.0063867588
81	0xba0dff3d	-0.00054167566
82	0x3b3ce67b	0.00288239
83	0xbbcd51cf	-0.006265856
84	0xbab318e0	-0.001366403
85	0xb9ca4b25	-0.0003858443
86	0xbb051ac2	-0.0020310138
87	0xba5d84ae	-0.0008450252
88	0x3b07aad3	0.0020701184
89	0xba87c2bf	-0.0010357721
90	0x3b172394	0.0023061978
91	0x3b1cbcdf	0.0023916287
92	0x3ad14b71	0.0015967918
93	0x3b0389ca	0.0020071142
94	0x3be5d133	0.007013464
95	0xbaa7289a	-0.0012753189
96	0x3c98da73	0.018658852
97	0x3c3ee82e	0.011652036
98	0xbc825ca2	-0.015913311
99	0x3c9bb23f	0.019005893
100	0x3c2722e1	0.010201187
101	0x3c128391	0.008942501
102	0x3c3755bb	0.011189873
103	0x3c6111a5	0.013737117
104	0xbc7f4116	-0.015579483
105	0x3c7333c6	0.014843887
106	0xbc5fcc1b	-0.013659502
107	0xbc5a2309	-0.013314017
108	0xbbfe7fff	-0.007766723
109	0xbc5a5169	-0.013325074
110	0xbd3bcdb6	-0.045850478
111	0x3c8638b1	0.016384454
112	0xbc714445	-0.014725749
113	0x3a790a50	0.0009500133
114	0x3b91fe5d	0.0044553713
115	0xbc6a8932	-0.0143149365
116	0xba923f2b	-0.0011157742
117	0x3adb9492	0.0016752651
118	0xbb394e99	-0.0028275608
119	0xb995cbc2	-0.00028571306
120	0x3bba5304	0.0056861658
121	0xbae7ce30	-0.001768535
122	0x3b846b88	0.004041139
123	0x3b828bfa	0.0039839717
124	0x3b523b0a	0.0032078647
125	0x3b9db99d	0.0048133866
126	0x3c12f689	0.008969911
127	0xbb2cc143	-0.002636031

exp_avg f4 [8]
0	0xbb58860a	-0.0033038878
1	0xbbd8441d	-0.0065999166
2	0x3b5193b3	0.0031978905
3	0x3c77dcee	0.015128357
4	0x3bd1186c	0.006381085
5	0x3a06b90a	0.00051392673
6	0xbc96a445	-0.018388877
7	0xbb5e7900	-0.0033946633

exp_avg f4 [16, 8]
0	0xb9c1b828	-0.00036949036
1	0x3ad5dd5c	0.0016316581
2	0xbbb91b07	-0.005648974
3	0x3c0f8cbb	0.00876158
4	0xb93af5c4	-0.00017829897
5	0xbbcb5944	-0.0062057097
6	0x3c1ce4a7	0.009575999
7	0xbbf98f65	-0.007615971
8	0x3a38b842	0.00070464995
9	0xb915ffd4	-0.0001430505
10	0x3a49b7d8	0.00076949364
11	0xbb2c2af4	-0.002627072
12	0x3a17e8c2	0.00057948765
13	0x3aa7826d	0.0012779959
14	0xbb3df564	-0.0028985376
15	0x3b183c45	0.0023229283
16	0x3c4c1fd5	0.012458761
17	0x3c2b73af	0.010464593
18	0xbcdf7e7e	-0.027281996
19	0x3c6541c8	0.013992734
20	0x3c0faa82	0.00876868
21	0xbc955af2	-0.018231843
22	0x3c53253d	0.012887296
23	0xbc61975b	-0.013768996
24	0xbc28f896	-0.010313174
25	0xbba704e2	-0.0050970176
26	0x3c8f3bf1	0.017484637
27	0xbb8102f7	-0.003937121
28	0xbb952482	-0.004551471
29	0x3bd5bed1	0.006522991
30	0xba1b816e	-0.0005932067
31	0x3a81b901	0.0009897054
32	0xbb4eb80a	-0.0031542801
33	0xbb596e7e	-0.003317743
34	0x3c13c0aa	0.009018103
35	0xbbd5471d	-0.0065087215
36	0xbb245688	-0.002507599
37	0x3bebfd22	0.0072018066
38	0xbbda047e	-0.0066533675
39	0x3bc8a2b2	0.0061229104
40	0x3c87d78e	0.016582277
41	0x3c5475f1	0.012967573
42	0xbd0d73ea	-0.034534372
43	0x3c805155	0.015663782
44	0x3c47215c	0.01215395
45	0xbcbfdd07	-0.023420824
46	0x3c6a3298	0.014294289
47	0xbc6f3f40	-0.014602482
48	0xbb99402c	-0.0046768393
49	0xbb144304	-0.0022622952
50	0x3bbbd466	0.005732107
51	0x3a09c8d5	0.00052560616
52	0xbb20833f	-0.0024492291
53	0x3ade96f3	0.0016982242
54	0x3b007734	0.00196023
55	0xb9a036bd	-0.0003055836
56	0xbb7cdc3e	-0.0038583423
57	0x3ad4d7f3	0.0016238674
58	0xbb9919dd	-0.0046722726
59	0x3c5e8c16	0.013583204
60	0xba7a5dbf	-0.00095507124
61	0xbc135f21	-0.0089948485
62	0x3c8372ab	0.016045889
63	0xbc50886c	-0.012727838
64	0xbc9def24	-0.01927907
65	0xbc675b7c	-0.014120933
66	0x3d2d437e	0.042300694
67	0xbcb11de7	-0.021620704
68	0xbc34cde7	-0.011035419
69	0x3cd1c206	0.025605213
70	0xbc9441c3	-0.018097764
71	0x3c8d9d5b	0.017286947
72	0xbab24577	-0.0013601024
73	0x392b5cdc	0.00016342424
74	0xbad1408b	-0.001596467
75	0x3ba4d581	0.0050303345
76	0xba8d90b1	-0.0010800568
77	0xbb2713f8	-0.002549408
78	0x3bb3a968	0.0054828413
79	0xbb852499	-0.0040632007
80	0x3c80326e	0.015649047
81	0x3c438a46	0.011934822
82	0xbd0a9350	-0.033831894
83	0x3c8b6d0f	0.017019777
84	0x3c1cefb7	0.009578637
85	0xbcac2041	-0.021011474
86	0x3c7187e4	0.0147418715
87	0xbc7465c0	-0.014916837
88	0xba841c77	-0.0010079284
89	0x3a27a08f	0.00063944695
90	0xbb8c381d	-0.00427915
91	0x3c0f195d	0.008734074
92	0xbad7d16c	-0.0016465611
93	0xbb9a691f	-0.0047122384
94	0x3c151399	0.009098911
95	0xbbdf899e	-0.006821825
96	0x3b8f9f82	0.0043830285
97	0x3abbd97b	0.0014331782
98	0xbbd75562	-0.0065714577
99	0x3a30c60d	0.0006743379
100	0x3a94a33e	0.0011340154
101	0xba961f96	-0.0011453505
102	0xbab4f94d	-0.0013807208
103	0x3aa974b0	0.0012928452
104	0xbb046653	-0.0020202592
105	0xbbc2e6ba	-0.005947915
106	0x3cbbb3fd	0.022912974
107	0xbcf518ea	-0.029919107
108	0x3a3d477a	0.00072204287
109	0x3cab5adc	0.020917349
110	0xbcfc5bd2	-0.030805502
111	0x3cc817d9	0.024425434
112	0x3c752bb5	0.014964034
113	0x3c3f4cf2	0.01167606
114	0xbd1a8940	-0.037728548
115	0x3cc55522	0.024088446
116	0x3be9db05	0.007136705
117	0xbcc2418d	-0.023712898
118	0x3caeb439	0.021326171
119	0xbc984211	-0.01858619
120	0xba8e3b9b	-0.0010851504
121	0xbb0c02c6	-0.0021363958
122	0x3bdfe93b	0.006833223
123	0xbbe97bd6	-0.007125358
124	0xba7d38bd	-0.0009659639
125	0x3bc544e1	0.006020174
126	0xbbef9683	-0.0073116436
127	0x3bc09621	0.0058772718

exp_avg f4 [16]
0	0x3b186bbf	0.002325758
1	0xbad1a374	-0.0015994147
2	0xbc6e8dd4	-0.014560182
3	0x3c43958d	0.011937511
4	0x3b5610e7	0.0032663883
5	0xbca5f7bf	-0.020259736
6	0x3bc47741	0.0059956615
7	0x3bdced07	0.006742123
8	0x3caa9c33	0.020826435
9	0x3b489d1e	0.0030611227
10	0xbc8e19ab	-0.017346224
11	0x3b8797ec	0.0041379835
12	0xbb9b2737	-0.0047348994
13	0xbbb82e0d	-0.005620724
14	0xbc5bfe42	-0.013427319
15	0x39982318	0.00029017846

exp_avg f4 [7, 16]
0	0x3a91948d	0.0011106894
1	0xbc072b0a	-0.008250007
2	0xbb4f5f0e	-0.003164235
3	0x3b542d28	0.0032375548
4	0xbc325da8	-0.010886587
5	0xbb628eba	-0.0034569935
6	0x3bb88a67	0.005631733
7	0xbb7c5ed9	-0.0038508682
8	0x3c0f0957	0.008730254
9	0xbb9ecd07	-0.0048462185
10	0x3a50d9cc	0.00079670246
11	0xbba3bed5	-0.004997114
12	0x3c8a7e98	0.016906068
13	0x3c0be573	0.008538592
14	0xba003832	-0.0004891186
15	0xbb9c1dcb	-0.004764294
16	0x3ba0ee90	0.0049112514
17	0xbbf1068c	-0.007355517
18	0xbbcada6a	-0.0061905878
19	0xbb9314ac	-0.0044885483
20	0xbbc573de	-0.0060257753
21	0xbbd6920d	-0.0065481723
22	0x3ba3d41a	0.0049996497
23	0xbacae2fd	-0.0015479025
24	0xbbba01bc	-0.0056764763
25	0xbb0aac87	-0.0021159963
26	0xbb79e985	-0.0038133573
27	0xbafc93d5	-0.0019270132
28	0x3cb74b9c	0.02237492
29	0x3c69b5aa	0.0142645035
30	0xba4c6733	-0.00077973603
31	0x38e4c971	0.000109094086
32	0x3c8fb586	0.017542612
33	0xbbd93f5b	-0.006629867
34	0xbc344267	-0.01100216
35	0xbc878adf	-0.016545711
36	0x3994c7ac	0.00028377527
37	0xbc25a5b1	-0.010110305
38	0xbbe5987e	-0.007006704
39	0x3b0cd266	0.0021487712
40	0xbcfa7b14	-0.030576266
41	0x3b9a158c	0.0047022756
42	0xbc4bf1a5	-0.012447749
43	0x3bff42c3	0.007789941
44	0x3d0dac75	0.034588296
45	0x3c61b966	0.013777113
46	0xbbb0dc84	-0.0053973813
47	0x3c9a8020	0.018859923
48	0xbbf6dd80	-0.007533729
49	0x3bda84e4	0.006668674
50	0x3ba39760	0.0049924105
51	0x3b51564d	0.0031942308
52	0x3babc679	0.0052421656
53	0x3b8e5744	0.004343899
54	0x3b3cd560	0.0028813705
55	0x3b0fb74c	0.0021929322
56	0x3ba254e4	0.0049539674
57	0x398cb6bb	0.00026839026
58	0x3b696cc5	0.003561781
59	0xbac44c73	-0.0014976397
60	0xbc9eaa17	-0.019368215
61	0xbba22e78	-0.004949387
62	0x3b52eeb7	0.0032185742
63	0xbc079854	-0.008276064
64	0xbd17d46a	-0.03706781
65	0x39f0f672	0.00045959983
66	0x3c9bbd2f	0.019011108
67	0x3d30197e	0.04299306
68	0xbc9c2db8	-0.01906477
69	0x3c8c3ee0	0.017119825
70	0x3cca0f48	0.02466549
71	0xbc330791	-0.010927097
72	0x3daaedbe	0.08346127
73	0xbc969bb6	-0.018384796
74	0x3cf2aa06	0.02962209
75	0xbcd757e7	-0.026287032
76	0xbd46aa82	-0.048502453
77	0xbc8729ee	-0.016499486
78	0x3c332223	0.010933432
79	0xbd51122d	-0.051042724
80	0x3caed5b5	0.021342138
81	0x3bcb530c	0.0062049683
82	0xbc0e9abe	-0.008703886
83	0xbcf63ae0	-0.03005737
84	0x3ca68e53	0.020331537
85	0xbc0a395d	-0.008436528
86	0xbc96587e	-0.018352743
87	0x3c24f538	0.01006823
88	0xbd7123a5	-0.058871884
89	0x3c6e4532	0.014542865
90	0xbc9f09c0	-0.019413829
91	0x3c9cf688	0.019160524
92	0x3c92b958	0.017910644
93	0x3bd3e441	0.006466419
94	0xbbb710c7	-0.005586717
95	0x3d06e152	0.032929726
96	0x3bf3e679	0.007443246
97	0x3ba449a1	0.00501366
98	0xbb439eca	-0.0029849284
99	0xbc6546ac	-0.0139939
100	0x3c3e40f9	0.01161217
101	0xbb568c05	-0.0032737267
102	0xbbc838bc	-0.006110279
103	0x3bbf5e2e	0.0058400845
104	0xbce15c5e	-0.027509864
105	0x3be058eb	0.0068465373
106	0xbc098fd5	-0.008396109
107	0x3c03409a	0.008011008
108	0x3b50cb76	0.0031859553
109	0x3b79d113	0.0038119003
110	0xba8fc6f3	-0.0010969326
111	0x3c3a2280	0.0113607645

exp_avg f4 [7]
0	0x3c55d2ce	0.013050748
1	0x3c03aaee	0.008036358
2	0x3ad15276	0.001597001
3	0xbc0757fc	-0.008260723
4	0x3c9ba3bc	0.018998973
5	0xbcb75432	-0.022379015
6	0xbc617f6b	-0.013763289

exp_avg f4 [16]
0	0x3c26c903	0.010179761
1	0x3c380c2c	0.011233371
2	0xbb829b20	-0.0039857775
3	0x3d21aae6	0.039469622
4	0x3bf9ea6b	0.0076268218
5	0x3ab0e713	0.00134966
6	0x3c9f7c09	0.019468324
7	0x3b4721b2	0.0030385074
8	0x3e14bb4a	0.1452457
9	0x3c368f89	0.01114262
10	0xbb435243	-0.002980367
11	0x3c3bc589	0.01146067
12	0x3d0fabf2	0.03507609
13	0xbbfffa4e	-0.007811821
14	0xbc8d65f3	-0.017260527
15	0x3ac3dbb8	0.0014942801

exp_avg f4 [16]
0	0x3b73fe7d	0.0037230544
1	0xbc724fda	-0.014789546
2	0xbc08be99	-0.008346223
3	0x3c8aeb39	0.016957866
4	0xbc85480c	-0.016269706
5	0xbc986f65	-0.018607805
6	0xbad14db3	-0.0015968591
7	0xbb8aadab	-0.0042321286
8	0x3ccb33ca	0.024804968
9	0xbc42cbd3	-0.011889416
10	0x39605ef4	0.00021397677
11	0xbc2c8066	-0.010528659
12	0xbc19905f	-0.0093728
13	0x3c65c92f	0.014025017
14	0xbbb41766	-0.0054959534
15	0x3b35f9fa	0.0027767406

exp_avg f4 [8]
0	0x3d01ab6e	0.03165763
1	0x3aab7cae	0.0013083422
2	0xbc10e20e	-0.008842958
3	0x3d3ea14a	0.046540536
4	0xbc8c888e	-0.017154958
5	0xbc922992	-0.017842088
6	0xbc6cd4df	-0.014455049
7	0xbc964e84	-0.018347986

exp_avg f4 [8]
0	0xbd0f8a20	-0.035043836
1	0xbc048f08	-0.008090742
2	0xbbde1b40	-0.006778151
3	0xbc0e3f67	-0.0086821085
4	0x3cfffcd9	0.031248497
5	0xbbb37bf9	-0.005477425
6	0xbcaf7646	-0.021418702
7	0xbc379d50	-0.01120694

exp_avg f4 [8, 7]
0	0xbcfe235e	-0.031022724
1	0x3c34b014	0.011028308
2	0xbd5e70bf	-0.05430674
3	0x3b83d472	0.004023128
4	0x3e379152	0.17926529
5	0xbe10e0be	-0.14148232
6	0xbc0073a7	-0.007840074
7	0xbe077857	-0.132295
8	0xbde37a71	-0.11107338
9	0xbcd4f678	-0.025996432
10	0xbdeec67e	-0.11658953
11	0xbcd82cdc	-0.026388578
12	0xbe467e39	-0.19384088
13	0xbdfb373c	-0.122663945
14	0xbc462bf7	-0.012095443
15	0xbc4d021f	-0.012512713
16	0x3c046e7b	0.008082981
17	0xbcb1cfd9	-0.021705555
18	0xbcace638	-0.02110587
19	0xbc9bcfe7	-0.019020034
20	0xbc6164b7	-0.013756922
21	0x3cc6350e	0.02419522
22	0xbc46f0da	-0.012142384
23	0x3d0f81ba	0.035035826
24	0x3c33cc86	0.010974055
25	0xbe232e23	-0.15935569
26	0x3e14f181	0.14545251
27	0x3bf0ff6e	0.0073546683
28	0x3c165211	0.00917484
29	0xbd0b4e03	-0.034009945
30	0x3d9ee838	0.07759136
31	0xbd60de62	-0.05489958
32	0xbe6a1dbd	-0.22862907
33	0x3dd0fcb2	0.10204448
34	0xbca886d2	-0.0205721
35	0x3d0528d9	0.03250966
36	0xba92f18b	-0.0011210901
37	0x3cade1c8	0.021225825
38	0x3d0b39ad	0.03399055
39	0xbdf097c4	-0.11747697
40	0x3e176425	0.14784296
41	0x3ca6e2ac	0.020371757
42	0x3b857d28	0.0040737577
43	0x3ca4a65e	0.020098861
44	0xbc51d892	-0.012807982
45	0x3bb96b5d	0.0056585507
46	0x3d9f58aa	0.07780583
47	0xbd4a0f53	-0.04933102
48	0x3c0753b4	0.0082597025
49	0xbbfd15f2	-0.0077235634
50	0xbb8b6a8c	-0.0042546447
51	0xbaf1bd90	-0.0018443335
52	0xbc05876a	-0.008149961
53	0x3bdcb283	0.0067351474
54	0xbca22998	-0.019795224
55	0xbbd4cb97	-0.0064939964

exp_avg_sq f4 [8, 7]
0	0x38284120	4.0114974e-05
1	0x37117b5d	8.671396e-06
2	0x38e3e07e	0.000108660184
3	0x3701ce14	7.7369805e-06
4	0x3a922f33	0.0011152982
5	0x3a4538e1	0.0007523429
6	0x36e393dd	6.7823407e-06
7	0x39dbfe08	0.00041960203
8	0x399679ab	0.0002870088
9	0x37d3dd0f	2.5256099e-05
10	0x39a4e459	0.0003145065
11	0x380a721f	3.3008047e-05
12	0x3a7790a8	0.00094438577
13	0x39b8d40c	0.00035253202
14	0x3687bb0f	4.04509e-06
15	0x368e2a6a	4.2368674e-06
16	0x362561e5	2.4643898e-06
17	0x374f8d32	1.2371036e-05
18	0x3781b6e6	1.5463167e-05
19	0x372eef64	1.0426946e-05
20	0x36a5b945	4.9389514e-06
21	0x37f0a5da	2.868746e-05
22	0x369a3192	4.5953284e-06
23	0x3832a174	4.2588872e-05
24	0x372709f1	9.95629e-06
25	0x3a4d6601	0.0007835329
26	0x3a400d78	0.0007326226
27	0x36a77a20	4.991205e-06
28	0x37d1eeb4	2.5025896e-05
29	0x381e588e	3.775261e-05
30	0x39523e3f	0.00020050349
31	0x38d33c12	0.00010072453
32	0x3abb9521	0.0014311412
33	0x39a84c5e	0.00032100355
34	0x37aa3946	2.029225e-05
35	0x37e91836	2.7787039e-05
36	0x350b732a	5.194912e-07
37	0x375e2609	1.3241087e-05
38	0x38035956	3.1316034e-05
39	0x39cdab93	0.0003922848
40	0x3a1e247a	0.0006032657
41	0x3735ae5e	1.0829039e-05
42	0x369af268	4.6177774e-06
43	0x373bd822	1.1196391e-05
44	0x36eb6080	7.01478e-06
45	0x368f2bad	4.2668166e-06
46	0x3966e84e	0.0002202105
47	0x391fdb7e	0.00015245189
48	0x360bcc96	2.0831699e-06
49	0x35d82e0c	1.6106655e-06
50	0x35056b63	4.970263e-07
51	0x34282ff0	1.5663659e-07
52	0x35eeeb1a	1.7800805e-06
53	0x3600ae75	1.9175034e-06
54	0x373351be	1.06882635e-05
55	0x3594bbb4	1.1081488e-06

exp_avg f4 [8]
0	0x3eb12ed1	0.3460603
1	0x3e7bb24a	0.2457973
2	0xbda47c01	-0.08031464
3	0xbdce9f5c	-0.10088989
4	0xbeff42a0	-0.49855518
5	0xbd3c7cff	-0.046017643
6	0x3dce7983	0.1008177
7	0xbc4ca7c6	-0.012491172

exp_avg_sq f4 [8]
0	0x3b41ab76	0.0029551662
1	0x3ac05e4c	0.001467654
2	0x39288b47	0.00016073613
3	0x397d5933	0.0002416119
4	0x3bbec6da	0.005822045
5	0x3864887c	5.4486547e-05
6	0x399e5705	0.00030200943
7	0x373421e3	1.0736726e-05

exp_avg f4 [1, 8]
0	0x3d47b263	0.048754107
1	0xbd632746	-0.055457376
2	0x3e6fdc6c	0.23423928
3	0x3dd50202	0.104007736
4	0x3e016d49	0.12639345
5	0x3e0b795f	0.13620518
6	0xbf2fe84f	-0.6871385
7	0x3dcd7cc5	0.100335635

exp_avg_sq f4 [1, 8]
0	0x389a2022	7.3492774e-05
1	0x38d9fd49	0.000103945444
2	0x3ab3514c	0.0013680845
3	0x398e909c	0.00027192093
4	0x39c9d9d6	0.00038500008
5	0x39f067ef	0.00045853804
6	0x3c39210f	0.011299386
7	0x39c674c1	0.0003785249

exp_avg f4 [8]
0	0xbd051da7	-0.03249898
1	0x3d18e70a	0.03732971
2	0x3cabc1ba	0.0209664
3	0x3c5663c0	0.013085306
4	0x3df000c5	0.11718897
5	0xbb88dd8c	-0.004176801
6	0x3ecd5f34	0.40111697
7	0xbb1de62c	-0.0024093492

exp_avg_sq f4 [8]
0	0x380c2992	3.3417316e-05
1	0x383fe42e	4.5750458e-05
2	0x373b38e8	1.1159318e-05
3	0x368fee78	4.2894935e-06
4	0x39ac7e1f	0.00032900364
5	0x34dced76	4.115097e-07
6	0x3b7c5633	0.0038503527
7	0x346fb863	2.2325689e-07

exp_avg f4 [8]
0	0x3e98a5f1	0.29814103
1	0x3e8c19da	0.27363473
2	0xbd1932d4	-0.03740199
3	0xbd56aa0b	-0.05240826
4	0xbec54af1	-0.38533738
5	0x3c5c1d0e	0.013434662
6	0x3e7c1b45	0.24619778
7	0x3c32fcf6	0.010924568

exp_avg_sq f4 [8]
0	0x3b06a613	0.0020545765
1	0x3ae388bd	0.0017359477
2	0x380a1bca	3.2927644e-05
3	0x3886bb70	6.424531e-05
4	0x3b618780	0.003441304
5	0x36871414	4.025651e-06
6	0x3ab84cb1	0.0014060942
7	0x36318ce0	2.6457055e-06
