saved/type_7_fold_5.ckpt (torch, 21906 bytes, 39 tensors)

generator.fc1.weight f4 [16, 7]
0	0x3eeece18	0.46641612
1	0x3fc66bf6	1.5501697
2	0x3e3a1e9d	0.1817574
3	0x3e85a64b	0.26103434
4	0x3e14f391	0.14546038
5	0x3ec4f51b	0.3846825
6	0xbe465f16	-0.1937221
7	0x3f3b1f2a	0.7309443
8	0x3f30b1f1	0.6902152
9	0x3f12e53d	0.5738104
10	0x3d8e18e4	0.06938341
11	0xbe5076e2	-0.2035785
12	0xbf131a4b	-0.57461995
13	0xbe1e4933	-0.15457611
14	0x3f0011a7	0.50026935
15	0xbf37e725	-0.71837074
16	0xbeedb1ad	-0.46424618
17	0xbf892a4a	-1.0716031
18	0x3e9a822d	0.3017744
19	0x3ca42e42	0.020041589
20	0xbe23769d	-0.15963216
21	0x3ddb644f	0.10712492
22	0x3f6e3d6b	0.93062466
23	0xbe15cfe6	-0.14630088
24	0x3d0b8fcc	0.034072682
25	0xbaaa1139	-0.0012975103
26	0xbee7bc4a	-0.4526084
27	0xbefe8218	-0.4970863
28	0xbf113f10	-0.5673685
29	0xbf1b6361	-0.60698515
30	0x3ef24e97	0.47325584
31	0x3e8495c6	0.25895518
32	0xbf1fee58	-0.6247306
33	0x3e83aaad	0.25716153
34	0x3ddfa719	0.10920543
35	0xbdd8d6d6	-0.10587852
36	0x3e28bfc3	0.16479401
37	0x3f1bf231	0.6091643
38	0xbec80b27	-0.3907101
39	0xbdda83e9	-0.10669691
40	0x3e6169a7	0.2201296
41	0x3dbd84ef	0.09253871
42	0x3bba351a	0.0056825997
43	0xbf3fe47d	-0.7495802
44	0x3f530938	0.8243594
45	0xbe500111	-0.20312907
46	0xbe0586a0	-0.13039637
47	0x3cd81fb3	0.026382303
48	0x3f75c291	0.9600001
49	0x3e9a66f1	0.30156663
50	0x3e98a7f6	0.29815644
51	0x3e11b9ec	0.1423108
52	0xbe57093d	-0.20999618
53	0xbedbc682	-0.42924887
54	0x3f1c6d85	0.61104614
55	0xbc9af64f	-0.018916277
56	0xbe5ff34f	-0.21870159
57	0xbf2338b5	-0.63758403
58	0x3f47276e	0.7779454
59	0xbe35fdb4	-0.17772561
60	0xbe08f076	-0.13372979
61	0x3ea785dc	0.32719314
62	0x3f22f010	0.63647556
63	0x3f4e4c8b	0.80585545
64	0x3e9190e6	0.2843086
65	0xbf5ab01e	-0.85424984
66	0xbf1b0022	-0.6054708
67	0xbedc1960	-0.4298811
68	0xbf2621b4	-0.64895177
69	0xbeb5fc68	-0.35544133
70	0x3f22eaf8	0.63639784
71	0x3f17a583	0.59236926
72	0xbd27b676	-0.040945493
73	0xbe68297f	-0.2267208
74	0xbe87cf4a	-0.26525337
75	0xbf1686ab	-0.58799237
76	0x3f1d742f	0.6150541
77	0x3da16b51	0.07881797
78	0x3eea9066	0.45813292
79	0x3edcf14d	0.43152848
80	0x3f56d4ef	0.8391866
81	0xbebeb2b6	-0.3724572
82	0xbef7f6a4	-0.4843036
83	0x3f383841	0.71960837
84	0x3db7af4b	0.08968981
85	0xbe4e0756	-0.20119986
86	0x3e915a94	0.28389418
87	0xbf61bef2	-0.88181984
88	0xbe592a99	-0.21207656
89	0xbec36f4c	-0.3817085
90	0xbec306c6	-0.38091105
91	0xbfcad94c	-1.5847564
92	0x3eacd829	0.33758667
93	0x3f565570	0.8372412
94	0x3e717568	0.23579943
95	0x3fb41683	1.406937
96	0xbd50a380	-0.050937176
97	0x3f59b8dd	0.85047704
98	0xbfa2acbb	-1.2708963
99	0x3eb7c340	0.3589115
100	0xbf3b7d71	-0.73238283
101	0xbe1e3eab	-0.15453593
102	0x3f531081	0.8244706
103	0x3c31a3d1	0.0108422795
104	0x39b55c44	0.00034591754
105	0xbf855829	-1.0417529
106	0xbec8dea9	-0.39232376
107	0x3dc98cfa	0.09841342
108	0xbe16bc1c	-0.14720196
109	0x3e7e8946	0.24857053
110	0xbf207a5f	-0.62686723
111	0xbce05b58	-0.027387306

generator.fc1.bias f4 [16]
0	0xbc772bda	-0.015086139
1	0xbdda122e	-0.10647999
2	0x3ea6b061	0.3255644
3	0x3da7854a	0.0817972
4	0x3da79742	0.08183147
5	0x3e086057	0.13318
6	0xbde82b96	-0.11336438
7	0xbe8d10bf	-0.2755184
8	0xbe38700f	-0.18011497
9	0xbea01c72	-0.31271702
10	0x3e180381	0.14845087
11	0xbe98b6b8	-0.29826903
12	0xbdba3d7e	-0.0909376
13	0xbebd26ef	-0.36943766
14	0x3e08d833	0.13363723
15	0x3e344565	0.17604597

generator.fc2.weight f4 [8, 16]
0	0x3ea58f21	0.3233576
1	0xbeca595a	-0.39521295
2	0x3dabb72e	0.08384548
3	0x3e699112	0.22809246
4	0xbe654182	-0.2238827
5	0xbda57313	-0.08078589
6	0xbe48533d	-0.19563003
7	0x3f1a9ef7	0.6039881
8	0xbe5aac90	-0.2135489
9	0x3e901c28	0.28146482
10	0xbf89e50d	-1.0773026
11	0x3e2f494e	0.17117807
12	0x3e83dc0a	0.25753814
13	0x3f431348	0.76201296
14	0x3c31d0b4	0.010852981
15	0x3e971187	0.2950556
16	0x3ea39f01	0.31957248
17	0xbe788ca0	-0.24272394
18	0x3e901686	0.28142184
19	0xbe139648	-0.14412796
20	0xbe3ec040	-0.18628025
21	0x3e7ec20a	0.24878708
22	0xbe5e1e83	-0.21691327
23	0x3f0e7b86	0.5565723
24	0x3f1a3dea	0.60250723
25	0x3f013701	0.50474554
26	0xbeb766c0	-0.3582058
27	0x3ddf009d	0.10888789
28	0xbf326852	-0.6969043
29	0xbdbd161e	-0.09232734
30	0xbe951a48	-0.29121614
31	0x3cc97b9a	0.02459507
32	0x3ea0d83d	0.31414977
33	0x3ee30d4c	0.44346082
34	0x3de7510e	0.11294757
35	0xbf4d5b19	-0.8021713
36	0x3e0c28f6	0.136875
37	0x3d6f2eb9	0.058394168
38	0x3d908600	0.070568085
39	0x3d32639f	0.043552037
40	0x3eba1490	0.36343813
41	0x3e9dfb18	0.30855632
42	0x3f31165c	0.6917474
43	0xbd389d0f	-0.045071658
44	0x3eb3c9dd	0.35114947
45	0xbedd0c53	-0.43173465
46	0xbccb77c7	-0.024837388
47	0x3ea09920	0.31366825
48	0xbe6789bb	-0.22611134
49	0x3f61096a	0.8790499
50	0x3ee615d7	0.44938537
51	0xbe8bbf71	-0.27294496
52	0x3b64b684	0.0034898827
53	0x3f01b179	0.50661427
54	0x3e88171c	0.2658013
55	0x3e31e123	0.17371039
56	0x3ed1ac1d	0.40951625
57	0x3ef0fb53	0.47066745
58	0xbdd8507b	-0.105622254
59	0xbe78a540	-0.24281788
60	0x3b4db590	0.0031388737
61	0xbe82808c	-0.25488698
62	0x3ed4c64c	0.41557539
63	0x3ddfea2f	0.10933339
64	0xbe66dacd	-0.22544403
65	0x3e0f6384	0.14002806
66	0x3caabcd1	0.020841988
67	0xbe120323	-0.14259009
68	0xbf126bcb	-0.5719573
69	0x3f349f4e	0.7055558
70	0xbe5bba04	-0.21457678
71	0xbed3ef21	-0.41393378
72	0x3ea88c14	0.3291937
73	0xbecb36f6	-0.3969037
74	0xbf21e209	-0.6323553
75	0xbd70f572	-0.058827825
76	0xbc6d7b00	-0.0144946575
77	0x3f5e584b	0.86853474
78	0xbeb84bdc	-0.35995376
79	0x3be3ceba	0.006952134
80	0xbe58112f	-0.21100305
81	0x3f61dca9	0.88227326
82	0xbe0c1726	-0.13680705
83	0xbd9f7aa5	-0.077870645
84	0xbe3e9994	-0.18613273
85	0x3dac4799	0.08412094
86	0x3ef4e2d3	0.47829303
87	0xbe4d8060	-0.20068502
88	0x3e308d2f	0.17241357
89	0x3e4c2a71	0.19938065
90	0xbe20e5c0	-0.15712643
91	0x3d1b34ee	0.037892275
92	0x3e58ac1e	0.21159407
93	0xbf018d68	-0.50606394
94	0xbe04965d	-0.12947984
95	0xbe2daad8	-0.16959703
96	0x3d58d989	0.052941833
97	0x3e051caf	0.12999223
98	0xbf33fc9d	-0.7030733
99	0xbc9dc50c	-0.019258998
100	0x3c63ea5a	0.013910854
101	0xbdc89f56	-0.09796016
102	0x3e957193	0.29188213
103	0xbe54614e	-0.20740244
104	0xbd8eefb3	-0.06979313
105	0x3ec1b3ba	0.37832433
106	0x3e06def4	0.13170987
107	0xbe3eeb13	-0.18644361
108	0xbe6151da	-0.2200388
109	0x3ecb20e0	0.3967352
110	0x3f121ce8	0.5707536
111	0x3d038464	0.03210868
112	0xbe5dd0c0	-0.21661663
113	0x3e2f0f76	0.17095742
114	0x3d7b68a5	0.061379094
115	0x3e83badd	0.25728503
116	0xbe28a9cd	-0.16471024
117	0x3d8bec01	0.068321235
118	0x3f81dbf7	1.0145253
119	0xbfaf1e0b	-1.3681043
120	0xbe77794d	-0.24167366
121	0xbdd2430a	-0.10266693
122	0xbf1e7855	-0.6190236
123	0xbeab4107	-0.3344805
124	0x3da47e0e	0.080318555
125	0xbdd160c8	-0.10223538
126	0x3ed889bf	0.42292592
127	0xbad25dcd	-0.0016049683

generator.fc2.bias f4 [8]
0	0x3dddd2a2	0.10831191
1	0x3dd37a1a	0.103260234
2	0x3d1310ce	0.035904698
3	0xbdf9288e	-0.12165938
4	0xbe7d3753	-0.24728136
5	0xbc3b02e2	-0.011414262
6	0x3e8126fd	0.25225058
7	0xbd165bab	-0.036708515

generator.fc3.weight f4 [16, 8]
0	0x3dacd5d0	0.08439219
1	0x3e467dfb	0.19383995
2	0xbd37fe24	-0.0449201
3	0xbd730b38	-0.05933687
4	0xbed6bf66	-0.419429
5	0x3eb08f14	0.3448416
6	0x3f0f75fa	0.5603939
7	0xbf1f8424	-0.62311006
8	0x3e7349cd	0.23758622
9	0x3f367dd3	0.7128574
10	0xbf1e6f87	-0.6188893
11	0x3f67e7d5	0.9058812
12	0x3f6735de	0.9031657
13	0xbe3f32b5	-0.18671687
14	0xbf3db005	-0.7409671
15	0x3e0e76da	0.13912526
16	0xbf513da3	-0.81734675
17	0xbc619af6	-0.013769856
18	0xbe83de7e	-0.25755686
19	0x3edeeebc	0.43541515
20	0x3e950163	0.2910262
21	0x3e793fb9	0.24340715
22	0xbf12f127	-0.5739922
23	0xbebcdbf6	-0.36886567
24	0x3df67101	0.120332725
25	0x3f0a7763	0.5408842
26	0xbe1448d1	-0.14480902
27	0xbef2972b	-0.47380957
28	0xbd1d0115	-0.03833111
29	0xbe53661b	-0.20644419
30	0xbea8f15b	-0.3299664
31	0x3efbab40	0.4915409
32	0xbf5126e6	-0.8169998
33	0x3aa44e91	0.0012535622
34	0x3f7b506c	0.9816959
35	0xbede2c6c	-0.43393266
36	0xbeb0d535	-0.34537664
37	0x3cba668d	0.022753978
38	0x3f1dd3be	0.6165122
39	0x3e775c1e	0.24156234
40	0x3f34e7df	0.7066631
41	0x3d63e19a	0.055635072
42	0xbf886ae2	-1.0657618
43	0x3cb3c12e	0.021942701
44	0x3d827fd1	0.06372035
45	0x3f5ad2de	0.8547801
46	0x3dc5c29d	0.0965626
47	0xbf8e4a1a	-1.1116364
48	0x3f4d4020	0.8017597
49	0xbe5245dc	-0.20534462
50	0xbd07bd4f	-0.033139523
51	0x3e9ed03d	0.31018248
52	0x3ea6ada8	0.32554364
53	0xbe18b85b	-0.14914076
54	0xbe9309a1	-0.28718284
55	0x3c8d9b0d	0.017285848
56	0xbe32e248	-0.17469132
57	0xbee6e22f	-0.4509444
58	0xbeecf63f	-0.4628162
59	0x3e78d733	0.24300842
60	0x3dfc12e8	0.123082936
61	0x3e656bbf	0.22404383
62	0xbed59e0c	-0.41722143
63	0xbea88af3	-0.3291851
64	0x3e9be893	0.30450878
65	0x3ef12c8f	0.47104308
66	0xbf000351	-0.5000506
67	0x3f835085	1.0258948
68	0xbe77df3b	-0.2420625
69	0xbe75dc78	-0.24009883
70	0xbed2606a	-0.41089183
71	0x3bd38336	0.0064548505
72	0x3e9da981	0.30793384
73	0x3fa83abf	1.3142928
74	0xbdb0dfc4	-0.0863643
75	0x3e7d2147	0.24719726
76	0xbe25365a	-0.16134015
77	0xbf2fc43e	-0.68658817
78	0xbec951bb	-0.39320168
79	0x3d38832e	0.045046978
80	0x3ed797b3	0.42107925
81	0xbee32ab5	-0.4436852
82	0xbf278049	-0.6543012
83	0x3e8b1b60	0.27169323
84	0xbe3e1e32	-0.18566206
85	0xbe770da0	-0.24126291
86	0xbe5f7d53	-0.21825151
87	0xbc84768c	-0.016169809
88	0xbf08d874	-0.5345528
89	0x3f04a4ba	0.5181385
90	0x3f583d69	0.84468704
91	0xbf04e6ac	-0.5191448
92	0x3f65fc32	0.89837945
93	0x3ddc2d51	0.10750831
94	0xbfaa6093	-1.3310722
95	0xbe4b8f3d	-0.1987886
96	0xbf379684	-0.71714044
97	0x3f0b215b	0.5434777
98	0xbf694003	-0.911133
99	0x3ef0fef8	0.47069526
100	0xbe8eb372	-0.2787128
101	0x3e0e79ca	0.13913646
102	0x3f3e02d1	0.7422305
103	0xbed50342	-0.41604048
104	0x3f0a8b32	0.54118645
105	0xbee9e22c	-0.45680368
106	0x3dfa4cd8	0.12221688
107	0xbd860f92	-0.065459386
108	0x3ecc3278	0.39882255
109	0xbf0c1933	-0.5472595
110	0x3de04beb	0.1095198
111	0x3f809783	1.0046238
112	0x3f395a9b	0.7240388
113	0xbe28766f	-0.16451429
114	0x3ee15d3c	0.44016445
115	0xbebcdc25	-0.36886707
116	0x3ed1c82f	0.4097304
117	0x3e3dba57	0.18528114
118	0xbbd8f030	-0.0066204295
119	0x3edd3eaf	0.43211886
120	0xbf040624	-0.5157187
121	0x3ebce884	0.36896145
122	0x3db6fc6a	0.08934863
123	0xbdb66d8b	-0.089076124
124	0xbe6df19b	-0.23236696
125	0x3e74c2b3	0.23902397
126	0xbedf414a	-0.436045
127	0x3f44270d	0.76622087

generator.fc3.bias f4 [16]
0	0x3b591c38	0.0033128392
1	0xbe424f57	-0.18975578
2	0x3e1e5daf	0.15465425
3	0xbe317e08	-0.17333233
4	0x3d7c92ad	0.06166332
5	0xbe9223b3	-0.2854286
6	0x3eb11d87	0.3459284
7	0xbe9a81e3	-0.3017722
8	0x3e61a3ab	0.2203509
9	0x3cef96e1	0.02924675
10	0x3e867731	0.2626281
11	0xbe357ba9	-0.17722954
12	0xbda642e2	-0.08118226
13	0x3e9733d5	0.29531732
14	0xbe1a28cb	-0.15054624
15	0xbe85a959	-0.26105765

generator.fc4.weight f4 [7, 16]
0	0xbed2ec8d	-0.411961
1	0x3d756412	0.059909888
2	0x3e5a5cee	0.21324512
3	0xbe8a84cc	-0.2705444
4	0x3f130b6b	0.574393
5	0xbef0e5b2	-0.47050244
6	0x3e8c75d5	0.2743365
7	0xbe621b34	-0.2208069
8	0x3f006b96	0.50164163
9	0x3e8d2e81	0.27574542
10	0xbe4556ce	-0.19271395
11	0x3ea54775	0.3228108
12	0xbe5fd30a	-0.21857849
13	0xbeb3b912	-0.35102135
14	0x3f3e6d70	0.7438574
15	0xbecf917a	-0.40540677
16	0xbe4c4ba0	-0.19950724
17	0x3e500be7	0.2031704
18	0x3d13b2be	0.036059134
19	0xbd0e1aee	-0.03469365
20	0xbe08a570	-0.1334436
21	0x3c5c5452	0.013447838
22	0xbe756e20	-0.2396779
23	0x3eda3956	0.4262187
24	0x3e949ef9	0.29027537
25	0x3ef941b8	0.48682952
26	0xbe24ef72	-0.16106966
27	0xbe9b7fea	-0.30371028
28	0x3e31c51b	0.17360346
29	0xbe5ffacb	-0.21873014
30	0xbcefc975	-0.029270867
31	0x3f1eb02a	0.61987555
32	0x3f17163c	0.590183
33	0xbe0ba668	-0.13637698
34	0xbe960bec	-0.2930597
35	0xbeb1d590	-0.34733248
36	0xbf05438c	-0.52056193
37	0x3dc2602e	0.09491001
38	0xbe3c2e4b	-0.18377034
39	0xbea12a52	-0.314776
40	0x3d879875	0.06620876
41	0x3eba2ba5	0.36361423
42	0x3ddaa048	0.106751025
43	0x3f8983de	1.0743368
44	0xbdbdac07	-0.09261327
45	0xbe78ec79	-0.24308957
46	0xbec6c37e	-0.38821024
47	0xbe3b8c41	-0.18315221
48	0x3e2b2764	0.16714245
49	0xbdee4ce0	-0.116357565
50	0x3ed7c7a5	0.42144504
51	0xbed6c416	-0.41946477
52	0xbe19313f	-0.14960192
53	0x3dbb1ae5	0.09135989
54	0x3e8e36a2	0.27776057
55	0xbbdc47d4	-0.00672243
56	0x3efb47b9	0.49078158
57	0xbe148d27	-0.1450697
58	0x3e563d4d	0.20921822
59	0xbe915dbe	-0.28391832
60	0xbd79057e	-0.060796253
61	0xbcec6f1a	-0.028861571
62	0x3df0661f	0.11738228
63	0x3f28636d	0.6577671
64	0xbe24f23c	-0.1610803
65	0x3c7b8257	0.0153509
66	0x3eae1628	0.3400128
67	0x3d2f4f68	0.042800337
68	0xbe12ce61	-0.1433654
69	0x3e2cd974	0.16879827
70	0xbeb8342a	-0.35977298
71	0xbe99668c	-0.2996105
72	0xbdb7b878	-0.089707315
73	0x3f349b5c	0.7054956
74	0x3db9ebd3	0.09078183
75	0x3e1f465d	0.15554185
76	0xbd426e6e	-0.047468595
77	0x3ecea7d8	0.4036243
78	0xbdc4cc85	-0.096093215
79	0x3cef6139	0.029221164
80	0x3ecec741	0.40386394
81	0x3f2da292	0.6782619
82	0x3dbf9147	0.09353881
83	0x3db4baf9	0.08824725
84	0x3d38ca72	0.045114942
85	0xbe9e333f	-0.30898473
86	0xbd9a851e	-0.07544921
87	0xbf3af6d7	-0.730329
88	0x3d6c3403	0.05766679
89	0xbe6a8979	-0.22904004
90	0xbd80bf8c	-0.06286535
91	0x3d3406c1	0.043951754
92	0xbe0a09ac	-0.13480252
93	0x3d0ca031	0.034332458
94	0xbea10cc0	-0.3145504
95	0xbde911b4	-0.1138033
96	0xbec5a020	-0.38598728
97	0x3e86561c	0.2623757
98	0xbeee4e7a	-0.46544248
99	0xbd684b62	-0.056712516
100	0xbf0108f1	-0.5040427
101	0x3dc17a0a	0.09447105
102	0xbefba084	-0.491459
103	0xbe9c2df9	-0.30503824
104	0x3f34f9cd	0.70693666
105	0xbee4dd47	-0.4470007
106	0x3ecc6127	0.3991787
107	0x3bad61ab	0.005291184
108	0xbe9231ab	-0.2855352
109	0x3e639cea	0.22227827
110	0x3e980e8d	0.296986
111	0xbe207f84	-0.15673643

generator.fc4.bias f4 [7]
0	0x3d3628b3	0.044472408
1	0xbd76c66f	-0.060247835
2	0x3e21a1eb	0.15784423
3	0xbde0ef92	-0.109831944
4	0x3e521227	0.20514737
5	0xbd676ed5	-0.056502182
6	0xbe421bcf	-0.1895592

generator.layer_norm_hidden_0.weight f4 [16]
0	0x3f7e3541	0.9930001
1	0x3f80e563	1.0070003
2	0x3f7e3541	0.9930001
3	0x3f80624f	1.0030001
4	0x3f7e3541	0.9930001
5	0x3f7e3541	0.9930001
6	0x3f80a3d9	1.0050002
7	0x3f80e563	1.0070003
8	0x3f7e3541	0.9930001
9	0x3f7e3541	0.9930001
10	0x3f7e3541	0.9930001
11	0x3f7e3541	0.9930001
12	0x3f7eb853	0.99500006
13	0x3f7fbe77	0.999
14	0x3f7e3541	0.9930001
15	0x3f7e3541	0.9930001

generator.layer_norm_hidden_0.bias f4 [16]
0	0x3be56043	0.0070000007
1	0xbbe56043	-0.0070000007
2	0xbbe56043	-0.0070000007
3	0xbb449ba6	-0.003
4	0x3b449ba6	0.003
5	0xbbe56043	-0.0070000007
6	0x3be56043	0.0070000007
7	0xbbe56043	-0.0070000007
8	0xbbe56043	-0.0070000007
9	0xbbe56043	-0.0070000007
10	0x3be56043	0.0070000007
11	0xbb449ba6	-0.003
12	0x3be56043	0.0070000007
13	0x3a83126d	0.0009999998
14	0x3b449ba6	0.003
15	0x3be56043	0.0070000007

generator.layer_norm_hidden_1.weight f4 [8]
0	0x3f80e563	1.0070003
1	0x3f80624f	1.0030001
2	0x3f80e563	1.0070003
3	0x3f7e3541	0.9930001
4	0x3f7f3b65	0.99700004
5	0x3f80e563	1.0070003
6	0x3f80624f	1.0030001
7	0x3f7e3541	0.9930001

generator.layer_norm_hidden_1.bias f4 [8]
0	0xbb449ba6	-0.003
1	0xbbe56043	-0.0070000007
2	0x3be56043	0.0070000007
3	0xbbe56043	-0.0070000007
4	0xbba3d70b	-0.0050000004
5	0xbbe56043	-0.0070000007
6	0x3be56043	0.0070000007
7	0x3be56043	0.0070000007

discriminator.fc1.weight f4 [8, 7]
0	0xbea8bbb0	-0.32955694
1	0xbe78a686	-0.24282274
2	0xbf761516	-0.96125925
3	0x3f5d450b	0.86433476
4	0x3e5fb53a	0.21846476
5	0x3f23ac7e	0.6393508
6	0xbb453bb9	-0.0030095412
7	0xbef68d0d	-0.48154488
8	0x3e05411a	0.13013116
9	0xbdbc05d7	-0.09180801
10	0xbef501e9	-0.4785302
11	0xbd6cf1c1	-0.057847742
12	0xbee8df3e	-0.4548282
13	0x3eb786fa	0.35845166
14	0xbed67a1e	-0.41890043
15	0xbf186948	-0.59535646
16	0xbe0e5c00	-0.13902283
17	0x3e2c249d	0.16810842
18	0x3e90b19f	0.28260514
19	0xbf3b89e0	-0.73257256
20	0x3ebdd435	0.37075964
21	0x3f146477	0.579658
22	0x3e40941d	0.188065
23	0x3eb38e62	0.35069567
24	0xbe3019a2	-0.17197278
25	0x3f51d762	0.81969273
26	0x3d5a3bdf	0.053279754
27	0xbe810973	-0.25202522
28	0x3e907be9	0.28219536
29	0xbf3f1b64	-0.7465117
30	0xbd7da083	-0.061920654
31	0x3da215c9	0.079143114
32	0x3d386c68	0.04502526
33	0x3e437474	0.19087392
34	0xbf6f214d	-0.9341019
35	0x3a8216ad	0.0009924971
36	0x3d929c2f	0.07158696
37	0x3eaa0517	0.33207008
38	0x3fae325a	1.3609116
39	0x3dbbdc3c	0.09172866
40	0xbe73e35b	-0.23817198
41	0xbed893c2	-0.4230023
42	0x3e868908	0.26276422
43	0xbe4ad5e1	-0.19808151
44	0x3f439a9b	0.76407784
45	0xbf99e8d8	-1.2024183
46	0xbd6827fd	-0.05667876
47	0xbf4ad622	-0.7923299
48	0xbe94f5a2	-0.29093653
49	0xbd6b5907	-0.05745795
50	0x3f3f3922	0.7469655
51	0xbe059d92	-0.1304839
52	0x3ed6c5ed	0.4194788
53	0x3e8bce0d	0.27305642
54	0xbe634cdc	-0.22197288
55	0xbf3f34d1	-0.74689966

discriminator.fc1.bias f4 [8]
0	0xbd6fc9d5	-0.05854209
1	0xbeb49196	-0.35267323
2	0xbe91507d	-0.2838172
3	0xbd9e7af0	-0.07738292
4	0xbd156040	-0.036468744
5	0xbe9f60e2	-0.31128603
6	0x3d363537	0.044484343
7	0xbde60134	-0.11230698

discriminator.fc2.weight f4 [1, 8]
0	0xbe45c847	-0.19314681
1	0x3e6d6876	0.2318438
2	0x3e44d64b	0.19222371
3	0x3ecb761f	0.39738557
4	0x3f46a078	0.77588606
5	0x3c6fc35c	0.01463398
6	0x3f20be31	0.6279021
7	0x3ebb3a0f	0.36567733

discriminator.layer_norm_hidden_0.weight f4 [8]
0	0x3f7e51bb	0.9934346
1	0x3f80ddfc	1.0067744
2	0x3f80c476	1.0059955
3	0x3f80e220	1.0069008
4	0x3f7e3f93	0.99315757
5	0x3f80e4cb	1.0069822
6	0x3f7e4839	0.99328953
7	0x3f80cf1a	1.0063202

discriminator.layer_norm_hidden_0.bias f4 [8]
0	0x3be1cafd	0.006890653
1	0xbbe22536	-0.0069014085
2	0xbbe229bb	-0.0069019473
3	0xbbe21431	-0.0068993797
4	0xbbe1ef54	-0.006894985
5	0xbbe40e59	-0.006959718
6	0xbbe1ec8f	-0.006894655
7	0xbbe214ca	-0.006899451

exp_avg f4 [16, 7]
0	0x3b8d9d14	0.0043217037
1	0x3b8c9e8c	0.004291361
2	0x219b231d	1.0512503e-18
3	0x3b8c9950	0.004290737
4	0x3b8c8df0	0.004289381
5	0x3b8c7b17	0.0042871344
6	0x3b8d22f3	0.004307145
7	0x3aa06efb	0.0012240106
8	0x3aa3a5fc	0.001248538
9	0xa0be039d	-3.2189643e-19
10	0x3aa3ad39	0.0012487537
11	0x3aa3b147	0.0012488746
12	0x3aa3b538	0.001248992
13	0x3aa41ec9	0.0012521382
14	0xbc0a25b3	-0.00843184
15	0xbc0a56ff	-0.008443593
16	0xa2a51c6b	-4.475343e-18
17	0xbc0a528a	-0.00844253
18	0xbc0a4dba	-0.008441383
19	0xbc0a507a	-0.008442039
20	0xbc09df3f	-0.008415042
21	0xbc94951a	-0.018137503
22	0xbc9419ae	-0.018078651
23	0xa17c2095	-8.5424043e-19
24	0xbc94181f	-0.018077908
25	0xbc9411ef	-0.018074958
26	0xbc941166	-0.018074702
27	0xbc9405a2	-0.018069092
28	0x3c09c550	0.008408859
29	0x3c0994fe	0.008397339
30	0x2217ff19	2.0599364e-18
31	0x3c099501	0.008397342
32	0x3c098f99	0.008396053
33	0x3c098e73	0.008395779
34	0x3c0937aa	0.008375088
35	0xbb8f72c1	-0.0043776934
36	0xbb8f5ae7	-0.00437485
37	0xa2b5d663	-4.928714e-18
38	0xbb8f5ac2	-0.004374833
39	0xbb8f4396	-0.0043720705
40	0xbb8f3bad	-0.0043711276
41	0xbb8e3d14	-0.004340777
42	0xbac55237	-0.0015054409
43	0xbac38531	-0.0014917013
44	0x21829b06	8.850177e-19
45	0xbac391fd	-0.0014920827
46	0xbac38058	-0.0014915569
47	0xbac37db9	-0.0014914788
48	0xbac495ab	-0.0014998218
49	0xba027d81	-0.0004977808
50	0xba090e36	-0.0005228253
51	0xa21e16d7	-2.1425084e-18
52	0xba092a9b	-0.0005232484
53	0xba08ff4a	-0.00052260293
54	0xba08a21b	-0.0005212144
55	0xba03b034	-0.000502351
56	0x3b903d71	0.0044018556
57	0x3b8fe9a3	0.0043918653
58	0xa160787b	-7.6053607e-19
59	0x3b8fee25	0.0043924027
60	0x3b8feb48	0.0043920614
61	0x3b8fe8f5	0.0043917843
62	0x3b901278	0.004396733
63	0xbc3360ab	-0.01094834
64	0xbc333cc1	-0.010939778
65	0xa1c6103c	-1.3421299e-18
66	0xbc333c70	-0.010939702
67	0xbc333c69	-0.010939696
68	0xbc3339a5	-0.0109390365
69	0xbc333861	-0.010938735
70	0x3c926289	0.01786925
71	0x3c923199	0.017845916
72	0x22b51366	4.9080687e-18
73	0x3c922fc4	0.017845042
74	0x3c922236	0.017838579
75	0x3c921e25	0.01783664
76	0x3c91d49d	0.017801577
77	0x3bd9931d	0.0066398517
78	0x3bd93775	0.0066289254
79	0xa15c6608	-7.4673937e-19
80	0x3bd92c29	0.0066275788
81	0x3bd93344	0.006628426
82	0x3bd93712	0.0066288793
83	0x3bd94e4d	0.0066316486
84	0x3c43838a	0.011933217
85	0x3c436829	0.011926689
86	0x223f72c4	2.5946083e-18
87	0x3c4367c4	0.011926595
88	0x3c436334	0.011925507
89	0x3c436406	0.011925703
90	0x3c42e5de	0.011895625
91	0xbc904861	-0.017612638
92	0xbc904088	-0.017608896
93	0x2205a08b	1.8109852e-18
94	0xbc903c65	-0.017606923
95	0xbc903eeb	-0.017608127
96	0xbc904079	-0.017608868
97	0xbc903854	-0.017604984
98	0xbcb78622	-0.022402827
99	0xbcb6e434	-0.022325613
100	0x20caa96b	3.4332242e-19
101	0xbcb6e1cf	-0.02232447
102	0xbcb6dcfc	-0.02232217
103	0xbcb6dabd	-0.0223211
104	0xbcb698a1	-0.022289576
105	0x3bb74c55	0.0055938163
106	0x3bb6f56a	0.005583455
107	0x220b1001	1.8846485e-18
108	0x3bb6eec8	0.005582664
109	0x3bb6e363	0.005581306
110	0x3bb6e417	0.0055813896
111	0x3bb60b5b	0.005555553

exp_avg f4 [16]
0	0xbc1b231c	-0.00946882
1	0x3b3e039f	0.0028993858
2	0x3d251c6a	0.0403103
3	0x3bfc2095	0.007694314
4	0xbc97ff19	-0.018554257
5	0x3d35d662	0.044393905
6	0xbc029b05	-0.00797153
7	0x3c9e16d8	0.019298002
8	0x3be0787a	0.0068502994
9	0x3c46103c	0.0120888315
10	0xbd351366	-0.044207953
11	0x3bdc6608	0.0067260303
12	0xbcbf72c5	-0.023370156
13	0xbc85a08b	-0.016311904
14	0xbb4aa967	-0.0030923726
15	0xbc8b1000	-0.016975403

exp_avg f4 [8, 16]
0	0xbd193d03	-0.0374117
1	0xbc15c7e3	-0.009141895
2	0x3caa0c29	0.020757752
3	0xbb45287a	-0.003008394
4	0x3c8a7584	0.016901739
5	0x3b2f08a7	0.0026708038
6	0xbac155c0	-0.0014750287
7	0xbc0a7ec2	-0.008453073
8	0xba8efa20	-0.0010908283
9	0x3c067f27	0.008209026
10	0xbc4f5369	-0.012654164
11	0xbc9929bd	-0.01869666
12	0x3cd097da	0.025463033
13	0xbc8a5e0b	-0.016890546
14	0x3b8cfb0b	0.0043023876
15	0x3cf8804a	0.03033461
16	0x3ce2c7ca	0.027683157
17	0xb99b9ace	-0.00029679242
18	0xba899e2d	-0.001049941
19	0xb9c95fbe	-0.0003840904
20	0xbb87231e	-0.0041240593
21	0xbaa9ecb8	-0.0012964224
22	0xbba79c52	-0.0051150704
23	0xbb766411	-0.0037596265
24	0xbbbc0c28	-0.005738754
25	0xbbf88d6c	-0.007585218
26	0x3c22b08c	0.009929787
27	0x3b4966c2	0.0030731414
28	0xbbc2d5d3	-0.0059459
29	0x3a07d8c6	0.0005182143
30	0xbb0d6000	-0.0021572113
31	0xbb78b277	-0.003794817
32	0x3d5329c5	0.051553506
33	0x3cad8dad	0.02118572
34	0xbd4e3b48	-0.050349504
35	0x3c23bc3e	0.009993611
36	0xbd0511f5	-0.03248783
37	0xbb28a05e	-0.0025730352
38	0x3c4964de	0.012292115
39	0x3cb84f84	0.022498854
40	0x3c46afc1	0.012126864
41	0xbbdc3e48	-0.0067212917
42	0x3c9dfc37	0.019285304
43	0x3d091a04	0.033472076
44	0xbd493e33	-0.049131583
45	0x3d059ed1	0.032622162
46	0xbbd1c086	-0.0064011244
47	0xbd890d00	-0.06691933
48	0xbd36e2eb	-0.04465
49	0xbcc8a32c	-0.024491869
50	0x3d68ce53	0.05683739
51	0xbc4f805a	-0.012664879
52	0x3d10bf1b	0.035338502
53	0x3a9d0dd7	0.0011982274
54	0xbc8bc2fa	-0.017060746
55	0xbcdfce35	-0.027320007
56	0xbc8be618	-0.01707749
57	0x3b96492d	0.00458636
58	0xbc946c19	-0.018117951
59	0xbd1317a2	-0.03591121
60	0x3d5eee82	0.054426678
61	0xbd144ecf	-0.03620797
62	0x3baeaefb	0.005330918
63	0x3d9a2e08	0.07528311
64	0x3c8fa21c	0.017533354
65	0x3b1b5e30	0.0023707263
66	0xbbbc618a	-0.0057489322
67	0x3a55b275	0.00081518973
68	0xbbb2f4e3	-0.0054613217
69	0xba77e114	-0.00094558415
70	0xba70323e	-0.000916276
71	0x3a9563a2	0.0011397491
72	0xba9c8d7e	-0.0011944023
73	0xbb8f4a96	-0.004372905
74	0x3bc94446	0.006142172
75	0x3bb7c1dc	0.0056078266
76	0xbc0d0461	-0.008607001
77	0x3b8f803d	0.004379301
78	0xbad4f05e	-0.0016245951
79	0xbc14e7d3	-0.009088474
80	0x3bcd480f	0.0062646936
81	0x398ba9a2	0.00026638532
82	0xba06dcd3	-0.00051445997
83	0xba16386d	-0.0005730454
84	0xba9a8673	-0.0011789337
85	0xba63f5d6	-0.0008695995
86	0xbaa6ef90	-0.001273619
87	0xb969efc8	-0.00022309937
88	0xbab513e8	-0.0013815137
89	0xbaec25cb	-0.0018016634
90	0x3ac3cf19	0.0014939039
91	0x3b000451	0.0019533823
92	0xbae57226	-0.0017505332
93	0x3ab69b13	0.0013931714
94	0xba660791	-0.0008774931
95	0xba741c86	-0.00093121117
96	0xbd4600d9	-0.048340652
97	0xba3590c9	-0.0006926177
98	0x3b8b3be2	0.004249082
99	0x3a838811	0.0010035058
100	0x3bf7b539	0.007559445
101	0x3b53a205	0.0032292616
102	0x3c052073	0.008125412
103	0x3bb14a77	0.005410488
104	0x3c135779	0.008993023
105	0x3c50106a	0.012699226
106	0xbc8532ea	-0.01625963
107	0xbbfabe2d	-0.0076520653
108	0x3c3fda76	0.0117098
109	0xbb3344fa	-0.0027354346
110	0x3b972b5c	0.004613323
111	0x3c059421	0.008152992
112	0xbbbd2370	-0.0057720467
113	0x3b01327e	0.0019713934
114	0xbba4ee6d	-0.0050333054
115	0x3a3824e2	0.0007024539
116	0xba814471	-0.0009862316
117	0xb98dd04c	-0.0002704881
118	0x3b4aa919	0.0030923544
119	0x3b49d712	0.0030798358
120	0x3b608df0	0.003426429
121	0x3b4ea64b	0.0031532224
122	0xbb1807ea	-0.0023198077
123	0x3ae204fc	0.0017243917
124	0xba6c3fd8	-0.0009012199
125	0x3b1c42c4	0.0023843506
126	0xb97afc94	-0.0002393595
127	0xbb82e63e	-0.003994732

exp_avg f4 [8]
0	0x3b2f6266	0.002676153
1	0x3c387d3e	0.011260329
2	0xbcc6b186	-0.024254572
3	0x3d0db31a	0.034594633
4	0x3b14542b	0.0022633176
5	0x3b35f6de	0.0027765553
6	0xbc97f5a8	-0.018549755
7	0xbbd1d129	-0.0064031077

exp_avg f4 [16, 8]
0	0x3a6ab97d	0.00089540315
1	0x3bd15ab1	0.006388985
2	0xbaded92f	-0.0017001982
3	0xbb97ca9c	-0.004632307
4	0x3a9e034e	0.0012055428
5	0xb957f9c0	-0.00020597037
6	0x3ba55db9	0.005046573
7	0xbbe3e90d	-0.006955272
8	0xb98d70f8	-0.00026977784
9	0xbb7a7b7a	-0.003822057
10	0x3b36c9e1	0.0027891325
11	0x3b383110	0.0028105415
12	0xbb0f4112	-0.0021858853
13	0xbac7a3f7	-0.001523136
14	0xbb6fce39	-0.0036591424
15	0x3bbef738	0.0058278106
16	0xba42e5b2	-0.000743474
17	0xba8b4dd0	-0.0010628048
18	0x3b797c44	0.0038068453
19	0x3a6b5ba1	0.00089781923
20	0xbb36a790	-0.002787087
21	0xbb3cd43d	-0.0028813027
22	0xbaf0b990	-0.0018365849
23	0x3b960baa	0.004579027
24	0x3a0b3df6	0.0005311662
25	0x3c1c430e	0.009537471
26	0xbb3e2692	-0.002901469
27	0xbbf20551	-0.0073858877
28	0x3b1da401	0.0024054053
29	0x3a01922e	0.0004942742
30	0x3c0b194e	0.00848992
31	0xbc35fab5	-0.0111071365
32	0xb9dda52e	-0.00042275473
33	0xb9032bf7	-0.00012509512
34	0xbbf01545	-0.0073267543
35	0x3a70d2aa	0.0009186665
36	0x3ba7081b	0.005097402
37	0x3baae3ec	0.0052151587
38	0x3a98344d	0.0011612267
39	0xbb92fe14	-0.004485855
40	0x39a1bd5d	0.000308494
41	0xb8966bbc	-7.1726245e-05
42	0x3a1e8fab	0.000604863
43	0x3949f62e	0.00019260563
44	0xba537fbc	-0.0008068045
45	0xba7d7fb3	-0.0009670213
46	0xb9e60a71	-0.00043876798
47	0x3a99584f	0.0011699292
48	0xbb0245c1	-0.0019878002
49	0x3c480a91	0.0122095505
50	0xbbe95993	-0.007121274
51	0xbc091eb9	-0.008369141
52	0x3bd25404	0.006418707
53	0x3b859018	0.004076015
54	0x3c35c67c	0.011094686
55	0xbc84f24f	-0.016228823
56	0x3a16878a	0.0005742243
57	0x3b9d13e5	0.0047936314
58	0xba6e9af4	-0.00091020693
59	0xbb6bcb22	-0.003597923
60	0x3a11fda1	0.00055691047
61	0xba06481a	-0.00051224383
62	0x3b7baff5	0.003840444
63	0xbb9a9eec	-0.004718652
64	0x3b2fbf7e	0.002681702
65	0xbce2ad88	-0.027670637
66	0x3c98c0f7	0.0186467
67	0x3c987bf6	0.018613797
68	0xbc7790f9	-0.015110248
69	0xbc1eefe1	-0.009700746
70	0xbccc8753	-0.024966871
71	0x3d18c2ce	0.037295155
72	0xbb169884	-0.002297909
73	0xb938bc32	-0.00017617716
74	0x39bd429a	0.0003609851
75	0x3814a1a1	3.543648e-05
76	0x3ab07bcd	0.001346463
77	0x3aed8b09	0.0018123101
78	0x3a1453a1	0.00056582136
79	0xbad5be64	-0.0016307351
80	0x3a0bd227	0.00053337443
81	0xbb8e8805	-0.004349711
82	0x3b31d487	0.0027134733
83	0x3b45b3b1	0.003016692
84	0xbb1e336a	-0.0024139532
85	0xbadb6ecf	-0.0016741398
86	0xbb85bd1c	-0.0040813815
87	0x3bcb94ce	0.0062128073
88	0x3aa8c49b	0.0012875976
89	0x3c96c9ca	0.018406767
90	0xba1e94ab	-0.0006049375
91	0xbc736a5c	-0.014856901
92	0x3b009a83	0.0019623346
93	0xbacec27a	-0.0015774511
94	0x3c76e40b	0.015069018
95	0xbca04bff	-0.019567488
96	0x3aa58e4c	0.0012630909
97	0x3b808a75	0.0039227554
98	0x399c0d43	0.0002976452
99	0xbb6aae61	-0.0035809504
100	0xb96561d8	-0.00021875591
101	0xbaa5d996	-0.0012653347
102	0x3b449a7f	0.0029999313
103	0xbb5e9d4a	-0.0033968263
104	0xba6d1f4d	-0.00090454967
105	0x3bd835eb	0.0065982244
106	0xbbee6998	-0.0072757713
107	0xbb920f45	-0.0044573867
108	0x3bbba5a1	0.0057265316
109	0x3b977e27	0.004623193
110	0x3bd7ee55	0.0065896907
111	0xbc31c4af	-0.010850116
112	0x396c4abd	0.00022534556
113	0xbc8b3ac3	-0.016995793
114	0x3c2ee2fb	0.010674234
115	0x3c458b64	0.012057159
116	0xbc090b15	-0.008364459
117	0xbb9d5264	-0.0048010815
118	0xbc77aa42	-0.015116276
119	0x3cb5df66	0.022201251
120	0x3ae90776	0.0017778713
121	0xbbc027cc	-0.005864119
122	0xb8912fd5	-6.923048e-05
123	0x3b8ff5c6	0.004393312
124	0xbadb7168	-0.0016742172
125	0xb9cdb8f9	-0.00039238462
126	0xbb9b2c30	-0.004735492
127	0x3bd5b4d4	0.0065218005

exp_avg f4 [16]
0	0x392b490d	0.00016335044
1	0x3b10ce16	0.0022095493
2	0x3b8794a6	0.0041375933
3	0xba133b0c	-0.00056164037
4	0xbbfd4d4c	-0.007730162
5	0x3a9d08e6	0.0011980801
6	0xbbbe47a3	-0.0058068796
7	0x3a3be834	0.0007168085
8	0x3c65da8c	0.014029156
9	0xbb1f389e	-0.002429522
10	0x3b1e172b	0.0024122696
11	0x3b1b420d	0.0023690492
12	0x3ae4a3d9	0.001744385
13	0xbbd62906	-0.006535652
14	0x3be8402c	0.007087728
15	0x3a323934	0.0006798685

exp_avg f4 [7, 16]
0	0xbc483368	-0.012219287
1	0xbb1bdc09	-0.0023782274
2	0xba3f2ef9	-0.0007293071
3	0xbb526713	-0.0032104894
4	0x3bf59167	0.00749414
5	0xbc762b75	-0.015025009
6	0x3bc9105e	0.0061359843
7	0xbad56001	-0.0016279222
8	0x3b85cf60	0.004083559
9	0xbc2c93b0	-0.010533258
10	0x3ba34e19	0.004983675
11	0x3b1f2486	0.0024283244
12	0xbc361a98	-0.011114739
13	0x3c9b8ff7	0.018989546
14	0x3b8c03ef	0.00427293
15	0x3c0af184	0.008480433
16	0xbc4d8ab4	-0.012545276
17	0x3b574039	0.0032844676
18	0x3b279c41	0.0025575312
19	0xbb0d10a4	-0.002152481
20	0xbc02f50e	-0.007992996
21	0xbbc3d632	-0.005976462
22	0x3bb258c8	0.0054427125
23	0x3b4b8730	0.003105592
24	0x3bad8f15	0.0052965977
25	0xbc3d2c73	-0.011546242
26	0x3bb85e0e	0.0056264466
27	0xbaa83f57	-0.001283626
28	0xbbd7c409	-0.0065846485
29	0x3c4a611e	0.012352256
30	0x3b68427a	0.0035440014
31	0x3be381d9	0.0069429693
32	0x3cad00b0	0.021118492
33	0xbadf85cb	-0.0017053423
34	0xbae86267	-0.0017729521
35	0x3b726912	0.0036988896
36	0x3ba8ea4c	0.0051548835
37	0x3c7ca760	0.015420765
38	0xbc1cb893	-0.00956549
39	0xbadbc23e	-0.0016766263
40	0xbc0f5056	-0.008747181
41	0x3c9b8fa1	0.018989386
42	0xbc1bcd74	-0.009509433
43	0x3b07cd55	0.0020721753
44	0x3c6aae93	0.014323848
45	0xbce28b6b	-0.02765437
46	0xbbc69805	-0.0060606026
47	0xbc68284b	-0.014169763
48	0xbcf0ec98	-0.029409692
49	0x3b6fd473	0.0036595135
50	0x3b4a4e32	0.0030869362
51	0xbbc03e39	-0.0058667925
52	0xbc491768	-0.012273647
53	0xbc9c7a14	-0.01910118
54	0x3c6ba33f	0.014382183
55	0x3b5c00c7	0.00335698
56	0x3c5b832c	0.013397973
57	0xbcd9fceb	-0.026609858
58	0x3c6970fc	0.014248129
59	0xbb613cf4	-0.0034368606
60	0xbc9fc535	-0.019503215
61	0x3d17cf8c	0.037063166
62	0x3c0e2524	0.008675847
63	0x3c975293	0.018471992
64	0xbbddf8b6	-0.0067740334
65	0xbb7dbf7e	-0.0038718875
66	0xbb6051b2	-0.0034228382
67	0xbac1de68	-0.0014791014
68	0x3b621f65	0.0034503576
69	0xbc36ed49	-0.011164972
70	0x3ba8924d	0.0051443935
71	0xbb9503be	-0.0045475652
72	0x3b6e91c7	0.0036402808
73	0xbb1550e1	-0.0022783803
74	0x3b800968	0.0039073713
75	0xbb1c3c60	-0.0023839697
76	0xbc012177	-0.007881514
77	0x3c9824e3	0.018572276
78	0x3b1d6850	0.0024018474
79	0x3bdb10c7	0.0066853496
80	0xbc0e99a2	-0.008703621
81	0xb9d342d3	-0.00040294844
82	0x38e5f6dd	0.00010965553
83	0xbb060f1e	-0.0020455788
84	0x3ab2dfa4	0.0013646972
85	0xbc0e0bce	-0.008669807
86	0x3b8fecc6	0.0043922393
87	0xb9a1d67f	-0.00030868125
88	0x3b569f94	0.0032748925
89	0xbc01e5ca	-0.007928321
90	0x3b7e8081	0.0038833919
91	0x39aecc33	0.00033340006
92	0xbbe0fe57	-0.006866257
93	0x3c50e04b	0.012748788
94	0x3b409b92	0.0029389602
95	0x3bc19af8	0.0059083663
96	0xbd1b088e	-0.037849955
97	0x3bda32ab	0.006658872
98	0x3b9b0f2b	0.004732033
99	0xbbe0818b	-0.00685138
100	0xbca90584	-0.020632513
101	0xbcaaa393	-0.020829951
102	0x3c9a3237	0.018822772
103	0x3bd6694c	0.006543314
104	0x3c862fb8	0.016380176
105	0xbd10883f	-0.035286184
106	0x3c982bc5	0.018575558
107	0xbb8eb8b3	-0.004355514
108	0xbcc66a72	-0.024220679
109	0x3d369475	0.044575173
110	0x3c49f0c0	0.012325466
111	0x3cb11bba	0.021619666

exp_avg f4 [7]
0	0x3b999ba7	0.0046877447
1	0xbb1f81fc	-0.0024338951
2	0xba8e8e9f	-0.0010876245
3	0x37734780	1.4500576e-05
4	0x3bf11400	0.0073571205
5	0x3af9fac3	0.0019071925
6	0xbb51e777	-0.0032028833

exp_avg f4 [16]
0	0x3d3a30bc	0.045456633
1	0xbbb4b335	-0.005514527
2	0x3c8c6e0a	0.017142314
3	0xbb2b6a2f	-0.002615582
4	0x3c3ba836	0.011453679
5	0x3ba02cfc	0.004888175
6	0xbb02e159	-0.0019970743
7	0xbc6d6303	-0.014488938
8	0x3c5f81c4	0.013641778
9	0x3cbffef3	0.023436999
10	0x3ced26ad	0.028949106
11	0x3c1b42b7	0.009476355
12	0x3a8e9d61	0.0010880643
13	0xba59ae77	-0.00083038904
14	0x3c7e9446	0.015538281
15	0x3c18c5d8	0.009324513

exp_avg f4 [16]
0	0xbc549850	-0.012975767
1	0x3c7ae722	0.015313895
2	0x3d0b1ef4	0.033965066
3	0x3bdbdbd4	0.006709555
4	0xbb27563c	-0.0025533577
5	0x3ca22172	0.019791339
6	0xbbc6f865	-0.0060720914
7	0x3c9ce9d6	0.01915447
8	0x3c659cf7	0.014014474
9	0x3c6bc4f9	0.014390224
10	0xbcedcd74	-0.029028632
11	0x3b10d818	0.0022101458
12	0xbc4c4ba8	-0.01246921
13	0xbb0c9763	-0.0021452538
14	0xba73b154	-0.00092961383
15	0xbbd23346	-0.0064148037

exp_avg f4 [8]
0	0xbb3c374b	-0.002871948
1	0xbb24dcc3	-0.0025155998
2	0xbc8c3375	-0.01711438
3	0x3ccad224	0.024758406
4	0x3b0cda88	0.002149256
5	0xbb89c36d	-0.004204205
6	0xbb7d967a	-0.0038694427
7	0x3bd9513f	0.0066319997

exp_avg f4 [8]
0	0x3b3ce4de	0.002882294
1	0x3c0d1405	0.00861073
2	0xbc892036	-0.016738992
3	0x3c913b71	0.01772854
4	0x3b104b0c	0.0022017388
5	0x3bb9e9ef	0.005673639
6	0xbc7cff8d	-0.015441787
7	0xbc167407	-0.0091829365

exp_avg f4 [8, 7]
0	0x3d88adae	0.06673752
1	0x3dae7221	0.08517862
2	0xbb09614b	-0.0020962532
3	0x3db6bd8c	0.08922872
4	0x3d8a9ace	0.06767808
5	0x3d97cea2	0.07412459
6	0x3dcf738f	0.10129463
7	0x3c34e02c	0.011039775
8	0x3c34d293	0.011036533
9	0x3c2a74c4	0.010403816
10	0x3b382a5a	0.0028101415
11	0x3c5bc703	0.013414147
12	0x3c4d61d8	0.012535535
13	0xbb58b866	-0.0033068894
14	0x3c4e936d	0.012608391
15	0x3c26d008	0.010181434
16	0x3bf17a68	0.0073693283
17	0x3bb60736	0.005555059
18	0x3c606cb9	0.0136977965
19	0x3c4ba7bd	0.012430129
20	0x3b040b80	0.0020148456
21	0xbdd31e29	-0.10308487
22	0xbdc2598b	-0.09489735
23	0xbcb57025	-0.022148201
24	0xbd9f9481	-0.07791997
25	0xbde0e5ed	-0.10981355
26	0xbdd22ca5	-0.102624215
27	0xbd83f96c	-0.06444058
28	0xba9db8dc	-0.0012033242
29	0xbcfcfb27	-0.030881478
30	0x3cd619f1	0.026135417
31	0xbd347795	-0.044059355
32	0x3d0fefb8	0.035140723
33	0xbb3c86dd	-0.0028766908
34	0xbd8e9218	-0.06961459
35	0x3d55e65c	0.05222164
36	0x3d7eb4bc	0.06218408
37	0x3b9534ef	0.0045534293
38	0x3d6b0b5b	0.057383876
39	0x3d47a846	0.048744462
40	0x3d6138db	0.054985862
41	0x3d7a2abd	0.061075915
42	0xbbb4336b	-0.0054992936
43	0xbc682d16	-0.014170906
44	0xbcefc77a	-0.029269923
45	0x3b8e0cf2	0.0043350393
46	0xbcd2fdb3	-0.025755739
47	0xbc84f04e	-0.016227867
48	0x3c7f1d22	0.015570911
49	0xbc422810	-0.011850372
50	0xbcd25620	-0.025675833
51	0x3c5872ac	0.013210934
52	0xbd0f9b6d	-0.035060335
53	0xbc508f24	-0.01272944
54	0xbc763997	-0.015028379
55	0xbd42b848	-0.047539026

exp_avg_sq f4 [8, 7]
0	0x38f9acd0	0.00011905434
1	0x39484776	0.00019100108
2	0x3621921d	2.4075919e-06
3	0x396222c3	0.0002156599
4	0x3900cb4f	0.0001228277
5	0x39193c55	0.00014613692
6	0x3991ebf5	0.00027832357
7	0x3684e234	3.96024e-06
8	0x3660a600	3.3475226e-06
9	0x3639d9e6	2.7693982e-06
10	0x34cd6752	3.82594e-07
11	0x36b1d53d	5.2998353e-06
12	0x3694bb0e	4.4325197e-06
13	0x34bfb66c	3.5709252e-07
14	0x36acea3e	5.153269e-06
15	0x3653994f	3.1530687e-06
16	0x35be795f	1.4191427e-06
17	0x35aba5d0	1.2788751e-06
18	0x36c082ce	5.7372736e-06
19	0x369a7f65	4.6043883e-06
20	0x351f8320	5.942293e-07
21	0x39975148	0.00028861524
22	0x3975cdd6	0.000234417
23	0x37825c19	1.5540094e-05
24	0x39226eec	0.00015490846
25	0x39a977ce	0.00032323453
26	0x3991ed41	0.00027833323
27	0x38db56e9	0.00010458922
28	0x3700143e	7.6341075e-06
29	0x37cb8f4b	2.4266212e-05
30	0x382c932b	4.1145056e-05
31	0x388c3e7d	6.6873596e-05
32	0x380ed068	3.404953e-05
33	0x35cc7ff7	1.5236427e-06
34	0x39228d9f	0.00015502282
35	0x3893a25d	7.039749e-05
36	0x38cd4535	9.7880526e-05
37	0x358b28d2	1.0368187e-06
38	0x38b100a4	8.440137e-05
39	0x38809044	6.130387e-05
40	0x38a17ec0	7.700687e-05
41	0x38c70305	9.489622e-05
42	0x35c65ee4	1.4779766e-06
43	0x36b8feba	5.5132814e-06
44	0x37be37aa	2.2675686e-05
45	0x35379302	6.8386737e-07
46	0x3794cc6f	1.7738172e-05
47	0x36e5e0eb	6.8509157e-06
48	0x36d9478c	6.475433e-06
49	0x3689e135	4.1091357e-06
50	0x37924e60	1.7441052e-05
51	0x36ac8433	5.1413895e-06
52	0x380bf0f0	3.3364573e-05
53	0x36894957	4.091456e-06
54	0x36c06191	5.733404e-06
55	0x38813402	6.1608866e-05

exp_avg f4 [8]
0	0x3e508be3	0.20365863
1	0x3ce68194	0.02813796
2	0x3d20f670	0.03929752
3	0xbe43c239	-0.19117059
4	0xbd785f1e	-0.060637586
5	0x3dc0ea91	0.0941974
6	0xbd27646c	-0.040867254
7	0xbcdf6711	-0.027270826

exp_avg_sq f4 [8]
0	0x3ac3fcf6	0.0014952708
1	0x37e8bb3b	2.7743741e-05
2	0x38464b2a	4.727688e-05
3	0x3a8a161c	0.0010535154
4	0x3913a21f	0.00014079407
5	0x397a98f7	0.00023898842
6	0x386c718d	5.6372537e-05
7	0x379f33e6	1.8978444e-05

exp_avg f4 [1, 8]
0	0xbeafbb8d	-0.34322777
1	0xbd13771a	-0.036002256
2	0xbc9ed2e8	-0.019387677
3	0xbdbb364d	-0.091412164
4	0x3eabedfe	0.3358001
5	0xbe69466a	-0.22780767
6	0x3ed1e5b7	0.4099557
7	0xbd01c5fe	-0.03168296

exp_avg_sq f4 [1, 8]
0	0x3b651a42	0.0034958278
1	0x3822070e	3.863038e-05
2	0x37534438	1.25924635e-05
3	0x396635f0	0.00021954603
4	0x3b41a89c	0.0029549962
5	0x3ab48feb	0.0013775801
6	0x3b9b52eb	0.004740109
7	0x380427d3	3.150834e-05

exp_avg f4 [8]
0	0x3d8ab988	0.067736685
1	0xbc059a7c	-0.008154508
2	0xbb6d8df6	-0.0036247945
3	0xbd12e3a8	-0.03586164
4	0x3e8681ec	0.26270998
5	0xbb24dc50	-0.002515573
6	0x3e8502d9	0.25978735
7	0xbc3aa9a8	-0.011392988

exp_avg_sq f4 [8]
0	0x390f8910	0.00013688602
1	0x3604eb51	1.9806505e-06
2	0x34ebd8f3	4.3930012e-07
3	0x380ddc37	3.382211e-05
4	0x3aed13fa	0.0018087619
5	0x342aabb6	1.5894952e-07
6	0x3af9a268	0.0019045593
7	0x3688ec2c	4.08061e-06

exp_avg f4 [8]
0	0xbc17562a	-0.009236852
1	0x3c2fee77	0.010738007
2	0x3c11b3ae	0.008892937
3	0x3c97ac64	0.01851482
4	0x3d161359	0.036639545
5	0x3a0902ac	0.00052265334
6	0x3cf3200b	0.029678365
7	0x3c8b961a	0.017039347

exp_avg_sq f4 [8]
0	0x36178baf	2.258206e-06
1	0x364b4bd3	3.0293493e-06
2	0x360b6791	2.0772898e-06
3	0x37174ea7	9.018614e-06
4	0x381496be	3.542634e-05
5	0x31ed0faf	6.899391e-09
6	0x37c30694	2.3248875e-05
7	0x370026e7	7.638452e-06
