saved/type_4_fold_2.ckpt (torch, 21266 bytes, 39 tensors)

generator.fc1.weight f4 [16, 7]
0	0x3d449b51	0.047999684
1	0xbea7f185	-0.32801452
2	0xc00e9e12	-2.2283978
3	0x3dd925d5	0.10602919
4	0xbedaa0ba	-0.4270075
5	0xbea5f9bb	-0.32417092
6	0xbf27612f	-0.65382665
7	0x3e39ef09	0.18157591
8	0xbdd6d465	-0.1048973
9	0x3dae2ab9	0.085042424
10	0xbf9718ff	-1.1804503
11	0xbf1307db	-0.5743386
12	0xbea16c39	-0.3152788
13	0xbe41b40a	-0.18916336
14	0x3e9d4f64	0.30724633
15	0xbeea48b8	-0.45758605
16	0x3ddda5d1	0.108226426
17	0xbe3cf740	-0.18453693
18	0x3f0fcbd2	0.5617038
19	0x3f5df44d	0.867009
20	0x3f51bbfb	0.8192746
21	0x3d4fc1be	0.050721876
22	0xbf40ffc0	-0.75390244
23	0xbd3075b9	-0.04308102
24	0xbe251b24	-0.16123635
25	0xbedaac91	-0.42709783
26	0xbf7de66a	-0.9917971
27	0x3da2ac48	0.07943016
28	0xbea38efe	-0.31945032
29	0xbf671d44	-0.9027903
30	0xbe95f381	-0.2928734
31	0xbf2b7f31	-0.66990954
32	0x3e9bd644	0.3043691
33	0x3f5e0768	0.8673005
34	0x3e06a8b3	0.13150291
35	0xbe92f613	-0.28703365
36	0xbef44c15	-0.47714296
37	0xbf29dc03	-0.66351336
38	0xbe18115b	-0.1485037
39	0xbf126255	-0.5718129
40	0xbe4805f2	-0.19533518
41	0x3f0fd5b7	0.5618548
42	0x3f45013d	0.76955014
43	0xbf3e94d2	-0.7444583
44	0xbe31fb73	-0.17381077
45	0xbf161fe8	-0.58642435
46	0xbe1b29e4	-0.15152699
47	0xbf1e9f10	-0.6196146
48	0xbbc9635c	-0.0061458778
49	0x3e9d0f38	0.30675673
50	0x3d905d83	0.07049086
51	0x3df17978	0.117907465
52	0x3e542aa1	0.20719387
53	0x3f0174a9	0.50568634
54	0xbd4c633c	-0.049899325
55	0xbf1546d6	-0.5831121
56	0xbe18ad15	-0.14909776
57	0x3d985b3e	0.07439278
58	0xbf9ee16c	-1.2412543
59	0x3efb3361	0.49062636
60	0xbf91b154	-1.1382241
61	0xbf1ff8b2	-0.62488854
62	0xbfbafc05	-1.460816
63	0x3e468dd3	0.19390039
64	0xbca7f0f6	-0.020500641
65	0x3ec17300	0.3778305
66	0x3e23b825	0.15988214
67	0x3dab8b61	0.08376194
68	0x3f28cbc7	0.6593594
69	0xbf756ab0	-0.9586592
70	0x3f980077	1.1875142
71	0xbf7190ad	-0.9436138
72	0xbe00fee3	-0.12597232
73	0x3f01b497	0.50666183
74	0xbe98626f	-0.297626
75	0xbe3ac3ac	-0.18238705
76	0xbf6af246	-0.9177593
77	0x3f35af70	0.7097082
78	0xbe2d87d9	-0.16946353
79	0xbed6b0b1	-0.4193168
80	0x3f3ab03e	0.72925174
81	0xbdc2642f	-0.09491765
82	0xbd24f5f8	-0.040273637
83	0x3f196a8c	0.599282
84	0x3e5bfee7	0.21483956
85	0xbf65ad1e	-0.8971728
86	0x3e8cfc90	0.2753644
87	0x3f016018	0.5053725
88	0xbf2f7751	-0.6854144
89	0xbf36f19e	-0.7146243
90	0x3e95bf31	0.2924743
91	0x3ef45143	0.47718248
92	0x3f5ac71e	0.8546008
93	0xbeb4ca79	-0.35310724
94	0xbdc9c536	-0.09852068
95	0x3f0e96ba	0.5569874
96	0xbeb21a46	-0.3478567
97	0x3de18b84	0.110129386
98	0xbe6c1005	-0.23052986
99	0x3e829b40	0.2550907
100	0x3f68b873	0.9090645
101	0x3e82966e	0.25505394
102	0x3ee78286	0.4521677
103	0x3f1e2f2a	0.61790717
104	0x3c91691b	0.017750314
105	0x3ef7fbde	0.48434347
106	0xbe497b30	-0.19675899
107	0x3eafc261	0.34327987
108	0xbf11f59d	-0.570154
109	0xbda79918	-0.08183497
110	0x3eba97d9	0.36443976
111	0x3eb77a29	0.35835388

generator.fc1.bias f4 [16]
0	0x3df6e5ec	0.12055573
1	0xbdfc77a0	-0.12327504
2	0xbebf0193	-0.3730589
3	0x3df7ccac	0.12099585
4	0x3e8f4fab	0.2799047
5	0x3e7bf58a	0.24605384
6	0x3e9738c1	0.29535487
7	0x3dfa2b30	0.122152686
8	0x3e80e73b	0.25176415
9	0x3eb1c5db	0.34721264
10	0xbb8c35df	-0.004278883
11	0xbe886651	-0.2664056
12	0x3d402b3a	0.046916224
13	0xbdc79f9c	-0.0974724
14	0x3df84c7c	0.12123963
15	0x3e7a1308	0.24421322

generator.fc2.weight f4 [8, 16]
0	0x3e41a62b	0.18911044
1	0x3e93cca6	0.28867072
2	0xbe2bf547	-0.16792785
3	0x3ee5dd51	0.44895414
4	0x3f07a360	0.52983665
5	0x3ed49bb2	0.41525036
6	0x3df3b717	0.11900156
7	0xbdd49b1b	-0.103811465
8	0xbd98fc01	-0.07469941
9	0xbe3d7d9e	-0.1850495
10	0xbeb4e1e9	-0.35328606
11	0xbe80da1a	-0.25166398
12	0x3ed56e17	0.41685554
13	0xbe3a5d67	-0.18199693
14	0x3f1b660a	0.60702574
15	0xbe922706	-0.28545398
16	0x3f16e2dc	0.5893991
17	0x3e4e8058	0.20166147
18	0x3de7d335	0.113195814
19	0x3e98c027	0.298341
20	0xbd496a37	-0.04917356
21	0xbec9b6c8	-0.39397264
22	0xb7560500	-1.2756558e-05
23	0x3e912fc3	0.28356752
24	0x3e65d8e4	0.22446018
25	0x3eefaec3	0.4681302
26	0xbd765f74	-0.060149625
27	0x3eae2de2	0.3401938
28	0xbe7e7cb0	-0.24852252
29	0x3e89eed8	0.26940036
30	0xbe266cd7	-0.16252457
31	0x3d91a26f	0.0711106
32	0xbe98d38f	-0.29848906
33	0xbe4f8b82	-0.20268062
34	0x3ea75a9e	0.32686323
35	0x3d0d584a	0.034508027
36	0xbdddae98	-0.10824317
37	0x3ee12df6	0.43980378
38	0x3e96dd82	0.29465872
39	0xbf2b07ab	-0.66808575
40	0xbede99c6	-0.43476695
41	0xbf33e607	-0.7027287
42	0xbe923981	-0.28559497
43	0x3d8909e6	0.06691341
44	0x3e69e1bc	0.22840017
45	0x3e9f4441	0.3110676
46	0x3f3b965b	0.732763
47	0x3e34b1fd	0.17646022
48	0x3e8d6f35	0.27623907
49	0xbda5b94b	-0.080919825
50	0x3d0cfecd	0.034422684
51	0x3d73f5f1	0.05956072
52	0xbe6f7413	-0.23384123
53	0xbcf75daa	-0.03019603
54	0x3ec16021	0.37768653
55	0x3ea5bd62	0.3237105
56	0x3e9990c8	0.29993272
57	0x3d0f64c6	0.035008214
58	0xbd9368cf	-0.07197725
59	0x3effe6b1	0.4998069
60	0x3e40de9c	0.18834919
61	0x3f38a85c	0.72131896
62	0xbe4593d4	-0.19294673
63	0xbeb8379b	-0.35979924
64	0x3c475aba	0.012167627
65	0x3d032f58	0.032027572
66	0xbf20f360	-0.6287136
67	0x3ed9793c	0.42475307
68	0xbe4f77ad	-0.20260496
69	0x3f13196c	0.57460666
70	0x3dce9827	0.100876145
71	0xbe8759d5	-0.26435724
72	0xbca308c9	-0.01990165
73	0x3dcb938d	0.099402525
74	0xbdb2a078	-0.08722013
75	0xbdd009fc	-0.10158154
76	0xbee395d7	-0.44450256
77	0x3cfe7155	0.0310599
78	0x3d14a43b	0.036289435
79	0x3f23d644	0.6399882
80	0x3f026b2e	0.50944793
81	0xbe334f7e	-0.17510793
82	0xbe8da724	-0.2766658
83	0x3e58d604	0.2117539
84	0x3e5778f9	0.21042241
85	0xbd2af7c1	-0.041740183
86	0xbe88520a	-0.2662509
87	0x3ea47e2b	0.3212751
88	0xbe986563	-0.29764852
89	0xbe8f77e3	-0.28021154
90	0x3d94407b	0.07238861
91	0xbef18874	-0.47174418
92	0x3d861bd2	0.06548275
93	0xbe473da3	-0.19457106
94	0xbee3451c	-0.44388664
95	0xbe8b195d	-0.27167788
96	0x3e88240c	0.26590002
97	0x3f3d4f64	0.73949265
98	0x3ea1541d	0.31509486
99	0xbe4ed22e	-0.20197365
100	0xbe4a4314	-0.19752151
101	0x3f18ac1d	0.59637624
102	0x3cc9702f	0.024589626
103	0xbf4f1a19	-0.80899197
104	0xbd293c8f	-0.04131752
105	0xbf84fdbd	-1.0389935
106	0x3cec102b	0.028816303
107	0xbe687ade	-0.2270312
108	0x3e4912a3	0.19636016
109	0xbf0023e4	-0.50054765
110	0xbdf02c12	-0.11727156
111	0xbf287e88	-0.6581807
112	0xbf0f34f4	-0.55940175
113	0xbca0e75a	-0.019641567
114	0xbd144882	-0.03620196
115	0x3e4f4b78	0.20243633
116	0xbf034764	-0.5128081
117	0x3e57ee93	0.21087103
118	0x3e01caf3	0.12675075
119	0x3e498938	0.19681251
120	0xbd205bed	-0.039150167
121	0xbe0a076a	-0.1347939
122	0xbe942a18	-0.28938365
123	0x3eb9bc31	0.3627639
124	0xbea6ad69	-0.32554176
125	0xbe051ebf	-0.1300001
126	0xbe9096a8	-0.28239942
127	0x3ee0409b	0.4379929

generator.fc2.bias f4 [8]
0	0x3d818f20	0.06326127
1	0x3e603f2c	0.21899098
2	0xbe3df7f0	-0.18551612
3	0xbe7f3d72	-0.24925783
4	0xbdc7d18c	-0.09756765
5	0xbcd0c6f8	-0.0254855
6	0xbe1bd3da	-0.15217534
7	0x3cdd43b2	0.027009819

generator.fc3.weight f4 [16, 8]
0	0xbe330a02	-0.17484286
1	0xbe069f06	-0.131466
2	0x3e3476dd	0.17623468
3	0xbd910b50	-0.07082236
4	0xbf05ef7b	-0.52318543
5	0xbf7487b9	-0.95519596
6	0xbe73f76b	-0.23824851
7	0x3f7b0cb4	0.9806626
8	0x3e949c94	0.2902571
9	0x3f22ac88	0.6354451
10	0xbeacb0e4	-0.33728707
11	0xbc9ebb4b	-0.019376418
12	0xbe9228ac	-0.28546655
13	0x3e8a2671	0.26982453
14	0xbf200e01	-0.6252137
15	0xbebb0a44	-0.3653127
16	0xbc8dd92f	-0.017315475
17	0x3d2e7dec	0.042600557
18	0xbec1b8b6	-0.37836236
19	0xbf187bea	-0.5956408
20	0xbe0c4ede	-0.1370196
21	0xbe12ae2e	-0.14324257
22	0x3cd566ea	0.02605005
23	0x3f08ccd6	0.53437555
24	0x3e7344e4	0.23756748
25	0x3da2a1e6	0.07941036
26	0xbec69fef	-0.38793895
27	0x3eb9778b	0.36224017
28	0xbf5443e5	-0.829161
29	0x3f39653e	0.7242011
30	0xbe76e3cc	-0.24110335
31	0xbe9f0a41	-0.3106251
32	0xbf437b55	-0.76360065
33	0x3ed3ba34	0.41353
34	0x3d20261b	0.03909884
35	0xbf03f3ca	-0.5154387
36	0xbe68a2cd	-0.22718354
37	0x3d4c2413	0.04983909
38	0x3dd40987	0.1035338
39	0x3f0570a3	0.52124995
40	0xbefc1088	-0.49231362
41	0xbd53084a	-0.051521577
42	0xbf851655	-1.039744
43	0xbf873328	-1.0562487
44	0xbe98ff6a	-0.29882365
45	0x3ec12ade	0.37728018
46	0x3e87b53b	0.26505455
47	0xbee5d18d	-0.44886437
48	0x3ea531a5	0.32264438
49	0x3c1d9e97	0.00962033
50	0xbf361970	-0.71132565
51	0x3eab4428	0.33450437
52	0xbefbb5fe	-0.49162287
53	0xbef829e2	-0.48469454
54	0xbf72f3e2	-0.94903386
55	0x3e007968	0.12546313
56	0x3fa44ba9	1.283559
57	0xbf131599	-0.5745483
58	0xbf07750f	-0.5291299
59	0xbece6205	-0.40309158
60	0xbf8ccdb9	-1.1000282
61	0x3e5ac3d4	0.21363765
62	0x3e831a24	0.2560588
63	0xbef7f68a	-0.48430282
64	0xbe729902	-0.2369118
65	0x3dbfaaa8	0.09358722
66	0xbf44b091	-0.7683192
67	0x3f946f48	1.159646
68	0xbd442868	-0.047890097
69	0x3f7b104d	0.9807175
70	0x3e2d1f89	0.16906561
71	0x3e90a234	0.2824875
72	0xbdb2793c	-0.0871453
73	0xbed66e5a	-0.41881067
74	0x3e5e1a40	0.21689701
75	0x3f006d06	0.50166357
76	0xbea8c0d8	-0.32959628
77	0xbe692f1c	-0.22771877
78	0xbd82d911	-0.063890584
79	0x3ef34947	0.47516844
80	0xbf658138	-0.896503
81	0xbfa1faaf	-1.2654628
82	0xbfb5eb59	-1.4212447
83	0x3e67e706	0.22646722
84	0x3d34eb87	0.04416993
85	0xbe004d08	-0.12529385
86	0xbe92ac97	-0.286473
87	0x3e649804	0.22323614
88	0x3ebec016	0.37255925
89	0x3eb65c57	0.35617325
90	0xbe75619c	-0.23963016
91	0x3e1a0d26	0.15044078
92	0xbec8dce0	-0.39231014
93	0xbe8d7703	-0.2762986
94	0x3e4f8c3e	0.20268342
95	0xbe21c87e	-0.15799138
96	0xbdbdbb9a	-0.09264298
97	0x3f0fe553	0.56209296
98	0x3e4b7a2b	0.19870822
99	0xbf23cdc5	-0.63985854
100	0x3d9681c9	0.07348973
101	0xbf9f0b19	-1.2425262
102	0x3f6fca91	0.93668467
103	0x3ec5c8df	0.38629815
104	0x3e95666f	0.29179713
105	0x3dc8e350	0.098089814
106	0xbf631355	-0.88701373
107	0xbf3de8ce	-0.74183357
108	0x3e965acf	0.29366156
109	0xbe807e18	-0.25096202
110	0xbd26c506	-0.04071524
111	0x3f68ae8d	0.90891343
112	0xbeb644d1	-0.35599378
113	0x3db8857c	0.09009835
114	0xbf5b1b10	-0.8558817
115	0x3f84389c	1.0329776
116	0xbf20358d	-0.6258171
117	0x3ee04078	0.43799186
118	0xbf7fe1df	-0.99954027
119	0x3e8b8bb0	0.2725501
120	0x3fa51e8b	1.2899946
121	0x3eb7698e	0.3582272
122	0xbf074d71	-0.5285254
123	0x3e5e4845	0.21707256
124	0x3e1be61c	0.15224499
125	0xbe1bf886	-0.15231523
126	0x3e3e919a	0.1861023
127	0x3eb47c52	0.352511

generator.fc3.bias f4 [16]
0	0x3e0472d8	0.12934434
1	0x3a5c9f04	0.0008416029
2	0xbe8164ee	-0.25272316
3	0xbe6b038c	-0.22950572
4	0x3d34c728	0.044135243
5	0xbea7dd45	-0.32786003
6	0xbca74208	-0.020417228
7	0xbdb1287c	-0.086503
8	0xbe1a5bcf	-0.15074085
9	0x3e93695b	0.28791317
10	0x3dc44d94	0.09585109
11	0xbe94ec9c	-0.2908677
12	0x3e8355e4	0.25651467
13	0x3e865ab3	0.26241073
14	0xbc06a8e0	-0.008218974
15	0x3e94818b	0.29005083

generator.fc4.weight f4 [7, 16]
0	0xbf2e3bc6	-0.6805996
1	0xbf2ecc17	-0.68280166
2	0xb903b790	-0.00012561516
3	0xbd3e02ed	-0.04638951
4	0xbe6ff093	-0.23431616
5	0xbd8f2c70	-0.06990898
6	0xbe56ebc1	-0.2098837
7	0x3e64bc15	0.22337373
8	0x3f316542	0.6929513
9	0xbd6a9714	-0.057272986
10	0xbeab96b8	-0.33513427
11	0xbf0d34d4	-0.55158734
12	0x3e2003ed	0.15626498
13	0x3d885737	0.0665726
14	0x3f0ae28b	0.5425193
15	0x3efd504a	0.49475318
16	0x3c0e990c	0.008703481
17	0x3e050644	0.12990671
18	0x3e46550b	0.19368379
19	0xbd913e72	-0.070919886
20	0xbdbf4260	-0.09338832
21	0xbe028153	-0.12744646
22	0xbee85576	-0.45377702
23	0xbda20f50	-0.07913077
24	0xbeb51765	-0.3536941
25	0x3ec90bfe	0.39266962
26	0xbf1ab81d	-0.60437185
27	0xbf293acb	-0.66105336
28	0xbeb18c97	-0.34677574
29	0xbe3a5d17	-0.18199573
30	0xbe326278	-0.17420375
31	0x3ddd16d4	0.1079537
32	0xbf6842c5	-0.9072688
33	0xbe9ff265	-0.3123962
34	0x3df95c1e	0.12175773
35	0xbe5c1a37	-0.21494375
36	0xbf3cab38	-0.7369876
37	0x3ed6c3a6	0.41946143
38	0xbd77cca3	-0.06049789
39	0x3d0aa64b	0.033849996
40	0xbec91540	-0.39274025
41	0xbf0f1d17	-0.5590376
42	0x3ee72b8e	0.45150417
43	0xbdc64bd4	-0.09682432
44	0xbe2a5609	-0.16634382
45	0xbe8320b1	-0.2561088
46	0xbe24cc18	-0.1609348
47	0x3e073418	0.13203466
48	0x3e1f45c9	0.15553965
49	0xbe459b95	-0.19297631
50	0xbcd08dee	-0.025458302
51	0xbda72546	-0.08161406
52	0x3effd042	0.49963576
53	0xbd55f0f8	-0.05223176
54	0x3cc5c636	0.024142366
55	0xbf2c4483	-0.6729204
56	0x3e0053eb	0.12532012
57	0xbdd451d5	-0.10367171
58	0xbed53f0a	-0.41649657
59	0xbf793b77	-0.9735636
60	0xbe39c90e	-0.18143103
61	0x3e2d51ab	0.16925685
62	0x3df07b6c	0.11742291
63	0xbefb79bb	-0.4911631
64	0x3f077bfc	0.5292356
65	0x3e6e4bc3	0.23271088
66	0xbe85a987	-0.26105902
67	0xbe22e532	-0.15907744
68	0xbeadc673	-0.33940467
69	0x3e034ae7	0.12821542
70	0xbea54080	-0.32275772
71	0xbe0bac50	-0.13639951
72	0xbea952d4	-0.33071005
73	0xbe23ec53	-0.1600812
74	0x3f3d106d	0.7385319
75	0x3e8f7511	0.28019002
76	0xbe91870a	-0.2842334
77	0xbd2fd0f7	-0.042923894
78	0x3de16f6f	0.110075824
79	0x3e81cc6d	0.25351277
80	0x3eff8b08	0.4991076
81	0x3d2cddf7	0.04220387
82	0x3e0e50ac	0.13897961
83	0x3e3aaabc	0.18229192
84	0xbe975ed9	-0.2956455
85	0xbd492ba9	-0.049113903
86	0xbe65131e	-0.22370574
87	0xbf0b67cb	-0.5445525
88	0xbe19c915	-0.15018113
89	0x3dd76e59	0.10519094
90	0x3f092e05	0.53585845
91	0x3d51cde9	0.05122176
92	0x3e182957	0.1485952
93	0x3e0c4441	0.13697912
94	0xbeafa065	-0.3430206
95	0x3e9eb850	0.30999994
96	0xbea46fd8	-0.3211658
97	0xbf351a42	-0.7074319
98	0xbd37dc01	-0.044887546
99	0xbd556eaf	-0.05210751
100	0x3ec6136a	0.38686687
101	0x3e7255d1	0.23665549
102	0x3e589abd	0.21152778
103	0xbea3149c	-0.3185166
104	0x3eda1770	0.42596006
105	0x3f541830	0.8284941
106	0x3d1d8f2e	0.038466625
107	0x3e802ac4	0.25032628
108	0x3e043b52	0.12913254
109	0x3eae7ee8	0.34081197
110	0x3d7a773c	0.061148867
111	0xbe253c2b	-0.16136234

generator.fc4.bias f4 [7]
0	0x3dbcee1c	0.09225103
1	0x3daf9fcc	0.08575401
2	0xbc06e9d0	-0.008234456
3	0x3d9e30ac	0.07724127
4	0x3d89ef98	0.06735152
5	0xbe1739bc	-0.14768118
6	0x3d3854d8	0.04500279

generator.layer_norm_hidden_0.weight f4 [16]
0	0x3f7df3b8	0.9920001
1	0x3f808314	1.0040002
2	0x3f7df3b8	0.9920001
3	0x3f7ef9dc	0.99600005
4	0x3f7df3b8	0.9920001
5	0x3f7df3b8	0.9920001
6	0x3f7df3b8	0.9920001
7	0x3f7df3b8	0.9920001
8	0x3f7df3b8	0.9920001
9	0x3f7df3b8	0.9920001
10	0x3f7df3b8	0.9920001
11	0x3f7df3b8	0.9920001
12	0x3f80c49e	1.0060003
13	0x3f810628	1.0080004
14	0x3f810628	1.0080004
15	0x3f7df3b8	0.9920001

generator.layer_norm_hidden_0.bias f4 [16]
0	0xbc03126f	-0.008
1	0x3b03126f	0.002
2	0x3c03126f	0.008
3	0xbc03126f	-0.008
4	0x3bc49ba7	0.0060000005
5	0x3c03126f	0.008
6	0x3c03126f	0.008
7	0xbb83126f	-0.004
8	0x3b83126f	0.004
9	0xbb03126e	-0.0019999999
10	0xbc03126f	-0.008
11	0x3c03126f	0.008
12	0x3c03126f	0.008
13	0xbbc49ba7	-0.0060000005
14	0x3c03126f	0.008
15	0xbc03126f	-0.008

generator.layer_norm_hidden_1.weight f4 [8]
0	0x3f800000	1.0
1	0x3f7df3b8	0.9920001
2	0x3f7df3b8	0.9920001
3	0x3f810628	1.0080004
4	0x3f7df3b8	0.9920001
5	0x3f810628	1.0080004
6	0x3f80418a	1.0020001
7	0x3f810628	1.0080004

generator.layer_norm_hidden_1.bias f4 [8]
0	0x3c03126f	0.008
1	0x3c03126f	0.008
2	0x3c03126f	0.008
3	0xbc03126f	-0.008
4	0xbc03126f	-0.008
5	0xbc03126f	-0.008
6	0x3c03126f	0.008
7	0xbc03126f	-0.008

discriminator.fc1.weight f4 [8, 7]
0	0xbec06fd9	-0.37585333
1	0xbe4b3676	-0.19844994
2	0x3dc52375	0.096259035
3	0xbedde478	-0.4333837
4	0xbefcaabe	-0.49349016
5	0xbd58f05d	-0.052963603
6	0xbe9206cf	-0.2852082
7	0xbf13f31f	-0.5779285
8	0xbf12a32b	-0.57280225
9	0xbe9ea326	-0.30983847
10	0xbdae5246	-0.08511786
11	0x3f730c30	0.9494047
12	0xbf8acdf0	-1.0844097
13	0xbe9f715e	-0.3114118
14	0x3b956ba3	0.0045599504
15	0x3f26eb5b	0.65202874
16	0xbf045c1e	-0.5170306
17	0x3f0976c4	0.53696847
18	0x3ea1c0e9	0.3159249
19	0xbed1f9f1	-0.41011003
20	0xbeb74f00	-0.3580246
21	0x3e4f4b34	0.20243531
22	0xbf2f6b8d	-0.68523484
23	0xbe683e74	-0.22680074
24	0xbf10c9aa	-0.56557715
25	0x3ec20829	0.3789685
26	0xbf4fbd74	-0.8114846
27	0x3f0fabbc	0.5612142
28	0xbe7b497b	-0.2453975
29	0x3e93490f	0.28766677
30	0x3f661412	0.89874375
31	0x3dbb1d78	0.0913648
32	0x3f2505fe	0.6446227
33	0xbe8858d4	-0.2663027
34	0x3f3c675c	0.73595214
35	0x3e332ca1	0.17497493
36	0xbee58c6f	-0.44833705
37	0x3dec02ef	0.11523997
38	0x3e901ebf	0.28148457
39	0x3ec5d8a9	0.3864186
40	0x3ead3bb5	0.33834615
41	0xbe79ae11	-0.24382807
42	0x3f23e6be	0.6402396
43	0xbdc83083	-0.09774878
44	0x3e7e4750	0.24831891
45	0x3c9940f3	0.018707728
46	0x3faa377f	1.3298186
47	0xbf06ebc4	-0.527035
48	0xbda53989	-0.080676146
49	0xbdebce3f	-0.11513948
50	0xbda4fe27	-0.08056288
51	0xbf06b96e	-0.52626693
52	0xbdca3827	-0.098739915
53	0x3f49fac4	0.7889826
54	0x3ea9e1bd	0.33180037
55	0xbf859232	-1.043524

discriminator.fc1.bias f4 [8]
0	0x3e31f6b6	0.17379269
1	0x3d0b9559	0.034077976
2	0xbb4cc2e8	-0.0031244103
3	0x3c50f61b	0.012753989
4	0x3ec2e0c4	0.38062108
5	0xbdd93382	-0.106055275
6	0x3eae54dc	0.34049118
7	0x3e4b7387	0.19868289

discriminator.fc2.weight f4 [1, 8]
0	0x3e97d0d5	0.29651514
1	0x3e8c8629	0.27446106
2	0x3e77fcb3	0.24217491
3	0x3d3ce2af	0.04611462
4	0x3eb690ce	0.35657352
5	0xbfc57047	-1.5424889
6	0xbf7bf7aa	-0.9842478
7	0xbe0d651b	-0.138081

discriminator.layer_norm_hidden_0.weight f4 [8]
0	0x3f7e02ff	0.9922332
1	0x3f7dfdb1	0.9921523
2	0x3f7dfb9f	0.9921207
3	0x3f7dfc47	0.9921307
4	0x3f810360	1.0079155
5	0x3f7e72bc	0.9939382
6	0x3f7dfbd1	0.99212366
7	0x3f81029f	1.0078925

discriminator.layer_norm_hidden_0.bias f4 [8]
0	0x3c021977	0.007940642
1	0x3c0216d2	0.007940011
2	0x3c0212b5	0.00793903
3	0x3c01875f	0.00790581
4	0x3c024c66	0.007952785
5	0xbc0230c5	-0.007946198
6	0xbc022c7e	-0.007945178
7	0xbc027196	-0.007961651

exp_avg f4 [16, 7]
0	0x3b936c68	0.004499007
1	0x3b939381	0.004503668
2	0x212d17e0	5.864628e-19
3	0x3b919fa5	0.00444408
4	0x3b93937f	0.004503667
5	0x3b939436	0.004503752
6	0x3b9466c3	0.0045288517
7	0x3bbe195d	0.0058013634
8	0x3bbe3466	0.005804586
9	0x21add382	1.1778922e-18
10	0x3bbdd096	0.0057926876
11	0x3bbe3759	0.005804938
12	0x3bbe38b1	0.005805098
13	0x3bbe513c	0.0058080237
14	0x3ae73467	0.0017639518
15	0x3ae7536a	0.0017648761
16	0x20a74e24	2.834261e-19
17	0x3ae1bdcf	0.0017222705
18	0x3ae75673	0.0017649665
19	0x3ae76de3	0.001765665
20	0x3ae7c4d8	0.0017682565
21	0xbb1f607c	-0.0024318984
22	0xbb1f5cd8	-0.0024316814
23	0xa08700dd	-2.287046e-19
24	0xbb1fe52d	-0.0024398074
25	0xbb1f5a69	-0.0024315363
26	0xbb1f5c60	-0.0024316534
27	0xbb1ef530	-0.002425503
28	0x3a90aad0	0.0011037234
29	0x3a910a4e	0.0011065693
30	0x21c9845f	1.3655328e-18
31	0x3a8646a6	0.0010244444
32	0x3a90e6fb	0.0011055166
33	0x3a910ff9	0.0011067382
34	0x3a905c19	0.0011013775
35	0xbb5495f2	-0.0032438007
36	0xbb556905	-0.0032563817
37	0xa228debd	-2.2886162e-18
38	0xbb44bd28	-0.0030019972
39	0xbb5548c7	-0.00325446
40	0xbb5564a4	-0.0032561207
41	0xbb57cd42	-0.003292874
42	0xb9ce5d73	-0.00039361007
43	0xb9d225e5	-0.00040082555
44	0xa1908351	-9.792579e-19
45	0xb9a9ffa7	-0.00032424668
46	0xb9d1cd52	-0.00040016562
47	0xb9d2135a	-0.0004006874
48	0xb9d8b648	-0.0004133454
49	0x3b3274e2	0.0027230312
50	0x3b32281d	0.0027184554
51	0xa103128c	-4.4409073e-19
52	0x3b32d4d1	0.0027287493
53	0x3b322fd4	0.0027189152
54	0x3b3214f3	0.0027173131
55	0x3b340808	0.0027470607
56	0xba7379fc	-0.00092878914
57	0xba732ca1	-0.00092763646
58	0xa02845b6	-1.4253219e-19
59	0xba72ce23	-0.0009262284
60	0xba731d6b	-0.0009274098
61	0xba732aa1	-0.00092760666
62	0xba71e600	-0.0009227693
63	0xbad20121	-0.0016022065
64	0xbad0ebd7	-0.0015939426
65	0x9ed6fec6	-2.2763503e-20
66	0xbadd7eb7	-0.0016898726
67	0xbad0f20f	-0.001594128
68	0xbad0ea79	-0.0015939019
69	0xbaccf037	-0.0015635554
70	0xbaedc466	-0.0018140196
71	0xbaedb8da	-0.0018136755
72	0xa14729af	-6.747899e-19
73	0xbae90ca9	-0.0017780262
74	0xbaedbefe	-0.0018138585
75	0xbaedcd59	-0.0018142863
76	0xbaee43c2	-0.0018178152
77	0xba880472	-0.0010377301
78	0xba887eca	-0.0010413763
79	0xa069289b	-1.9749303e-19
80	0xba841f72	-0.0010080172
81	0xba887d69	-0.0010413352
82	0xba8885c7	-0.0010415845
83	0xba8858ff	-0.00104025
84	0x3b579729	0.0032896495
85	0x3b57688d	0.0032868714
86	0x210afd40	4.709139e-19
87	0x3b58d391	0.0033085088
88	0x3b57617d	0.0032864504
89	0x3b575ed2	0.0032862914
90	0x3b569dff	0.0032747982
91	0x39663f5c	0.00021958112
92	0x3963e842	0.0002173493
93	0xa1205293	-5.4319395e-19
94	0x392dda8a	0.00016579978
95	0x39634cc8	0.0002167701
96	0x396378e3	0.00021693441
97	0x3964f4e9	0.0002183501
98	0xbab610a9	-0.0013890463
99	0xbab637f5	-0.0013902175
100	0x215e293c	7.52711e-19
101	0xbabbf8ab	-0.0014341077
102	0xbab65b5e	-0.0013912728
103	0xbab60ed1	-0.0013889914
104	0xbabb56c7	-0.001429283
105	0xb9db5f0d	-0.00041841753
106	0xb9dcfd67	-0.0004215047
107	0xa20c0362	-1.8975329e-18
108	0xb999ff16	-0.00029372488
109	0xb9dc3c13	-0.0004200643
110	0xb9dcc1db	-0.00042106104
111	0xb9e3c08e	-0.00043440278

exp_avg f4 [16]
0	0xbbad17df	-0.0052823867
1	0xbc2dd382	-0.010609509
2	0xbb274e23	-0.002552875
3	0x3b0700dc	0.0020599877
4	0xbc49845f	-0.012299626
5	0x3ca8debd	0.020614022
6	0x3c108351	0.008820371
7	0x3b83128b	0.004000013
8	0x3aa845b6	0.0012838158
9	0x3956febf	0.0002050353
10	0x3bc729af	0.006077967
11	0x3ae9289f	0.0017788595
12	0xbb8afd40	-0.0042416155
13	0x3ba05293	0.004892656
14	0xbbde293a	-0.006779817
15	0x3c8c0363	0.017091459

exp_avg f4 [8, 16]
0	0xb9c9368f	-0.00038378357
1	0x3a23127c	0.0006220711
2	0x3b7bc4b8	0.0038416814
3	0xbb05146a	-0.0020306357
4	0xba8206c1	-0.0009920226
5	0xbabe0e17	-0.0014500049
6	0xbb24088c	-0.0025029508
7	0x3ab806d0	0.0014040116
8	0xbb9a5764	-0.004710125
9	0xbb02d23e	-0.001996174
10	0x3b2ea7dc	0.0026650345
11	0x3b58cdc5	0.0033081633
12	0x3a780c54	0.0009462286
13	0x3af9e33d	0.0019064915
14	0xb9963809	-0.0002865198
15	0xb9becbc5	-0.00036391444
16	0xbc4bf662	-0.012448879
17	0xbc75c4d3	-0.01500054
18	0x3ce00101	0.027344229
19	0xbcab348a	-0.020899076
20	0xbbb371f3	-0.0054762303
21	0xbc373c62	-0.01118383
22	0xbc738535	-0.014863302
23	0x3c3cfeac	0.011535328
24	0xbcfebd1d	-0.031096036
25	0x3b1791c5	0.0023127657
26	0x39dc0219	0.00041963233
27	0x3cce9d24	0.025221415
28	0xbbefa147	-0.007312927
29	0x3cbdc0a0	0.02316314
30	0x3ca29380	0.019845724
31	0x3c0b8a8d	0.00851692
32	0xbba4e240	-0.005031854
33	0xbbe419d4	-0.0069610868
34	0x3bc7a93c	0.0060931724
35	0xbc0b4919	-0.008501315
36	0x39970a47	0.00028808622
37	0xbb6972dd	-0.0035621442
38	0xbb9c94aa	-0.0047784643
39	0x3bb979d7	0.0056602764
40	0xbc48b223	-0.012249502
41	0x3b9b9bf0	0.004748814
42	0x3909b7a0	0.00013133744
43	0x3bc93e78	0.00614148
44	0xbb522469	-0.003206516
45	0x3beabfce	0.007163978
46	0x3c05c8cf	0.008165552
47	0x3bc17f8e	0.0059050983
48	0x3bc7e600	0.006100416
49	0x3bf1864f	0.007370747
50	0xbc58ca0b	-0.013231765
51	0x3c24b3e5	0.010052656
52	0x3b3ee9cc	0.0029131053
53	0x3bbbf103	0.005735518
54	0x3bf202a2	0.0073855678
55	0xbbb4ff28	-0.005523581
56	0x3c693a20	0.0142350495
57	0xba8a7aee	-0.00105652
58	0x3887462f	6.450374e-05
59	0xbc47d79b	-0.0121974
60	0x3b7395ff	0.0037168262
61	0xbc3c9774	-0.011510719
62	0xbc263cd5	-0.010146339
63	0xbb81ef82	-0.003965319
64	0x3c061eeb	0.008186082
65	0x3c2dc33a	0.010605628
66	0xbc86c43a	-0.01645099
67	0x3c7a5727	0.015279568
68	0x3ae4a285	0.0017443454
69	0x3be3a540	0.0069471896
70	0x3c23770a	0.009977112
71	0xbc19c333	-0.009384918
72	0x3cc28c22	0.023748461
73	0xbb6658c6	-0.0035148128
74	0xbb260493	-0.0025332316
75	0xbc7d93b1	-0.015477107
76	0x3b875aeb	0.0041307113
77	0xbc6723ef	-0.014107688
78	0xbc3f8bbf	-0.011691033
79	0xbbf3e203	-0.007442714
80	0xba226ef3	-0.00061963423
81	0xbaa982b4	-0.0012932629
82	0x3a93f15d	0.0011287142
83	0x3a973238	0.0011535352
84	0xbad95c3f	-0.0016583278
85	0xba0144d1	-0.0004931214
86	0x39f871a6	0.0004738692
87	0xbace13a9	-0.0015722412
88	0x3b796f20	0.003806062
89	0xb909cca7	-0.00013141577
90	0xbb824a17	-0.0039761174
91	0x3a8e9bff	0.0010880231
92	0xbaf2ad8f	-0.0018514859
93	0x3af2a96f	0.001851363
94	0x3b3e3d62	0.0029028286
95	0xba3d7fe8	-0.00072288373
96	0xbb415a2c	-0.002950321
97	0xbb901c05	-0.0043978714
98	0x3b7c376b	0.003848518
99	0xbbd5755f	-0.006514236
100	0x3aa3c881	0.0012495668
101	0xbadef2d7	-0.0017009628
102	0xbb4bfccf	-0.0031126027
103	0x3b982b79	0.004643854
104	0xbc2b7bfc	-0.010466572
105	0x3b517ae2	0.0031964113
106	0x3b1fe0b8	0.0024395417
107	0x3b7ba7f4	0.0038399668
108	0xba8785a2	-0.0010339508
109	0x3b6202fc	0.0034486642
110	0x3b4f359d	0.003161765
111	0x3b8cad68	0.0042931326
112	0x3aae6df8	0.001330792
113	0x3b21e15a	0.002470097
114	0xbbc90b6b	-0.0061353943
115	0x3b264df4	0.0025376054
116	0x3af7d6b2	0.0018908589
117	0x3ae097c1	0.001713507
118	0x3b106ecd	0.0022038699
119	0xba4adcbb	-0.000773858
120	0x3b631eab	0.003465573
121	0x3ac6600f	0.0015134829
122	0xb5c044ae	-1.4325103e-06
123	0xbbb4a46f	-0.005512766
124	0x3a53c0aa	0.00080777204
125	0xbb7f4a07	-0.0038954036
126	0xbaea76ee	-0.0017888227
127	0x392cebca	0.00016491037

exp_avg f4 [8]
0	0xbbc576d8	-0.00602613
1	0xbbfd55c8	-0.007731173
2	0xbb8593f9	-0.0040764776
3	0x3b2ea4ca	0.0026648515
4	0x3c3fec07	0.011713988
5	0x3c1c5bf2	0.009543406
6	0xbc0f44e7	-0.008744455
7	0x3a6a6746	0.00089417805

exp_avg f4 [16, 8]
0	0xbb1991d3	-0.0023432865
1	0x3add30ee	0.0016875544
2	0x3bbcc65f	0.0057609524
3	0x39021071	0.00012403891
4	0x3b258d9a	0.0025261403
5	0xbb45b37a	-0.003016679
6	0xbc00e565	-0.007867192
7	0x3b4a7cf8	0.003089724
8	0xbba6c6de	-0.005089625
9	0x3b68848f	0.0035479402
10	0x3c6e84f9	0.01455807
11	0x3ac49a7a	0.0014999651
12	0xbb845d33	-0.0040394305
13	0xbbb93096	-0.005651544
14	0xbc1c8495	-0.009553094
15	0x3b997273	0.004682833
16	0x3b8300bd	0.0039978907
17	0xbb2f16ee	-0.0026716548
18	0xbb9ed9f6	-0.0048477603
19	0xbb4b4e67	-0.0031022073
20	0x38766f54	5.8754653e-05
21	0x3b0146db	0.001972607
22	0x3c0e222d	0.00867514
23	0xbb8535c0	-0.0040652454
24	0xba52cbfa	-0.0008041259
25	0x39ffbfd0	0.00048780302
26	0x3b6d653e	0.0036223675
27	0xb9c60666	-0.0003777027
28	0xb935921e	-0.00017315938
29	0xbad0e042	-0.0015935975
30	0xbb04bb3b	-0.00202532
31	0x3a5dcb1d	0.0008460747
32	0xbc53d85f	-0.012930005
33	0x3bfdc848	0.0077448227
34	0x3cfca7fc	0.03084182
35	0x3bcd8f94	0.0062732194
36	0xbc2aa497	-0.010415218
37	0xbc45c3c4	-0.0120706
38	0xbca77811	-0.020442994
39	0x3c32acc5	0.010905449
40	0xbb104039	-0.0022010936
41	0x3ad16a00	0.0015977025
42	0x3abb5ce7	0.0014294655
43	0x3b185633	0.0023244738
44	0xbab47e28	-0.0013770508
45	0xb9ad5dd2	-0.00033067033
46	0xbb5aa148	-0.0033360291
47	0x3af90910	0.0018999893
48	0xbb0f9dc4	-0.0021914104
49	0x3a0c320b	0.0005348033
50	0x3b190213	0.0023347184
51	0x3b439a5b	0.0029846642
52	0xbbc2f6bf	-0.0059498246
53	0xb9374e43	-0.00017481395
54	0x3b134838	0.0022473466
55	0x3974d9cc	0.00023350789
56	0xbbecb771	-0.0072240164
57	0x3ba43e2e	0.005012295
58	0x3bf896d0	0.0075863376
59	0x3be8c12b	0.0071031055
60	0xbb595aee	-0.003316577
61	0xbb1019df	-0.0021988077
62	0xbc5ce00d	-0.013481152
63	0x3bd5a82e	0.0065202927
64	0x3b1343f8	0.0022470932
65	0xbac78ca6	-0.0015224412
66	0xbafb95b3	-0.0019194394
67	0xbb292223	-0.00258077
68	0x3abcc11f	0.0014400816
69	0x39ce089b	0.00039297793
70	0x3b7d2841	0.003862873
71	0xbafc7d0d	-0.0019263342
72	0x3a92b578	0.0011192998
73	0x387ecaf8	6.074735e-05
74	0xbc08e7f6	-0.008356085
75	0x3a95fa02	0.0011442306
76	0x39e379aa	0.0004338746
77	0x3b6f51c4	0.0036517242
78	0x3b424ac9	0.0029646626
79	0xba7f6005	-0.0009741786
80	0x3c9392e4	0.018014379
81	0xbc3e46a2	-0.01161352
82	0xbcbdae4c	-0.0231544
83	0xbc8367f4	-0.01604078
84	0x3c7cb95a	0.015425051
85	0x3befb751	0.007315554
86	0x3cc87585	0.0244701
87	0xbc6c1f9e	-0.014411835
88	0xbb84ffdb	-0.0040588207
89	0x3b31efd6	0.002715101
90	0x3bb5e9ac	0.0055515375
91	0x3b7a135f	0.0038158519
92	0xbad71b67	-0.0016411365
93	0xbae24477	-0.0017262836
94	0xbc09f622	-0.008420499
95	0x3b764324	0.003757664
96	0x3c03e455	0.008050044
97	0xbb8bb170	-0.0042630956
98	0xbcdd2440	-0.026994824
99	0xba57b5af	-0.0008228672
100	0x3c1ae209	0.009453305
101	0x3c3594f5	0.011082877
102	0x3c1df7a0	0.009641558
103	0xbbc66310	-0.0060542896
104	0xbc0f7e6c	-0.008758169
105	0x3baf4f10	0.005350001
106	0x3c46e214	0.012138862
107	0x3beaf630	0.007170461
108	0xbc2745cb	-0.010209511
109	0xbb869c99	-0.0041080234
110	0xbc017329	-0.0079009915
111	0x3bced754	0.00631229
112	0x3bec1029	0.007204075
113	0xbb9f14da	-0.0048547806
114	0xbc64e3b5	-0.013970305
115	0xbb9807e3	-0.004639612
116	0x3ba207a1	0.004944757
117	0x3ba46560	0.0050169677
118	0x3c4fe2b6	0.012688329
119	0xbbd03c89	-0.0063548726
120	0x3c972e5e	0.018454727
121	0xbc49e761	-0.012323231
122	0xbcd1a601	-0.025591852
123	0xbc7fb128	-0.015606202
124	0x3c3f99c5	0.011694376
125	0x3c0c0a43	0.008547368
126	0x3cfc6959	0.030811952
127	0xbc82c4e7	-0.015963031

exp_avg f4 [16]
0	0x3b4639f2	0.003024694
1	0x3bbabca6	0.005698758
2	0x3b634adb	0.0034682069
3	0x3b3f97d7	0.002923479
4	0x3bf38796	0.0074319346
5	0xbb713f9b	-0.0036811593
6	0xbb611920	-0.003434725
7	0xbc192ac4	-0.009348575
8	0x3b7fa441	0.0039007815
9	0xbc07f36a	-0.0082977805
10	0x3c8b4c42	0.017004136
11	0xbb819852	-0.0039549256
12	0xbc7c4b2b	-0.015398781
13	0xbbceec94	-0.0063148234
14	0x38b5f19d	8.6757565e-05
15	0x3c709451	0.014683799

exp_avg f4 [7, 16]
0	0xbd888f84	-0.066679984
1	0xbc37fef8	-0.011230223
2	0xbb2e1822	-0.0026564677
3	0xbbed0c0e	-0.007234103
4	0xbd0aecb3	-0.03391714
5	0x3d551ca8	0.05202928
6	0xbc982914	-0.018574275
7	0x3d86f807	0.06590276
8	0xba8deb4b	-0.0010827569
9	0xbd28f3b6	-0.041248046
10	0x3cb12790	0.02162531
11	0xbb2e9be6	-0.0026643216
12	0xbb93e692	-0.00451357
13	0x3d01c36a	0.031680502
14	0xbcbaa476	-0.0227835
15	0x3d2992b6	0.04139968
16	0x3c10189c	0.00879493
17	0xb9ec6c4d	-0.00045094118
18	0xba197590	-0.0005854005
19	0x3aafeeeb	0.0013422644
20	0x3b92e3a9	0.0044827056
21	0xbb226867	-0.0024781467
22	0xb903b27d	-0.00012559626
23	0xba4e470d	-0.0007868864
24	0xb9c9b12f	-0.0003846972
25	0x3bb294c1	0.0054498618
26	0xbbbc691c	-0.0057498347
27	0x3a8fb772	0.0010964705
28	0x3b82008e	0.0039673513
29	0xbc2062be	-0.009789167
30	0x3a85b8d0	0.0010202173
31	0xbbbfa3b1	-0.005848371
32	0xbd9b0bf1	-0.07570637
33	0xbb817f67	-0.003951955
34	0x3b5686b8	0.0032734107
35	0x3b840872	0.004029327
36	0xbd08257b	-0.03323887
37	0x3d36fe97	0.04467639
38	0xbc414bd2	-0.011797862
39	0x3d55bd15	0.052182276
40	0x3c3165fb	0.010827537
41	0xbd2ff89d	-0.042961705
42	0x3cb519d1	0.022107037
43	0x3b985c2f	0.004649661
44	0xbc81e691	-0.015857013
45	0x3ca904ba	0.020632137
46	0xbc2dc740	-0.010606587
47	0x3d017ca6	0.031613015
48	0x3cae9c4e	0.021314766
49	0x3a045990	0.0005048746
50	0xbb07a485	-0.0020697427
51	0xbb86a825	-0.0041094
52	0x3c09aebb	0.008403475
53	0xbc276eee	-0.010219319
54	0x3b498731	0.0030750746
55	0xbc40faf1	-0.011778579
56	0xbbbe609d	-0.005809857
57	0x3c26de8f	0.010184898
58	0xbbb7e733	-0.005612278
59	0xbb62b796	-0.003459429
60	0x3bbcdfa4	0.0057639647
61	0xba480f9e	-0.00076317217
62	0x3a04080e	0.00050366006
63	0xbbbfe970	-0.0058566853
64	0xbcdc24e7	-0.026873065
65	0xbc042d82	-0.0080674905
66	0xbb875f1d	-0.0041312114
67	0xbc05e8dd	-0.008173195
68	0xbc849328	-0.01618345
69	0x3ce5c927	0.028050018
70	0xbc3a7600	-0.011380672
71	0x3d1952a2	0.03743232
72	0xbbc36c55	-0.005963842
73	0xbc98956d	-0.01862594
74	0x3c1e77e9	0.0096721435
75	0xbb96ea39	-0.0046055582
76	0x3b19f209	0.0023490211
77	0x3c99cd94	0.018774785
78	0xbc820744	-0.015872605
79	0x3cc1fe27	0.02368076
80	0xbb09943a	-0.002099289
81	0xbb8da4a4	-0.004322605
82	0xbb79b0f7	-0.0038099864
83	0xbc04e73c	-0.008111771
84	0xbb94817a	-0.0045320364
85	0x3c13f232	0.009029912
86	0xbb96e77b	-0.0046052313
87	0x3c4b870d	0.012422335
88	0xbbfb3a9c	-0.007666899
89	0xbb8e98ad	-0.0043516965
90	0x3b6fe323	0.003660389
91	0xbbb983ae	-0.0056614494
92	0x3b93427a	0.0044940086
93	0x3c5d8825	0.013521229
94	0xbc194582	-0.009354951
95	0x3c3c74f8	0.011502497
96	0x3a82d68c	0.0009982153
97	0x3b9d4a22	0.004800097
98	0x3b843e0c	0.004035717
99	0x3bfd6425	0.0077328854
100	0x3b8877c0	0.004164666
101	0xbc0eda34	-0.008719016
102	0x3bb1c186	0.005424681
103	0xbc53de89	-0.0129314745
104	0x3bf99ee1	0.007617817
105	0x3b3975cf	0.002829898
106	0xbb5451d5	-0.0032397409
107	0x3bb2b792	0.005454012
108	0xbb8ca06a	-0.004291584
109	0xbc42caac	-0.011889141
110	0x3c17fb07	0.009276158
111	0xbc3a837e	-0.011383889

exp_avg f4 [7]
0	0x3c1819a2	0.009283455
1	0xb94b145a	-0.0001936717
2	0xbc1bc5e4	-0.00950763
3	0x3bdf9742	0.0068234513
4	0x3c4f4225	0.012650047
5	0x3c4db670	0.0125557035
6	0xbc4e7116	-0.012600204

exp_avg f4 [16]
0	0x3dc77819	0.09739704
1	0xba8e6871	-0.0010864866
2	0x3c890439	0.016725646
3	0x3ab327ee	0.0013668516
4	0x3d2e163e	0.04250168
5	0x3cbff2cb	0.023431202
6	0x3c5a2be0	0.013316125
7	0x3c5cbee2	0.013473244
8	0x3b4bbb57	0.0031087005
9	0x3cdfce1b	0.027319958
10	0x3c8b4327	0.016999794
11	0x3b8a416e	0.0042192256
12	0xba7e77ac	-0.00097071636
13	0xbbc228d4	-0.0059252772
14	0xbba9467e	-0.005165874
15	0x3d0fca3f	0.035104986

exp_avg f4 [16]
0	0x3c9a803f	0.01885998
1	0xbb36fe47	-0.0027922557
2	0xbc89227b	-0.016740074
3	0x3bc153c4	0.005899878
4	0xbbde86ab	-0.006790956
5	0xbbd9a361	-0.0066417907
6	0xbc5450a1	-0.012958677
7	0x3ae7ca39	0.0017684168
8	0xbaf06b6f	-0.0018342565
9	0x3a00974c	0.00049053575
10	0x3c04f021	0.008113892
11	0xbc5ed8cf	-0.013601496
12	0xbc10453d	-0.00880557
13	0x3b68f550	0.0035546608
14	0xbbb3a0fe	-0.0054818382
15	0x3ca073cc	0.019586466

exp_avg f4 [8]
0	0xb9462ec4	-0.00018900173
1	0x3c3a2e61	0.011363597
2	0x3d040692	0.03223283
3	0xbcc33f86	-0.023834001
4	0x3bed3ccf	0.007239915
5	0xbc5d1250	-0.013493136
6	0xbba4f110	-0.0050336197
7	0xbbfdf18a	-0.007749741

exp_avg f4 [8]
0	0xbc5d8d8a	-0.013522515
1	0xbc34d1b3	-0.011036324
2	0xbcd2dec0	-0.025740981
3	0x3cb89905	0.022533903
4	0x3c1b5c3f	0.009482442
5	0x3cb5f294	0.022210397
6	0xbca536a1	-0.02016765
7	0x3bd30b1d	0.006440534

exp_avg f4 [8, 7]
0	0xbda76700	-0.081739426
1	0x3ad8d6fb	0.0016543561
2	0xbde2f007	-0.11080938
3	0x3d232fcd	0.03984051
4	0xbce6d592	-0.02817801
5	0xbb06a91f	-0.0020547581
6	0xbb33360e	-0.0027345452
7	0xbe0ca933	-0.1373642
8	0x3d640d67	0.055676844
9	0xbe6ad745	-0.22933681
10	0x3dc7e4c6	0.09760432
11	0xbc1a3f96	-0.009414574
12	0x3d1259ca	0.03573016
13	0x3c7aad35	0.015300085
14	0xbe12ab44	-0.14323145
15	0xbe06058a	-0.1308805
16	0xbc88cfc5	-0.016700635
17	0xbdff6b21	-0.12471605
18	0xbe0a0edf	-0.13482235
19	0xbe0606bc	-0.13088506
20	0xbe069f53	-0.13146715
21	0xbd114452	-0.035465546
22	0x3c3ace6b	0.011401753
23	0xbd7abee3	-0.0612172
24	0x3d05cac8	0.03266409
25	0xbb832db9	-0.0040032533
26	0x3c2f937c	0.010716315
27	0x3c0fb1d2	0.008770423
28	0xbe9b44b1	-0.30325845
29	0xbe438fcf	-0.19097827
30	0xbe260be8	-0.1621548
31	0xbe1836ae	-0.14864609
32	0xbe839c5e	-0.25705236
33	0xbe68539d	-0.22688146
34	0xbe4bfd0e	-0.19920751
35	0x3f0a6735	0.5406373
36	0x3ea287fe	0.3174438
37	0x3ea35f87	0.3190882
38	0x3e4d4d3c	0.20048994
39	0x3ed6a0d5	0.4191958
40	0x3eb13f09	0.34618405
41	0x3ea2c03b	0.31787285
42	0x3e5be2e2	0.21473268
43	0x3df5a9e3	0.11995294
44	0x3e034a0a	0.12821212
45	0x3da88830	0.08229101
46	0x3e254d40	0.1614275
47	0x3e0a1eb7	0.1348828
48	0x3e03286d	0.1280839
49	0x3d4f1e0a	0.050565757
50	0xbca66fbc	-0.020316951
51	0x3da98680	0.08277607
52	0xbd13c332	-0.036074825
53	0x3acdd2b7	0.0015703057
54	0xbc7c1872	-0.015386688
55	0xbbb4f6b5	-0.005522574

exp_avg_sq f4 [8, 7]
0	0x393af9a2	0.00017831338
1	0x34b0ed74	3.2955325e-07
2	0x39aea17c	0.0003330818
3	0x38500f01	4.9605038e-05
4	0x37aed07b	2.0839498e-05
5	0x349a7c8c	2.8775355e-07
6	0x350b287d	5.1840453e-07
7	0x39fe5ab4	0.00048514234
8	0x38a6c0ba	7.951395e-05
9	0x3ab1e4f6	0.0013572264
10	0x39847cd3	0.00025270003
11	0x36459c68	2.9446328e-06
12	0x38066dbf	3.20503e-05
13	0x36d167a8	6.2407526e-06
14	0x3a09506e	0.000523812
15	0x39eaeb68	0.0004480735
16	0x36f750c8	7.370578e-06
17	0x39d51ef1	0.0004064958
18	0x39f67944	0.00047011126
19	0x39ea16bc	0.00044648896
20	0x39eafea7	0.0004482169
21	0x380fa483	3.424707e-05
22	0x3664b98c	3.408265e-06
23	0x38d5d077	0.00010195461
24	0x380028ba	3.0555508e-05
25	0x351a8311	5.75602e-07
26	0x36480a79	2.9808418e-06
27	0x36163996	2.2385261e-06
28	0x3b1e7e1c	0.0024184054
29	0x3a7947cf	0.00095092965
30	0x3a3a5f01	0.00071094936
31	0x3a10611c	0.00055076345
32	0x3adc477e	0.0016805974
33	0x3aa8c89a	0.0012877167
34	0x3a83ded3	0.0010060914
35	0x3bfa12d6	0.00763164
36	0x3b2b02a0	0.0026094094
37	0x3b337148	0.0027380753
38	0x3a866124	0.0010252339
39	0x3b933e29	0.004493494
40	0x3b478dfd	0.0030449622
41	0x3b292b04	0.0025812993
42	0x3a9b8f50	0.0011868272
43	0x39bedc58	0.00036403793
44	0x39e7625e	0.00044133043
45	0x392f5a58	0.00016722956
46	0x3a2af0b4	0.0006520853
47	0x39eb90d6	0.00044930604
48	0x39d61faf	0.00040840867
49	0x38884840	6.498443e-05
50	0x37315361	1.0569435e-05
51	0x3937b4ac	0.00017519546
52	0x380f8f7a	3.422748e-05
53	0x34171a1f	1.4072474e-07
54	0x36c4ce5b	5.865278e-06
55	0x3556eb2b	8.0063427e-07

exp_avg f4 [8]
0	0xbd4d5301	-0.050127987
1	0xbbe84582	-0.007088364
2	0xbe583d46	-0.21117124
3	0xbce8a069	-0.028396802
4	0xbebdb973	-0.3705555
5	0x3f06b6bb	0.52622575
6	0x3ea027c8	0.3128035
7	0xbca30f48	-0.019904748

exp_avg_sq f4 [8]
0	0x388ea39f	6.8015645e-05
1	0x373a3fbf	1.1101306e-05
2	0x3a944931	0.0011313317
3	0x37b63af9	2.1723552e-05
4	0x3b61883d	0.003441348
5	0x3be66d88	0.0070321
6	0x3b1cc789	0.0023922643
7	0x37292c5b	1.0083512e-05

exp_avg f4 [1, 8]
0	0x3e01d6be	0.12679574
1	0x3e88ada9	0.26694992
2	0x3ec21b6f	0.37911555
3	0x3daaae0b	0.08333977
4	0xbf0ec002	-0.5576173
5	0xbcbb1465	-0.022836873
6	0xbf1a5265	-0.60281974
7	0x3ea5dd72	0.32395512

exp_avg_sq f4 [1, 8]
0	0x39daee9a	0.00041757972
1	0x3af5328a	0.0018707078
2	0x3b76b49c	0.0037644273
3	0x393326d5	0.00017085236
4	0x3c00df82	0.007865788
5	0x37cacf83	2.4176907e-05
6	0x3c1b3c52	0.009474831
7	0x3b3180f1	0.0027084912

exp_avg f4 [8]
0	0x3d1d6284	0.03842403
1	0x3d9931aa	0.07480176
2	0x3dc03e84	0.09386924
3	0x3b899fb4	0.0041999463
4	0xbe4851f9	-0.1956252
5	0x3d14f23b	0.03636382
6	0x3f194263	0.59866923
7	0xbd30df86	-0.04318192

exp_avg_sq f4 [8]
0	0x38210da7	3.8398106e-05
1	0x391a761b	0.00014730582
2	0x3972ef47	0.00023168056
3	0x34ec79d9	4.404708e-07
4	0x3a7d490d	0.00096620695
5	0x38792f3e	5.9410224e-05
6	0x3c1909d8	0.009340726
7	0x38484cd0	4.7755253e-05

exp_avg f4 [8]
0	0xbd4015fb	-0.046895962
1	0xbd32013f	-0.04345822
2	0xbd1d5f75	-0.038421113
3	0xbc00148c	-0.007817399
4	0xbd617b2d	-0.05504911
5	0x3e7709d1	0.24124838
6	0x3e1df8f1	0.15426995
7	0x3cab8e8a	0.020941991

exp_avg_sq f4 [8]
0	0x38689756	5.5454053e-05
1	0x3847d22c	4.7641035e-05
2	0x381c4823	3.726048e-05
3	0x35d38708	1.5760024e-06
4	0x389f0a2d	7.583606e-05
5	0x3abfae39	0.0014624066
6	0x3a1cde26	0.00059840304
7	0x373721d3	1.0915525e-05
