saved/type_2_fold_5.ckpt (torch, 21266 bytes, 39 tensors)

generator.fc1.weight f4 [16, 7]
0.4114833 -0.26732177 0.16298428 -0.22403257 0.35067 0.589365 0.6308453 -0.07800597
0.5372253 -0.22594567 0.24082038 -0.16505198 0.9838994 0.4932568 0.3296363 -0.45905775
-0.35928744 -0.31914577 1.2355324 -0.038687807 -0.010195686 0.1487629 0.35312775 -0.5876186
-0.70438707 -0.1375232 -0.32394043 -0.1184323 -0.03211043 -0.010860586 -0.5707348 -0.0795163
-0.14071156 -0.49739152 -0.6674713 -0.073106505 -0.49783373 1.2446231 -1.5970985 0.3319984
-0.16428752 0.01836904 0.562863 -0.1993765 -0.18975501 -0.13154301 -0.07206369 -0.1952937
0.7182305 -0.16486618 -0.010089477 -1.2682052 0.14055052 -0.38016146 -0.098654374 0.4216986
0.12286633 0.9708321 -0.49465704 0.47384542 -0.81863004 -0.11328017 0.7168101 -0.21685852
0.9182463 -0.31278828 -0.11335547 0.29315996 -0.23748939 -0.57690704 0.42035773 -0.15297458
-0.14405312 0.6676714 -0.2774928 0.13422799 -0.6517672 0.3806538 0.5054717 0.15346357
-0.46032637 -0.10331301 0.30640242 0.24310143 -0.26950702 -0.3403568 -0.40450144 -0.38959518
0.752826 0.05648071 0.09614328 0.7053677 1.7217281 0.33407372 -0.22315437 0.01792596
-0.9706229 -0.13650757 -0.13567168 -0.69940823 -0.4833968 1.0359511 -0.042903557 0.6274519
0.5468252 -0.803284 0.09207144 -0.8940057 0.6172137 -0.11880349 0.117895305 -1.0762414
00000000: f0ad d23e 66de 88be 5ae5 263e cb68 65be
00000010: 058b b33e a0e0 163f 147f 213f 98c1 9fbd
00000020: 9987 093f 4d5e 67be 9e99 763e 6303 29be
00000030: d5e0 7b3f 288c fc3e 17c6 a83e 9e09 ebbe
00000040: 86f4 b7be 1367 a3be ed25 9e3f 1b77 1ebd
00000050: ce0b 27bc 4d55 183e 29cd b43e 2c6e 16bf
00000060: b652 34bf e2d2 0cbe 85db a5be a28c f2bd
00000070: 3a86 03bd 99f0 31bc ad1b 12bf 71d9 a2bd
00000080: b116 10be 1aaa febe 66df 2abf ddb8 95bd
00000090: 10e4 febe cf4f 9f3f b96d ccbf b2fb a93e
000000a0: fd3a 28be ab7a 963c ca17 103f 5a29 4cbe
000000b0: 234f 42be 36b3 06be 2196 93bd 12fb 47be
000000c0: f4dd 373f aed2 28be 554e 25bc 8c54 a2bf
000000d0: 7aec 0f3e 86a4 c2be 4e0b cabd e1e8 d73e
000000e0: 58a1 fb3d 7488 783f b043 fdbe de9b f23e
000000f0: bd91 51bf 6fff e7bd de80 373f 2910 5ebe
00000100: 3112 6b3f c925 a0be ea26 e8bd 1019 963e
00000110: 6b30 73be 2eb0 13bf 2139 d73e 5ea5 1cbe
00000120: a982 13be 83ec 2a3f 8913 8ebe 1073 093e
00000130: 37da 26bf 0ee5 c23e 9866 013f 8e25 1d3e
00000140: e6af ebbe c595 d3bd c7e0 9c3e 95ef 783e
00000150: d3fc 89be 3f43 aebe d01a cfbe 0579 c7be
00000160: 34b9 403f 5158 673d c5e6 c43d fa92 343f
00000170: 9661 dc3f b60b ab3e 9482 64be 76d9 923c
00000180: be7a 78bf a4c8 0bbe 84ed 0abe 6b0c 33bf
00000190: c97f f7be 0c9a 843f a4bb 2fbd b0a0 203f
000001a0: bcfc 0b3f 05a4 4dbf f38f bc3d 8fdd 64bf
000001b0: b801 1e3f 3f4f f3bd 1873 f13d 47c2 89bf

generator.fc1.bias f4 [16]
-0.26465952 0.3135545 -0.13393793 -0.14185075 0.22582465 0.052642144 0.08359659 0.20803785
0.00572579 0.10858747 -0.19329597 -0.010803252 -0.12207125 0.1294064 -0.31907326 0.032623358
00000000: 7481 87be 378a a03e 0627 09be 5341 11be
00000010: 943e 673e 4a9f 573d b034 ab3d e007 553e
00000020: 689f bb3b 1c63 de3d 61ef 45be 2000 31bc
00000030: 7e00 fabd 1c83 043e 925d a3be 12a0 053d

generator.fc2.weight f4 [8, 16]
0.72613806 0.26594758 0.015821755 0.21682075 -0.08521423 0.006670763 -0.32781863 0.23925506
-0.76357293 0.2516395 0.2264413 -0.2428541 -0.5401313 -0.3265284 -0.41909617 -0.17916553
-0.33629882 -0.03349354 0.028175911 0.17888092 -0.3092363 0.2650344 -0.25732854 -0.67641616
-0.35418573 0.33422688 0.35945177 -0.20900278 0.13780808 0.39722493 0.21051393 -0.62153643
0.18286705 0.44527823 -0.4498125 0.34305432 0.62078893 0.25562608 -0.27218187 0.043587748
0.7451074 0.05636217 -0.5115658 0.30885598 0.12269222 0.18664914 -0.436981 -0.0030712243
-0.51956564 -0.50986665 -0.11894983 -0.23636535 -0.5103747 -0.7952416 -0.30917037 0.48427022
-0.27301243 -0.29741126 0.4537407 -0.3814951 -0.52613455 -0.27644247 -0.12875457 0.18590352
-0.18633091 -0.03489948 -0.3359053 -0.68804985 -0.30141523 0.30295858 -0.089458935 -0.13953294
-0.088991836 0.70434475 -0.5219603 -0.5454455 0.11366777 0.12712634 0.055911075 0.4965737
-0.5564235 -0.25643343 0.48761323 0.46964553 -0.1510449 0.8044191 -0.5488933 -0.0031122146
-0.09192738 0.20856605 0.31926274 -0.06424463 -0.21056356 0.48414713 -0.38227016 -0.21402776
-1.3485987 -0.07108435 -0.5573029 0.54585004 -0.027382784 -0.0067368187 0.13174522 -0.22600664
-0.28841156 -0.20642626 0.39289394 0.12016061 0.3125034 0.6511048 -0.002573735 0.060157318
0.21610902 -0.36937693 0.3637976 0.06859905 -0.4958217 -0.3981275 -0.42080957 -0.07868635
0.4834125 0.72877824 0.35468826 0.11700337 -0.12677935 0.3888005 0.32735005 0.1800172
00000000: 2fe4 393f 482a 883e a09c 813c 4206 5e3e
00000010: cc84 aebd 6a96 da3b d8d7 a7be 47ff 743e
00000020: 8479 43bf e4d6 803e 3ae0 673e bfae 78be
00000030: 0b46 0abf bb2e a7be c693 d6be 2b77 37be
00000040: 5c2f acbe 8630 09bd 2bd1 e63c 8f2c 373e
00000050: 3854 9ebe 97b2 873e 91c0 83be 9c29 2dbf
00000060: d557 b5be c91f ab3e 100a b83e d304 56be
00000070: 901d 0d3e 1161 cb3e f790 573e 031d 1fbf
00000080: 8041 3b3e 82fb e33e d34d e6be d1a4 af3e
00000090: 06ec 1e3f 6ce1 823e 6c5b 8bbe 1189 323d
000000a0: 5cbf 3e3f 05dc 663d faf5 02bf 5f22 9e3e
000000b0: 0f46 fb3d f420 3f3e f9bb dfbe 9846 49bb
000000c0: 4102 05bf 9f86 02bf f89b f3bd c209 72be
000000d0: eba7 02bf f494 4bbf 944b 9ebe 44f2 f73e
000000e0: 49c8 8bbe 4a46 98be b350 e83e 5353 c3be
000000f0: c1b0 06bf de89 8dbe 3dd8 03be 7e5d 3e3e
00000100: 88cd 3ebe c2f2 0ebd c8fb abbe 0924 30bf
00000110: 1953 9abe 631d 9b3e 3f36 b7bd b9e1 0ebe
00000120: 5a41 b6bd f04f 343f 319f 05bf 51a2 0bbf
00000130: a6ca e83d 682d 023e 0303 653d e83e fe3e
00000140: c571 0ebf 3e4b 83be 71a8 f93e 6175 f03e
00000150: 84ab 1abe 69ee 4d3f 4584 0cbf 4cf6 4bbb
00000160: 6c44 bcbd 5792 553e 6876 a33e b092 83bd
00000170: f99d 57be 22e2 f73e eab8 c3be 182a 5bbe
00000180: e29e acbf ac94 91bd 67ab 0ebf d4bc 0b3f
00000190: dc51 e0bc 88c0 dcbb 38e8 063e 496e 67be
000001a0: aeaa 93be 6861 53be 6529 c93e c416 f63d
000001b0: 7200 a03e ceae 263f 1cac 28bb 8567 763d
000001c0: af4b 5d3e f91e bdbe ae43 ba3e a97d 8c3d
000001d0: 58dc fdbe 5ed7 cbbe 5a74 d7be 4f26 a1bd
000001e0: d881 f73e 3691 3a3f b399 b53e 769f ef3d
000001f0: 72d2 01be dc10 c73e 6d9a a73e 6e56 383e

generator.fc2.bias f4 [8]
-0.046790756 -0.16307315 -0.12672555 0.24125057 -0.16946709 -0.011284899 0.21232769 -0.19482964
00000000: aaa7 3fbd a6fc 26be 58c4 01be 640a 773e
00000010: c888 2dbe 4ce4 38bc 6e6c 593e 6c81 47be

generator.fc3.weight f4 [16, 8]
-0.052695647 0.22257821 -0.05843478 0.4005462 -0.88978726 -0.20414257 0.26290673 -0.34240347
-0.1517635 -0.26377004 0.03558627 -0.25121787 0.864201 -0.3715419 -0.9103139 0.029546704
0.08489468 -0.27750248 0.19787097 -1.1436895 -0.1191186 0.22391401 -0.32254627 0.5082973
-0.8906335 -0.005366974 -0.082043335 -0.2669361 0.012721177 0.3319975 -0.420529 0.117964745
-0.17993882 -0.17975728 -0.86303097 -0.30395767 0.63881844 -0.26354718 -0.4816935 0.25094163
0.8036579 -0.8274741 0.50526726 -0.1324269 -0.29754093 0.085587434 0.9522766 -0.072747715
0.080387294 -0.030752016 -0.6394253 0.9761948 0.7324222 -0.10819805 -0.40683177 -0.03209005
-0.10007757 0.23763545 -0.34903985 0.11112783 -0.031181272 0.26433867 -0.40098593 0.22817877
-0.59302217 -0.97175163 0.18380588 -0.65144765 0.14736931 -0.20170853 0.8759627 -0.37909085
-0.43982995 0.7781677 0.11960864 0.3061589 0.051816292 -0.17772655 0.1924833 0.015044751
-0.036293466 -0.37584627 -0.22086094 0.9091072 0.8345943 0.39166862 1.1210048 0.6104719
0.26891494 -0.3482207 0.069318935 -0.9795312 0.14531127 -0.5747151 1.2204726 0.17757812
-0.38370714 1.0179162 0.049129937 -0.50800794 1.2067593 -0.6362726 -0.571201 -0.4400279
-0.2702709 0.34128442 -0.31717104 0.807614 -0.11186088 -0.80628794 -0.34329787 0.4167537
0.054888323 0.044917293 -0.6679507 -0.15147445 -0.0238153 1.1412137 -0.20529549 0.29225394
-0.40458277 0.4527053 -0.1617948 -0.6378943 0.011083588 -0.9976909 0.693225 0.056965284
00000000: 64d7 57bd 8beb 633e 4f59 6fbd 6414 cd3e
00000010: 19c9 63bf c00a 51be b69b 863e 824f afbe
00000020: e467 1bbe de0c 87be e9c2 113d a19f 80be
00000030: 473c 5d3f bd3a bebe 550a 69bf ee0b f23c
00000040: 43dd ad3d ce14 8ebe b09e 4a3e 6b64 92bf
00000050: 74f4 f3bd b749 653e c924 a5be c61f 023f
00000060: 8f00 64bf 71dd afbb 5606 a8bd d9ab 88be
00000070: 7c6c 503c 94fb a93e 944f d7be 8097 f13d
00000080: e241 38be 4b12 38be 99ef 5cbf 57a0 9bbe
00000090: 9b89 233f a8ef 86be 88a0 f6be 6c7b 803e
000000a0: 86bc 4d3f 58d5 53bf 3259 013f eb9a 07be
000000b0: 4957 98be 7748 af3d 66c8 733f c1fc 94bd
000000c0: 18a2 a43d a7eb fbbc 60b1 23bf e7e7 793f
000000d0: 0580 3b3f f096 ddbd 414c d0be db70 03bd
000000e0: 78f5 ccbd b556 733e 5ab5 b2be fd96 e33d
000000f0: de6f ffbc 6657 873e 074e cdbe b2a7 693e
00000100: 4dd0 17bf b7c4 78bf 9c37 3c3e 46c5 26bf
00000110: fbe7 163e ae8c 4ebe 173f 603f 3218 c2be
00000120: 6431 e1be 0036 473f 60f5 f43d dcc0 9c3e
00000130: 523d 543d f3fd 35be 581a 453e 427e 763c
00000140: 75a8 14bd ec6e c0be 5f29 62be 40bb 683f
00000150: f9a7 553f ca88 c83e 167d 8f3f e347 1c3f
00000160: 38af 893e fc49 b2be 16f7 8d3d 8fc2 7abf
00000170: 7acc 143e 8720 13bf 7238 9c3f 0ad7 353e
00000180: 4375 c4be 144b 823f 793c 493d cf0c 02bf
00000190: 1777 9a3f c3e2 22bf 3b3a 12bf 564b e1be
000001a0: f360 8abe d5bc ae3e 3e64 a2be cbbf 4e3f
000001b0: 5117 e5bd e368 4ebf bdc4 afbe be60 d53e
000001c0: 94d2 603d 32fb 373d d1fe 2abf 1e1c 1bbe
000001d0: 4e18 c3bc 4a13 923f fb38 52be 4fa2 953e
000001e0: 7925 cfbe fdc8 e73e 89ad 25be 0a4d 23bf
000001f0: f097 353c ac68 7fbf 3277 313f 6e54 693d

generator.fc3.bias f4 [16]
0.3109208 0.016582776 0.29457662 0.24944665 0.13052738 0.36082086 -0.00747462 0.19536406
0.31904235 -0.32690993 0.0931434 0.2379815 0.0139531605 -0.2881332 0.22992599 -0.12525208
00000000: 0331 9f3e 9ad8 873c bfd2 963e f16e 7f3e
00000010: f8a8 053e 83bd b83e a8ed f4bb 840d 483e
00000020: 8559 a33e bd60 a7be f8c1 be3d 6cb1 733e
00000030: cc9b 643c 3286 93be b871 6b3e 1542 00be

generator.fc4.weight f4 [7, 16]
0.36725715 0.085498296 -0.08039962 -0.51828504 -0.2318748 -0.117549814 -0.15069923 -0.21369559
0.043562885 0.5693319 -0.33354416 -0.31203 0.4031858 0.022564908 -0.018394804 0.017963953
0.48083413 -0.32195637 -0.054535475 -0.30032796 0.08097685 -0.42366582 -0.10959409 -0.56289786
0.18230267 0.24459152 -0.48364997 0.48196456 -0.14688668 0.29985905 0.8347283 -0.63346535
-0.21647413 0.3462625 -0.07810611 0.090051994 0.46661046 0.11021519 0.07870948 0.020006234
-0.34140483 0.47869182 0.1664438 0.14133301 0.18729843 -0.58804196 -0.4530087 0.3258802
0.019114597 0.16178049 0.42672384 0.5765523 0.18119693 -0.12600388 -0.35861257 -0.16641034
0.2775 -0.53286046 -0.3227166 -0.10365802 -0.2811896 -0.15426873 0.13077383 0.19236572
-0.051964752 -0.07374864 -0.13937262 -0.4146744 -0.33902752 -0.6782065 0.21071757 0.44608167
0.2676496 -0.09074049 0.50679636 -0.4904069 -0.50165445 -0.43902025 0.020360453 -0.15399331
-0.25451285 -0.22816376 -0.30598277 0.33146444 -0.12013711 0.064361736 0.18576714 0.4647772
-0.13635838 -0.27705157 0.24432963 0.1775581 0.5087809 0.2382205 0.42259145 -0.12623876
-0.09988472 -0.40121272 -0.37169543 0.09418884 0.23014788 0.5630112 0.8094596 0.44180697
-0.027379364 0.27189943 -0.08895949 -0.44412085 -0.14566584 -0.12275611 0.09097284 0.4497321
00000000: 2109 bc3e bb19 af3d 8ea8 a4bd 54ae 04bf
00000010: 9670 6dbe f5bd f0bd e650 1abe 04d3 5abe
00000020: ff6e 323d bcbf 113f 4dc6 aabe 65c2 9fbe
00000030: 5f6e ce3e 0bda b83c b3b0 96bc 2429 933c
00000040: e42f f63e 77d7 a4be 9760 5fbd 96c4 99be
00000050: 31d7 a53d baea d8be de72 e0bd 131a 10bf
00000060: 8dad 3a3e 3376 7a3e f8a0 f7be 0fc4 f63e
00000070: 7669 16be 2087 993e c1b0 553f c92a 22bf
00000080: 65ab 5dbe 5249 b13e 19f6 9fbd 2e6d b83d
00000090: 91e7 ee3e 80b8 e13d 7032 a13d 1de4 a33c
000000a0: 9dcc aebe 1817 f53e 3e70 2a3e 9ab9 103e
000000b0: 29cb 3f3e eb89 16bf c2f0 e7be c5d9 a63e
000000c0: 3796 9c3c c9a9 253e 8c7b da3e ee98 133f
000000d0: b08b 393e 2907 01be 119c b7be 7967 2abe
000000e0: 7b14 8e3e 8b69 08bf 1c3b a5be a84a d4bd
000000f0: 15f8 8fbe 9ff8 1dbe 93e9 053e 85fb 443e
00000100: fed8 54bd 8709 97bd b2b7 0ebe 3450 d4be
00000110: 0495 adbe f19e 2dbf 59c6 573e d164 e43e
00000120: 5e09 893e 26d6 b9bd 68bd 013f 9d16 fbbe
00000130: 6d6c 00bf 43c7 e0be f7ca a63c 6cb0 1dbe
00000140: 824f 82be c3a3 69be c6a9 9cbe b5b5 a93e
00000150: 720a f6bd 16d0 833d be39 3e3e 47f7 ed3e
00000160: 88a1 0bbe b4d9 8dbe 8c31 7a3e cad1 353e
00000170: 773f 023f 13f0 733e e85d d83e bc44 01be
00000180: 5c90 ccbd c16b cdbe dd4e bebe 14e6 c03d
00000190: e3ab 6b3e 8121 103f bf38 4f3f 8634 e23e
000001a0: b04a e0bc 6736 8b3e 6530 b6bd cf63 e3be
000001b0: 6d29 15be 8e67 fbbd f84f ba3d 4943 e63e

generator.fc4.bias f4 [7]
-0.19159296 -0.027880054 -0.05189448 -0.22066578 -0.05198072 -0.19285825 0.057951562
00000000: f230 44be b664 e4bc 4e8f 54bd 36f6 61be
00000010: bce9 54bd a27c 45be 9e5e 6d3d

generator.layer_norm_hidden_0.weight f4 [16]
0.9900001 0.9900001 0.99600005 0.99600005 1.0100005 1.0100005 0.9900001 1.0100005
0.9900001 0.9900001 1.0100005 0.9900001 1.0 0.9900001 0.9900001 1.0
00000000: a670 7d3f a670 7d3f dcf9 7e3f dcf9 7e3f
00000010: b247 813f b247 813f a670 7d3f b247 813f
00000020: a670 7d3f a670 7d3f b247 813f a670 7d3f
00000030: 0000 803f a670 7d3f a670 7d3f 0000 803f

generator.layer_norm_hidden_0.bias f4 [16]
-0.010000001 -0.0060000005 -0.010000001 -0.010000001 -0.010000001 -0.010000001 0.010000001 0.010000001
-0.010000001 -0.008 0.010000001 -0.010000001 0.004 -0.010000001 -0.008 -0.010000001
00000000: 0bd7 23bc a79b c4bb 0bd7 23bc 0bd7 23bc
00000010: 0bd7 23bc 0bd7 23bc 0bd7 233c 0bd7 233c
00000020: 0bd7 23bc 6f12 03bc 0bd7 233c 0bd7 23bc
00000030: 6f12 833b 0bd7 23bc 6f12 03bc 0bd7 23bc

generator.layer_norm_hidden_1.weight f4 [8]
0.9900001 1.0100005 1.0100005 0.9900001 0.9940001 0.9900001 1.0100005 1.0080004
00000000: a670 7d3f b247 813f b247 813f a670 7d3f
00000010: ca76 7e3f a670 7d3f b247 813f 2806 813f

generator.layer_norm_hidden_1.bias f4 [8]
0.010000001 0.010000001 0.010000001 0.010000001 -0.010000001 -0.010000001 0.010000001 -0.010000001
00000000: 0bd7 233c 0bd7 233c 0bd7 233c 0bd7 233c
00000010: 0bd7 23bc 0bd7 23bc 0bd7 233c 0bd7 23bc

discriminator.fc1.weight f4 [8, 7]
0.61472005 -0.8148515 -0.26994342 0.22029544 -0.8077388 -0.103792354 0.26884076 -0.26142362
0.7636867 -0.12014815 0.38803646 0.31444457 0.42658862 -0.6568799 -0.8591696 -0.72699225
0.4855534 0.044800345 0.5689249 0.2764762 0.34700325 -1.1383746 0.46635875 1.62919
-0.15640832 -1.0496625 -0.18661506 -0.6184319 0.29100063 0.014184621 0.88225496 0.4742945
0.916483 -0.6673788 0.74481016 -0.38951084 0.28864634 -0.4816157 -0.05626739 0.009807309
0.43521407 -0.7555295 -0.2591817 0.4769991 0.3457624 0.43672648 0.71991473 -0.1431501
0.4594921 0.3283703 -1.6669598 0.41013646 0.6999202 0.17220426 -1.0378011 -0.5938075
00000000: 4b5e 1d3f 1c9a 50bf 0636 8abe 2195 613e
00000010: f8c7 4ebf 1691 d4bd 7fa5 893e 51d9 85be
00000020: f980 433f 3c10 f6bd b7ac c63e e1fe a03e
00000030: d369 da3e 4829 28bf 8af2 5bbf 2a1c 3abf
00000040: 759a f83e 9180 373d 10a5 113f 4a8e 8d3e
00000050: 69aa b13e 42b6 91bf 93c6 ee3e 4c89 d03f
00000060: 8129 20be 575b 86bf 0518 3fbe 8e51 1ebf
00000070: 09fe 943e 9d66 683c 76db 613f bbd6 f23e
00000080: a19e 6a3f 56d9 2abf e1ab 3e3f f76d c7be
00000090: 74c9 933e 5596 f6be a278 66bd d6ae 203c
000000a0: 61d4 de3e 626a 41bf 77b3 84be 3a39 f43e
000000b0: c507 b13e 9d9a df3e 554c 383f f195 12be
000000c0: 8c42 eb3e 2720 a83e f05e d5bf 68fd d13e
000000d0: f82d 333f 5056 303e abd6 84bf c503 18bf

discriminator.fc1.bias f4 [8]
0.20316501 -0.043996073 0.29158026 -0.3144439 0.005807651 0.19534896 -0.040389523 0.2070181
00000000: 7d0a 503e 3a35 34bd 024a 953e cafe a0be
00000010: 1c4e be3b 8f09 483e 7c6f 25bd 8efc 533e

discriminator.fc2.weight f4 [1, 8]
0.8773647 -0.5278078 -0.4951656 -0.08678087 0.59266126 0.38938877 0.16753642 0.052744955
00000000: f99a 603f 691e 07bf 5886 fdbe 2bba b1bd
00000010: a6b8 173f f75d c73e ab8e 2b3e 180b 583d

discriminator.layer_norm_hidden_0.weight f4 [8]
0.9903825 0.99076945 0.99055415 1.0092021 1.0052587 1.0063916 1.0087262 0.992373
00000000: b589 7d3f 11a3 7d3f f594 7d3f 892d 813f
00000010: 51ac 803f 71d1 803f f11d 813f 280c 7e3f

discriminator.layer_norm_hidden_0.bias f4 [8]
0.0097167455 -0.009713798 -0.009713403 -0.009769438 0.009724375 0.009729575 0.009744635 0.009658428
00000000: fc32 1f3c 9f26 1fbc f724 1fbc fe0f 20bc
00000010: fc52 1f3c cc68 1f3c f6a7 1f3c 623e 1e3c

exp_avg f4 [16, 7]
0.028786208 0.028589554 -2.0282382e-18 0.028584087 0.028016053 0.028650953 0.0020858215 0.015849516
0.015853591 1.8634533e-18 0.01577079 0.015596997 0.015886294 0.0044267336 -0.03490995 -0.035064016
3.4601317e-19 -0.035013482 -0.035219774 -0.03504438 -0.0024311165 0.0067020166 0.0067386935 2.3541579e-18
0.0066861464 0.006695937 0.0067431573 0.0036552402 0.022607978 0.022590553 6.0626946e-18 0.022338705
0.021914368 0.022674507 0.013205437 -0.017337732 -0.01737057 -4.774256e-18 -0.017223738 -0.017038334
-0.017408276 -0.008381276 -0.0012461749 -0.0012247136 9.072328e-19 -0.0011957779 -0.0011137981 -0.001237778
-0.0015965285 0.0041666846 0.0041906284 2.1155595e-18 0.004268682 0.0043701422 0.004166112 -0.0039344477
0.04147007 0.041633975 -5.406704e-18 0.041673783 0.041877028 0.04159446 -0.002243129 0.0155449165
0.01556309 -6.057942e-18 0.015727075 0.015859788 0.01551693 -0.008206404 -0.07535452 -0.07557365
8.674536e-18 -0.07574599 -0.07612825 -0.07548976 0.0078042517 0.013326947 0.013406767 3.158518e-20
0.013409692 0.013526629 0.01339168 -0.00033788406 0.0021665513 0.0021823726 1.4272826e-19 0.0021190038
0.0020815805 0.002195391 0.0029958603 -0.0073076347 -0.0072491015 -6.666875e-19 -0.007247992 -0.007006115
-0.0072752163 -0.00038898917 -0.029955307 -0.030081458 2.320307e-18 -0.030166982 -0.030388784 -0.03003831
0.004330494 0.023895051 0.024055334 -3.2819038e-18 0.02411451 0.024399022 0.024004783 -0.004186119
00000000: 0ed1 eb3c a434 ea3c 56a8 15a2 2d29 ea3c
00000010: ec81 e53c 67b5 ea3c 47b2 083b d8d6 813c
00000020: 64df 813c a37f 0922 be31 813c 8c8a 7f3c
00000030: f923 823c 220e 913b bcfd 0ebd 499f 0fbd
00000040: 0840 cc20 4c6a 0fbd 9c42 10bd b28a 0fbd
00000050: 5e53 1fbb 979c db3b 42d0 dc3b c9b4 2d22
00000060: 7617 db3b 9769 db3b b4f5 dc3b c18c 6f3b
00000070: 5e34 b93c d30f b93c 88ac df22 a9ff b63c
00000080: c385 b33c e3bf b93c 9e5b 583c dc07 8ebc
00000090: ba4c 8ebc 9323 b0a2 cc18 8dbc fa93 8bbc
000000a0: cd9b 8ebc 9f51 09bc b156 a3ba 9286 a0ba
000000b0: 49e2 8521 a6bb 9cba ddfc 91ba f03c a2ba
000000c0: 9b42 d1ba af88 883b 8a51 893b ca19 1c22
000000d0: 4de0 8b3b 6933 8f3b e183 883b 8aec 80bb
000000e0: 85dc 293d 6388 2a3d e078 c7a2 21b2 2a3d
000000f0: 3f87 2b3d f45e 2a3d 7601 13bb 1bb0 7e3c
00000100: 55fc 7e3c a57f dfa2 11d6 803c 63ec 813c
00000110: b93a 7e3c 2774 06bc 7853 9abd 5cc6 9abd
00000120: 5704 2023 b720 9bbd 21e9 9bbd 609a 9abd
00000130: cfba ff3b 4459 5a3c 0ea8 5b3c 2428 151f
00000140: 53b4 5b3c cb9e 5d3c c768 5b3c 0826 b1b9
00000150: b3fc 0d3b 2306 0f3b f880 2820 fcde 0a3b
00000160: 206b 083b 8de0 0f3b 3256 443b e274 efbb
00000170: df89 edbb 7cc5 44a1 9080 edbb 8d93 e5bb
00000180: f064 eebb 3ef1 cbb9 d564 f5bc 646d f6bc
00000190: 5c35 2b22 bf20 f7bc e6f1 f8bc e712 f6bc
000001a0: d1e6 8d3b 8ebf c33c b10f c53c 6929 72a2
000001b0: cb8b c53c 75e0 c73c aea5 c43c b62b 89bb

exp_avg f4 [16]
0.018268745 -0.016784493 -0.0031166095 -0.02120437 -0.0546079 0.04300268 -0.008171626 -0.019055264
0.048699263 0.05456509 -0.07813328 -0.00028449425 -0.0012855816 0.006004987 -0.020899469 0.029560763
00000000: 56a8 953c a27f 89bc 0840 4cbb c9b4 adbc
00000010: 89ac 5fbd 9423 303d 49e2 05bc c919 9cbc
00000020: e178 473d a57f 5f3d 5704 a0bd 2c28 95b9
00000030: f680 a8ba 7bc5 c43b 5d35 abbc 6a29 f23c

exp_avg f4 [8, 16]
0.013766491 0.01829631 0.0116284685 -0.008587532 -0.030636702 -0.04914411 0.0011925586 -0.014071509
0.009565218 0.0069707134 0.011662242 0.010076163 0.0017109273 0.015597764 0.012826154 -0.0113262925
-0.0071560265 -0.07967411 -0.012212183 0.034754857 0.030320955 0.058479074 0.025884982 0.030268911
-0.008121722 -0.029118996 -0.01577843 -0.012050334 0.026656331 -0.05757368 0.0022217508 0.01532544
0.021124808 0.048345707 0.01665486 -0.02144843 -0.049222257 -0.07105408 -0.004170103 -0.02460955
0.017374197 0.013862562 0.016627308 0.016354024 -0.0073690615 0.034635812 0.014749462 -0.022810169
-0.00674751 -0.07227508 -0.006487246 0.031402864 0.023853151 0.042931974 0.019371482 0.022217104
-0.009870547 -0.021905823 -0.008453034 -0.0090304855 0.026096066 -0.047735073 0.0030675759 0.01569073
-0.0014343003 0.037866104 -0.0002875461 -0.016336257 -0.0053702057 -0.0154674025 -0.00980034 -0.008699688
0.0027499266 0.012925417 0.0011106591 0.0022599471 -0.014672421 0.024053862 -0.006356733 -0.0035528403
-0.0207493 -0.012528644 -0.013946008 0.0063492237 0.040430646 0.057877723 -0.008513066 0.01354015
-0.014501633 -0.0024437897 -0.012196482 -0.012501099 -0.0068405177 -0.010329663 -0.019795837 0.016302396
0.012678593 0.014854713 0.011184842 -0.009216357 -0.023942534 -0.042452853 -0.0005039827 -0.01205729
0.008273642 0.0062272525 0.010424742 0.008931721 0.0006477248 0.012603372 0.0110407965 -0.0089995125
-0.00010989737 0.042989194 0.00068804173 -0.018699586 -0.0077261264 -0.018333234 -0.011914059 -0.0108328285
0.0036360319 0.013891977 0.0022862118 0.0031348004 -0.01701175 0.027653495 -0.0050784135 -0.005924856
00000000: d98c 613c 25e2 953c 5585 3e3c b8b2 0cbc
00000010: d2f9 fabc 564b 49bd a04f 9c3a 308c 66bc
00000020: 6fb7 1c3c 956a e43b fd12 3f3c 7e16 253c
00000030: 3241 e03a c48d 7f3c ca24 523c ea91 39bc
00000040: 1a7d eabb 2e2c a3bd 9c15 48bc 1c5b 0e3d
00000050: a763 f83c c187 6f3d be0c d43c 82f6 f73c
00000060: f910 05bc f68a eebc c441 81bc c46e 45bc
00000070: 615e da3c 61d2 6bbd cb9a 113b 8e17 7b3c
00000080: ef0d ad3c 2606 463d c66f 883c 9eb4 afbc
00000090: 479d 49bd cd84 91bd 5ca5 88bb f899 c9bc
000000a0: 5554 8e3c cd1f 633c fe35 883c e0f8 853c
000000b0: 2b78 f1bb 48de 0d3d baa7 713c 64dc babc
000000c0: 371a ddbb f504 94bd f792 d4bb 4aa0 003d
000000d0: af67 c33c 70d9 2f3d f1b0 9e3c a500 b63c
000000e0: 13b8 21bc d773 b3bc 987e 0abc 9af4 13bc
000000f0: 6bc7 d53c da85 43bd 6209 493b d989 803c
00000100: 22ff bbba 7d19 1b3d c9c1 96b9 9dd3 85bc
00000110: 8df8 afbb fd6a 7dbc 9b91 20bc 2389 0ebc
00000120: 1d38 343b 21c5 533c 8993 913a 9f1b 143b
00000130: 9864 70bc 9b0c c53c 244c d0bb c5d6 68bb
00000140: 70fa a9bc f144 4dbc cc7d 64bc 260d d03b
00000150: 9b9a 253d 3111 6d3d 637a 0bbc 81d7 5d3c
00000160: 4298 6dbc fd27 20bb c1d3 47bc 69d1 4cbc
00000170: 6c26 e0bb bf3d 29bc e12a a2bc 9a8c 853c
00000180: e0b9 4f3c 2f61 733c a140 373c 3400 17bc
00000190: 2223 c4bc 0be3 2dbd b51d 04ba f18b 45bc
000001a0: 2b8e 073c fb0d cc3b 89cc 2a3c 5a56 123c
000001b0: 13cc 293a 607e 4e3c 75e4 343c b172 13bc
000001c0: b478 e6b8 7015 303d b35d 343a e02f 99bc
000001d0: 722b fdbb 942f 96bc 2f33 43bc 2d7c 31bc
000001e0: 7e4a 6e3b 2d9b 633c 45d4 153b 3971 4d3b
000001f0: 3a5c 8bbc 9589 e23c d268 a6bb 4b25 c2bb

exp_avg f4 [8]
-0.013163485 -0.029207222 -0.0030883902 -0.03322715 0.020221286 0.022632815 -0.010773084 0.023541464
00000000: a8ab 57bc fc43 efbc 9766 4abb 3119 08bd
00000010: 1ca7 a53c 7468 b93c 9781 30bc 07da c03c

exp_avg f4 [16, 8]
-0.0023004727 -0.006354686 0.0068742908 -0.0033149568 0.00034910123 0.014284509 0.004155887 -0.013748439
0.0011096798 0.0047362424 -0.00021309529 -0.006623716 0.0013793961 -0.011062488 -0.0039231614 0.014772104
-0.00077710405 -0.0023579274 0.007624879 -0.00557413 0.002208895 -0.00020490808 -0.0009449858 0.00017184818
-0.00047905315 0.004383838 0.0013972743 -0.016221033 0.0009213506 -0.0035180897 -0.005172491 0.019022705
-0.00014296746 0.0015244331 0.00023160229 -0.0048270086 0.0011900793 -0.0034262054 -0.00085705763 0.006434331
0.007867679 0.021969972 -0.029184366 0.01750371 -0.0058645993 -0.03979489 -0.009745463 0.03713137
-0.0005917228 -0.0014741374 -0.0011214343 0.0018631701 0.00041955494 0.003360447 0.0024910525 -0.005032387
-0.0021918688 -0.007472491 0.0033307266 0.0062574525 0.0031300688 0.008813246 0.006924736 -0.0189725
0.000157926 -0.00017308486 -0.00088314584 0.00079036725 -0.004019227 0.0075920695 -0.00072365697 -0.0027973296
-2.9890934e-05 -0.0028942921 0.00080410176 0.005209795 0.0016096213 0.0007047245 0.0026763603 -0.008258499
-0.0005929809 -0.0012577897 0.0022151289 -0.0023516943 0.0049385955 -0.0047552837 0.000666348 0.0012137069
0.0004653137 0.001961936 0.005729754 -0.013810284 0.0006681288 -0.0034662443 -0.0060180016 0.014772508
0.0008852436 -0.0005605999 -0.0006472984 0.0078888405 -0.0027788442 0.00036625421 0.00073950185 -0.006049725
-0.0015240764 -0.0053669442 0.004200463 0.0028127208 0.00047456843 0.0095192 0.004017948 -0.014215781
-0.007095732 -0.018982233 0.017361006 -0.006661555 0.003090728 0.03849165 0.013291889 -0.03958613
0.00036101276 -0.0008186157 -0.00037208307 0.0037548938 -0.00044179833 0.001557223 0.00011814178 -0.0042654253
00000000: 87c3 16bb f83a d0bb bb41 e13b bf3f 59bb
00000010: 9307 b739 9309 6a3c 1b2e 883b 2241 61bc
00000020: ad72 913a 7b32 9b3b 5572 5fb9 c20b d9bb
00000030: dacc b43a 703f 35bc dd8d 80bb b206 723c
00000040: 92b6 4bba 7587 1abb 1fda f93b 31a7 b6bb
00000050: 1cc3 103b 98dc 56b9 ecb8 77ba 2532 3439
00000060: 6d29 fbb9 4ca6 8f3b bf24 b73a f9e1 84bc
00000070: cb86 713a c08f 66bb 007e a9bb 81d5 9b3c
00000080: 89e9 15b9 7dcf c73a 44da 7239 e22b 9ebb
00000090: 6ffc 9b3a 308a 60bb 2aac 60ba 15d7 d23b
000000a0: 70e7 003c 5ffa b33c 0d14 efbc f163 8f3c
000000b0: d32b c0bb f7ff 22bd 6fab 1fbc 1017 183d
000000c0: d81d 1bba d837 c1ba 17fd 92ba 9d35 f43a
000000d0: b6f7 db39 f23a 5c3b ed40 233b b9e6 a4bb
000000e0: 75a5 0fbb ccdb f4bb 5248 5a3b 510b cd3b
000000f0: d721 4d3b 6f65 103c e5e8 e23b 376c 9bbc
00000100: f098 2539 1d7e 35b9 ea82 67ba a630 4f3a
00000110: b8b3 83bb e5c6 f83b ccb3 3dba 6753 37bb
00000120: 4bbe fab7 2aae 3dbb 5bca 523a eeb6 aa3b
00000130: eef9 d23a 43bd 383a e065 2f3b a84e 07bc
00000140: 4672 1bba 6bdc a4ba b22b 113b e21e 1abb
00000150: f1d3 a13b 36d2 9bbb dbad 2e3a 3f15 9f3a
00000160: 59f5 f339 d393 003b a9c0 bb3b 8844 62bc
00000170: 5d25 2f3a ee29 63bb a832 c5bb 6408 723c
00000180: b10f 683a 39f5 12ba 76af 29ba 3240 013c
00000190: 451d 36bb cf05 c039 21db 413a c63c c6bb
000001a0: 85c3 c7ba 31dd afbb 0aa4 893b a055 383b
000001b0: 7fcf f839 6bf6 1b3c fea8 833b 4fe9 68bc
000001c0: 5083 e8bb a180 9bbc ab38 8e3c 2c49 dabb
000001d0: d08d 4a3b 6ca9 1d3d 39c6 593c 1125 22bd
000001e0: 5046 bd39 5f98 56ba 2514 c3b9 aa14 763b
000001f0: 2ba1 e7b9 bc1b cc3a e3c2 f738 fbc4 8bbb

exp_avg f4 [16]
0.0032589962 0.009695703 0.010595696 0.023052301 0.007051219 -0.025880039 -0.0042861965 -0.009766067
-0.0012662057 -0.008958936 0.0038915963 0.022528702 -0.010769453 -0.0037955178 0.0073154285 -0.005764915
00000000: e294 553b bada 1e3c 9299 2d3c 2ed8 bc3c
00000010: ea0d e73b 6002 d4bc 3973 8cbb db01 20bc
00000020: d0f6 a5ba 80c8 12bc 270a 7f3b 1d8e b83c
00000030: 5c72 30bc 39be 78bb 43b6 ef3b 9de7 bcbb

exp_avg f4 [7, 16]
0.021108868 -0.0011395415 -0.03148906 0.00019844045 -0.013773205 0.0023037158 0.02376283 -0.00018091238
-0.012372894 0.021612907 0.015626643 -0.012137874 -0.0023866394 -0.0054082344 0.00393095 -0.008631896
-0.0028465206 -0.010516698 0.006836021 0.010036618 -0.014274846 0.02733233 -0.009274432 -0.007630885
0.038837053 -0.008375921 -0.0013091336 0.0010364818 -0.012055163 -0.022138385 0.019337604 -0.015547833
-0.007996484 0.0062999376 0.0044256123 -0.0056991037 0.0076372577 -0.008093176 -0.0053735957 -0.0016899522
-0.0026577946 -0.005120112 -0.0022668187 0.010107257 0.00990988 0.0035705466 -0.013018715 0.009780111
-0.0082904585 -0.007887031 0.017548883 0.011502054 -0.011847289 0.02868669 -0.016299615 -0.009374387
0.041387126 -0.014155665 -0.0074478746 0.003484813 -0.009615169 -0.024388446 0.019975303 -0.013979362
0.0026697994 -0.0077725397 -0.007281885 0.0068566706 -0.016573962 0.023903027 -6.321945e-06 -0.0076636886
0.033531077 -0.00090021745 0.0071299486 0.00022611259 -0.00936253 -0.021894338 0.012903363 -0.015932802
0.002486588 -0.0055647767 -0.0059825536 0.004631868 -0.0103300745 0.014086261 0.0010394787 -0.004504203
0.019441351 0.0004697975 0.004926063 -0.0009238863 -0.005349581 -0.013903528 0.009399287 -0.009988117
0.013001901 -0.010422422 -0.020036224 0.0034621311 -0.0071911793 0.00027020217 0.01552794 0.0028308907
-0.004011668 0.0137818325 0.012783675 -0.009242056 -0.009293944 -0.0039968425 0.010059056 -0.006927822
00000000: 81ec ac3c ab5c 95ba acfa 00bd 7414 5039
00000010: 02a9 61bc f0f9 163b 44aa c23c 4cb3 3db9
00000020: aeb7 4abc 8d0d b13c 7203 803c efdd 46bc
00000030: 2a69 1cbb 8f37 b1bb 33cf 803b cc6c 0dbc
00000040: b18c 3abb 3a4e 2cbc b300 e03b a170 243c
00000050: 0be1 69bc 0de8 df3c caf3 17bc 810c fabb
00000060: 9a13 1f3d 293b 09bc 3c97 abba 8fda 873a
00000070: 0583 45bc 8f5b b5bc e569 9e3c 57bc 7ebc
00000080: af03 03bc b56f ce3b ba04 913b 8cbf babb
00000090: f641 fa3b 3e99 04bc fd14 b0bb 6381 ddba
000000a0: 652e 2ebb 9dc6 a7bb e88e 14bb e998 253c
000000b0: 0d5d 223c d5ff 693b 734c 55bc c23c 203c
000000c0: b4d4 07bc 9b38 01bc adc2 8f3c 1c73 3c3c
000000d0: 221b 42bc 5900 eb3c c586 85bc 0797 19bc
000000e0: 8c85 293d 2aed 67bc 4d0d f4bb 7661 643b
000000f0: f188 1dbc 47ca c7bc 3fa3 a33c b209 65bc
00000100: cdf7 2e3b cab0 febb e19c eebb ecad e03b
00000110: 1ec6 87bc 48d0 c33c 1821 d4b6 ae1f fbbb
00000120: e257 093d 92fc 6bba 58a2 e93b a318 6d39
00000130: 4c65 19bc c15b b3bc a168 533c 8285 82bc
00000140: 06f6 223b bb58 b6bb 4c09 c4bb edc6 973b
00000150: 793f 29bc 10ca 663c 1e3f 883a fe97 93bb
00000160: 7843 9f3c 274f f639 d06a a13b f630 72ba
00000170: 8a4b afbb a0cb 63bc 78ff 193c 33a5 23bc
00000180: ed05 553c cec2 2abc 0223 a4bc ece4 623b
00000190: fca3 ebbb eca9 8d39 e768 7e3c 7786 393b
000001a0: 4f74 83bb 32cd 613c 9f72 513c fe6b 17bc
000001b0: a045 18bc f2f7 82bb bdce 243c c802 e3bb

exp_avg f4 [7]
-0.029724877 0.012052865 0.006423594 0.019870294 0.0011204564 -0.00067843386 -0.019411435
00000000: 9681 f3bc 6179 453c 037d d23b 07c7 a23c
00000010: 47dc 923a edd8 31ba bb04 9fbc

exp_avg f4 [16]
0.021311969 0.063457966 0.0011817213 0.0006081702 -0.038997456 -0.016547723 0.015197161 -0.0068063024
0.038569864 0.03693677 -0.0129473945 0.019608848 -0.00015916648 0.012288907 0.024581105 0.00046110165
00000000: 7096 ae3c 40f6 813d fde3 9a3a 9c6d 1f3a
00000010: ccbb 1fbd 178f 87bc 83fd 783c 6707 dfbb
00000020: 6ffb 1d3d 034b 173d 4f21 54bc bca2 a03c
00000030: ede5 26b9 6957 493c 505e c93c 04c0 f139

exp_avg f4 [16]
0.015646746 0.0057645384 0.040677767 0.01214128 0.013866947 0.017463764 -0.022881273 -0.0144975055
0.043541305 0.00818817 -0.025546622 0.032608002 -0.005567011 0.01514161 0.01256433 0.011923963
00000000: 9b2d 803c 74e4 bc3b bb9d 263d 38ec 463c
00000010: 3132 633c 2b10 8f3c 8271 bbbc f286 6dbc
00000020: 5e58 323d ad27 063c 2647 d1bc f88f 053d
00000030: 796b b6bb 8414 783c 9fda 4d3c ba5c 433c

exp_avg f4 [8]
0.006725309 -0.027494987 -0.026810259 0.022912167 0.003771149 0.033460584 -0.016194778 -0.007245392
00000000: fb5f dc3b 2b3d e1bc 30a1 dbbc 4cb2 bb3c
00000010: 6225 773b f70d 093d e9aa 84bc c16a edbb

exp_avg f4 [8]
-0.024374528 -0.016293522 -0.016199926 -0.03972779 0.007271325 0.013834365 -0.012812462 0.020926598
00000000: 17ad c7bc fe79 85bc b5b5 84bc 9bb9 22bd
00000010: 4c44 ee3b 88a9 623c 5ceb 51bc 426e ab3c

exp_avg f4 [8, 7]
0.007839184 0.044368066 -0.05046488 0.17802975 -0.067385964 0.03167011 -0.0058748857 0.13291685
0.10183571 0.047912136 0.010554372 0.18777663 0.11129047 -0.004754045 -0.0139908185 -0.019864634
0.01591363 -0.07072731 0.028284978 -0.027687648 -0.04754027 0.0021010863 0.004446435 0.002616103
-0.031214945 0.034180526 -0.0017371859 0.0061615924 -0.10251561 -0.099097736 -0.011374585 -0.07346012
-0.124512754 -0.09687821 0.016462322 -0.04300239 -0.040553946 -0.0092337 -0.0063128676 -0.07884716
-0.040301647 0.024159838 -0.022011459 -0.022063639 -0.0033395884 -0.016530873 -0.027847294 -0.020396717
0.0018545145 0.008951469 0.010010501 0.006669649 -0.015541693 0.027431522 0.0073199244 0.01118317
00000000: ec6f 003c 4abb 353d 43b4 4ebd 6e4d 363e
00000010: a701 8abd 84b8 013d 1d82 c0bb 5b1b 083e
00000020: 3e8f d03d 843f 443d 3fec 2c3c 8448 403e
00000030: 42ec e33d d2c7 9bbb bf39 65bc 28bb a2bc
00000040: 4d5d 823c 7bd9 90bd e6b5 e73c 35d1 e2bc
00000050: 96b9 42bd 61b2 093b 66b3 913b ed72 2b3b
00000060: 7cb6 ffbc e100 0c3d 49b2 e3ba 2fe7 c93b
00000070: b4f3 d1bd c1f3 cabd 785c 3abc 4272 96bd
00000080: 8b00 ffbd 1568 c6bd fedb 863c 4623 30bd
00000090: e51b 26bd f248 17bc 2cdc cebb 9f7a a1bd
000000a0: 5713 25bd daea c53c 6051 b4bc cebe b4bc
000000b0: ffdc 5abb c16b 87bc 0220 e4bc 0417 a7bc
000000c0: 2e13 f33a 2fa9 123c 1603 243c 128d da3b
000000d0: 96a2 7ebc 12b8 e03c fadb ef3b 9d39 373c

exp_avg_sq f4 [8, 7]
5.3774464e-05 7.8295365e-05 0.00018106241 0.0007295331 0.00015396925 5.3556818e-05 2.0678755e-05 0.00042298934
0.0002915466 0.00011535637 4.629796e-05 0.0008167151 0.0003180131 1.2386912e-05 4.0098133e-05 3.6159545e-05
3.3705765e-05 0.00013155612 6.4153e-05 4.5376994e-05 5.6036322e-05 1.9314505e-06 2.4857318e-06 1.4905623e-06
2.4031238e-05 2.8616767e-05 2.5169552e-06 2.1527737e-06 0.00025512633 0.00024641101 7.014045e-06 0.000156592
0.00036331874 0.0002373223 7.3090982e-06 4.7566475e-05 5.260099e-05 1.0195892e-05 1.7591503e-05 0.00015353569
4.884754e-05 1.7216196e-05 1.1609554e-05 1.2428303e-05 6.308246e-07 8.990535e-06 1.797559e-05 1.0702338e-05
1.2492856e-07 2.5450265e-06 2.8411425e-06 1.6750726e-06 6.707679e-06 1.7543365e-05 2.2431404e-06 3.42345e-06
00000000: e48b 6138 8132 a438 92db 3d39 233e 3f3a
00000010: ce72 2139 32a2 6038 4a77 ad37 abc4 dd39
00000020: b9da 9839 7beb f138 0e30 4238 d318 563a
00000030: ffba a639 62d1 4f37 0b2f 2838 04aa 1738
00000040: 4a5f 0d38 54f2 0939 e189 8638 2d53 3e38
00000050: 8b08 6b38 119e 0136 8cd0 2636 550f c835
00000060: b196 c937 0a0e f037 f6e8 2836 5f78 1036
00000070: 7ac2 8539 ba30 8139 305a eb36 d832 2439
00000080: d17b be39 b8d9 7839 ad40 f536 1d82 4738
00000090: e29f 5c38 060f 2b37 7791 9337 6cfe 2039
000000a0: a6e1 4c38 806b 9037 a8c6 4237 2883 5037
000000b0: f055 2935 0ed6 1637 49ca 9637 318e 3337
000000c0: 1a24 0634 39cb 2a36 75aa 3e36 0ed3 e035
000000d0: 8612 e136 172a 9337 dc88 1636 6cbe 6536

exp_avg f4 [8]
-0.2586579 0.23299262 0.31431687 0.052410882 -0.17253524 -0.21382307 -0.019468917 0.0057956288
00000000: cf6e 84be 9e95 6e3e 24ee a03e cbac 563d
00000010: 14ad 30be 6ff4 5abe 477d 9fbc 42e9 bd3b

exp_avg_sq f4 [8]
0.0019849476 0.0014843973 0.0026993088 8.382444e-05 0.00080650684 0.0012509902 1.2164369e-05 3.0592053e-06
00000000: e515 023b 1c90 c23a e3e6 303b e7ca af38
00000010: c26b 533a 44f8 a33a 9115 4c37 bf4c 4d36

exp_avg f4 [1, 8]
0.20079911 -0.1876947 -0.07228572 0.20611157 -0.08669292 -0.013691494 -0.10230078 0.054147948
00000000: 489e 4d3e 0a33 40be 890a 94bd e90e 533e
00000010: 0f8c b1bd 4a52 60bc 1283 d1bd 3dca 5d3d

exp_avg_sq f4 [1, 8]
0.0010107593 0.0010898516 0.00012770439 0.0013755785 0.00027470727 0.00024008953 0.00033176213 0.00024340593
00000000: 747b 843a 5ad9 8e3a 63e8 0539 c14c b43a
00000010: 9606 9039 8bc0 7b39 5cf0 ad39 c83a 7f39

exp_avg f4 [8]
0.17870706 0.1008418 0.03668785 -0.016790757 -0.05053299 -0.004888151 -0.016563052 0.0031697087
00000000: fcfe 363e 2586 ce3d 0046 163d c58c 89bc
00000010: aefb 4ebd c82c a0bb 3daf 87bc e3ba 4f3b

exp_avg_sq f4 [8]
0.0007989191 0.00031421785 3.2812626e-05 8.972681e-06 9.430514e-05 3.5542744e-05 8.749634e-06 8.175972e-07
00000000: 8e6e 513a 9bbd a439 4aa0 0938 5f89 1637
00000010: b0c5 c538 bb13 1538 64cb 1237 da78 5b35

exp_avg f4 [8]
-0.16273871 0.0982208 0.09224255 0.015113923 -0.108590245 -0.071279034 -0.030048717 -0.010425447
00000000: faa4 26be fd27 c93d a9e9 bc3d 63a0 773c
00000010: 9064 debd befa 91bd ba28 f6bc 7ecf 2abc

exp_avg_sq f4 [8]
0.00077569706 0.00028301668 0.0002496792 6.4986043e-06 0.0003436715 0.00014780418 2.6041464e-05 3.2862495e-06
00000000: 2658 4b3a db61 9439 60e7 8239 960e da36
00000010: cf2e b439 e2fb 1a39 9e73 da37 5689 5c36
