saved/type_5_fold_3.ckpt (torch, 21266 bytes, 39 tensors)

generator.fc1.weight f4 [16, 7]
-0.50163627 0.029781645 -0.17636503 -0.1305544 -0.036434863 0.22223899 -0.5416599 -0.34916446
-0.69451404 -1.0570582 -0.0914336 0.8772743 -0.4655289 0.5254569 0.06261335 0.5867292
0.5770641 -0.28635475 0.20183347 -0.0800931 0.35261476 -0.26798767 0.23707916 -0.07516904
-0.75175416 -0.4246768 -0.6200842 -0.41281897 -0.7757104 0.172307 -0.5003745 -1.001471
-0.46195674 0.8236557 -0.9209786 -0.5890331 0.3751513 0.23762514 -0.010063814 0.019720843
-0.3753042 0.24422677 0.08426529 0.43391797 -0.80521727 -0.5062356 -0.9135119 -0.10738329
-0.58211136 -1.5030286 -0.0989334 -0.8939699 0.71599704 0.06976317 -0.65332115 -0.09559421
0.042014867 0.56328547 0.63515604 0.26982918 -0.8348482 1.2837212 1.1048839 -0.22920284
-0.40524516 -0.5406846 0.7731777 -0.22361231 0.030860094 -0.3136659 0.25037014 -0.0315723
-0.07096697 0.20959212 0.16629337 0.48971203 -0.027951643 -0.29452696 1.1959348 0.67103404
0.08180139 -1.1221552 -0.169826 0.010193029 -0.25823915 -0.72128403 -0.03825702 0.60656446
0.11661319 -0.67672276 -0.5979753 -0.030710332 -0.07478434 0.63920945 0.042097203 -0.005274674
-0.7434026 -0.34984043 -0.4148322 0.16444522 -0.28006917 0.060968794 0.7180754 0.12487508
-0.24107213 -0.2779558 1.2632432 0.72043556 -0.020401761 0.130723 -0.17575543 -0.9203886
00000000: 3c6b 00bf a3f8 f33c 0999 34be 0db0 05be
00000010: b93c 15bd 9e92 633e 39aa 0abf afc5 b2be
00000020: accb 31bf af4d 87bf 8a41 bbbd 0c95 603f
00000030: ce59 eebe 5884 063f 6e3b 803d e333 163f
00000040: 79ba 133f 179d 92be 6fad 4e3e da07 a4bd
00000050: ec89 b43e ae35 89be e1c4 723e 3af2 99bd
00000060: f672 40bf 3d6f d9be d7bd 1ebf 025d d3be
00000070: f594 46bf 3f71 303e 8b18 00bf 3430 80bf
00000080: 9885 ecbe 1adb 523f 41c5 6bbf e0ca 16bf
00000090: d513 c03e 0154 733e b2e2 24bc 9b8d a13c
000000a0: df27 c0be 9516 7a3e 4893 ac3d 7f2a de3e
000000b0: b822 4ebf a898 01bf eadb 69bf c5eb dbbd
000000c0: 4005 15bf 3e63 c0bf 989d cabd 36db 64bf
000000d0: 954b 373f fedf 8e3d 0e40 27bf e6c6 c3bd
000000e0: c817 2c3d 7a33 103f 9699 223f 0d27 8a3e
000000f0: 9db8 55bf fa50 a43f d66c 8d3f 26b4 6abe
00000100: 4b7c cfbe 4e6a 0abf f9ee 453f a0fa 64be
00000110: 4fce fc3c d198 a0be 8430 803e f551 01bd
00000120: 2157 91bd 519f 563e cf48 2a3e 89bb fa3e
00000130: d8fa e4bc 3dcc 96be 6414 993f e3c8 2b3f
00000140: 7d87 a73d c8a2 8fbf dee6 2dbe aa00 273c
00000150: ec37 84be 12a6 38bf 65b3 1cbd cf47 1b3f
00000160: e5d2 ee3d b43d 2dbf e914 19bf 3c94 fbbc
00000170: 8828 99bd 3ba3 233f 1e6e 2c3d 2cd7 acbb
00000180: a24f 3ebf 491e b3be e364 d4be 5464 283e
00000190: 3a65 8fbe 6aba 793d cad3 373f 82be ff3d
000001a0: 9ddb 76be 3950 8ebe f4b1 a13f 776e 383f
000001b0: 9821 a7bc 40dc 053e 3bf9 33be 969e 6bbf

generator.fc1.bias f4 [16]
0.3194894 -0.124440074 0.27455088 0.13151154 0.097482055 0.13542536 -0.2668121 -0.03766224
-0.3155046 0.27931795 -0.039070576 -0.1735096 -0.026156057 -0.33843783 -0.122583926 0.103604704
00000000: 1d94 a33e 70da febd ef91 8c3e f6aa 063e
00000010: aca4 c73d f2ac 0a3e 989b 88be b943 1abd
00000020: d289 a1be c302 8f3e 7808 20bd 80ac 31be
00000030: 3a45 d6bc b947 adbe 480d fbbd b42e d43d

generator.fc2.weight f4 [8, 16]
-0.4215584 0.50004345 -0.09390131 -0.2940549 0.3091872 -0.36983898 0.46849078 -0.5116303
-0.44166777 0.46786296 0.20178485 -0.9202135 0.43996927 0.3062961 -0.583007 -0.06697219
0.3884872 -0.05880441 0.3457095 -0.17898613 0.07758914 -0.30101007 -0.2982106 -0.3863715
0.59560376 0.048927717 -0.6099614 0.05979519 0.26320297 0.27215123 -0.8238035 -0.38084626
-0.1284147 0.15216255 0.22054836 -0.18066101 -0.042181242 0.98905563 0.10343898 -0.60331833
0.11630848 -0.16215993 0.37661526 -0.023289917 -0.105479635 0.5059214 -0.08643048 0.00928439
-0.22600612 0.20346093 -0.0035517518 -0.3381263 0.11031834 -0.0124157425 -0.22333218 0.0137461005
0.0072901323 -0.29035875 0.055132687 0.48630276 0.073696874 -0.053273134 0.7844786 -0.012301067
-0.25244448 -0.35315287 -0.470719 0.049881328 0.20873313 -0.018705342 0.046731174 -0.044357516
0.38124058 -0.36421275 -0.72347194 0.364377 0.10199716 -0.061409526 -0.58832335 -0.25446647
0.282718 0.08960316 0.26361227 0.09742186 -0.37012598 0.4494104 0.29165035 0.6420433
-0.4623096 0.3174699 0.36503044 0.0764644 -0.4662635 -0.15351447 -0.017936964 -0.0022602594
-0.8407065 0.61805487 -0.2811668 -0.89027977 -0.35393426 0.3730284 0.15567301 0.15023261
-0.45174715 -0.14011356 0.18558322 -0.13984652 0.53986377 -0.11255688 -0.2882681 -0.25571534
0.070719495 0.30055827 0.10460641 -0.060748346 0.012509039 0.63964206 0.138466 -0.3360423
-0.6047091 0.27194113 -0.113304324 0.40950054 -0.24633455 -0.26016495 -0.62953323 -0.46630046
00000000: 81d6 d7be d902 003f 544f c0bd 5d8e 96be
00000010: c94d 9e3e 895b bdbe 06de ef3e 34fa 02bf
00000020: 4722 e2be bc8b ef3e b0a0 4e3e 1d93 6bbf
00000030: a743 e13e d8d2 9c3e f23f 15bf b728 89bd
00000040: cbe7 c63e e5dc 70bd d600 b13e 2448 37be
00000050: 0ee7 9e3d fe1d 9abe 0faf 98be 7cd2 c5be
00000060: 7d79 183f 6e68 483d 6e26 1cbf cdeb 743d
00000070: 8ac2 863e 6857 8b3e c9e4 52bf 48fe c2be
00000080: 257f 03be 80d0 1b3e 6ed7 613e 33ff 38be
00000090: 3dc6 2cbd c032 7d3f d1d7 d33d 1273 1abf
000000a0: 2433 ee3d 410d 26be b7d3 c03e 7fca bebc
000000b0: b505 d8bd 1184 013f 7702 b1bd 8e1d 183c
000000c0: 266e 67be 1058 503e 82c4 68bb e41e adbe
000000d0: 95ee e13d 666b 4bbc 31b1 64be 5337 613c
000000e0: 10e2 ee3b e7a9 94be d0d2 613d adfc f83e
000000f0: 63ee 963d ee34 5abd 97d3 483f 6a8a 49bc
00000100: 6740 81be 74d0 b4be 1502 f1be 5d50 4c3d
00000110: 23be 553e f23b 99bc 3069 3f3d 3ab0 35bd
00000120: f731 c33e 187a babe 7535 39bf 9f8f ba3e
00000130: e3e3 d03d 8e88 7bbd 5c9c 16bf 6e49 82be
00000140: 6ac0 903e dd81 b73d 30f8 863e 1d85 c73d
00000150: 2781 bdbe 1f19 e63e 3253 953e f35c 243f
00000160: d8b3 ecbe 6a8b a23e 45e5 ba3e 5e99 9c3d
00000170: 17ba eebe e632 1dbe 8af0 92bc dc20 14bb
00000180: 8b38 57bf d838 1e3f 18f5 8fbe 60e9 63bf
00000190: df36 b5be 94fd be3e bf68 1f3e 94d6 193e
000001a0: 674b e7be ee79 0fbe 8709 3e3e ed33 0fbe
000001b0: 8334 0a3f 3984 e6bd e097 93be 1fed 82be
000001c0: 62d5 903d c6e2 993e e33b d63d 42d3 78bd
000001d0: b6f2 4c3c 95bf 233f 08ca 0d3e bd0d acbe
000001e0: 37ce 1abf de3b 8b3e 190c e8bd 0eaa d13e
000001f0: 203f 7cbe 5734 85be 1729 21bf efbe eebe

generator.fc2.bias f4 [8]
0.034424104 0.118824005 0.17320126 0.22783208 -0.096152455 -0.008251025 -0.02757775 0.096752465
00000000: 4a00 0d3d 005a f33d ac5b 313e d04c 693e
00000010: 94eb c4bd 4f2f 07bc bcea e1bc 2826 c63d

generator.fc3.weight f4 [16, 8]
0.31256285 0.35621426 0.45993704 0.75086063 -0.05482256 0.19408022 0.24100257 0.09217884
-0.29867452 0.6124036 0.2151025 0.5293022 0.60013926 -0.086098485 -0.8355327 -0.31239426
-0.39188012 0.27398577 -0.14250527 -0.07743201 0.73870146 0.008811972 0.041407704 0.21077682
-1.1302553 0.027340047 0.08800104 0.18211775 0.058842 0.008422283 -0.224221 0.6932028
0.5284284 -0.36230406 -0.23037995 -0.27649167 -0.07298942 -0.3330138 0.7300382 0.35720855
0.6029629 0.62696534 0.45911753 -0.42922983 -0.7224951 0.7832446 0.8137057 0.7539284
1.0578107 0.30766773 0.11634399 0.50094336 -0.84861785 -0.85345626 -0.15753986 0.3237522
-0.1873732 0.9422971 -0.31340718 -0.16114852 -0.38194746 -0.7608212 0.055218294 0.9830272
-0.70700145 -0.4597916 0.70664376 0.55972296 0.06140948 0.71204036 -0.09896893 0.14509182
-0.62656987 -0.008753343 0.3196072 -0.22580665 -0.5870536 -0.5079944 -0.25911254 0.48188
0.59813297 0.37543738 -0.07630999 -0.4586942 0.255857 -0.1145208 0.71271354 0.17251524
0.748158 -0.37403634 -0.62335914 -0.48043093 -1.0111665 -0.32189995 0.16054323 -1.7294787
-0.8182905 -0.50589335 -0.31331682 0.3180602 0.41653845 -1.0244352 -0.49713287 0.6525874
-0.1303985 0.5060841 0.055926774 -0.62073845 0.10928629 -0.6579597 0.13205962 -0.32094872
-0.61076206 -0.72449005 -0.69414383 0.78591424 0.4405178 0.062269356 -0.37420043 0.10049821
0.73463887 0.6435069 0.20871484 -0.09127366 0.34328187 -0.31046906 -0.2674691 0.31842148
00000000: 3d08 a03e b761 b63e de7c eb3e 6738 403f
00000010: 9f8d 60bd f7bc 463e 61c9 763e 42c8 bc3d
00000020: deeb 98be 7bc6 1c3f d443 5c3e 5980 073f
00000030: baa2 193f 6754 b0bd 79e5 55bf 24f2 9fbe
00000040: 83a4 c8be dd47 8c3e e7ec 11be ac94 9ebd
00000050: 8a1b 3d3f 1760 103c 209b 293d e1d5 573e
00000060: 35ac 90bf 3cf8 df3c e439 b43d 137d 3a3e
00000070: 4f04 713d 9efd 093c 319a 65be bd75 313f
00000080: 1547 073f eb7f b9be b9e8 6bbe 5190 8dbe
00000090: 7a7b 95bd c980 aabe c9e3 3a3f 0ae4 b63e
000000a0: c75b 1a3f cd80 203f 7411 eb3e 03c4 dbbe
000000b0: 70f5 38bf b882 483f 044f 503f 7401 413f
000000c0: 5766 873f a086 9d3e c245 ee3d d33d 003f
000000d0: 053f 59bf 1c7c 5abf 2152 21be d9c2 a53e
000000e0: c3de 3fbe 623a 713f e876 a0be 1e04 25be
000000f0: 9e8e c3be 2ec5 42bf 942c 623d aca7 7b3f
00000100: 0cfe 34bf ce69 ebbe 9be6 343f 014a 0f3f
00000110: 8288 7b3d 4748 363f 39b0 cabd f392 143e
00000120: e266 20bf 2e6a 0fbc 8ea3 a33e dc39 67be
00000130: 2549 16bf ec0b 02bf 66aa 84be fab8 f63e
00000140: 3e1f 193f 5439 c03e 6948 9cbd f7d9 eabe
00000150: b0ff 823e e289 eabd 6574 363f d6a7 303e
00000160: 4887 3f3f b181 bfbe 7794 1fbf 0bfb f5be
00000170: e76d 81bf 12d0 a4be 7265 243e 8f5f ddbf
00000180: 7c7b 51bf 3a82 01bf 106b a0be c9d8 a23e
00000190: 8744 d53e b120 83bf 3388 febe f80f 273f
000001a0: 2f87 05be ba8e 013f 7913 653d b7e8 1ebf
000001b0: 7ed1 df3d 0c70 28bf a33a 073e 6453 a4be
000001c0: e75a 1cbf 2e78 39bf 69b3 31bf ad31 493f
000001d0: 8d8b e13e 270e 7f3d 3397 bfbe 01d2 cd3d
000001e0: 4b11 3c3f debc 243f 58b9 553e afed babd
000001f0: a4c2 af3e cdf5 9ebe b6f1 88be 2408 a33e

generator.fc3.bias f4 [16]
0.28022423 0.14329502 0.012116149 -0.06146595 -0.31547618 -0.27298185 0.29592434 0.34657094
0.1912184 -0.03607273 -0.31714705 0.028189026 -0.27374184 0.35522458 0.22858563 0.23107818
00000000: 8d79 8f3e eebb 123e d082 463c b8c3 7bbd
00000010: 1886 a1be 47c4 8bbe 6583 973e bf71 b13e
00000020: c2ce 433e 00c1 13bd 1961 a2be acec e63c
00000030: e427 8cbe ffdf b53e 5a12 6a3e c29f 6c3e

generator.fc4.weight f4 [7, 16]
-0.61408204 0.36778262 -0.14932463 0.14985172 -0.26343104 -0.6662893 -0.06671218 0.2688514
-0.34832808 -0.22867763 0.014137715 0.3233268 -0.7472874 0.059290916 -0.04678779 -1.1367089
-0.36406252 0.0049718227 -0.48792 0.37071416 0.13042685 -0.112338126 -0.16124523 -0.8424477
0.20790641 0.3244719 -0.10618537 -0.58734244 -0.4110937 0.17574567 0.49469018 0.16348648
-0.38972592 -0.37338558 -0.7236953 -0.02530782 -0.0057423506 0.49174464 -0.041568667 0.0803124
-0.44455147 -0.20002814 -0.24651079 0.27922747 -0.14715372 -0.1259594 -0.40685385 0.06044455
0.1315525 -0.69721496 0.14241323 -0.19808392 0.3926388 -0.41621223 0.2408887 0.3275076
0.4592575 0.6031808 0.095118776 -0.14718959 0.15645179 0.6531871 -0.38457415 -0.123841435
0.36773306 -0.29898545 -0.5713651 -0.3676325 0.99458504 0.14873688 0.19895494 -0.3837327
-0.06281904 0.31600165 0.12589869 0.14338864 0.00016145431 0.04350344 -0.5237835 -0.26518235
0.16239747 -0.17979228 -0.4818483 -0.5239441 -0.0041133016 -0.010291168 0.039562374 0.21973415
-0.007112583 -0.31765783 -0.03698134 0.18564844 0.07611498 0.23260704 0.20491305 0.11794579
0.05667078 0.5097798 -0.7252584 0.57446367 -0.19019127 0.22024162 -1.0540102 0.23833999
0.3811998 0.4537275 0.35469803 -0.17391846 0.42414108 -0.19660966 -0.31533414 0.41102025
00000000: 7b34 1dbf 014e bc3e 8ee8 18be bb72 193e
00000010: 6fe0 86be f091 2abf 65a0 88bd e4a6 893e
00000020: 0f58 b2be 782a 6abe e0a1 673c 178b a53e
00000030: 3a4e 3fbf 08db 723d 8ea4 3fbd ad7f 91bf
00000040: 6766 babe acea a23b a6d0 f9be 3fce bd3e
00000050: 9e8e 053e 8811 e6bd 781d 25be a7aa 57bf
00000060: 6be5 543e 2e21 a63e b777 d9bd 135c 16bf
00000070: e07a d2be acf6 333e 0848 fd3e 0069 273e
00000080: 288a c7be 652c bfbe 1844 39bf 5852 cfbc
00000090: 542a bcbb f4c5 fb3e e843 2abd d47a a43d
000000a0: 409c e3be 2dd4 4cbe 536d 7cbe e7f6 8e3e
000000b0: 77af 16be 80fb 00be 264f d0be b494 773d
000000c0: b3b5 063e ae7c 32bf c6d4 113e 83d6 4abe
000000d0: f407 c93e c519 d5be 87ab 763e 13af a73e
000000e0: cd23 eb3e 0f6a 1a3f a2cd c23d deb8 16be
000000f0: e634 203e 4537 273f e7e6 c4be 94a0 fdbd
00000100: 8247 bc3e 9f14 99be fc44 12bf 543a bcbe
00000110: 209d 7e3f 7b4e 183e d8ba 4b3e 9d78 c4be
00000120: 45a7 80bd f8ca a13e 96eb 003e 79d4 123e
00000130: 104c 2939 aa30 323d ad16 06bf fbc5 87be
00000140: 864b 263e 781b 38be d2b4 f6be 3321 06bf
00000150: e0c8 86bb 499c 28bc 280c 223d fd01 613e
00000160: ac10 e9bb 0ca4 a2be bf79 17bd a01a 3e3e
00000170: 2ce2 9b3d 8a30 6e3e bad4 513e 908d f13d
00000180: 9f1f 683d ee80 023f 89aa 39bf 0d10 133f
00000190: 80c1 42be 0587 613e cee9 86bf 660f 743e
000001a0: 9f2c c33e f94e e83e fb9a b53e ae17 32be
000001b0: 0529 d93e 0b54 49be 7a73 a1be 3f71 d23e

generator.fc4.bias f4 [7]
-0.01476337 -0.0147782415 0.084298134 0.03730248 -0.13511384 -0.13627595 0.0005226877
00000000: 10e2 71bc 7020 72bc 80a4 ac3d 7cca 183d
00000010: 485b 0abe ec8b 0bbe fa04 093a

generator.layer_norm_hidden_0.weight f4 [16]
0.9920001 0.9920001 1.0060003 0.9920001 0.998 0.9920001 0.9920001 0.9920001
1.0080004 1.0040002 0.9920001 1.0080004 1.0080004 0.9920001 1.0080004 0.9920001
00000000: b8f3 7d3f b8f3 7d3f 9ec4 803f b8f3 7d3f
00000010: ee7c 7f3f b8f3 7d3f b8f3 7d3f b8f3 7d3f
00000020: 2806 813f 1483 803f b8f3 7d3f 2806 813f
00000030: 2806 813f b8f3 7d3f 2806 813f b8f3 7d3f

generator.layer_norm_hidden_0.bias f4 [16]
-0.004 0.008 -0.008 -0.008 0.008 0.002 0.008 -0.008
-0.008 0.008 0.008 -0.008 0.008 0.008 -0.008 0.008
00000000: 6f12 83bb 6f12 033c 6f12 03bc 6f12 03bc
00000010: 6f12 033c 6f12 033b 6f12 033c 6f12 03bc
00000020: 6f12 03bc 6f12 033c 6f12 033c 6f12 03bc
00000030: 6f12 033c 6f12 033c 6f12 03bc 6f12 033c

generator.layer_norm_hidden_1.weight f4 [8]
1.0080004 1.0080004 1.0080004 1.0080004 0.9920001 0.99600005 0.9920001 1.0060003
00000000: 2806 813f 2806 813f 2806 813f 2806 813f
00000010: b8f3 7d3f dcf9 7e3f b8f3 7d3f 9ec4 803f

generator.layer_norm_hidden_1.bias f4 [8]
0.008 0.008 0.008 -0.008 -0.008 -0.008 0.008 0.008
00000000: 6f12 033c 6f12 033c 6f12 033c 6f12 03bc
00000010: 6f12 03bc 6f12 03bc 6f12 033c 6f12 033c

discriminator.fc1.weight f4 [8, 7]
-0.13057424 -0.2287363 0.43565026 -1.7286441 0.7815835 0.5822256 0.019629564 0.1817447
-0.34822586 -0.50386906 0.4365721 0.55911595 -0.76778316 0.58586764 -0.47691318 0.056283977
-0.51037055 0.014813416 -0.47992972 1.2263097 0.6790098 0.10226086 -0.07675262 -0.22734548
-0.9576012 -0.40184227 -0.14167902 -0.3189397 -0.32676762 -0.32298252 -0.58332264 1.0962015
0.67161053 -0.16830371 0.056643717 -0.18227597 0.28082624 0.3620516 0.26278043 0.46820867
-0.49989143 0.38252187 -0.17464627 -0.17934702 -0.42004701 -0.41863844 1.3663841 -0.24193814
-0.5046458 0.3677552 0.36787757 -0.37942454 -0.12215142 -0.4246038 0.2831594 -0.33499366
00000000: 41b5 05be d939 6abe 8d0d df3e 3644 ddbf
00000010: db15 483f bd0c 153f 2ece a03c 481b 3a3e
00000020: a94a b2be 90fd 00bf 6186 df3e 3922 0f3f
00000030: 708d 44bf 6cfb 153f f72d f4be 078a 663d
00000040: a5a7 02bf f8b3 723c 59b9 f5be b7f7 9c3f
00000050: 96d3 2d3f 246e d13d 7a30 9dbd 41cd 68be
00000060: 5a25 75bf 45be cdbe 4e14 11be 104c a3be
00000070: 164e a7be f75d a5be a254 15bf 5550 8c3f
00000080: abee 2b3f cf57 2cbe 3e03 683d 8da6 3abe
00000090: 75c8 8f3e d45e b93e 288b 863e 0cb9 ef3e
000000a0: c5f1 ffbe e8d9 c33e 79d6 32be bfa6 37be
000000b0: 6710 d7be c757 d6be ade5 ae3f a2be 77be
000000c0: 7830 01bf 694a bc3e 735a bc3e ef43 c2be
000000d0: 862a fabd ab65 d9be 45fa 903e 4a84 abbe

discriminator.fc1.bias f4 [8]
0.12614685 -0.35222393 0.34950396 -0.13576129 0.14092162 0.17317773 0.31971505 -0.19118671
00000000: a42c 013e b256 b4be 2ff2 b23e 0205 0bbe
00000010: c24d 103e 8155 313e b1b1 a33e 73c6 43be

discriminator.fc2.weight f4 [1, 8]
1.3874358 0.117442414 0.6666003 -0.18762824 0.51612973 0.048794854 -0.035293594 0.1762032
00000000: 7f97 b13f a685 f03d 51a6 2a3f 9e21 40be
00000010: 1421 043f 1ddd 473d 0490 10bd 9d6e 343e

discriminator.layer_norm_hidden_0.weight f4 [8]
1.0077214 0.9922219 0.99270713 0.9921233 0.9990435 0.9931459 0.99217176 0.9920157
00000000: 04fd 803f 4102 7e3f 0e22 7e3f cbfb 7d3f
00000010: 51c1 7f3f cf3e 7e3f f8fe 7d3f bef4 7d3f

discriminator.layer_norm_hidden_0.bias f4 [8]
0.007564654 0.0075336327 0.0075573833 -0.007544184 0.0075623957 0.0074981553 -0.0074757617 0.007542859
00000000: ebe0 f73b b1dc f63b eda3 f73b 3435 f7bb
00000010: f9cd f73b 16b3 f53b 3cf7 f4bb 162a f73b

exp_avg f4 [16, 7]
-0.011507404 -0.011511305 -3.748856e-18 -0.0115131745 -0.011511934 -0.011511208 -0.011530127 0.016746614
0.01675284 3.1667528e-18 0.01675337 0.016752372 0.016750956 0.016746704 0.00046302102 0.0004670123
1.4468816e-18 0.00046759783 0.00046675446 0.00046623306 0.00046846626 -0.016430477 -0.016431276 -4.1651435e-18
-0.016433258 -0.016431842 -0.016430825 -0.016449219 0.0131887505 0.013189129 3.9701555e-18 0.013191354
0.013190107 0.0131893605 0.0132139 -0.015218102 -0.015259923 -5.8359933e-18 -0.01525949 -0.015258996
-0.015257734 -0.015304446 0.011132003 0.011140978 3.2163996e-18 0.011142496 0.011141596 0.011141116
0.011142905 -0.029093407 -0.029094469 -8.632165e-18 -0.029100196 -0.0290963 -0.029094232 -0.029111337
-0.0023180984 -0.0023156197 -7.0745077e-19 -0.0023165247 -0.002315468 -0.0023154821 -0.0023264908 0.021863673
0.021889236 7.794064e-18 0.021891635 0.021888506 0.02188624 0.021925034 -0.0038901253 -0.003890862
1.712781e-18 -0.0038902354 -0.003891012 -0.0038917009 -0.0038929298 -0.026254369 -0.026255047 -6.164085e-18
-0.026256694 -0.02625465 -0.026252111 -0.02624031 0.026707634 0.026714891 7.607469e-18 0.026719367
0.026716484 0.026715038 0.026742702 0.013023751 0.013028944 3.4701724e-18 0.013030251 0.013029648
0.013029213 0.013032177 0.013746432 0.013744668 -3.6694617e-18 0.013743625 0.01374467 0.013745249
0.013751997 -0.0014117692 -0.0014094299 3.065931e-19 -0.001410052 -0.0014093631 -0.0014091667 -0.0014019943
00000000: 8d89 3cbc ea99 3cbc f24e 8aa2 c1a1 3cbc
00000010: 8d9c 3cbc 8199 3cbc dce8 3cbc 3230 893c
00000020: 403d 893c 45aa 6922 5d3e 893c 453c 893c
00000030: 4d39 893c 6230 893c a1c1 f239 54d9 f439
00000040: a485 d521 eb27 f539 b9b6 f439 be70 f439
00000050: 7a9c f539 3599 86bc e29a 86bc abaa 99a2
00000060: 0a9f 86bc 129c 86bc f099 86bc 83c0 86bc
00000070: a115 583c 3717 583c 0f79 9222 8d20 583c
00000080: 521b 583c 3018 583c 1d7f 583c 5955 79bc
00000090: c204 7abc 664f d7a2 f102 7abc de00 7abc
000000a0: 93fb 79bc 80bf 7abc 0163 363c a688 363c
000000b0: 1254 6d22 048f 363c 3e8b 363c 3a89 363c
000000c0: bb90 363c 4c55 eebc 8657 eebc 3f3c 1fa3
000000d0: 8963 eebc 5d5b eebc 0757 eebc e67a eebc
000000e0: 3deb 17bb a7c1 17bb 78cd 50a1 d6d0 17bb
000000f0: 1bbf 17bb 58bf 17bb 0a78 18bb 721b b33c
00000100: 0e51 b33c 6dc6 0f23 1656 b33c 864f b33c
00000110: c64a b33c 219c b33c 79f1 7ebb d5fd 7ebb
00000120: 09c3 fc21 52f3 7ebb 5900 7fbb e80b 7fbb
00000130: 8620 7fbb 6713 d7bc d314 d7bc 236a e3a2
00000140: 4718 d7bc fe13 d7bc ab0e d7bc ebf5 d6bc
00000150: f8c9 da3c 30d9 da3c 4255 0c23 93e2 da3c
00000160: 87dc da3c 7fd9 da3c 8313 db3c 9261 553c
00000170: 5a77 553c da06 8022 d57c 553c 4e7a 553c
00000180: 7b78 553c ea84 553c b738 613c 5131 613c
00000190: 1661 87a2 f12c 613c 5331 613c c133 613c
000001a0: 0e50 613c 1d0b b9ba 9fbc b8ba 0afb b420
000001b0: 7ed1 b8ba 61ba b8ba cab3 b8ba 1fc3 b7ba

exp_avg f4 [16]
0.03376669 -0.028523574 -0.013032351 0.037516274 -0.03575998 0.052565955 -0.028970754 0.07775163
0.006372149 -0.070202686 -0.01542736 0.05552114 -0.06852199 -0.031256534 0.033051573 -0.0027615451
00000000: f14e 0a3d 45aa e9bc a485 55bc aaaa 193d
00000010: 0f79 12bd 664f 573d 1354 edbc 3f3c 9f3d
00000020: 76cd d03b 6dc6 8fbd 0ac3 7cbc 236a 633d
00000030: 4255 8cbd da06 00bd 1661 073d 0afb 34bb

exp_avg f4 [8, 16]
-0.03734971 0.030032404 0.015900927 -0.06421987 -0.055601347 0.0022515273 -0.0035814082 -0.024595112
0.04367634 -0.010805539 0.031285528 0.028714588 -0.021984203 0.015115113 0.033976052 0.017336698
-0.008147398 0.0058935755 0.0035793516 -0.01353017 -0.0118231205 8.0478734e-05 -0.0017104795 -0.005618671
0.013234477 -0.0028620707 0.0076611633 0.0054293615 -0.00493988 0.0021128808 0.0074905017 0.0031997354
0.0059049465 0.0027172607 -0.013431784 0.008430951 0.008298821 0.0035234943 0.007456798 0.0067213327
-0.033592727 0.0038263497 -0.014002572 0.0034383608 0.006303647 0.0062519563 -0.0036836332 0.0016112382
0.0010381836 -0.008529029 0.016628213 -0.0003099804 -0.0015564105 -0.0036019206 -0.009276937 -0.004862708
0.030157408 -0.00015960626 0.011225959 -0.009293434 -0.004721009 -0.010998083 -0.0019275028 -0.0035424125
0.0243922 -0.020055711 -0.01475466 0.04544579 0.039721016 -0.002092925 0.005139584 0.018755332
-0.03302256 0.0056308745 -0.0231648 -0.018814728 0.01679538 -0.007900205 -0.023476068 -0.01274557
0.020085733 -0.015129323 -0.008399589 0.03305079 0.028287156 -0.00039659216 0.0013434322 0.012745349
-0.024810951 0.0063050077 -0.016375467 -0.01432846 0.011150161 -0.008004019 -0.017287895 -0.008290837
-0.005403113 0.0046886415 0.0015346934 -0.0090998355 -0.007778937 0.00046011398 -0.00028265535 -0.0033621571
0.005108302 -0.0015142211 0.004013556 0.0044682682 -0.0029147917 0.0025199198 0.00491496 0.0026533294
-0.005364304 0.0038380357 0.007141706 -0.011803189 -0.010524821 0.0003955879 -0.0029958629 -0.005824147
0.011468845 -0.00028982793 0.007253835 0.0031894555 -0.005102095 4.9301067e-05 0.005384369 0.0032421204
00000000: 02fc 18bd 8406 f63c a942 823c b585 83bd
00000010: 3dbe 63bd 5c8e 133b 0fb6 6abb b07b c9bc
00000020: f6e5 323d b709 31bc 4125 003d db3a eb3c
00000030: 3718 b4bc 61a5 773c 792a 0b3d b105 8e3c
00000040: aa7c 05bc e51e c13b 8e93 6a3b a5ad 5dbc
00000050: c3b5 41bc b1c6 a838 2b32 e0ba d41c b8bb
00000060: 6bd5 583c 9491 3bbb 7f0a fb3b c9e8 b13b
00000070: b8de a1bb 4278 0a3b e272 f53b a7b2 513b
00000080: 487e c13b 1214 323b fc10 5cbc f921 0a3c
00000090: c7f7 073c 6dea 663b 2858 f43b a03e dc3b
000000a0: 8798 09bd 7fc3 7a3b 0b6b 65bc 1f56 613b
000000b0: d38e ce3b 36dd cc3b 1c69 71bb 2f30 d33a
000000c0: a913 883a 57bd 0bbc e437 883c dd84 a2b9
000000d0: 7800 ccba 330e 6cbb 4bfe 17bc 5a57 9fbb
000000e0: ab0c f73c fb5b 27b9 16ed 373c 7d43 18bc
000000f0: b2b2 9abb 4e31 34bc 43a4 fcba d227 68bb
00000100: 27d2 c73c e04b a4bc 88bd 71bc 5d25 3a3d
00000110: 81b2 223d 7429 09bb f569 a83b c8a4 993c
00000120: aa42 07bd 3383 b83b 1bc4 bdbc 5821 9abc
00000130: 7796 893c dd6f 01bc e250 c0bc ccd2 50bc
00000140: d68a a43c fbe0 77bc 6e9e 09bc 4460 073d
00000150: 77ba e73c b3ed cfb9 1b16 b03a ded1 503c
00000160: 5640 cbbc 3d9a ce3b d825 86bc ebc1 6abc
00000170: 2aaf 363c 4a23 03bc 589f 8dbc 4ad6 07bc
00000180: 990c b1bb 2da3 993b c427 c93a 7a17 15bc
00000190: 74e6 febb 743b f139 5c31 94b9 a357 5cbb
000001a0: 8b63 a73b d478 c6ba 2684 833b 8d6a 923b
000001b0: 1706 3fbb 3d25 253b ac0d a13b 7be3 2d3b
000001c0: 0bc7 afbb 8e87 7b3b f904 ea3b 2a62 41bc
000001d0: 4c70 2cbc e966 cf39 3d56 44bb 7cd8 bebb
000001e0: d3e7 3b3c 0cf4 97b9 94b1 ed3b 2f06 513b
000001f0: 7a2f a7bb 9ec8 4e38 5c6f b03b c179 543b

exp_avg f4 [8]
-0.04155598 -0.0074507548 -0.0112261 0.020292103 0.02721874 0.020491166 -0.0068788896 -0.004348736
00000000: 9a36 2abd 7625 f4bb aded 37bc a03b a63c
00000010: d6f9 de3c 17dd a73c 4f68 e1bb d77f 8ebb

exp_avg f4 [16, 8]
0.008412016 -0.018319968 -0.0137009695 -0.0057331924 0.007463552 0.005411258 0.008168479 0.008080131
-0.004737179 0.015459532 0.005729407 8.887671e-05 -0.0008796142 -0.0025105162 -0.012150445 -0.0008119115
0.00080479827 0.013416272 0.0021522539 -0.0015851357 0.0069397404 -0.0068746074 -0.012820726 -0.0018708891
-0.009327418 0.025384687 0.012723482 0.0014186759 -0.00698266 -0.003138607 -0.016847704 -0.002920462
-0.009998049 -0.0033863138 0.010025113 0.0106188245 -0.01688504 0.0031492822 0.012968597 -0.006580541
0.0011612728 -0.005680686 -0.0020487409 0.0011256956 0.0010639633 0.0002631084 0.003946846 9.794876e-05
-0.003933849 0.007916576 0.009505988 0.007695703 -0.0023877737 -0.007789508 -0.00081133994 -0.010115489
-0.0025782096 0.0011774676 0.0048023765 0.0045762756 -0.0033176872 -0.0027813166 0.003850312 -0.005724517
0.0076000122 -0.010465149 -0.011399092 -0.007900828 0.00796956 0.004392788 0.0015749554 0.008124859
0.0023891393 -0.0046114917 -0.0040844628 -0.0038266487 0.000978663 0.0035734763 0.0017241846 0.0038051293
-0.003925704 0.0010517602 0.0036090708 0.002857369 -0.005640918 0.0013254056 0.0022737642 -0.0015545773
-0.003473759 0.0052856654 0.0045718984 0.0026292154 -0.003967487 -0.0011105952 -0.0013912836 -0.0024934174
-0.0029309653 -0.0021987555 0.0014098936 0.0017318085 -0.0063700085 0.0032534539 0.0042619915 0.0008046363
0.00803571 -0.013707531 -0.010022174 -0.005001989 0.0063430434 0.002927146 0.006278113 0.0050097476
0.012935182 0.00053543877 -0.012147604 -0.011466324 0.020926068 -0.0044875205 -0.012329909 0.00609475
0.006853792 -0.026082655 -0.015361235 -0.0058087334 0.0012285276 0.012202603 0.015205176 0.011449775
00000000: 8dd2 093c c213 96bc 087a 60bc 81dd bbbb
00000010: d090 f43b ec50 b13b 16d5 053c 8762 043c
00000020: 563a 9bbb fa49 7d3c c0bd bb3b 5263 ba38
00000030: e995 66ba 7987 24bb a912 47bc 75d6 54ba
00000040: 19f9 523a eccf 5b3c d40c 0d3b 54c4 cfba
00000050: c366 e33b 6344 e1bb 060e 52bc 9f38 f5ba
00000060: 07d2 18bc 8cf3 cf3c 2776 503c ddf2 b93a
00000070: ccce e4bb 16b1 4dbb 3204 8abc 3965 3fbb
00000080: dbce 23bc ebec 5dbb 5f40 243c 94fa 2d3c
00000090: 7f52 8abc 3064 4e3b 3d7a 543c 94a1 d7bb
000000a0: d935 983a 0c25 babb 2b44 06bb 148c 933a
000000b0: af74 8b3a d0f1 8939 8b54 813b d769 cd38
000000c0: 84e7 80bb 87b4 013c 01bf 1b3c 3c2c fc3b
000000d0: 327c 1cbb 213f ffbb 1ab0 54ba 70bb 25bc
000000e0: 2ef7 28bb 4255 9a3a 415d 9d3b 95f4 953b
000000f0: 8e6d 59bb c046 36bb 8455 7c3b bb94 bbbb
00000100: 8609 f93b 0476 2bbc 42c3 3abc 7972 01bc
00000110: c292 023c 60f1 8f3b bc6e ce3a 211e 053c
00000120: 1b93 1c3b ff1b 97bb f5d6 85bb 83c8 7abb
00000130: 7b46 803a fc30 6a3b 09fe e13a 7a5f 793b
00000140: 31a3 80bb 37db 893a 2986 6c3b b242 3b3b
00000150: 73d7 b8bb 3bb9 ad3a 6f03 153b f5c2 cbba
00000160: 01a8 63bb 6033 ad3b ddcf 953b ea4e 2c3b
00000170: b101 82bb 6491 91ba bb5b b6ba 9a68 23bb
00000180: 7015 40bb ff18 10bb 2ecc b83a dafd e23a
00000190: 81bb d0bb e637 553b 2da8 8b3b 3aee 523a
000001a0: 36a8 033c 8d95 60bc 0b34 24bc bae7 a3bb
000001b0: 4ed9 cf3b 5cd5 3f3b a1b8 cd3b cf28 a43b
000001c0: 16ee 533c b05c 0c3a be06 47bc 40dd 3bbc
000001d0: 256d ab3c 0d0c 93bb 6303 4abc 78b6 c73b
000001e0: c695 e03b 4bab d5bc b0ad 7bbc 3057 bebb
000001f0: 8c06 a13a 6ded 473c 211f 793c d697 3b3c

exp_avg f4 [16]
-0.011495117 0.013560678 0.015144121 0.019703956 -0.013437582 -0.004761447 0.003875464 -0.0027550913
-0.003988058 -0.002737103 -0.0024411117 0.0022212043 -0.005058201 -0.007982029 0.012588048 -0.02036531
00000000: 0456 3cbc 9b2d 5e3c 0c1f 783c 316a a13c
00000010: 4e29 5cbc ea05 9cbb 7ffb 7d3b c38e 34bb
00000020: 41ae 82bb f860 33bb 0ffb 1fbb a091 113b
00000030: 44bf a5bb 0ec7 02bc 1a3e 4e3c 27d5 a6bc

exp_avg f4 [7, 16]
0.007195619 0.019158205 -0.0069068447 0.00031625546 -0.012023032 -0.006773465 0.0075904704 0.0074119517
0.0007481251 0.005531955 -0.0090076635 -0.005368785 -0.007983476 0.008695925 -0.009526171 0.0007720663
-0.008052636 -0.010540889 0.008532226 -0.0041440288 0.008009943 0.00024130754 -0.006761458 -0.0064566997
-0.00473315 -0.007263478 0.008556101 0.0015223168 0.0068617743 -0.0019658043 0.008028289 0.0082548205
0.0010379442 -0.010917216 -0.005266624 0.007215173 0.0035426647 0.0139091555 -0.0007805251 0.0011046829
0.0059942515 0.0059213405 -0.0009263806 0.0041732746 -0.0022215743 -0.007586331 -0.0020735853 -0.013087219
-0.0042410977 -0.008301769 0.0024770675 -0.00090921175 0.004786435 0.0042320807 -0.0030403016 -0.0009820928
-0.0020401014 -0.0018312256 0.004384609 0.00119558 0.0017302252 -0.0015678016 0.0016761264 0.0024441367
0.0070289867 -0.01985594 -0.008801484 0.005092563 0.015321617 0.0143155055 0.0016043312 -0.019652132
0.01348778 0.0052162586 0.0051947553 0.01916191 0.0010403061 -0.010839935 0.0016467863 -0.029735709
-0.0194993 -0.050573874 0.020896154 -0.006912316 0.03594417 0.011316322 -0.019745635 -0.028590713
-0.004950438 -0.019373521 0.02955863 0.019044966 0.023861833 -0.018135997 0.026883515 0.0007255392
-0.008283009 -0.017800955 0.0045713554 0.0050866497 0.006900895 0.0143417865 -0.009615606 0.0011851036
0.00048249724 -0.0005593221 0.0047746743 0.0009987673 0.0038946618 -0.009211897 0.005159443 -0.0018370512
00000000: 3ac9 eb3b abf1 9c3c d052 e2bb 17cf a539
00000010: 40fc 44bc f1f3 ddbb 7bb9 f83b f5df f23b
00000020: d31d 443a 6745 b53b e194 13bc a2ec afbb
00000030: 20cd 02bc 5a79 0e3c a813 1cbc 7e64 4a3a
00000040: 34ef 03bc b1b3 2cbc c0ca 0b3c a2ca 87bb
00000050: 233c 033c 8007 7d39 388f ddbb b992 d3bb
00000060: 8a18 9bbb 7802 eebb e32e 0c3c 7a88 c73a
00000070: bcd8 e03b b9d4 00bb 1689 033c 3a3f 073c
00000080: a10b 883a 1fde 32bc a593 acbb 426d ec3b
00000090: 0d2c 683b 3ae3 633c 279c 4cba 02cb 903a
000000a0: 6d6b c43b ce07 c23b 5ad8 72ba f7bf 883b
000000b0: d597 11bb c296 f8bb fde4 07bb c66b 56bc
000000c0: e8f8 8abb 2504 08bc 4c56 223b 2b58 6eba
000000d0: 87d7 9c3b 44ad 8a3b cc3f 47bb 91b9 80ba
000000e0: 39b3 05bb bc05 f0ba c4ac 8f3b 02b5 9c3a
000000f0: b9c8 e23a b17e cdba 78b1 db3a cf2d 203b
00000100: 6a53 e63b eda8 a2bc 1934 10bc 84df a63b
00000110: 8507 7b3c 958b 6a3c 6c48 d23a 82fd a0bc
00000120: d9fb 5c3c 26ed aa3b c438 aa3b 70f9 9c3c
00000130: e15a 883a fc99 31bc fbd8 d73a 4d98 f3bc
00000140: ffbc 9fbc 8d26 4fbd 692e ab3c b680 e2bb
00000150: 323a 133d 1868 393c 99c1 a1bc 1237 eabc
00000160: 4937 a2bb 38b5 9ebc f124 f23c 3004 9c3c
00000170: e479 c33c f191 94bc d13a dc3c 1d32 3e3a
00000180: 75b5 07bc 4fd3 91bc 4fcb 953b e9ad a63b
00000190: e720 e23b d0f9 6a3c c68a 1dbc 7a55 9b3a
000001a0: aff7 fc39 799f 12ba df74 9c3b 12e9 823a
000001b0: 953d 7f3b 7fed 16bc 8b10 a93b 36c9 f0ba

exp_avg f4 [7]
0.008479081 -0.002401047 -0.0062962575 -0.0017652395 -0.020762071 -0.025405224 -0.0048957053
00000000: d8eb 0a3c e25a 1dbb d650 cebb 9c5f e7ba
00000010: 3815 aabc 9e1e d0bc 276c a0bb

exp_avg f4 [16]
0.01262405 0.04727297 -0.0047534886 0.038700636 0.0030215902 0.018132031 0.011884679 0.029142607
-0.029626725 -0.0035837917 0.009555514 -0.03253433 -0.007846234 0.008235721 -0.009290403 0.0059239003
00000000: 1ad5 4e3c 4da1 413d 27c3 9bbb 8f84 1e3d
00000010: df05 463b a089 943c f5b7 423c 7abc ee3c
00000020: bfb3 f2bc 0cde 6abb bb8e 1c3c b842 05bd
00000030: 7e8d 00bc 1eef 063c c636 18bc 471d c23b

exp_avg f4 [16]
0.0023942462 -0.016642738 0.024243888 0.037951946 -0.032939076 -0.0028890239 -0.017315324 0.04864879
0.017190885 -0.030259972 -0.022292428 0.05338342 -0.035540745 -0.030894633 0.04366827 -0.008165127
00000000: c9e8 1c3b 5a56 88bc 1e9b c63c 8073 1b3d
00000010: 20eb 06bd c755 3dbb ded8 8dbc f443 473d
00000020: e6d3 8c3c c3e3 f7bc 9c9e b6bc 93a8 5a3d
00000030: 2c93 11bd be16 fdbc 80dd 323d 06c7 05bc

exp_avg f4 [8]
-0.006711498 -0.010386751 -0.015501776 -0.014669123 0.018267492 0.0016180192 0.02920807 -0.0019856943
00000000: 20ec dbbb 312d 2abc 29fb 7dbc c356 70bc
00000010: b5a5 953c b713 d43a c345 ef3c 6c22 02bb

exp_avg f4 [8]
-0.05417363 -0.013604813 -0.01702592 0.02274283 0.017301256 0.011469274 -0.031100577 -0.010612561
00000000: 2be5 5dbd b9e6 5ebc f179 8bbc 2c4f ba3c
00000010: 5dbb 8d3c 9fe9 3b3c a3c6 febc 4fe0 2dbc

exp_avg f4 [8, 7]
0.1776487 0.2219816 0.033902373 0.25743693 0.16859357 0.27277628 0.2502044 0.019164953
0.011166981 -0.007842377 0.007983226 0.019631324 0.009723407 8.068065e-05 -0.033820722 -0.009764557
0.015448746 0.0005275667 -0.03189607 0.0007066576 0.009054545 -0.011074822 -0.06372159 -0.021803578
-0.11920691 0.005263157 -0.14535835 -0.08262137 -0.018442716 -0.010238136 0.0036017234 0.0009601364
-0.020663906 0.004564636 -0.008002897 0.034418076 0.035562366 -0.024007179 0.022037858 0.05654902
0.027254732 -0.0024769602 -0.038774423 -0.049328964 -0.0061917515 -0.058664422 -0.03909131 -0.061586518
-0.05408028 0.0038283875 0.005005144 0.0020716686 -0.007200555 0.025583709 -0.012104392 -0.0005056043
00000000: 8ae9 353e 254f 633e 37dd 0a3d c6ce 833e
00000010: cba3 2c3e 55a9 8b3e cb1a 803e d2ff 9c3c
00000020: b7f5 363c 507d 00bc 14cc 023c dfd1 a03c
00000030: ed4e 1f3c 1833 a938 9987 0abd 85fb 1fbc
00000040: bd1c 7d3c 674c 0a3a 74a5 02bd fd3e 393a
00000050: 8459 143c 2c73 35bc 7780 82bd 6b9d b2bc
00000060: c122 f4bd 9076 ac3b d2d8 14be 6535 a9bd
00000070: 2e15 97bc dbbd 27bc e40a 6c3b aab1 7b3a
00000080: 5a47 a9bc f192 953b 951e 03bc f8f9 0c3d
00000090: d8a9 113d b4aa c4bc bd88 b43c f29f 673d
000000a0: 5145 df3c 7f54 22bb eed1 1ebd 2b0d 4abd
000000b0: 2de4 cabb 1b4a 70bd 361e 20bd 2542 7cbd
000000c0: 4983 5dbd afe5 7a3b 3102 a43b d5c4 073b
000000d0: a2f2 ebbb ed94 d13c 8051 46bc 888a 04ba

exp_avg_sq f4 [8, 7]
0.000882479 0.0012825921 3.789093e-05 0.0016261346 0.0007994161 0.0017931073 0.0017340328 1.207055e-05
4.8058814e-06 2.3036162e-06 3.9876786e-06 1.1648277e-05 5.004797e-06 1.8578905e-06 6.1012997e-05 3.3728422e-06
7.862754e-06 2.2233608e-06 2.9783301e-05 1.8780784e-06 7.759262e-06 3.5331585e-05 0.00014694053 2.2095177e-05
0.00034402398 4.2005704e-05 0.0005100355 0.00022824109 8.65647e-06 2.7673716e-06 5.5281373e-07 9.754567e-07
1.01085425e-05 2.1221908e-06 2.603866e-06 3.6091842e-05 3.5656158e-05 2.017201e-05 1.8128945e-05 8.6346205e-05
2.4225443e-05 1.6354517e-05 4.3899305e-05 6.707478e-05 1.0787022e-06 9.047577e-05 4.5126908e-05 9.923235e-05
7.9548416e-05 6.582017e-06 9.396478e-07 1.2869498e-06 1.9891645e-06 1.8188564e-05 4.58108e-06 1.4738655e-06
00000000: 2a56 673a a61c a83a 14ed 1e38 0624 d53a
00000010: e88f 513a b206 eb3a 7c48 e33a 9e82 4a37
00000020: 3542 a136 d397 1a36 e6cd 8536 f86c 4337
00000030: e1ee a736 a25c f935 35e8 7f38 fd58 6236
00000040: 45ea 0337 0c35 1536 27d7 f937 4812 fc35
00000050: c72d 0237 0031 1438 0c14 1a39 0859 b937
00000060: 1e5e b439 482f 3038 e7b3 053a 0054 6f39
00000070: 413b 1137 15b7 3936 1265 1435 70ec 8235
00000080: dc97 2937 f66a 0e36 14be 2e36 5261 1738
00000090: 828d 1538 1037 a937 9d13 9837 c414 b538
000000a0: be37 cb37 0f31 8937 8520 3838 80aa 8c38
000000b0: edc7 9035 cfbd bd38 a646 3d38 f61a d038
000000c0: 3bd3 a638 18db dc36 1b3c 7c35 42bb ac35
000000d0: 967d 0536 a593 9837 2db7 9936 a2d1 c535

exp_avg f4 [8]
-0.5266013 0.03856217 -0.097798556 0.16571867 -0.037963547 0.10695625 0.25708818 0.00037244637
00000000: 58cf 06bf 5ef3 1d3d 9c4a c8bd 28b2 293e
00000010: aa7f 1bbd e10b db3d 10a1 833e e844 c339

exp_avg_sq f4 [8]
0.0074728564 4.129934e-05 0.0002807414 0.00087719614 4.3392898e-05 0.00030410994 0.0017135384 1.2527173e-06
00000000: ddde f43b d438 2d38 7930 9339 a3f3 653a
00000010: c500 3638 f270 9f39 cf98 e03a 0a23 a835

exp_avg f4 [1, 8]
-0.124856606 0.10668505 0.230472 -0.21238825 0.013301068 0.020051721 -0.18676226 0.15056711
00000000: d2b4 ffbd b17d da3d da00 6c3e 4e7c 59be
00000010: b9ec 593c 8243 a43c 9b3e 3fbe 442e 1a3e

exp_avg_sq f4 [1, 8]
0.0004013445 0.0003465993 0.0015093616 0.0011586859 2.2482767e-05 2.7603188e-05 0.0008905652 0.0005782447
00000000: 8c6b d239 c5b7 b539 c5d5 c53a 0cdf 973a
00000010: 6099 bc37 658d e737 d274 693a 5895 173a

exp_avg f4 [8]
-0.17138158 0.013103864 0.15527001 0.04088536 0.007125057 0.0010960042 0.0073007643 0.027333258
00000000: a77e 2fbe 97b1 563c 1aff 1e3e 6877 273d
00000010: 4f79 e93b cca7 8f3a 403b ef3b ffe9 df3c

exp_avg_sq f4 [8]
0.0007564834 5.2840724e-06 0.0006844617 4.2995038e-05 6.0812013e-06 7.9548236e-08 1.3782368e-06 1.913913e-05
00000000: be4e 463a d64d b136 726d 333a 9255 3438
00000010: 1f0d cc36 1bd4 aa33 dbfb b835 f88c a037

exp_avg f4 [8]
-0.21189909 -0.018698161 -0.102802895 0.029468356 -0.07916439 -0.008050374 0.0061200876 -0.027729513
00000000: 13fc 58be e32c 99bc 538a d2bd 9f67 f13c
00000010: f120 a2bd b7e5 03bc 048b c83b 0129 e3bc

exp_avg_sq f4 [8]
0.0014803257 1.1773011e-05 0.0003501278 2.9031937e-05 0.00020692346 2.2338122e-06 1.3131167e-06 2.5731299e-05
00000000: 7d07 c23a b284 4537 5c91 b739 9c89 f337
00000010: 98f9 5839 9ae8 1536 593e b035 8bd9 d737
