saved/type_8_fold_1.ckpt (torch, 21906 bytes, 39 tensors)

generator.fc1.weight f4 [16, 7]
000000 ef dc 10 3e de dd 81 3e 1a 8f 22 3f 0f a1 11 3f
       0.1414678 0.25364584 0.63499606 0.5688638
000010 62 27 f5 be 8e e1 40 3f a7 f8 30 3f 95 42 89 bf
       -0.4788161 0.7534417 0.69129413 -1.0723444
000020 3c 4e 0a 3e e4 8b 56 3f 8b b7 bc 3d 62 9d 0d 3e
       0.13506407 0.83807206 0.092146955 0.13829568
000030 3f c4 3d 3e f0 9d 25 3f 08 f5 93 bf ad ba 9e 3f
       0.18531893 0.6469412 -1.1559153 1.2400719
000040 2e 0f b0 be 41 dc f2 3e 4e f5 c6 3e b0 9c 22 bf
       -0.3438658 0.47433665 0.38859028 -0.63520336
000050 bd c4 15 be 15 a9 3b be a3 31 b5 3e 57 8d b3 3e
       -0.14625831 -0.18326218 0.35389432 0.3506877
000060 3d f3 da bd 61 e5 0e bf 2b 29 98 3e 4b 12 a9 3e
       -0.10690925 -0.55818754 0.2971891 0.3302177
000070 0b 2f 00 3f 09 66 81 bf 01 56 18 3f f2 ca 9e 3e
       0.5007178 -1.0109264 0.5950623 0.3101421
000080 d8 c1 6c be bd 44 40 3e a4 82 60 3e 87 87 d8 3d
       -0.2312082 0.18776222 0.21924835 0.10572725
000090 68 40 a9 3f 62 2c d4 be 32 1c 62 bd 62 92 90 be
       1.322278 -0.4144011 -0.05520267 -0.2823668
0000a0 52 15 70 bf ff 2c 95 3d e3 99 a0 bf 4a e8 1b bd
       -0.9378253 0.07283973 -1.2546962 -0.038063325
0000b0 f8 af 81 3e 00 ad 5c bf 36 f0 f3 be c3 38 fd 3e
       0.25329566 -0.8620148 -0.47644204 0.49457368
0000c0 c2 32 40 be 9a 20 00 be 25 c5 c4 be 20 54 48 bf
       -0.18769363 -0.12512437 -0.3843166 -0.78253365
0000d0 5d 94 2e 3f 59 a7 e8 be bc ec fd 3e d5 d5 c0 bd
       0.68195134 -0.45440176 0.49594676 -0.09415785
0000e0 30 f4 47 3e 83 0a cb 3e 0f 76 1f 3f 49 d2 1e 3e
       0.19526744 0.39656457 0.6228952 0.15509905
0000f0 f5 77 62 3f 88 84 28 bf bb f5 e3 bd 44 71 1b bf
       0.8846429 -0.65827227 -0.11130854 -0.60719705
000100 07 37 5a be 01 4e 58 3c 4a 81 12 3f 56 2e 13 be
       -0.21310054 0.013202191 0.5722853 -0.14373145
000110 8a c6 8f 3e 17 42 3c 3f 3e 29 ba 3d 20 60 97 be
       0.2808116 0.73538345 0.090898976 -0.29565525
000120 61 0d 3b 3e f7 92 38 3f aa 2b 33 3f fb a7 e9 3d
       0.18266822 0.7209925 0.699885 0.11408993
000130 ee 14 91 be a8 f2 77 bc ec f3 f5 3e 50 98 e3 be
       -0.2833628 -0.015133537 0.4803766 -0.44452143
000140 26 ad 20 bf d4 5e 43 3e c9 3f 6c bd 78 72 f0 be
       -0.62764204 0.19079143 -0.057678018 -0.46962333
000150 73 73 03 3d ca 3e 6e 3e 60 49 e4 3d 3e 88 21 3e
       0.032092523 0.2326614 0.11146808 0.15774629
000160 6a bb 15 3f b8 7f 89 be f4 67 c6 3e b6 c0 80 3f
       0.58489096 -0.26855254 0.38751185 1.0058811
000170 cc 57 3f be b2 75 73 3e 33 56 65 bf 07 5a 97 be
       -0.18685836 0.23775366 -0.89584655 -0.29560873
000180 be 1c 3b 3f e7 1a d3 3d 5a 0c fd 3e 55 47 10 3d
       0.7309073 0.103078656 0.49423486 0.035224278
000190 0d 81 31 3f 32 28 39 3f 76 87 56 3e 69 89 bc 3e
       0.6933754 0.7232696 0.20950112 0.36823586
0001a0 a9 11 c7 3d 09 3c ae bc ed d2 7c bf fb c3 d6 be
       0.09720165 -0.021268861 -0.9875935 -0.41946396
0001b0 d6 eb f1 3d c4 ec 39 3f 38 61 07 bf 81 89 f6 3e
       0.1181256 0.726269 -0.5288272 0.48151782

generator.fc1.bias f4 [16]
000000 09 5d a7 3e 4b ac 93 3b e7 c8 6d be f3 20 0d be
       0.32688168 0.004506623 -0.2322117 -0.137821
000010 31 68 25 3e 7d ad 95 3c 99 22 98 3e 73 63 bf 3c
       0.16153027 0.018271202 0.29713896 0.02336285
000020 68 70 51 3b 46 ff 94 3d 1a 76 a3 be 03 f9 2a 3e
       0.0031957868 0.07275252 -0.31926042 0.16696553
000030 61 fe 84 be e7 44 86 be a6 06 33 be ef 39 71 3e
       -0.25975326 -0.26224443 -0.17483005 0.23557256

generator.fc2.weight f4 [8, 16]
000000 7b 02 11 3f a0 cc e5 3e df 7b e6 3d 3c ac 3c 3e
       0.5664441 0.4488268 0.11254095 0.18425077
000010 33 da a9 be 31 90 96 be 79 eb ca 3d 20 a8 a3 3e
       -0.33174285 -0.29406884 0.09908194 0.31964207
000020 fc eb 80 be 66 4c 9d be 88 45 d5 be d8 d5 8e bd
       -0.25180042 -0.3072235 -0.4165461 -0.06974381
000030 c8 e9 82 be 4a 2c e3 bd 6f b6 3a 3d 25 d3 91 3e
       -0.25568986 -0.11092432 0.04558414 0.28481403
000040 fd 5c 37 3f 11 c9 ca 3d 5f e4 ad 3d 3b 3f 02 bf
       0.71626264 0.099016316 0.08490824 -0.5087773
000050 38 be 12 3d a9 b9 49 3c 09 16 74 3f 3e d0 94 be
       0.035825938 0.012312331 0.9534612 -0.29065126
000060 65 59 7e 3d e6 e5 d2 3e 81 87 af be 42 71 c7 3e
       0.062096972 0.41191024 -0.3428307 0.38953596
000070 b2 99 ee be 66 61 3f bf 48 17 80 be 7b 49 16 be
       -0.46601635 -0.74757993 -0.25017762 -0.14676468
000080 24 28 98 3e 7a 39 be be 62 73 32 3f 26 ce 4a 3e
       0.29718125 -0.37153226 0.6970731 0.19805202
000090 b7 74 d0 bb 23 56 41 be 2d 6f 93 bc 1c ad 77 bf
       -0.0063615697 -0.18880515 -0.017997349 -0.9674852
0000a0 42 68 d6 3e 43 83 58 3d 23 8f 8f 3e 9a 35 90 bb
       0.41876417 0.052859556 0.28038892 -0.004400921
0000b0 be df 2b 3e ac bf 19 3f 11 33 3a 3e 08 e7 e0 3c
       0.1678457 0.60058093 0.18183543 0.027453914
0000c0 9f 8d b5 bd 7e b3 08 3f c1 55 59 3f 0b 68 a4 3e
       -0.08864903 0.53398883 0.84896475 0.32110628
0000d0 ec 80 ee bd de 01 a3 bd e7 e3 60 bd ba 32 f5 bd
       -0.11645684 -0.079593405 -0.054904845 -0.11972566
0000e0 b0 96 ed 3d 13 8c 04 3f cd 54 cf 3e 19 86 60 3e
       0.11601007 0.51776236 0.40494385 0.21926154
0000f0 e1 5a 62 3e ea 58 90 bf d6 8e ae 3d aa e8 b4 3e
       0.2210498 -1.1277134 0.085233375 0.3533376
000100 64 bd 93 be 76 54 3b 3f b4 eb 03 3e c5 83 8d bd
       -0.2885543 0.7317575 0.12882882 -0.06909899
000110 6f bf 52 3d a5 60 c9 be 3c 5b db 3e 44 a9 96 bc
       0.051452097 -0.39331546 0.42843044 -0.018391259
000120 48 69 b0 3e 75 1a dd bd fe f2 6a 3e 4a 51 38 be
       0.34455323 -0.10796062 0.22944257 -0.1799976
000130 9a 01 ff 3e 65 b8 06 3c 78 7c dc 3d 50 18 bf 3d
       0.4980591 0.008222674 0.10765928 0.09330809
000140 37 ef f7 3e af 1f b1 be a7 ca df be a4 2e a5 3e
       0.48424694 -0.34594485 -0.437093 0.32262146
000150 81 0b 14 3f 79 38 09 3e 26 4e 81 3d 8f 77 80 be
       0.57830054 0.13400449 0.06313734 -0.25091216
000160 57 47 2b 3e c0 a4 b6 be 3b b7 94 3d a8 37 2d bf
       0.16726433 -0.3567257 0.07261511 -0.6766305
000170 a4 37 a7 3e 39 ca 09 bf c7 5a cc 3e 74 fb 55 3f
       0.32659638 -0.5382419 0.39913008 0.8358681
000180 c9 17 91 be 33 b2 f4 bd 5a 32 eb 3e e6 a2 9e bd
       -0.2833846 -0.11948051 0.45936853 -0.07745914
000190 d3 f8 32 bd aa 9f 28 3e 52 09 28 3f 04 9d 60 3e
       -0.04369433 0.16467157 0.6563922 0.21934897
0001a0 86 ce 8c bd 88 b3 1f 3e 73 50 50 3f 5b 98 3f 3d
       -0.06875329 0.1559583 0.81372756 0.046776157
0001b0 37 ef c0 3d 1e c3 5f 3b f0 b5 d8 3e b0 58 23 3e
       0.094206266 0.0034143399 0.42326307 0.159518
0001c0 bb 2c 19 be af 39 e1 3e f4 e0 00 bf 3f 8c 96 3e
       -0.1495847 0.43989322 -0.5034325 0.29403874
0001d0 88 69 02 3c 31 47 b4 be 5b 1b 1c bf 2b fa 00 bf
       0.007959731 -0.35210565 -0.6097924 -0.50381726
0001e0 62 a1 a2 be 60 52 3e bf 9e 05 66 be 8b ac cf bd
       -0.3176375 -0.74344444 -0.2246308 -0.10140332
0001f0 30 29 2a bb fd 2f 80 3d f3 7d 56 bd c9 a7 66 3d
       -0.002596449 0.06259153 -0.05236621 0.056312356

generator.fc2.bias f4 [8]
000000 72 08 db 3d 96 a0 f5 3d 17 6a 2f 3d f5 1e 46 3e
       0.1069497 0.1199352 0.042825785 0.19347747
000010 3d 4c 04 3e 12 36 c3 3d aa 19 88 3d c6 8b ea bd
       0.12919708 0.095317975 0.0664552 -0.11452441

generator.fc3.weight f4 [16, 8]
000000 48 fa 9e be 8e 53 1e 3f c9 a6 3a 3f 0f 51 1f 3e
       -0.31050324 0.61846244 0.72910744 0.15558265
000010 f9 e9 94 bf ab a9 73 be bc 47 40 3f c9 34 36 bf
       -1.1633903 -0.23795192 0.7510946 -0.71174294
000020 34 d0 27 3f 35 60 92 3e a2 90 2a bf cf a0 7d bf
       0.6555207 0.28589025 -0.6662694 -0.990735
000030 b1 f3 51 3f 58 b6 9e 3e 76 36 f8 3e f0 8c 84 3e
       0.8201247 0.30998492 0.4847905 0.25888777
000040 76 88 c3 3d 36 22 d3 3d 55 23 8b be 7c 88 ba 3d
       0.09547512 0.103092596 -0.27175394 0.091080636
000050 87 c1 22 bf 39 ee 62 3f 81 49 fd be 58 4c 1b 3f
       -0.6357655 0.8864475 -0.49470142 0.60663366
000060 8b c6 eb 3e 4f 20 9f be 9f e8 27 3e cb f0 57 3f
       0.46049914 -0.31079337 0.16397332 0.84351796
000070 3e 8e 30 be be f1 e9 be 39 34 3e be 70 49 74 3e
       -0.17241761 -0.45692247 -0.18574609 0.23856139
000080 4a 0a ff 3e 88 e7 84 be 90 9c 99 3f 4d 3b 2e 3e
       0.49812537 -0.25957894 1.2000904 0.17014809
000090 05 58 a6 bd f7 ec e6 be 98 77 31 3e c6 bb 98 bd
       -0.08122257 -0.45102665 0.17330778 -0.0745769
0000a0 4f 80 07 bf 95 fc ce 3d 95 60 fd be b4 39 29 be
       -0.5293016 0.1010677 -0.4948775 -0.16525918
0000b0 00 55 02 bf 87 e1 42 bf 1f 0f a6 3e c4 4d 8d bf
       -0.5091095 -0.7612538 0.3243341 -1.1039357
0000c0 b5 18 8a 3e 8d 22 4e bd 7b ee ef be 4a bc c9 3d
       0.26971975 -0.05032592 -0.46861634 0.098503664
0000d0 f5 11 4f 3f c9 fc a9 3d 46 b7 67 be c1 43 91 be
       0.80886775 0.08300168 -0.22628507 -0.28372005
0000e0 ac 9c 12 3e 29 8d 81 3c b2 5e a8 3e 5d 7d dd bd
       0.14317578 0.01581438 0.32884747 -0.10814927
0000f0 ee 7d e7 bf 1d ba be 3d 8d f5 25 bf b9 cf 81 be
       -1.8085306 0.09312842 -0.64827806 -0.25353792
000100 dd 2a b6 3e 31 6a 88 bd ba f8 d6 3d b9 34 2b 3f
       0.35579577 -0.066608794 0.104966596 0.66877323
000110 57 c4 f0 bd d2 e3 08 bf d1 87 54 3e d4 48 b0 be
       -0.11756199 -0.53472626 0.20754935 -0.34430563
000120 24 8b 88 bf f0 67 4d bc b4 27 e2 bd b3 2a 59 bf
       -1.0667462 -0.012536988 -0.11042729 -0.8483078
000130 4c 9b 55 bd 26 49 a2 3e 6f 2b 04 3f 7c 55 b7 be
       -0.052150056 0.31696433 0.51628774 -0.35807407
000140 83 5e 91 bd 8f 06 69 3e 1a c7 8a bf 8e 46 12 be
       -0.07098105 0.22756408 -1.0842011 -0.14284727
000150 1e ee 8e 3f 2d 89 47 bf 5f 95 df be 29 4a 6b be
       1.1166418 -0.7794369 -0.4366865 -0.22977509
000160 3e 8d b5 be 85 4c 2e 3e 9f 51 e5 3c 5e c2 c9 bf
       -0.35459322 0.17021377 0.027993022 -1.5762441
000170 34 ab 1e bf 62 14 e5 bc b4 9e 40 be 0f f2 93 bf
       -0.61979985 -0.02796382 -0.1881054 -1.1558245
000180 4e be 09 bf ab bb fb bd f3 40 25 3f 80 c7 57 bf
       -0.53806007 -0.12291654 0.6455223 -0.8428879
000190 ab f3 96 be a1 2c 47 bf 5e 77 0c 3e ec e8 1a bf
       -0.2948278 -0.77802473 0.1371741 -0.6051166
0001a0 42 b4 2a bf 02 75 9f be 44 0a a5 be 2c a9 13 bd
       -0.666813 -0.31143957 -0.32234395 -0.036050007
0001b0 ae 1a 08 3f 1e 47 29 3d ff ab 02 bf fd 8b 15 bf
       0.5316571 0.04132759 -0.51043695 -0.5841673
0001c0 f3 14 64 bf c5 4f d7 3e da 21 79 3e c5 f8 bb be
       -0.89094466 0.42053047 0.2432932 -0.36713234
0001d0 62 4f fe 3e b5 0d 2b bd 8e f9 13 bf ae a0 3f bf
       0.4966994 -0.04176112 -0.57802665 -0.7485455
0001e0 f0 da 65 bf 1a d4 6d bc 91 72 85 3f 5e 80 73 be
       -0.897872 -0.014515901 1.0425588 -0.23779437
0001f0 bf 91 24 3e 98 55 42 3e b5 bb 28 3e b3 fb b6 bf
       0.16071223 0.18977964 0.16477855 -1.4295563

generator.fc3.bias f4 [16]
000000 5b d3 a7 3e 6f 79 35 bd fe 8c be 3d eb dd 41 3e
       0.3277844 -0.04430526 0.09304236 0.18932311
000010 33 fc 8f 3c 86 9a a7 be 1f 32 14 3e 7f 80 08 3e
       0.017576313 -0.3273508 0.14472245 0.13330267
000020 c6 81 05 bc c9 69 3e be ef 2a a1 3e d0 a2 95 38
       -0.008148616 -0.18595041 0.31478068 7.1352e-05
000030 15 bd ac 3e 16 c7 3f bb d9 d6 94 be 05 12 5d 3e
       0.33738008 -0.0029262952 -0.29070166 0.21588905

generator.fc4.weight f4 [7, 16]
000000 14 87 9c 3e a0 e8 ad bd ae b4 84 be 50 ca c0 be
       0.30571806 -0.08491635 -0.25919098 -0.37654352
000010 a4 60 60 3e 4c e4 c0 3e ea b2 ae be 4e 50 b7 3e
       0.21911865 0.37674177 -0.34120876 0.35803455
000020 8e ff 76 3e 59 5b 1b 3e 62 d2 0e bf c5 81 21 3e
       0.24120924 0.15171565 -0.5578977 0.1577216
000030 e5 27 b0 be b3 e4 3a 3e 9c d4 77 be cf 4e 3d bd
       -0.34405437 0.18251304 -0.24202198 -0.046217736
000040 9b 4b 7e 3d e1 84 08 3e 01 b7 ae be 23 6f 46 be
       0.06208382 0.1333194 -0.34123996 -0.19378333
000050 eb ac dd 3d e4 80 b6 3e 03 99 45 bf 0e 55 e0 3d
       0.10823997 0.3564521 -0.771866 0.10953723
000060 39 08 7d 3d 9a 83 9e 3d 72 74 8c be 20 cf 3d 3f
       0.06177542 0.07739945 -0.2743259 0.7414417
000070 a7 0a 81 bd 63 ec bf 3d f5 f0 35 be 66 6e be 3e
       -0.0630086 0.09371259 -0.17767699 0.37193602
000080 68 38 0a 3f 2d 48 3e be b9 d4 95 be 7a 48 63 be
       0.5399232 -0.1858222 -0.29263857 -0.22195616
000090 5b a2 19 3f de 71 ef 3b 26 b3 b5 3c 6f 7a c6 3e
       0.6001336 0.007307275 0.022180151 0.38765284
0000a0 c2 08 b0 3c a4 80 c7 be a4 18 55 3e 6c 52 a9 be
       0.021488551 -0.38965333 0.20810181 -0.33070695
0000b0 9d 0d 95 3e b5 d7 4f be 98 10 81 be f4 a3 d1 3c
       0.2911195 -0.2029713 -0.25207973 0.025590874
0000c0 a5 96 22 3e 89 f5 05 be fa a5 cc 3e ef 4d 76 be
       0.15877779 -0.13081945 0.3997038 -0.24053167
0000d0 6c 06 fd 3e 1a 38 4f 3d 14 87 ca 3e d2 4b 34 3d
       0.49418962 0.050590612 0.3955618 0.04401762
0000e0 12 b6 ed 3d 96 e1 50 3d 23 7a f7 be 09 51 13 bd
       0.11606993 0.050996386 -0.4833537 -0.035965953
0000f0 04 59 f3 bd d0 57 c7 3e 84 03 05 bf d9 d3 b4 3e
       -0.11882213 0.38934183 -0.5195849 0.35317877
000100 42 3e 01 be b0 22 99 3d 07 00 2e 3e 2f 65 86 be
       -0.12621406 0.07477319 0.16992198 -0.26249072
000110 f6 46 83 3d f2 cd 98 be e3 49 75 be bf c5 f3 3d
       0.06410019 -0.29844624 -0.23953967 0.119029514
000120 b2 c1 19 3e f6 bc 24 3f 16 01 2e bf 6d 6d 10 bd
       0.15015295 0.6435083 -0.67970407 -0.035260607
000130 ac b0 c4 be 3c a2 a3 3e 27 2d 62 3d 48 9d b9 be
       -0.3841604 0.31959713 0.055218842 -0.3625281
000140 7b 6d 4f bd f4 3a f9 3e 89 bd c1 be ed 1d 2f be
       -0.050641518 0.4867779 -0.37839916 -0.1710126
000150 33 69 b1 be f3 c3 bc be f2 68 26 be 53 be 2a bd
       -0.34650573 -0.36868247 -0.16250971 -0.041685414
000160 ec dc f3 39 b7 2b 28 3f 3f 20 04 bd db a1 17 be
       0.0004651317 0.65691704 -0.032257315 -0.14807837
000170 3f d9 a7 3f 79 be 15 be 69 79 f5 3e c9 c5 ab be
       1.3113173 -0.14623441 0.4794419 -0.33549336
000180 3f 32 19 bf 54 88 76 3e 15 ef 28 be 0b 07 9f 3f
       -0.59842294 0.24075443 -0.16497453 1.2424024
000190 d9 97 92 3f a7 0c bd 3e 9d b4 20 bf fc ea 4e be
       1.145259 0.36923715 -0.62775594 -0.20206827
0001a0 81 54 46 3e 3c 68 21 be c3 e7 37 bd af c1 07 3e
       0.19368173 -0.15762419 -0.04489876 0.13257478
0001b0 db 18 7f 3d 9d 7a 2e be ec 82 6b be a3 0c b4 be
       0.062279563 -0.17038961 -0.22999161 -0.3516589

generator.fc4.bias f4 [7]
000000 c9 4f 23 3e 62 d5 ff 3d ff 21 29 be 56 e5 9d bd
       0.15948404 0.124918714 -0.16516875 -0.07709758
000010 11 d7 5c be b6 dd 9a bd f7 9f 1a be
       -0.21566416 -0.07561819 -0.15100084

generator.layer_norm_hidden_0.weight f4 [16]
000000 53 b8 7e 3f 53 b8 7e 3f 53 b8 7e 3f 53 b8 7e 3f
       0.99500006 0.99500006 0.99500006 0.99500006
000010 53 b8 7e 3f d9 a3 80 3f 4f 62 80 3f 53 b8 7e 3f
       0.99500006 1.0050002 1.0030001 0.99500006
000020 53 b8 7e 3f 53 b8 7e 3f d9 a3 80 3f 53 b8 7e 3f
       0.99500006 0.99500006 1.0050002 0.99500006
000030 53 b8 7e 3f 53 b8 7e 3f 53 b8 7e 3f 53 b8 7e 3f
       0.99500006 0.99500006 0.99500006 0.99500006

generator.layer_norm_hidden_0.bias f4 [16]
000000 0b d7 a3 bb 0b d7 a3 3b 0b d7 a3 3b 0b d7 a3 3b
       -0.0050000004 0.0050000004 0.0050000004 0.0050000004
000010 0b d7 a3 3b 0b d7 a3 bb 0b d7 a3 bb 0b d7 a3 bb
       0.0050000004 -0.0050000004 -0.0050000004 -0.0050000004
000020 0b d7 a3 bb 0b d7 a3 bb 0b d7 a3 bb 0b d7 a3 bb
       -0.0050000004 -0.0050000004 -0.0050000004 -0.0050000004
000030 0b d7 a3 bb 0b d7 a3 3b 0b d7 a3 bb 0b d7 a3 bb
       -0.0050000004 0.0050000004 -0.0050000004 -0.0050000004

generator.layer_norm_hidden_1.weight f4 [8]
000000 65 3b 7f 3f d9 a3 80 3f d9 a3 80 3f 53 b8 7e 3f
       0.99700004 1.0050002 1.0050002 0.99500006
000010 d9 a3 80 3f 53 b8 7e 3f c5 20 80 3f 53 b8 7e 3f
       1.0050002 0.99500006 1.001 0.99500006

generator.layer_norm_hidden_1.bias f4 [8]
000000 0b d7 a3 3b 0b d7 a3 bb 0b d7 a3 bb 0b d7 a3 3b
       0.0050000004 -0.0050000004 -0.0050000004 0.0050000004
000010 0b d7 a3 3b 0b d7 a3 bb 0b d7 a3 bb 0b d7 a3 3b
       0.0050000004 -0.0050000004 -0.0050000004 0.0050000004

discriminator.fc1.weight f4 [8, 7]
000000 f6 09 e7 3e fe c5 57 3e 17 36 46 3f 0c 41 33 3f
       0.45124787 0.21071622 0.77426285 0.7002113
000010 11 e2 25 3f 50 6e 16 3d cd 70 f6 3d 47 0e df be
       0.64798075 0.036726296 0.12033234 -0.4356558
000020 24 71 0f 3f 14 47 70 bd 5c 51 fa 3e 93 de b2 3e
       0.56032014 -0.058661535 0.48890197 0.34935436
000030 94 35 00 bf 54 44 90 be 12 79 1a 3f b9 16 7b 3e
       -0.50081754 -0.2817713 0.6034099 0.24520387
000040 13 bf 82 3f 07 64 36 bf de 5b 9f bf 11 2b dc 3e
       1.0214561 -0.7124638 -1.2449911 0.43001607
000050 42 54 39 be 08 51 9c 3e 86 f6 93 3d 23 21 a7 bc
       -0.18098548 0.30530572 0.07224755 -0.020401543
000060 7f d4 ad be e9 67 a7 3e 51 69 e6 bd 17 30 f7 3e
       -0.33951184 0.32696465 -0.11250556 0.48278877
000070 ec a0 94 bd 0e 5c 83 3e f8 01 12 3f a0 b5 ae 3e
       -0.07257256 0.2565617 0.57034254 0.34122944
000080 3c 41 2a bf e5 18 12 3f 85 05 22 3f f7 bd f8 3d
       -0.6650579 0.57069236 0.6328967 0.12145608
000090 4c ee 09 3f 23 88 9c be f7 8c 7f 3e 33 7f ac 3e
       0.5387924 -0.30572614 0.24956118 0.33690795
0000a0 40 76 27 3e cd da 08 bf 08 e9 dd bd a2 59 af be
       0.16353703 -0.53458863 -0.10835463 -0.34248072
0000b0 49 71 be 3e 4e fb 85 bf 7a 0b 64 be 62 d6 73 bf
       0.37195805 -1.0467317 -0.22270003 -0.95249
0000c0 53 05 ee 3e 1f 4a 96 3e a0 5d 98 bd 48 3c d6 bd
       0.46488437 0.29353425 -0.074397326 -0.104607165
0000d0 14 a2 f4 bd 2d d1 70 3f f1 5e e1 bd eb af da 3e
       -0.119449764 0.94069177 -0.11004437 0.4271234

discriminator.fc1.bias f4 [8]
000000 cf cd 42 3e 71 5c e4 bd eb a1 c2 3d eb 34 fd 3d
       0.19023822 -0.11150444 0.0950354 0.12363609
000010 bb d2 24 be dd 0d 88 be 50 0f 91 3b 78 83 9e 3e
       -0.16096012 -0.26573077 0.004426874 0.30959678

discriminator.fc2.weight f4 [1, 8]
000000 9e 37 85 3c 00 7e 1f bd 98 97 2f 3f 6b f2 88 3d
       0.016261872 -0.038938522 0.6859069 0.066868626
000010 bb 14 ed be cc bc 86 3d 56 10 87 be ff ad ae bc
       -0.4630488 0.06578979 -0.2637965 -0.021323202

discriminator.layer_norm_hidden_0.weight f4 [8]
000000 4e a4 80 3f 32 a2 80 3f 04 ba 7e 3f 0e a4 80 3f
       1.0050142 1.0049498 0.9950259 1.0050066
000010 7b bc 7e 3f 5b ba 7e 3f d2 bb 7e 3f 38 ba 7e 3f
       0.9950635 0.99503106 0.9950534 0.995029

discriminator.layer_norm_hidden_0.bias f4 [8]
000000 c1 0a a4 bb 2d 98 a3 3b 0e 2f a3 bb d3 70 a3 bb
       -0.005006165 0.004992506 -0.0049799746 -0.004987815
000010 5a 2c a3 3b 23 f7 a2 bb a3 25 a3 3b 49 76 a2 3b
       0.0049796524 -0.0049733086 0.004978852 0.0049579483

exp_avg f4 [16, 7]
000000 b3 00 d5 ba 53 54 d5 ba 46 27 6b 21 9f 47 d5 ba
       -0.0016250819 -0.0016275741 7.9673075e-19 -0.0016271955
000010 46 43 d5 ba de 53 d5 ba 0e 28 d5 ba fd 70 f4 ba
       -0.0016270659 -0.0016275605 -0.0016262548 -0.0018649396
000020 d4 23 f6 ba c0 cf 1e 22 48 e0 f5 ba b9 e4 f5 ba
       -0.0018778988 2.1522975e-18 -0.0018758858 -0.0018760181
000030 10 fa f5 ba 30 c7 f8 ba 40 2d 63 bb 52 2e 63 bb
       -0.0018766541 -0.0018980261 -0.0034664422 -0.003466506
000040 52 70 83 20 a3 30 63 bb 14 33 63 bb e6 36 63 bb
       2.226659e-19 -0.003466644 -0.0034667896 -0.0034670173
000050 8d 30 63 bb 55 b8 33 bb 4b d1 33 bb c7 bd 10 21
       -0.003466639 -0.0027423103 -0.002743798 4.9040266e-19
000060 80 d0 33 bb 18 d3 33 bb cb d4 33 bb 12 f9 33 bb
       -0.0027437508 -0.0027439054 -0.0027440067 -0.002746169
000070 73 72 be 3b b5 76 be 3b ab 26 1a a2 93 72 be 3b
       0.0058119833 0.005812491 -2.0891362e-18 0.005811998
000080 4e 73 be 3b ac 79 be 3b 19 b2 be 3b d2 a8 c9 3b
       0.0058120852 0.0058128443 0.0058195707 0.006154158
000090 1a c1 c9 3b 93 d3 ac a1 3d be c9 3b ee bf c9 3b
       0.0061570527 -1.1711177e-18 0.0061567114 0.006156913
0000a0 d2 c3 c9 3b 50 cd c9 3b 99 60 e3 39 ef 17 e5 39
       0.006157377 0.0061585084 0.00043368785 0.00043696116
0000b0 3b 62 20 a1 91 fe e4 39 e5 fc e4 39 0a 1e e5 39
       -5.4340116e-19 0.00043677216 0.0004367597 0.00043700665
0000c0 27 3f e4 39 4b a3 b5 3b 5e 50 b5 3b 0e 0b a1 21
       0.000435346 0.0055431477 0.005533262 1.091271e-18
0000d0 e9 61 b5 3b 2b 64 b5 3b b9 60 b5 3b 13 95 b4 3b
       0.0055353534 0.0055356226 0.005535212 0.005510935
0000e0 9a 57 fb 3a 2b 2a fc 3a c3 57 94 a1 9a 04 fc 3a
       0.0019175888 0.0019238641 -1.00521e-18 0.0019227446
0000f0 34 04 fc 3a 90 0f fc 3a e7 92 fd 3a 00 b4 b6 3b
       0.0019227327 0.0019230712 0.0019346148 0.005575657
000100 dc f0 b6 3b 16 5c c2 a1 2f ea b6 3b 75 ea b6 3b
       0.005582912 -1.3170326e-18 0.005582116 0.0055821487
000110 ec ee b6 3b b6 1f b7 3b fe 9b 65 3a 04 cc 65 3a
       0.005582681 0.005588497 0.00087589014 0.00087660574
000120 f8 7c 7f a1 32 c6 65 3a f4 b9 65 3a 5c d3 65 3a
       -8.6562755e-19 0.000876519 0.0008763366 0.0008767152
000130 28 fb 64 3a 7f aa c0 ba e8 dc c0 ba 01 2c cd 20
       0.0008734935 -0.0014699249 -0.0014714273 3.475747e-19
000140 7d cc c0 ba 85 d0 c0 ba 40 d3 c0 ba 73 d0 c1 ba
       -0.001470938 -0.0014710581 -0.0014711395 -0.0014786854
000150 5b 0f 3d 3b 2d 21 3d 3b 99 fd 19 a1 fd 1b 3d 3b
       0.0028848264 0.0028858886 -5.217405e-19 0.0028855794
000160 fc 1b 3d 3b c1 21 3d 3b 08 15 3d 3b b0 64 a9 bc
       0.0028855791 0.002885923 0.0028851647 -0.020677894
000170 c2 63 a9 bc c2 59 fd 21 19 64 a9 bc 0d 65 a9 bc
       -0.020677451 1.7167706e-18 -0.020677613 -0.020678068
000180 87 66 a9 bc e2 5d a9 bc 92 01 24 b9 e9 3c 24 b9
       -0.020678772 -0.02067465 -0.00015640844 -0.0001566295
000190 95 ad 14 a0 8f 71 24 b9 b8 64 24 b9 9b 52 24 b9
       -1.2593521e-19 -0.00015682563 -0.0001567778 -0.00015671032
0001a0 44 2e 21 b9 e7 63 8c 3b 56 5e 8c 3b 6a a0 0d 21
       -0.00015371392 0.00428437 0.0042837067 4.7984964e-19
0001b0 17 5e 8c 3b 77 5f 8c 3b 0e 60 8c 3b 36 66 8c 3b
       0.0042836773 0.0042838412 0.0042839115 0.0042846454

exp_avg f4 [16]
000000 44 27 eb bb c0 cf 9e bc 51 70 03 bb c7 bd 90 bb
       -0.0071763117 -0.019386172 -0.002005596 -0.0044171545
000010 ab 26 9a 3c 93 d3 2c 3c 3a 62 a0 3b 0e 0b 21 bc
       0.018817266 0.01054849 0.004894522 -0.009829296
000020 c3 57 14 3c 17 5c 42 3c f8 7c ff 3b 00 2c 4d bb
       0.009054127 0.011862776 0.00779688 -0.0031306744
000030 99 fd 99 3b c5 59 7d bc 94 ad 94 3a 6a a0 8d bb
       0.0046994206 -0.015463297 0.0011343234 -0.0043221014

exp_avg f4 [8, 16]
000000 5d fe b0 bc 8e 9c d6 3b 8a 8e 21 3c 22 8c 12 3c
       -0.021605665 0.0065494245 0.009860644 0.008944543
000010 d0 87 a1 3a 32 33 9a 3b d1 74 8c bc ce 75 bf 3b
       0.00123238 0.00470581 -0.017145546 0.005842901
000020 e7 e6 da ba 0d 71 8e ba e7 d8 83 3b c5 5f f1 b9
       -0.0016700894 -0.0010867432 0.0040236595 -0.00046038456
000030 bc 5f de 3a 09 87 0b 3c f2 ea 04 bc e7 72 8e ba
       0.0016965787 0.008516082 -0.008112656 -0.0010867984
000040 60 79 21 3c a9 30 15 bb 87 3e 55 bb 2c 49 47 bb
       0.009855598 -0.00227646 -0.003253849 -0.0030408604
000050 3a 03 b1 ba 88 a5 bd ba 62 1e eb ba e4 ef 03 bb
       -0.001350499 -0.0014468888 -0.0017938132 -0.0020132
000060 0d 62 f2 3a ae b9 92 3a af fc 19 3a 17 0e 0c bb
       0.0018492356 0.0011194253 0.00058741396 -0.0021370703
000070 56 12 bc 3a 55 fe 0e bb e3 c6 c6 3b 0e ae c2 ba
       0.0014348726 -0.0021819074 0.0060661896 -0.0014852898
000080 b7 25 a8 bc 94 13 68 3b e6 af 8d 3b a5 97 8e 3b
       -0.020525796 0.003541206 0.0043239472 0.0043515735
000090 a9 05 ae 3b 12 1b ec 3a 7b ac c1 3c dd e0 4d 3b
       0.0053107333 0.0018013439 0.023641815 0.0031414547
0000a0 1e d9 ce bb b0 ca 64 bb da 64 ee bb 59 ac 1f 3c
       -0.0063125035 -0.003491085 -0.007275206 0.009745681
0000b0 2b e6 0b bc 86 dc 5a 3a 88 68 99 bc 8a 84 07 3c
       -0.008538763 0.00083489006 -0.018726602 0.008271346
0000c0 4d 99 dd 3b aa 53 3a ba 01 5e 79 ba 02 9a 7c ba
       0.0067626596 -0.0007107804 -0.0009512604 -0.0009635986
0000d0 62 e0 92 ba f2 f1 38 b9 10 b3 24 bc 98 ed 13 ba
       -0.0011205787 -0.00017637739 -0.010052457 -0.0005643009
0000e0 17 6c 0b 3b fe 1c bd 3a 69 c1 02 3b 4f 90 58 bb
       0.0021274143 0.0014428196 0.0019951707 -0.0033045
0000f0 58 1b 1c 3b 67 e9 fe b8 ff e9 b0 3b 3f d4 0d bb
       0.002382001 -0.000121551384 0.0053989883 -0.00216414
000100 1b 4c c5 3b 82 50 4e 38 00 e3 3c 38 3d 04 3c b8
       0.0060210354 4.9189206e-05 4.5034103e-05 -4.482664e-05
000110 14 df 39 ba bd 50 fb 39 69 41 7f bc 0f 55 2a 39
       -0.0007090431 0.00047934605 -0.01557956 0.0001624415
000120 4e 2d 21 3b 2a a3 e8 3a c5 14 2c 3b 19 45 85 bb
       0.0024593654 0.0017748822 0.0026257497 -0.004067075
000130 f0 cf 3d 3b 79 b5 54 3a c7 f3 ad 3b f4 4b 12 bb
       0.0028963052 0.00081142 0.0053086015 -0.0022323104
000140 20 1f 99 3c 79 d5 87 bb a4 f8 bf bb 88 82 b3 bb
       0.0186916 -0.004145321 -0.0058584977 -0.005478207
000150 c6 aa 37 bb 3d af 29 bb cd 6e c0 bb ab c8 70 bb
       -0.0028025373 -0.0025891804 -0.0058725835 -0.0036740701
000160 aa 6e 75 3b 28 6b 14 3b 91 f5 ef 3a 97 43 96 bb
       0.0037449994 0.0022646878 0.0018307437 -0.004585694
000170 17 f4 58 3b 70 66 6e bb 61 98 44 3c 90 fc 59 bb
       0.0033104473 -0.0036376975 0.011999221 -0.0033262111
000180 53 ad 05 bb f6 32 60 ba 9f d6 a3 ba cd d3 8d ba
       -0.0020397499 -0.00085525156 -0.0012499875 -0.0010820568
000190 d2 10 c5 39 20 3a 7d ba 0a 64 74 3c e6 76 5f ba
       0.000375873 -0.00096598454 0.014916429 -0.0008524492
0001a0 88 2c e8 ba dd cc a6 ba 0e 78 31 bb 7b da 59 3b
       -0.0017713467 -0.0012725849 -0.0027079615 0.0033241797
0001b0 42 1d 2c bb 5a 3b eb ba c6 25 59 bb f1 b2 f7 3a
       -0.0026262556 -0.0017946765 -0.0033134087 0.0018897933
0001c0 df 62 19 bc 72 eb 01 3b 76 ea 3c 3b aa 89 2f 3b
       -0.009361952 0.0019824174 0.0028826273 0.0026784935
0001d0 30 b2 96 3a 3c e9 a1 3a 9e 15 2c 3b 6b be e5 3a
       0.0011497196 0.0012352834 0.0026258002 0.0017528062
0001e0 99 61 e8 ba 56 53 98 ba 7a ae fe b9 a2 48 08 3b
       -0.0017729282 -0.0011621516 -0.0004857665 0.0020795246
0001f0 c4 ae a3 ba a9 ba fe 3a 68 39 b5 bb 6c d4 aa 3a
       -0.0012487997 0.0019434291 -0.005530525 0.0013033277

exp_avg f4 [8]
000000 5e f5 92 bc 6b a0 a2 3b 53 86 8e bb a4 10 47 38
       -0.017939266 0.004962971 -0.004349509 4.7460795e-05
000010 04 e9 31 bb c0 3a 0e 3c 78 4a 93 3b 9e 40 8c bb
       -0.0027146945 0.008680999 0.0044949614 -0.004280164

exp_avg f4 [16, 8]
000000 25 bf 91 39 fe 35 92 bb 0b 3f e3 3b 32 77 52 bb
       0.0002779897 -0.004462003 0.0069350055 -0.0032114503
000010 1e 41 bb bb c5 e7 81 3c f5 9f e6 bb dc fd 2e bb
       -0.0057145497 0.015857587 -0.0070381113 -0.0026701605
000020 1e 19 2e ba b1 02 6b 3a 20 fa 55 ba ee c4 8b 39
       -0.0006641316 0.00089649396 -0.00081625767 0.0002665887
000030 b1 30 af 3a de e5 44 bb 1c 15 fd 3a ef 06 85 38
       0.0013365952 -0.0030044238 0.0019308659 6.343226e-05
000040 43 05 80 b8 9b d7 68 bb e2 4b f1 3a 78 f9 ef 39
       -6.104496e-05 -0.0035528901 0.0018409456 0.000457715
000050 8c 3a de b9 0c 7d 00 3b 7c e1 80 ba 2c 02 45 3a
       -0.0004238676 0.0019605784 -0.0009832825 0.0007515277
000060 c8 09 39 38 a7 3c 4f bb 2b 48 5a ba c7 58 18 3b
       4.4116547e-05 -0.0031621845 -0.0008326794 0.0023246275
000070 ad 56 02 3b 2c c8 95 bb 4d 0b e0 3a 9e 7a 23 3b
       0.0019888089 -0.0045709815 0.0017093212 0.0024944912
000080 ab b0 62 3a 90 06 1c bb 33 3a 87 bb 60 aa 8c 3b
       0.00086475414 -0.0023807622 -0.004126811 0.004292771
000090 d2 3b 80 3b 09 80 2b bc 58 f4 6c 3b 5e 6e 8c 3b
       0.003913381 -0.010467538 0.0036156382 0.0042856177
0000a0 80 29 60 3a 36 f3 36 bc e8 33 88 3b 68 3f 1f 3b
       0.0008551106 -0.011166384 0.0041565783 0.0024299268
0000b0 f1 5a 8d ba 13 14 96 3b db 76 4d bb 31 9d 59 3b
       -0.0010784549 0.0045800298 -0.003135136 0.0033205266
0000c0 cd 6b b2 3a c9 e8 49 bc 70 3c be 3b 7e a6 e5 3a
       0.0013612449 -0.012323567 0.0058055446 0.0017520932
0000d0 8e 84 44 bb 01 f5 16 3c e6 8f bc bb 53 b9 3d 3b
       -0.0029986235 0.009213687 -0.0057544587 0.0028949573
0000e0 18 62 e5 b9 69 34 8a 3b 4a 09 58 bb dd 91 0c 3a
       -0.0004375137 0.0042176736 -0.003296452 0.00053623115
0000f0 b7 d6 17 3b 45 d9 de bb 58 f6 58 3b 33 14 34 39
       0.0023168752 -0.006800803 0.0033105817 0.00017173662
000100 48 55 9e b9 53 f9 a0 3b 7c 4d a2 ba 98 2e cd ba
       -0.00030199648 0.0049125343 -0.0012382711 -0.0015654145
000110 5b f0 5c b9 a7 56 8f b9 08 00 2f 3a 18 a6 01 bb
       -0.00021070374 -0.00027339646 0.0006675725 -0.0019782837
000120 d8 8b eb b8 b1 4b 5c 3c 08 46 b4 bb f2 3d 37 bb
       -0.00011231721 0.013445781 -0.0055015124 -0.0027960506
000130 43 43 2e 3a fe b3 95 bb 98 36 33 3b 76 d8 7a bb
       0.0006647596 -0.004568576 0.0027345773 -0.0038275993
000140 66 c7 4e 3a 5e 68 6e bc 71 2a af 3b 7e e6 5d 3b
       0.0007887989 -0.01455125 0.0053456356 0.0033859308
000150 70 74 81 ba 11 cb a3 3b 87 89 6a bb 78 29 95 3b
       -0.000987662 0.0049985726 -0.003578754 0.0045520626
000160 54 07 75 b8 23 bd b1 ba 1b af 7f ba 2b 6f bb 3a
       -5.8419377e-05 -0.0013560395 -0.0009753571 0.0014300098
000170 a3 aa d4 3a 6c 62 78 bb ba 09 dc 3a 28 03 be 3a
       0.001622517 -0.003790046 0.0016787567 0.001449679
000180 68 db 9a ba f1 e6 db 3c 79 23 73 bc b2 b7 14 bb
       -0.0011814656 0.02684352 -0.01484 -0.0022692499
000190 47 14 d3 3b 45 57 b2 bc 48 e3 3a 3c 50 98 94 bb
       0.006441626 -0.021770129 0.011406727 -0.0045347586
0001a0 30 5e 2d b9 be df f9 3a db ca 82 3b 15 2c 89 bb
       -0.00016533653 0.0019063873 0.0039914674 -0.004186163
0001b0 5b 1d 98 bb 75 7d 45 3c 2b fe 9a bb 06 b1 8a bb
       -0.0046421713 0.012053837 -0.004730006 -0.0042325286
0001c0 21 50 2e ba 74 07 18 3c a0 8c 43 bb 32 b7 1b bb
       -0.00066495134 0.009279121 -0.0029838458 -0.0023760316
0001d0 d2 ba b3 39 44 91 21 bb 55 3a 00 3b ff 67 48 bb
       0.00034280733 -0.0024653235 0.0019566019 -0.0030579565
0001e0 ee aa 94 39 65 fe 12 3c 1e 44 f8 38 f8 46 9e bb
       0.00028356112 0.008971785 0.00011838249 -0.0048302375
0001f0 22 95 7d bb 33 7c fc 3b fb 8c 4b bb bd 55 ac bb
       -0.0038693626 0.0077052354 -0.0031059373 -0.0052592442

exp_avg f4 [16]
000000 14 5e a1 3b 6f c6 c1 b9 e0 9b 2f ba c7 00 6d bb
       0.004924545 -0.00036959673 -0.00066989474 -0.0036163793
000010 a2 7e e1 bb f2 06 80 bb 2d b2 3a bb c9 7f 41 ba
       -0.006881551 -0.003907078 -0.0028487549 -0.0007381407
000020 40 38 22 3b 09 88 8e 3b 76 c0 af bb 37 a5 11 bb
       0.0024752766 0.0043497127 -0.0053635193 -0.002222372
000030 3c 53 73 3b c8 61 d3 3b a7 8d 7a 3b 52 b7 f6 3b
       0.003712847 0.0064508654 0.0038231404 0.0075291777

exp_avg f4 [7, 16]
000000 00 c2 b0 3b 8b ba 17 3b 9d be 1d bb ce 8a ab bb
       0.0053942204 0.002315196 -0.0024069913 -0.0052350527
000010 b3 6c aa bb 14 58 50 3b 92 61 1d bb bb a4 b8 ba
       -0.0052009462 0.003179078 -0.0024014455 -0.001408718
000020 b6 28 83 bb 4d 42 7c 38 d0 10 8d 3b d7 6c de 3b
       -0.004002656 6.014323e-05 0.0043049827 0.006787877
000030 d8 7e 0f 3a 4e 03 7f bb e0 94 cd 3a 7c c3 bb 39
       0.0005473918 -0.0038911882 0.0015684627 0.00035813067
000040 2f fa 7f 3c c3 15 b8 3b e7 c6 cc bb 37 81 80 bc
       0.015623613 0.0056178286 -0.006249297 -0.015686614
000050 a9 1f 76 bc ec c9 04 3c c5 36 fb bb 9b 3c 3d bb
       -0.015022197 0.008104783 -0.007666441 -0.0028875235
000060 25 77 4b bc 89 4b 1d 3a a1 3f 38 3c 8b 8b a6 3c
       -0.012418543 0.00060003303 0.011245639 0.020330211
000070 1d bb d8 3a de a2 38 bc 2f 35 93 3b 77 64 60 3b
       0.0016535256 -0.011269299 0.004492424 0.003423957
000080 a6 1c be ba 52 7f 3f 3a 45 44 3b bb ed 65 1e 3b
       -0.0014504388 0.0007305044 -0.0028574627 0.002416964
000090 11 f2 07 3b 51 4b c8 3a a6 c2 d2 3a 0e d3 81 bb
       0.0020743648 0.0015281235 0.0016079738 -0.0039619273
0000a0 bf 8a 19 3b 9f a3 0e 39 61 09 d5 3a 86 4e 8a bb
       0.0023428646 0.00013603129 0.0016253405 -0.0042207865
0000b0 72 ab 85 3a 68 82 b3 3a d3 06 32 b9 fd ad 0c bb
       0.0010198189 0.001369548 -0.00016977945 -0.002146601
0000c0 61 3a fc bb a4 72 97 bb 81 f2 f0 3b 77 e9 ce 3b
       -0.007697389 -0.0046218205 0.0073531275 0.0063144523
0000d0 11 7b d7 3b 8c 1f de bb 69 cb 20 3b f0 a6 da 3b
       0.00657595 -0.006778663 0.0024535304 0.0066727325
0000e0 5a ba 94 3b 16 7a 88 b9 4e de 14 bc 1c 89 ea bb
       0.0045388164 -0.00026030903 -0.009086205 -0.007157458
0000f0 18 eb 01 bb e6 b0 a5 3b 37 19 2f bb fb f5 a8 3a
       -0.0019823965 0.0050564883 -0.002671791 0.0012890691
000100 00 56 cb bb c8 fd 51 bb f1 c8 cf 3b d7 66 ac 3b
       -0.0062053204 -0.0032042135 0.0063410928 0.005261283
000110 99 32 a8 3b b9 c1 b2 bb 4f 92 15 3b 92 50 bc 3b
       0.005132985 -0.0054552224 0.0022822802 0.0057469094
000120 13 2f 7d 3b f3 ed 31 ba 0b 39 e9 bb c2 08 b6 bb
       0.0038632795 -0.00067874714 -0.0071173958 -0.005555243
000130 a4 8c 06 bb 13 1b 84 3b 4e 68 0a bb 46 5d 90 b9
       -0.0020530606 0.004031548 -0.00211193 -0.00027535314
000140 19 ad 1a 3c f0 24 3f 3c df c0 b0 bc 04 00 86 bb
       0.009440684 0.011666521 -0.021576343 -0.0040893573
000150 a3 37 cd bb ad a8 8e 3c c7 7a 83 3a 3b 3b c6 bc
       -0.006262736 0.017414415 0.0010031097 -0.024198165
000160 e5 73 4b ba 28 b9 04 3a 9a 78 b5 3c 7d 0f 98 39
       -0.0007761105 0.0005062991 0.022152234 0.0002900324
000170 49 3c cd 3b 19 94 a9 bb 30 49 8f 3b 45 2a 32 bc
       0.00626329 -0.0051751253 0.0043727383 -0.010874336
000180 f7 07 63 bc 13 fc 82 3b 31 56 4f bc e3 e1 a0 3c
       -0.013856879 0.0039973347 -0.012654827 0.019638961
000190 2d 80 84 3c 74 fb c4 3b 11 c1 52 3c c2 7d a8 bc
       0.0161744 0.006011421 0.012863413 -0.020567778
0001a0 9a 3f 95 3c ce e1 42 ba f3 0a ca 3b 47 ea f8 bc
       0.018218804 -0.000743416 0.006165856 -0.03038515
0001b0 66 57 76 3b 8c 84 3d 3c db 78 19 bb 72 96 8f bc
       0.0037588715 0.011567246 -0.0023417983 -0.017527793

exp_avg f4 [7]
000000 5e 66 92 3b bc a6 5f 3c 9e 4e 2a bb 1a 66 9f bb
       0.0044677695 0.013650592 -0.00259868 -0.0048644664
000010 8d 55 86 bb f7 00 4e 3a c6 9e a3 bc
       -0.004099554 0.000785842 -0.01997317

exp_avg f4 [16]
000000 c4 63 e9 3b 17 db 35 3c 06 53 b2 3c 2b 04 f5 3c
       0.0071224887 0.011099598 0.021768104 0.029909214
000010 03 17 ac 3c 59 c9 bf ba df 2e 37 bb ab 71 5d 3b
       0.021007067 -0.001463215 -0.0027951521 0.0033789675
000020 22 15 63 3b ed 46 90 3a 09 75 91 ba b3 25 87 3c
       0.0034650047 0.0011007466 -0.0011097501 0.016497469
000030 1b 25 22 3c 2e a2 6c 3b 3b a5 20 3b 0b fc 0b 3c
       0.009896542 0.0036107409 0.0024512548 0.008543978

exp_avg f4 [16]
000000 b0 39 16 3c cf f0 7f bc 0b 75 19 bc 88 31 03 bd
       0.009169027 -0.015621378 -0.009366284 -0.03202966
000010 5c 61 6b bc 36 96 29 3c 26 77 eb 3b 3b 64 56 3b
       -0.014366474 0.0103507545 0.0071858345 0.003271355
000020 db 6a af 3a 24 72 46 3c 0e 31 0a 3c 22 2f 00 3c
       0.0013383286 0.012112174 0.008434547 0.007823737
000030 8c 72 14 3b ed 95 e2 bb d0 71 e9 3b 0d f6 54 3c
       0.0022651283 -0.006914845 0.007124163 0.012998116

exp_avg f4 [8]
000000 aa 73 6e 3a 05 6f b3 bb 0c 8e b7 bc 89 33 93 3b
       0.0009096215 -0.005475881 -0.0224066 0.0044922275
000010 34 ea b4 bb 02 3f 72 3c ad 6b d4 b8 24 9a 4f 3c
       -0.0055210833 0.01478553 -0.00010129004 0.012671027

exp_avg f4 [8]
000000 58 a2 cb bc c9 c4 3c 3b 58 f5 51 3c 41 30 ec bb
       -0.024857685 0.0028803817 0.012814842 -0.0072079008
000010 28 59 4c bb 2f 62 0b 3c c0 df a1 3b c2 2a 8f bc
       -0.003118107 0.0085072955 0.004940003 -0.017476443

exp_avg f4 [8, 7]
000000 61 4e 39 bc 7e e4 b7 bb e6 26 fe 37 cf 2b a4 bc
       -0.011310191 -0.005611955 3.0297273e-05 -0.02004042
000010 28 b5 98 bc ab d3 49 bb f1 6d 80 bc 0a a9 b7 bb
       -0.01864107 -0.003079633 -0.015677424 -0.005604868
000020 17 4a 0d bc 44 a6 90 3b d3 3a 06 bb 70 26 39 bb
       -0.008623621 0.0044143517 -0.002048184 -0.002825167
000030 d6 66 a7 3c 44 d1 07 3d e6 20 92 3d de 6c b7 3d
       0.020434778 0.033158556 0.07135181 0.08956312
000040 0b 00 2c bc 11 5c 35 3d d1 af 4d 3d ab 60 e4 3c
       -0.010498057 0.044277254 0.0502165 0.027878126
000050 eb 68 e8 bc 87 28 54 bb 7d c8 82 3b a8 7d a2 ba
       -0.028370341 -0.003237279 0.003991185 -0.0012397068
000060 6f 3e 54 bc 16 57 43 bc 2f ba 42 bb a5 cb a7 bc
       -0.012954338 -0.011922618 -0.0029713025 -0.020482847
000070 5a 3b f1 3c bc 04 c0 bc 06 cf d9 3b dc 01 ca 3d
       0.029447246 -0.023439758 0.0066469936 0.09863636
000080 ac 1d be 3d 6c e3 48 3c 34 e2 0b 3e fb 93 d5 bb
       0.09283003 0.012261253 0.13660508 -0.006517885
000090 cf be c8 bb d7 08 a5 3a ac 46 7b bb 4c 6a cd bb
       -0.006126262 0.0012591135 -0.0038341684 -0.006268775
0000a0 77 20 4d ba 4c 95 9a 3a d6 4b f6 bc a5 b5 29 bd
       -0.0007824967 0.0011793762 -0.030065458 -0.041432995
0000b0 d4 b2 37 3b 6c ff 80 bc c5 ad 8a bc ba dd c6 bc
       0.0028030174 -0.015746795 -0.016928563 -0.02427565
0000c0 bf a1 83 3b 49 7f 79 bb 60 1b 3c 3a 60 38 fd 38
       0.0040170844 -0.0038070253 0.000717571 0.00012074481
0000d0 c2 fa 2a bc 95 2d 1c bc b0 89 3b 3b fb 76 e5 bb
       -0.010435762 -0.009532352 0.0028616004 -0.007002709

exp_avg_sq f4 [8, 7]
000000 3d 0b 82 36 32 7a 92 35 6c 42 37 30 fb 99 4b 37
       3.87561e-06 1.0913411e-06 6.6669403e-10 1.2135594e-05
000010 32 a9 2f 37 34 06 ba 34 50 6c f9 36 25 64 86 35
       1.0470207e-05 3.4649713e-07 7.4333875e-06 1.0012924e-06
000020 71 68 1b 36 4f 19 26 35 64 05 15 34 b0 1d 87 34
       2.3157593e-06 6.187665e-07 1.3878667e-07 2.516731e-07
000030 50 0f 50 37 9b aa 0a 38 1a a8 23 39 6a e5 80 39
       1.2401331e-05 3.3060653e-05 0.00015607514 0.0002458499
000040 0c 21 7e 36 0c 1b 7d 38 3e 35 a3 38 a1 c6 eb 37
       3.7868185e-06 6.034509e-05 7.782363e-05 2.8106677e-05
000050 0e 91 09 38 14 7e aa 34 33 c9 0b 35 c5 b6 4e 33
       3.2798438e-05 3.1756701e-07 5.207432e-07 4.812934e-08
000060 55 f9 a7 36 b8 9f 8d 36 ff bc b7 34 48 e1 50 37
       5.006014e-06 4.220721e-06 3.422392e-07 1.24502185e-05
000070 99 99 dc 37 97 8a d9 37 f8 b6 bc 35 36 85 9a 39
       2.6297568e-05 2.5932952e-05 1.4060342e-06 0.0002947242
000080 48 38 88 39 da d5 76 37 5d f3 12 3a 9f 47 b6 35
       0.00025981874 1.4712534e-05 0.0005605722 1.3580901e-06
000090 d6 03 b7 35 bf 74 94 33 38 54 ed 34 d4 b7 9b 35
       1.3635679e-06 6.913023e-08 4.4205967e-07 1.1601901e-06
0000a0 91 58 57 34 f7 10 0b 35 e2 cf e7 37 64 8f 57 38
       2.0055656e-07 5.180622e-07 2.7634149e-05 5.1393537e-05
0000b0 e6 c0 83 34 64 01 0e 37 6c 5e 21 37 92 0a 99 37
       2.4541004e-07 8.464183e-06 9.618332e-06 1.8243943e-05
0000c0 ba a0 aa 35 ad f5 e9 34 68 f9 5a 33 ca 32 83 30
       1.2712765e-06 4.3578385e-07 5.0983914e-08 9.54594e-10
0000d0 c7 e7 5b 36 dc e3 36 36 80 52 86 34 d1 cb ce 35
       3.2768455e-06 2.7252745e-06 2.5019472e-07 1.5407514e-06

exp_avg f4 [8]
000000 7b f9 08 bc 57 2b 37 b9 41 9f f5 bd 8e 34 12 bc
       -0.008360262 -0.00017468385 -0.11993266 -0.008923663
000010 d7 ac 4f 3d 72 bf 46 bc 1c e9 64 3d 43 c5 b0 3b
       0.050701942 -0.012130605 0.055886373 0.005394609

exp_avg_sq f4 [8]
000000 ff 21 13 36 89 cb a9 33 5c 5f e8 39 a0 66 23 36
       2.1924495e-06 7.9066986e-08 0.00044321537 2.4348628e-06
000010 19 bb ab 38 37 5f 9a 36 b2 34 ce 38 14 64 93 35
       8.188765e-05 4.600642e-06 9.832661e-05 1.098148e-06

exp_avg f4 [1, 8]
000000 68 64 34 be 44 c0 4e 3e 68 d4 d8 3e 93 b2 16 be
       -0.17616427 0.20190531 0.42349553 -0.14716558
000010 dc 80 10 be 02 70 a6 3e 71 84 6a be 4f da 83 be
       -0.14111656 0.3250733 -0.22902085 -0.25752494

exp_avg_sq f4 [1, 8]
000000 e8 37 75 3a a8 f2 a0 3a 97 4c b2 3b 3f bb 27 3a
       0.0009354339 0.0012279348 0.005441259 0.0006398446
000010 5a 66 1e 3a 5a 0f 50 3b 4b c1 d3 3a f0 73 01 3b
       0.0006042473 0.0031747431 0.0016155628 0.0019752942

exp_avg f4 [8]
000000 06 81 1a bb b9 dd ee bb 16 bf 95 3e a7 fe 19 bc
       -0.002357544 -0.007289615 0.2924735 -0.009399093
000010 49 27 87 3d fb 30 b7 3c c1 e7 7a 3d b2 0a cc 3b
       0.0659929 0.022362223 0.061256174 0.006226861

exp_avg_sq f4 [8]
000000 1b 13 2f 34 1c 3a d5 35 61 18 2a 3b f2 70 2e 36
       1.6305096e-07 1.5886649e-06 0.0025954472 2.5993763e-06
000010 cd 94 0a 39 dc c5 7d 37 da ad f2 38 bc 16 9e 35
       0.00013216138 1.5126043e-05 0.000115718416 1.1778534e-06

exp_avg f4 [8]
000000 9b 30 cb 3a f3 97 88 bb 94 b7 a2 3d 0d 0a f2 3b
       0.0015502156 -0.0041685044 0.07945171 0.007386452
000010 60 1f 5c bd 66 ae 01 3c 9c f0 fb bc d6 9f 36 bb
       -0.05374086 0.007915115 -0.03075438 -0.0027866266

exp_avg_sq f4 [8]
000000 31 c5 97 33 c5 32 0b 35 3b 29 48 39 6d 9e db 35
       7.067354e-08 5.1855415e-07 0.00019088846 1.636288e-06
000010 18 37 b7 38 6c 09 00 36 c5 35 f0 37 f7 11 81 34
       8.736382e-05 1.907897e-06 2.8635268e-05 2.4041194e-07
