saved/gan/38l2nugt/checkpoints/epoch=0-step=20-v1.ckpt (torch, 21906 bytes, 39 tensors)

generator.fc1.weight f4 [16, 7]
0	0x3e79c6cc	0.24392241
1	0x3e6258b8	0.22104156
2	0xbe7e3758	-0.248258
3	0xbecc97a8	-0.39959455
4	0x3f3e6736	0.7437624
5	0xbcd2f7a4	-0.02575285
6	0x3f640f3c	0.89085746
7	0x3f79e6b4	0.9761765
8	0xbeda7e03	-0.42674264
9	0x3f4c78a9	0.7987161
10	0x3e1425a7	0.14467488
11	0xbf0c984b	-0.5491988
12	0xbdf50975	-0.119646944
13	0x3ed801d3	0.42188892
14	0x3ec84649	0.39116123
15	0x3df2b1a5	0.11850289
16	0xbdf613f9	-0.12015528
17	0x3ea5c1e8	0.323745
18	0x3faf5184	1.3696752
19	0xbd19b801	-0.037528995
20	0x3f5d0537	0.8633608
21	0x3dc27d9a	0.09496613
22	0x3d426ccd	0.04746704
23	0x3d856a27	0.065143876
24	0x3d3afd12	0.045651503
25	0xbddc2744	-0.10749677
26	0x3eb53e79	0.35399225
27	0xbe9b2dc7	-0.30308363
28	0xbebbdec2	-0.36693388
29	0xbf2614d3	-0.64875525
30	0xbdd43d42	-0.103632465
31	0xbec616a2	-0.38689142
32	0x3de2bc48	0.11071068
33	0x3eaf8395	0.34280077
34	0xbf7578a3	-0.958872
35	0xbce6405c	-0.02810686
36	0xbe23631f	-0.1595578
37	0xbfb14c4e	-1.3851411
38	0x3dbb461c	0.09144232
39	0x3ca47b5b	0.020078352
40	0x3f256b15	0.6461652
41	0x3f2a6b32	0.6656982
42	0x3ce6d6ba	0.028178561
43	0x3e2f8aac	0.17142743
44	0x3e0d93d1	0.13825919
45	0x3f1e4716	0.6182722
46	0x3f47b500	0.7801056
47	0xbf933593	-1.1500725
48	0x3f1dbed2	0.61619294
49	0xbf7fc419	-0.99908596
50	0xbf36c4d2	-0.71394074
51	0x3d6ba368	0.057528883
52	0xbebdd732	-0.37078243
53	0x3eb2ec36	0.3494584
54	0xbeb6fabc	-0.3573817
55	0x3e86daec	0.263389
56	0xbe2527f1	-0.16128518
57	0xbf709c4c	-0.9398849
58	0xbdfbdde9	-0.122981854
59	0xbf4ccb9f	-0.799982
60	0x3e9aec97	0.3025863
61	0xbe4f28f9	-0.20230474
62	0x3e7bfcd6	0.24608168
63	0xbeefb0d5	-0.468146
64	0xbe55b4a8	-0.20869696
65	0x3ef1da86	0.47237033
66	0xbf798edb	-0.97483605
67	0x3f2e12a1	0.67997175
68	0x3d35cd47	0.04438522
69	0x3e998d11	0.29990438
70	0x3f37fdea	0.7187182
71	0xbe9e8f88	-0.3096888
72	0xbf250c87	-0.6447224
73	0xbe65fc02	-0.22459415
74	0x3e84b450	0.25918818
75	0xbd7502cd	-0.059817124
76	0x3e8fa26d	0.2805361
77	0xbdd6db20	-0.104910135
78	0xbfad0fed	-1.3520485
79	0x3f125f53	0.57176703
80	0x3f6eda2d	0.9330166
81	0x3dc56ca5	0.09639863
82	0xbe303110	-0.17206216
83	0xbed776e7	-0.42082903
84	0xbe275f0e	-0.16344854
85	0xbca66de0	-0.020316064
86	0x3e7c8a4a	0.24662128
87	0xbea3d468	-0.3199799
88	0xbf2de657	-0.67929596
89	0x3f01c8af	0.50696844
90	0x3f058ea0	0.52170753
91	0x3f488d0f	0.7834024
92	0x3f314967	0.6925263
93	0x3d057a9d	0.032587636
94	0xbf09e293	-0.5386135
95	0xbe78a7ae	-0.24282715
96	0xbeada314	-0.3391348
97	0xbeff2872	-0.49835545
98	0x3f9e9fab	1.2392477
99	0x3ed5122b	0.41615424
100	0xbcdd9992	-0.027050767
101	0xbeaae41a	-0.33377153
102	0xbf105221	-0.5637532
103	0x3e4bba6a	0.1989533
104	0xbf453029	-0.7702661
105	0x3edf3556	0.4359538
106	0xbf1e5d11	-0.6186076
107	0xbe8010cb	-0.25012812
108	0x3ec403a9	0.38284042
109	0xbe26e5a1	-0.16298534
110	0xbe82d9b0	-0.25556707
111	0x3d665179	0.056230042

generator.fc1.bias f4 [16]
0	0xbce63f7e	-0.028106447
1	0xbbee5897	-0.0072737443
2	0x3eb3794d	0.35053483
3	0x3ebb4b59	0.36580923
4	0x3dce2220	0.100651026
5	0x3e7222e6	0.23646125
6	0x3e92baf3	0.28658256
7	0x3e1457ec	0.14486665
8	0xbe8728fb	-0.26398453
9	0x3cb07756	0.021541279
10	0x3e9e1b93	0.30880412
11	0x3e905849	0.28192356
12	0xbe8a6910	-0.2703328
13	0xbe164491	-0.14674594
14	0xbdd43eb8	-0.10363525
15	0xbeb163b6	-0.34646386

generator.fc2.weight f4 [8, 16]
0	0xbf12165c	-0.5706537
1	0xbe95ec08	-0.2928164
2	0x3e8bd805	0.27313247
3	0xbe7293db	-0.23689215
4	0x3d35c0bc	0.04437326
5	0x3e817bff	0.25289914
6	0xbe889a29	-0.26680115
7	0x3e900b67	0.281337
8	0x3ea5a478	0.32352042
9	0xbe394b5c	-0.18095154
10	0x3e01ce39	0.12676324
11	0xbe706742	-0.2347689
12	0xbe4707f7	-0.19436632
13	0x3e07d764	0.13265759
14	0xbeeabedc	-0.4584874
15	0x3e694d01	0.22783281
16	0xbedef5e2	-0.4354697
17	0xbc9dda49	-0.019269126
18	0x3d9b5ff1	0.07586659
19	0x3e757d92	0.23973683
20	0x3e501a64	0.20322567
21	0x3f29a5c4	0.66268563
22	0xbd109fd0	-0.03530866
23	0xbe501341	-0.20319845
24	0x3ee6674b	0.4500068
25	0x3eaf4ddf	0.34239098
26	0xbe40511f	-0.18780945
27	0x3e1e12dc	0.15436882
28	0xbd9734bb	-0.073831044
29	0xbd840e22	-0.06448008
30	0x3dcd5cf3	0.10027494
31	0x3d522e4c	0.051313683
32	0x3e330e94	0.1748603
33	0x3e22c560	0.15895605
34	0x3ebd7f22	0.37011057
35	0xbc32c719	-0.010911726
36	0x3dee6814	0.11640945
37	0x3ed18ba6	0.40926856
38	0xbe092cf2	-0.13396052
39	0xbe1b7435	-0.15181048
40	0xbedab657	-0.4271724
41	0x3da0f686	0.078595206
42	0x3e5b154a	0.2139484
43	0xbf10ef18	-0.5661483
44	0x3df6821e	0.12036537
45	0x3e9f0109	0.31055477
46	0xbe662c39	-0.22477807
47	0xbdd630f2	-0.10458554
48	0xbd459df5	-0.048246343
49	0x3e8ff97c	0.2812003
50	0x3dddcaa0	0.10829663
51	0x3e965e0e	0.29368633
52	0x3eebe452	0.46072632
53	0x3e90c5ec	0.28276002
54	0xbd99db29	-0.075125046
55	0x3e969775	0.29412428
56	0xbea76935	-0.32697454
57	0x3d954c90	0.07289994
58	0xbe04bbcc	-0.12962264
59	0xbed0d020	-0.40783787
60	0x3f5420ac	0.82862353
61	0x3f0fe739	0.5621219
62	0xbe91e48e	-0.28494686
63	0xbe7c5e3d	-0.24645324
64	0x3dbb1bee	0.091361865
65	0xbcac3a90	-0.021024019
66	0xbea0c302	-0.3139878
67	0xbd8bd307	-0.0682736
68	0x3dc2b326	0.09506826
69	0x3cca0e08	0.024664894
70	0xbe4cfdac	-0.20018643
71	0xbd57de1a	-0.052702047
72	0x3e8b734c	0.27236402
73	0x3e664079	0.22485532
74	0x3e4b5922	0.1985822
75	0x3ea2bf2e	0.31786484
76	0xbe279312	-0.16364697
77	0x3dad89a6	0.0847352
78	0x3e634b66	0.22196731
79	0xbdddb12a	-0.10824807
80	0xbf1e79b1	-0.61904436
81	0x3c62e8f6	0.0138494875
82	0xbd1670b8	-0.03672859
83	0x3e131d79	0.14366712
84	0x3e6c43a0	0.23072672
85	0x3ed8cc78	0.42343497
86	0x3eb42892	0.35187203
87	0x3e1edd92	0.1551421
88	0xbe5e27ce	-0.21694872
89	0xbdb0c0e1	-0.08630539
90	0xbcafc004	-0.021453865
91	0xbdf6213d	-0.120180584
92	0x3e7b1110	0.24518228
93	0x3f00e75e	0.5035304
94	0xbefe510a	-0.49671203
95	0x3e7f1178	0.24909008
96	0x3eb63b3c	0.35592067
97	0x3f20c1cc	0.6279571
98	0xbcbfda52	-0.023419533
99	0xbf49a043	-0.78760165
100	0x3ecadbfd	0.39620963
101	0x3d98498d	0.07435904
102	0x3dba266d	0.090893604
103	0x3de4a0c7	0.11163478
104	0x3f135756	0.5755514
105	0xbeb33ecf	-0.35008857
106	0xbd238c60	-0.039928794
107	0x3e1f5d85	0.15563019
108	0x3e909482	0.28238302
109	0xbe7a6714	-0.24453384
110	0x3eeccf55	0.46251932
111	0xbe97b212	-0.29628044
112	0xbdf77780	-0.1208334
113	0x3d610344	0.054934755
114	0x3d7c18ef	0.061547216
115	0x3d692015	0.05691536
116	0xbeff99c6	-0.49922007
117	0x3ecbbb03	0.39791116
118	0xbda2e27c	-0.07953355
119	0x3f89596b	1.0730413
120	0x3deca59e	0.115550265
121	0xbeaaa88b	-0.33331713
122	0x3e8b7479	0.272373
123	0x3ed9434f	0.42434165
124	0xbe86f818	-0.26361156
125	0xbcd23b4a	-0.025663037
126	0x3d639555	0.055562336
127	0xbecafdb7	-0.39646694

generator.fc2.bias f4 [8]
0	0x3dc8a290	0.09796631
1	0x3e470100	0.19433975
2	0x3d10cdd2	0.035352536
3	0xbe2f5c48	-0.17125046
4	0xbd97b2f8	-0.074071825
5	0xbb2f392e	-0.0026736963
6	0x3da4792c	0.08030924
7	0xbd8cc1a0	-0.068728685

generator.fc3.weight f4 [16, 8]
0	0x3e10866e	0.14113781
1	0x3f64a1a4	0.89309144
2	0xbe39e8f6	-0.18155274
3	0x3eb24b4d	0.34823075
4	0xbe451cc0	-0.19249249
5	0x3ebd4402	0.36965948
6	0xbea38a28	-0.31941342
7	0xbd97ae67	-0.074063115
8	0xbf92d8b2	-1.147238
9	0x3e972f6a	0.29528362
10	0x3ecb5303	0.3971177
11	0x3ed19d7e	0.4094047
12	0xbf0ee1b9	-0.55813175
13	0x3ec98bec	0.39364564
14	0x3f900c6f	1.1253794
15	0xbed57c75	-0.41696516
16	0xbf85314f	-1.0405673
17	0x3e83f59f	0.25773332
18	0xbee8158b	-0.45328936
19	0xbeac4c53	-0.3365198
20	0x3ebb560b	0.36589083
21	0x3e932920	0.28742313
22	0x3f0f052a	0.55867255
23	0x3f27911a	0.6545578
24	0x3efa3e35	0.48875585
25	0x3e671a33	0.22568588
26	0xbe3d3fd5	-0.18481381
27	0xbf1ab90f	-0.60438627
28	0x3dff3bf8	0.1246261
29	0x3e5fc5ed	0.21852846
30	0x3ea8f27b	0.32997498
31	0x3f1715b2	0.5901748
32	0xbe01d735	-0.12679751
33	0x3f0310e0	0.51197624
34	0x3dbf15b1	0.09330309
35	0xbf48e6cc	-0.7847717
36	0xbde5e1ef	-0.11224734
37	0x3cd3e785	0.025867233
38	0xbe12aecf	-0.14324497
39	0xbe97273c	-0.2952212
40	0xbe9fa5db	-0.31181225
41	0x3d59bacb	0.053156655
42	0xbf062554	-0.5240071
43	0xbe41e93a	-0.18936625
44	0xbeb82c04	-0.3597108
45	0xbf5f9a7e	-0.8734511
46	0x3eefda8e	0.46846431
47	0x3e8b7063	0.27234182
48	0x3db8b910	0.09019673
49	0x3e8163f5	0.25271574
50	0xbdb9275c	-0.0904071
51	0x3dfd350e	0.12363635
52	0xbb374480	-0.0027964413
53	0xbee971b2	-0.45594555
54	0xbec9974e	-0.3937325
55	0x3ea889ae	0.3291754
56	0x3ee3ddc4	0.4450513
57	0x3ecd1f68	0.40063024
58	0xbf05edc3	-0.5231592
59	0x3dbef58c	0.09324178
60	0xbf34e074	-0.7065499
61	0x3f20f4f9	0.628738
62	0xbe935946	-0.28779048
63	0xbed1d5a6	-0.40983313
64	0x3e5a04f7	0.21290956
65	0xbf05aff9	-0.5222164
66	0xbf901d33	-1.1258911
67	0xbf0b2164	-0.54347825
68	0x3e1eaf9d	0.15496679
69	0x3f82be77	1.0214375
70	0xbf47199a	-0.7777344
71	0x3e81d946	0.2536108
72	0x3e8a4434	0.2700516
73	0x3e8eaa4f	0.2786431
74	0xbe18756f	-0.14888547
75	0xbf29c141	-0.6631051
76	0xbe200e1a	-0.1563038
77	0xbd80c849	-0.06288201
78	0xbf3b2180	-0.7309799
79	0xbd14304d	-0.036178876
80	0xbf5fef33	-0.87474364
81	0x3f8b6652	1.0890601
82	0xbf566058	-0.8374076
83	0xbbdf893a	-0.0068217786
84	0xbf7d8104	-0.9902499
85	0x3f0eb080	0.5573807
86	0x3fb08fc9	1.379388
87	0x3e819217	0.2530677
88	0xbe710593	-0.23537283
89	0x3e481d77	0.1954249
90	0x3f04d9b2	0.51894677
91	0x3d321f53	0.043486904
92	0x3c223f70	0.00990282
93	0xbf06ee37	-0.52707237
94	0xbdbcb791	-0.092147
95	0x3ebbd53c	0.36686122
96	0x3ebfc6e9	0.37456444
97	0x3efe33c8	0.4964888
98	0x3f1cfa00	0.6131897
99	0x3e80b31b	0.25136647
100	0xbea79c5c	-0.3273648
101	0x3d514984	0.0510955
102	0x3f94685e	1.159435
103	0x3ee8b396	0.45449513
104	0xbf39c495	-0.72565585
105	0x3e2b3e1a	0.16722909
106	0xbf11e1a6	-0.5698494
107	0xbe94009e	-0.2890672
108	0x3ec7389f	0.38910386
109	0xbe343207	-0.17597209
110	0xbe2dbf7b	-0.16967575
111	0x3ec02a80	0.37532425
112	0x3f8d503f	1.1040114
113	0xbeddbb28	-0.4330685
114	0x3f0c9c0e	0.5492562
115	0xbdc064fd	-0.09394262
116	0x3f802e80	1.0014191
117	0x3cc3d12a	0.023903448
118	0x3e968d52	0.29404694
119	0xbdb26f61	-0.0871265
120	0x3ef49f10	0.47777605
121	0xbe56fff6	-0.20996079
122	0x3de39028	0.1111148
123	0xbecdf210	-0.40223742
124	0xbe597911	-0.2123759
125	0x3e8020e9	0.25025108
126	0xbe108c5e	-0.14116046
127	0xbe8e617f	-0.2780876

generator.fc3.bias f4 [16]
0	0x3e96d73f	0.29461095
1	0xbe8a5da4	-0.27024567
2	0xbe59f766	-0.21285781
3	0x3e907c27	0.2821972
4	0x3e8af77b	0.27141938
5	0xbe8c09bc	-0.27351177
6	0xbe8b2190	-0.27174044
7	0xbe846b43	-0.25863084
8	0x3ea4b4bf	0.32169148
9	0x3e2ff1c8	0.17182076
10	0x3e189cda	0.14903584
11	0xbd84a08c	-0.064759344
12	0x3e9d28c5	0.30695167
13	0x3e61a1e4	0.22034413
14	0xbea3bb96	-0.31979054
15	0x3e1f2b54	0.15543872

generator.fc4.weight f4 [7, 16]
0	0x3dcb56ec	0.099286884
1	0x3dbafd57	0.09130352
2	0xbeb2c9b3	-0.3491951
3	0xbe8fd125	-0.28089252
4	0x3eed49b3	0.4634529
5	0xbe29ed5e	-0.16594455
6	0x3eb2c4be	0.34915727
7	0xbf0110ff	-0.5041656
8	0xbd7e9d49	-0.062161718
9	0x3e40a622	0.18813375
10	0x3e4cede9	0.2001263
11	0xbe2adeb0	-0.16686511
12	0x3e57931b	0.2105221
13	0xbde43615	-0.11143128
14	0xbf16989f	-0.5882663
15	0x3e4d9889	0.20077719
16	0xbeb63e7f	-0.35594556
17	0xbdf7cc1e	-0.12099479
18	0x3f2454f3	0.6419212
19	0xbd36705b	-0.044540744
20	0x3e8d04cb	0.2754272
21	0xbe0e89fa	-0.13919821
22	0xbd017bd3	-0.03161223
23	0xbeab563c	-0.3346423
24	0xbdc01fa7	-0.09381037
25	0xbd86143d	-0.06546829
26	0xbee84821	-0.4536753
27	0xbef2487a	-0.4732092
28	0x3f27f8e3	0.65614146
29	0x3e30686f	0.17227338
30	0xbea76832	-0.32696682
31	0x3eaffba0	0.34371662
32	0x3e282099	0.16418685
33	0x3e1b62fa	0.15174475
34	0x3e2e196b	0.17001884
35	0x3e3d8a2f	0.18509744
36	0x3ee1b297	0.44081566
37	0xbd4d373e	-0.05010151
38	0x3d5ac113	0.053406786
39	0x3d05aca7	0.032635357
40	0x3ddf450f	0.10901844
41	0x3d7a518a	0.061112918
42	0x3d4a1f6b	0.04934637
43	0x3e18dccc	0.14927977
44	0xbbb2e910	-0.005459912
45	0xbe6ae9fc	-0.2294082
46	0x3d21c086	0.039490245
47	0xbeb6eebb	-0.35729012
48	0xbd0fdf22	-0.035124905
49	0x3eba3b57	0.36373398
50	0xbeb9a55d	-0.36258975
51	0xbd9a2ef0	-0.07528484
52	0xbeb3a5aa	-0.3508733
53	0xbec83ea2	-0.39110285
54	0x3e753cad	0.23948927
55	0xbc09714a	-0.008388827
56	0xbe22d7f2	-0.15902689
57	0x3eeda21c	0.46412742
58	0x3e4beea7	0.19915257
59	0xbf81b237	-1.0132512
60	0xbda2a3d9	-0.07941408
61	0xbf6d7fc1	-0.9277306
62	0x3de5fc3d	0.11229751
63	0x3e4e5c64	0.20152432
64	0xbd805fe8	-0.06268293
65	0xbdce2f77	-0.10067647
66	0x3e8cc53e	0.27494234
67	0xbf279845	-0.6546672
68	0x3d44adcc	0.048017308
69	0xbe8da9f4	-0.27668726
70	0xbf072ce4	-0.5280287
71	0xbe520686	-0.20510301
72	0xbe8c5f08	-0.27416253
73	0x3ee8a746	0.4544012
74	0xbebc72f7	-0.3680646
75	0xbeb42067	-0.3518097
76	0xbcd7169f	-0.026255904
77	0x3e149968	0.14511645
78	0x3f29ac5b	0.6627862
79	0xbe69e6db	-0.2284197
80	0x3f0e4deb	0.55587643
81	0xbf51a2ab	-0.81888837
82	0x3eda6a30	0.4265914
83	0xbe331560	-0.17488623
84	0xbe698f8d	-0.22808667
85	0x3f36b9e1	0.7137738
86	0xbdfd7757	-0.12376278
87	0xbe7f5c6a	-0.24937597
88	0xbe7a8aaf	-0.24466966
89	0xbe858177	-0.26075336
90	0xbdc5f047	-0.0966497
91	0x3ee752fc	0.451805
92	0xbe7c1724	-0.24618202
93	0xbc77da88	-0.0151277855
94	0x3e0c42d7	0.13697372
95	0xbe4948c9	-0.19656672
96	0xbe973509	-0.2953265
97	0x3ea8e7e6	0.32989424
98	0x3e93ec71	0.28891328
99	0x3b74d49c	0.003735817
100	0xbe0f4ab3	-0.13993339
101	0xbe7d6215	-0.24744447
102	0x3e3e1970	0.18564391
103	0x3e21717f	0.15765952
104	0x3ecf7061	0.40515426
105	0xbec416aa	-0.3829854
106	0xbda6d0f9	-0.08145327
107	0xbdc34d1e	-0.09536193
108	0x3efc5032	0.49279934
109	0xbe880f9e	-0.26574415
110	0xbf17a3c3	-0.59234256
111	0xbe84e810	-0.259583

generator.fc4.bias f4 [7]
0	0xbb85222f	-0.004062913
1	0x3ddab3e0	0.1067884
2	0x3d0ec22a	0.034853138
3	0xbdf68aec	-0.12038216
4	0x3d433b36	0.04766389
5	0xbe5493b6	-0.20759472
6	0xbe35970c	-0.17733401

generator.layer_norm_hidden_0.weight f4 [16]
0	0x3f7e76ca	0.9940001
1	0x3f8147b2	1.0100005
2	0x3f7d70a6	0.9900001
3	0x3f7d70a6	0.9900001
4	0x3f7d70a6	0.9900001
5	0x3f7d70a6	0.9900001
6	0x3f810628	1.0080004
7	0x3f7d70a6	0.9900001
8	0x3f7ef9dc	0.99600005
9	0x3f8147b2	1.0100005
10	0x3f8147b2	1.0100005
11	0x3f7d70a6	0.9900001
12	0x3f7df3b8	0.9920001
13	0x3f8147b2	1.0100005
14	0x3f7d70a6	0.9900001
15	0x3f80418a	1.0020001

generator.layer_norm_hidden_0.bias f4 [16]
0	0x3c23d70b	0.010000001
1	0xbc23d70b	-0.010000001
2	0xbc23d70b	-0.010000001
3	0xbc23d70b	-0.010000001
4	0xbc23d70b	-0.010000001
5	0x3c23d70b	0.010000001
6	0xbc23d70b	-0.010000001
7	0x3c23d70b	0.010000001
8	0xbc23d70b	-0.010000001
9	0x3c23d70b	0.010000001
10	0x3c23d70b	0.010000001
11	0x3c03126f	0.008
12	0xbc23d70b	-0.010000001
13	0x3c23d70b	0.010000001
14	0x3c23d70b	0.010000001
15	0xbb83126f	-0.004

generator.layer_norm_hidden_1.weight f4 [8]
0	0x3f7d70a6	0.9900001
1	0x3f8147b2	1.0100005
2	0x3f8147b2	1.0100005
3	0x3f7d70a6	0.9900001
4	0x3f7d70a6	0.9900001
5	0x3f8147b2	1.0100005
6	0x3f8147b2	1.0100005
7	0x3f7d70a6	0.9900001

generator.layer_norm_hidden_1.bias f4 [8]
0	0x3c23d70b	0.010000001
1	0xbc23d70b	-0.010000001
2	0xbc23d70b	-0.010000001
3	0x3c23d70b	0.010000001
4	0x3c23d70b	0.010000001
5	0xbc23d70b	-0.010000001
6	0xbc23d70b	-0.010000001
7	0xaf800000	-2.3283064e-10

discriminator.fc1.weight f4 [8, 7]
0	0x3e7ac4bf	0.24489115
1	0xbee4bb7b	-0.44674286
2	0xbf0bfe6d	-0.546851
3	0xbf8d32c6	-1.103112
4	0xbe1a99cb	-0.1509773
5	0xbd452d29	-0.04813877
6	0x3ec7385b	0.38910183
7	0x3d8bc599	0.06824798
8	0xbf47c4b3	-0.78034514
9	0xbd4e28c3	-0.050331842
10	0x3f60e28c	0.87845683
11	0xbe95aa50	-0.292315
12	0x3f323843	0.696171
13	0x3f2193cd	0.6311615
14	0x3f0bacb9	0.5456043
15	0xbf1747d0	-0.5909395
16	0x3f176ff1	0.59155184
17	0x3ed3202d	0.41235486
18	0xbdaae98f	-0.08345329
19	0xbf0d5618	-0.55209494
20	0xbf626848	-0.8844037
21	0x3f32ef39	0.69896275
22	0x3cedddf3	0.029036498
23	0xbec6b27d	-0.3880805
24	0x3d53780e	0.051628165
25	0x3f1c07ef	0.60949606
26	0x3f2f1419	0.6839004
27	0xbf1b0f3e	-0.6057013
28	0x3dc52e2c	0.09627947
29	0x3e9a4210	0.30128527
30	0x3f9a505c	1.2055774
31	0x3dff926b	0.12479099
32	0xbf81c905	-1.0139471
33	0xbf830f83	-1.0239109
34	0x3d94e291	0.072697766
35	0x3f8b1843	1.0866779
36	0x3f3f6f71	0.7477942
37	0x3f594c23	0.848818
38	0xbeea2985	-0.45734802
39	0x3ec4a98e	0.3841061
40	0x3e14d555	0.14534505
41	0x3dbbe85d	0.09175179
42	0xbe544cff	-0.20732497
43	0xbf0e5bd0	-0.55608845
44	0x3ecaf2ed	0.39638463
45	0xbf486c12	-0.782899
46	0xbdcae86c	-0.09907612
47	0x3f9dbb42	1.2322772
48	0x3f8d8115	1.1055018
49	0xbe6ce1d0	-0.23133016
50	0x3cae94d4	0.021311201
51	0xbdc0d349	-0.094152994
52	0xbe941f99	-0.28930357
53	0xbd3c9e2c	-0.046049282
54	0xbe79b6d3	-0.24386148
55	0x3f4ba110	0.79542637

discriminator.fc1.bias f4 [8]
0	0x3c93e3ee	0.018053021
1	0xbdafeab7	-0.0858969
2	0x3e5ed2f5	0.21760161
3	0xbe7bace2	-0.24577668
4	0xbda792ef	-0.08182322
5	0xbea466ca	-0.32109672
6	0xbeb1aee5	-0.34703746
7	0x3e759fec	0.23986787

discriminator.fc2.weight f4 [1, 8]
0	0x3f3d6f34	0.7399781
1	0x3f813ba2	1.0096323
2	0x3e6d358c	0.23164958
3	0x3c918019	0.017761277
4	0xbebf8b17	-0.37410805
5	0x3e081818	0.13290441
6	0x3e314ab0	0.17313647
7	0xbf1172ea	-0.5681597

discriminator.layer_norm_hidden_0.weight f4 [8]
0	0x3f7e5836	0.9935335
1	0x3f814892	1.0100272
2	0x3f813c43	1.0096515
3	0x3f813ca8	1.0096636
4	0x3f7ddce4	0.9916518
5	0x3f7d7378	0.99004316
6	0x3f7d772a	0.99009955
7	0x3f7d92a3	0.99051875

discriminator.layer_norm_hidden_0.bias f4 [8]
0	0x3c11ebd4	0.008906323
1	0x3c120df5	0.00891446
2	0x3c1254de	0.008931367
3	0x3c18b7de	0.009321181
4	0xbc11caa1	-0.008898408
5	0x3c11614a	0.008873293
6	0x3c118343	0.008881393
7	0xbc11d598	-0.008901022

exp_avg f4 [16, 7]
0	0xbb41609b	-0.0029507044
1	0xbb461f6b	-0.003023113
2	0x1ea8f48e	1.7888837e-20
3	0xbb46ab70	-0.0030314587
4	0xbb4fe19f	-0.0031720174
5	0xbb44d2e0	-0.0030032918
6	0xb90c2a08	-0.00013367098
7	0x3a399ecf	0.0007080854
8	0x3a2ea760	0.0006662514
9	0xa152d4a8	-7.1432216e-19
10	0x3a34ac77	0.00068921543
11	0x3a22602a	0.0006194139
12	0x3a302f13	0.0006720882
13	0xba8f9e3e	-0.0010957194
14	0xba975a09	-0.0011547218
15	0xba98e5f8	-0.0011665216
16	0x9e975aa2	-1.6025232e-20
17	0xba9bb564	-0.001187962
18	0xba9d0200	-0.0011978745
19	0xba98501f	-0.0011620558
20	0x3a812836	0.0009853903
21	0x3b6a6b48	0.003576951
22	0x3b6c3d89	0.003604742
23	0x2217fb5e	2.0597389e-18
24	0x3b683a4b	0.0035435136
25	0x3b677735	0.0035318856
26	0x3b6ccf70	0.0036134385
27	0x3b700d95	0.003662919
28	0x3b6196db	0.0034422192
29	0x3b66f950	0.0035243817
30	0xa1363616	-6.173558e-19
31	0x3b682fc3	0.0035428859
32	0x3b759900	0.0037475228
33	0x3b650e7f	0.0034951267
34	0xb9406926	-0.00018349718
35	0x3bc2de9c	0.0059469473
36	0x3bc61448	0.006044898
37	0xa10c0254	-4.7436926e-19
38	0x3bc729ce	0.0060779816
39	0x3bcea58c	0.006306356
40	0x3bc4fb65	0.006011414
41	0xba8b902d	-0.0010647826
42	0x3b700a7b	0.003662734
43	0x3b79de91	0.0038127045
44	0xa1ef78c7	-1.6227239e-18
45	0x3b7d010e	0.0038605365
46	0x3b89bf1c	0.00420369
47	0x3b769bfd	0.0037629597
48	0xbadae072	-0.001669897
49	0xbb9ae4a6	-0.004726964
50	0xbb9b84ae	-0.0047460413
51	0xa00d9dc9	-1.1995371e-19
52	0xbb978e83	-0.004625143
53	0xbb94007c	-0.0045166593
54	0xbb9c6e1a	-0.0047738673
55	0xbbb09c3e	-0.0053897193
56	0xba053737	-0.0005081775
57	0xba04d2ad	-0.00050667935
58	0x204814a2	1.6947486e-19
59	0xba13b8d7	-0.0005635148
60	0xba26e5d0	-0.0006366642
61	0xba007e11	-0.0004901598
62	0x3b0b5691	0.0021261314
63	0x3bf7643f	0.007549792
64	0x3bf70d47	0.0075394246
65	0x21d0dcf4	1.4153114e-18
66	0x3bf46c6f	0.0074592154
67	0x3bf03dac	0.0073315706
68	0x3bf7d6f6	0.007563467
69	0x3b837923	0.0040122434
70	0xbc1799f4	-0.009253014
71	0xbc19548a	-0.009358535
72	0x21137a2a	4.996722e-19
73	0xbc1970a2	-0.009365233
74	0xbc1cac41	-0.009562553
75	0xbc18e435	-0.009331753
76	0xb925a97e	-0.00015798767
77	0xbb973bf9	-0.0046153036
78	0xbb99386e	-0.0046759164
79	0x20c65e4c	3.3604905e-19
80	0xbb9983a7	-0.0046848836
81	0xbb9ec7a6	-0.0048455773
82	0xbb98800f	-0.0046539376
83	0xb9a6cc6e	-0.000318143
84	0xb8b3e643	-8.578275e-05
85	0xb88e9924	-6.799612e-05
86	0xa0f606e0	-4.167857e-19
87	0xb859b4f4	-5.1905357e-05
88	0x36becbee	5.686182e-06
89	0xb8a15802	-7.693471e-05
90	0xba0847bc	-0.00051986775
91	0xbb29ce95	-0.0025910486
92	0xbb27c23b	-0.0025597948
93	0x21558f6f	7.235704e-19
94	0xbb281d82	-0.0025652354
95	0xbb221912	-0.0024734181
96	0xbb2870fa	-0.0025702105
97	0x3a8908c1	0.0010454879
98	0x3b27c86b	0.0025601636
99	0x3b21d053	0.0024690821
100	0xa0123c79	-1.238669e-19
101	0x3b203209	0.0024443886
102	0x3b0e1126	0.0021677702
103	0x3b244744	0.0025066892
104	0xb82a558d	-4.0610834e-05
105	0x3a74ab16	0.0009333355
106	0x3a7e3ba5	0.0009698219
107	0x204ffdfa	1.7617616e-19
108	0x3a72e557	0.00092657417
109	0x3a780211	0.0009460757
110	0x3a7eeb1f	0.0009724367
111	0x3b029dda	0.0019930513

exp_avg f4 [16]
0	0xb928f490	-0.00016112835
1	0x3bd2d4a8	0.006434042
2	0x39175a8a	0.0001443421
3	0xbc97fb5d	-0.018552477
4	0x3bb63618	0.0055606477
5	0x3b8c0255	0.004272739
6	0x3c6f78c7	0.014616198
7	0x3a8d9dc8	0.0010804469
8	0xbac814a3	-0.0015264939
9	0xbc50dcf4	-0.012747992
10	0xbb937a2b	-0.0045006475
11	0xbb465e4c	-0.0030268608
12	0x3b7606df	0.0037540717
13	0xbbd58f70	-0.006517343
14	0x3a923c7b	0.0011156941
15	0xbacffdfa	-0.0015868538

exp_avg f4 [8, 16]
0	0x3bb15e03	0.0054128184
1	0x3c311964	0.010809276
2	0xbc636a50	-0.013880327
3	0xbb21ea02	-0.002470613
4	0xbc02cafa	-0.007982964
5	0x3b25682c	0.0025239093
6	0x3b4861b7	0.003057582
7	0xbc829431	-0.015939804
8	0xbbac521d	-0.005258812
9	0x3929e89a	0.00016203747
10	0x3b0c46be	0.002140447
11	0xbbafbaec	-0.005362859
12	0x3c2c325a	0.010510052
13	0x3bdca0cf	0.006733037
14	0xbac188ce	-0.0014765502
15	0x3c3a1ea7	0.011359847
16	0x3ba3af70	0.004995279
17	0xbb7a36eb	-0.0038179706
18	0x3ce2befd	0.027678961
19	0x3a78132b	0.00094633055
20	0xbc255861	-0.010091872
21	0x3bb21d18	0.005435597
22	0x3b60e0f7	0.0034313777
23	0xbc135901	-0.008993388
24	0xbb98c415	-0.0046620467
25	0xbba0cf8c	-0.004907554
26	0x3a8d4a09	0.001077951
27	0xbc20c646	-0.009812897
28	0xbb9f5f77	-0.004863675
29	0xba38d786	-0.00070511585
30	0x3c0c1f1a	0.008552337
31	0xbb8f5ef3	-0.0043753325
32	0xbb1d8ca3	-0.0024040125
33	0xbb231c16	-0.0024888567
34	0x3b15b3d9	0.0022842793
35	0x3b410d89	0.002945753
36	0x3b3c125b	0.0028697464
37	0xb89e15b9	-7.538073e-05
38	0x39e59105	0.00043786332
39	0x3b57521a	0.0032855333
40	0xb85c956a	-5.259124e-05
41	0xb9ff1d4d	-0.0004865922
42	0x3a8b899c	0.0010645869
43	0x3b5c5557	0.0033620202
44	0xbb35bbe6	-0.0027730404
45	0xbb402995	-0.002932166
46	0xba9ded51	-0.0012048875
47	0xbb7f4d6d	-0.0038956061
48	0x3b1a2023	0.002351769
49	0x3aca88e8	0.0015452178
50	0x3b1abeb3	0.00236122
51	0xba7799f9	-0.0009445246
52	0xbb6c5f2d	-0.0036067471
53	0x3a518376	0.00079923065
54	0x3932bfa8	0.000170468
55	0xbbd42f8f	-0.006475396
56	0xbb0a600b	-0.0021114375
57	0xba8d55a5	-0.001078297
58	0xb92fd945	-0.0001677024
59	0xbb72f0f4	-0.0037069889
60	0x3a5481bf	0.0008106492
61	0x3b55c76d	0.0032620088
62	0x3b7349be	0.0037122811
63	0x3b4c4450	0.0031168647
64	0x3ae7a4c2	0.0017673003
65	0x3bbd0768	0.005768705
66	0xbc34991d	-0.011022833
67	0x3a0dbcea	0.00054068735
68	0xbb079b60	-0.0020691976
69	0x398a64d2	0.00026396528
70	0x3a24c3e0	0.0006285291
71	0xbc06e7b9	-0.008233958
72	0xbb80f48e	-0.003935403
73	0x38e298c2	0.00010804973
74	0x3ac1edf6	0.0014795649
75	0xba0a5342	-0.00052766886
76	0x3b8bba85	0.004264178
77	0x3b904cf0	0.004403703
78	0x3913cbf7	0.00014094995
79	0x3bd72a34	0.0065663103
80	0xba86e357	-0.0010291141
81	0xbb98a310	-0.0046581104
82	0x3c58ed26	0.013240134
83	0x3c00a522	0.007851871
84	0x3b03556b	0.0020039927
85	0x3af837ba	0.0018937506
86	0x3b69c0f8	0.0035667997
87	0xbaa88a42	-0.0012858587
88	0xbbfd2f2b	-0.00772657
89	0xbb999a10	-0.004687555
90	0x3b8197e9	0.0039548767
91	0x3b5f04da	0.0034029991
92	0xbbda1a25	-0.0066559487
93	0xbb720a30	-0.0036932342
94	0x3a106ca3	0.0005509352
95	0xbbded352	-0.0068000937
96	0xbb9a85a1	-0.004715637
97	0xbc1599df	-0.009130924
98	0x3c2bc377	0.010483614
99	0x3b2eca5d	0.002667091
100	0x3bffd4fd	0.0078073726
101	0xbabf0fd8	-0.0014576865
102	0xbab99b72	-0.0014160706
103	0x3c86086c	0.016361438
104	0x3b94f42a	0.004545708
105	0x39945731	0.00028293722
106	0xba908548	-0.0011026049
107	0x3bcc070b	0.0062264255
108	0xbc09c465	-0.0084086405
109	0xbc0899ab	-0.008337419
110	0xbb1a8de5	-0.002358311
111	0xbc3fc8a7	-0.011705554
112	0xbbdb8534	-0.0066992287
113	0xbab3df0a	-0.0013723087
114	0xbc93cff8	-0.018043503
115	0xbbac4a18	-0.005257856
116	0x3c26c162	0.010177942
117	0xbbf25dac	-0.0073964205
118	0xbbeefea4	-0.007293539
119	0x3c80c2b4	0.015717842
120	0x3c4de67b	0.012567158
121	0x3bc864cb	0.006115531
122	0xbbb2bea6	-0.005454856
123	0x3bd6499c	0.0065395366
124	0x3ae25c8d	0.0017270014
125	0x39d88738	0.00041299476
126	0xbb771caf	-0.0037706306
127	0x3b010e69	0.0019692427

exp_avg f4 [8]
0	0xbc9ebf18	-0.01937823
1	0x3c10ea54	0.008844931
2	0x3b9cb1fe	0.0047819605
3	0xbb73263b	-0.0037101645
4	0xbc3c8569	-0.011506417
5	0x3c089e82	0.008338572
6	0x3c94f7d8	0.018184587
7	0xba1bc456	-0.0005942037

exp_avg f4 [16, 8]
0	0x3ad00243	0.0015869815
1	0xbb10bb4c	-0.0022084294
2	0xbc214530	-0.009843156
3	0x3bd14787	0.0063867006
4	0x3b83de85	0.004024329
5	0x3aeb2a90	0.0017941762
6	0x3be41e38	0.00696161
7	0xbc0ec851	-0.008714751
8	0xbb738c81	-0.0037162604
9	0xb9bf6014	-0.00036501943
10	0x3d1594b7	0.03651878
11	0xbbef0003	-0.0072937026
12	0xbc2596d5	-0.010106762
13	0xbbd6353d	-0.006537108
14	0xbc091fbe	-0.008369384
15	0x37ad3ab8	2.065055e-05
16	0x3c35e710	0.011102453
17	0xb9fa8a8d	-0.00047786944
18	0xbcc3b445	-0.02388967
19	0xbc52002c	-0.012817424
20	0x3b7efa88	0.0038906652
21	0xbc240e4b	-0.010013173
22	0x3be63450	0.007025279
23	0x3ccbed73	0.024893498
24	0xbac5f45e	-0.0015102734
25	0x3a1faffd	0.0006091593
26	0x3bd4349d	0.0064759986
27	0xbb19ad2d	-0.0023449168
28	0xbb23dfaf	-0.0025005152
29	0xb63a2ca0	-2.7742135e-06
30	0xbb84c06f	-0.00405126
31	0x3b5bc061	0.0033531415
32	0x3b1d5ab4	0.0024010362
33	0x3b2d9041	0.0026483687
34	0x3c77573b	0.015096481
35	0xbc7d168c	-0.01544727
36	0xbbe49d16	-0.006976734
37	0xbc2a4a7a	-0.010393733
38	0xbbdb851a	-0.0066992166
39	0x3c9e6556	0.01933543
40	0xbb3e7926	-0.002906391
41	0x39c9a0b9	0.00038457455
42	0xb946d1a0	-0.00018960843
43	0x3bf96da5	0.0076119476
44	0x3b0f73af	0.002188902
45	0x3ba2c752	0.0049676085
46	0x39ab1df3	0.00032637976
47	0xbc4a1631	-0.012334392
48	0x3b378f6a	0.0028009065
49	0x3a81fad9	0.0009916677
50	0xbb7b43ee	-0.003834005
51	0xbbb310ac	-0.005464634
52	0xba5a19e1	-0.00083198963
53	0xbb4bcb35	-0.0031096463
54	0x398199a5	0.00024719271
55	0x3c15d2ec	0.009144526
56	0xba40dc51	-0.00073570485
57	0xba217e46	-0.0006160479
58	0x3b57ff76	0.0032958663
59	0x39e7d970	0.00044221757
60	0xb9ea2cf2	-0.00044665445
61	0x39bdf988	0.00036234804
62	0xba439c3a	-0.0007461939
63	0xbac8e3ed	-0.0015326716
64	0xbacdae10	-0.0015692133
65	0x39ed8091	0.00045299952
66	0x3bfbed05	0.007688167
67	0xba409439	-0.00073463056
68	0xbb057bc2	-0.0020367955
69	0x395e206f	0.00021183652
70	0xbb454a5b	-0.0030104134
71	0xba7a3bf4	-0.0009545677
72	0xba5282d4	-0.0008030359
73	0xba851e99	-0.0010156214
74	0xbc6f6596	-0.014611622
75	0x3c179a72	0.009253131
76	0x3b90c9d7	0.0044185924
77	0x3be9e9e9	0.00713848
78	0x3bb353b7	0.005472626
79	0xbc21181e	-0.00983241
80	0xbbc8e1d7	-0.006130438
81	0x393204cc	0.0001697719
82	0x3c57e61b	0.01317742
83	0x3c025cd5	0.007956703
84	0xbafef922	-0.001945291
85	0x3bc33dc2	0.00595829
86	0xbb724bad	-0.0036971376
87	0xbc7b28e1	-0.0153295705
88	0x3abd5745	0.0014445564
89	0xba611ea5	-0.0008587635
90	0xbc720a49	-0.01477296
91	0x3bf5830d	0.007492429
92	0x3be6c7bc	0.007042853
93	0x3b92886e	0.00447183
94	0x3b963bd4	0.004584769
95	0xbc1abced	-0.0094444575
96	0x3c2f0104	0.0106813945
97	0x394271b3	0.00018543638
98	0xbc4fdec6	-0.012687391
99	0xbc85dd8a	-0.01634099
100	0xb9f228a2	-0.0004618811
101	0xbc575900	-0.013143778
102	0x3ba3b2a6	0.004995662
103	0x3cd96bdc	0.02654069
104	0xbb8b8864	-0.0042582024
105	0xba335c11	-0.0006842027
106	0x3c60b361	0.013714642
107	0x3baacf02	0.0052126655
108	0xbab7e627	-0.0014030383
109	0x3b058ea3	0.0020379208
110	0xbb18cd30	-0.002331566
111	0xbc4793e0	-0.012181252
112	0xbb7f2c95	-0.0038936485
113	0x3a46ba57	0.00075808674
114	0xbc8072af	-0.015679685
115	0x3c4e4b1f	0.012591152
116	0x3bb569c4	0.00553629
117	0x3c32d207	0.010914332
118	0x3b13224e	0.0022450867
119	0xbc4bebe3	-0.0124463765
120	0x3b87e67e	0.00414735
121	0xb7daf3f7	-2.610123e-05
122	0xbc453228	-0.012035884
123	0xbb67f12b	-0.003539155
124	0x3aa6d3df	0.0012727937
125	0xbb3e2eb2	-0.0029019532
126	0x3b8ec54a	0.004357015
127	0x3c0d5ec0	0.008628547

exp_avg f4 [16]
0	0xbc2bdb49	-0.010489293
1	0x3c85305c	0.016258411
2	0x3c4c2c69	0.01246176
3	0x3b9b6ca0	0.0047431737
4	0x3cb7ee70	0.022452563
5	0xbc2d887b	-0.0105916215
6	0x3bd1ddb6	0.006404604
7	0x3954a2dc	0.00020278565
8	0x3b18ff3d	0.0023345493
9	0xbc6b12cf	-0.014347746
10	0xbc05f891	-0.008176939
11	0xbc5ad73c	-0.01335698
12	0x3c9b93b1	0.018991323
13	0xbb9c73b6	-0.004774536
14	0xbc9b9f3b	-0.018996825
15	0x3b285de4	0.0025690729

exp_avg f4 [7, 16]
0	0x3b1293d0	0.0022365935
1	0xb9c4737c	-0.00037470076
2	0xbb3d424c	-0.0028878627
3	0xbaeb5dfd	-0.0017957088
4	0x3b9815fb	0.004641292
5	0xbaa85bbf	-0.0012844725
6	0x39cc590b	0.00038976254
7	0xb9ffbeb9	-0.0004877949
8	0xbbb1052f	-0.0054022293
9	0x3b59d4f1	0.0033238495
10	0xb9e37c31	-0.00043389344
11	0x3b833ac1	0.0040048067
12	0x3ac7fffe	0.0015258787
13	0xbb0f5a18	-0.0021873768
14	0xbacce9bf	-0.0015633627
15	0x399fa9df	0.00030453407
16	0xbc923c54	-0.017851032
17	0xbcf78b1c	-0.0302177
18	0x3c1139c8	0.008863874
19	0x3d23669d	0.03989278
20	0xbbc36433	-0.0059628724
21	0x3c86f8a6	0.016475987
22	0xbbac78f3	-0.0052634417
23	0xbcd0ec62	-0.025503341
24	0x3cd58b5f	0.026067434
25	0x3be9cc4a	0.007134949
26	0x3b8cb69c	0.0042942297
27	0xbbd777f4	-0.006575579
28	0x3bd86904	0.0066043157
29	0x3c85e060	0.016342342
30	0xbc9ff7f6	-0.019527417
31	0xbc73dc67	-0.014884091
32	0xbc0257e1	-0.007955522
33	0xbc69d200	-0.014271259
34	0xbad7d07b	-0.001646533
35	0x3c87e635	0.016589263
36	0x3c1a437b	0.009415503
37	0xba348c1e	-0.0006887334
38	0xbb8ed75e	-0.00435917
39	0xbc991ec7	-0.018691434
40	0x3bfad2b8	0.007654514
41	0x3c40f3fe	0.011776922
42	0xbbbe3e53	-0.0058057695
43	0x3c3f2cb0	0.011668369
44	0x3c1ffb89	0.0097645605
45	0x3babfc09	0.005248551
46	0xbc6df1ac	-0.014522951
47	0xbb8aa777	-0.004231389
48	0xb98cf402	-0.0002688468
49	0xbbd5e740	-0.0065278113
50	0x3c18de2b	0.009330313
51	0x3c1f1666	0.00970993
52	0xbc7adc5e	-0.015311329
53	0x3c2326ee	0.009958012
54	0x3aa22e4c	0.0012373417
55	0x3b80ad45	0.0039269053
56	0x3c64378f	0.013929262
57	0xbbd3b71b	-0.006461037
58	0x3c567ba5	0.013091003
59	0xbcac058f	-0.020998744
60	0xbc1b274b	-0.009469817
61	0x3be014ec	0.0068384316
62	0xba19fe07	-0.000587434
63	0xbc095d1a	-0.008384014
64	0x3bd3088d	0.0064402283
65	0x3bce3339	0.0062927273
66	0x3b1e66f9	0.0024170263
67	0xbc159226	-0.009129083
68	0xbbd75d80	-0.0065724254
69	0x3a274000	0.0006380081
70	0x3b576517	0.003286665
71	0x3c44693e	0.011987982
72	0xbb266283	-0.0025388307
73	0xbbc8f32f	-0.0061325054
74	0x3badbcf0	0.005302064
75	0xbc1f97eb	-0.00974081
76	0xbc106eb2	-0.008815454
77	0xbae15198	-0.0017190455
78	0x3bfbf830	0.0076894984
79	0x3a25a602	0.00063189876
80	0x3b8f2d79	0.0043694344
81	0xbc200a29	-0.009768047
82	0x3c806dc3	0.015677338
83	0x3c0f5597	0.008748434
84	0xbcd9cef1	-0.026587935
85	0x3c8e827a	0.0173962
86	0x3bdbae71	0.0067041446
87	0x3c757c37	0.014983228
88	0x3c875da3	0.016524142
89	0xbc4ec17c	-0.012619372
90	0x3ca569d9	0.020192074
91	0xbd191bf4	-0.037380174
92	0xbcc41da7	-0.02393992
93	0x3c28a3e5	0.010292982
94	0x3be073b9	0.0068497327
95	0xbc3b2e8c	-0.011424672
96	0xbb631dad	-0.003465514
97	0xbc1a49e7	-0.009417034
98	0x3bbb87fe	0.0057229986
99	0x3c2c8c92	0.010531561
100	0xbbcb4ed4	-0.0062044654
101	0x3ba8a825	0.0051469975
102	0x3898586e	7.264396e-05
103	0xbaee47c1	-0.0018179343
104	0x3c4dc044	0.012558047
105	0xba81fdbd	-0.0009917539
106	0x3b5640a3	0.0032692335
107	0xbc1ec9a3	-0.009691629
108	0xbbc5ca3c	-0.006036071
109	0x3bd95763	0.0066327318
110	0xbb0b3d75	-0.0021246348
111	0xbb89d64a	-0.0042064535

exp_avg f4 [7]
0	0x3a1e22c4	0.0006032402
1	0x3ce1e637	0.027575595
2	0x3cb7bdc9	0.022429364
3	0xbbb3c93e	-0.0054866364
4	0xbc68d78e	-0.0142115485
5	0xbca8f96d	-0.020626748
6	0x3aba4ac8	0.001421296

exp_avg f4 [16]
0	0x3b3c9742	0.002877668
1	0xbba05960	-0.004893467
2	0x3c63cd75	0.013903965
3	0x3bb4619c	0.0055048
4	0x3c453563	0.012036654
5	0x3bfaa4d0	0.0076490417
6	0xbaab32b6	-0.0013061378
7	0x3c86aaa2	0.016438786
8	0x3a19d9a4	0.0005868918
9	0xbb8f9dbc	-0.004382817
10	0xbb8fa708	-0.0043839253
11	0x3c84e9dc	0.016224794
12	0x3b2facad	0.0026805804
13	0xbb77dc9f	-0.003782071
14	0x3c5ff4b0	0.013669178
15	0x3a40cf98	0.00073551526

exp_avg f4 [16]
0	0xbc14179a	-0.00903883
1	0x3d083fe7	0.033264067
2	0x3c319acc	0.010840129
3	0x3c205e3f	0.009788095
4	0x3d03304b	0.032028478
5	0xbc01cf85	-0.007923012
6	0x3ca75757	0.02042739
7	0xbbd5cc2c	-0.0065245833
8	0x3c52c7e4	0.01286504
9	0xbbe324a2	-0.006931857
10	0xbc3ca023	-0.011512789
11	0xbbb81c1b	-0.005618585
12	0x3d0dce19	0.03462038
13	0xbb2c3b3d	-0.0026280426
14	0xbc396903	-0.011316541
15	0x3ac69115	0.0015149439

exp_avg f4 [8]
0	0x3b2248bd	0.0024762594
1	0xbab72cda	-0.0013975159
2	0xbcc04a12	-0.02347282
3	0x3ba09110	0.0049001053
4	0x3c4e7c94	0.012602944
5	0xbc024a0e	-0.007952226
6	0xbc06f3ec	-0.008236866
7	0x3c5db7a3	0.013532552

exp_avg f4 [8]
0	0xbd011a51	-0.031519238
1	0x3c47815c	0.012176838
2	0x3c4fefd4	0.012691457
3	0xbba9874c	-0.0051735993
4	0xbc96e166	-0.018418025
5	0x3cac6ea7	0.021048857
6	0x3d0dd89f	0.034630414
7	0x395c21e0	0.00020993454

exp_avg f4 [8, 7]
0	0x3daf1bf9	0.08550257
1	0x3e135551	0.14388014
2	0x3c7899e7	0.015173412
3	0xbd66ad22	-0.056317456
4	0x3c49aa13	0.012308615
5	0x3dade156	0.08490245
6	0x3cf0d793	0.029399669
7	0xbcfe9938	-0.03107892
8	0xbc68a405	-0.014199262
9	0x3b908706	0.0044106273
10	0xbd976485	-0.073922195
11	0xbd5a865e	-0.0533508
12	0xbcfc24a8	-0.030779198
13	0x3c2cb216	0.010540506
14	0x3c995eec	0.01872202
15	0x3c6402c7	0.013916678
16	0x3b4b6b38	0.003103925
17	0x3b09f359	0.0021049588
18	0x3c3267f6	0.010889044
19	0x3bb24221	0.005440012
20	0x3bf49a7a	0.007464704
21	0xbbe2f938	-0.006926682
22	0xbbb6fab8	-0.005584087
23	0xbb9c2a8e	-0.004765815
24	0x3cba0e2b	0.022711834
25	0x3befef34	0.0073222164
26	0x3c19e5c0	0.009393156
27	0xbb0e1f1a	-0.0021686018
28	0xbd692589	-0.056920562
29	0xbdc71fbd	-0.097228505
30	0xbc5860b9	-0.013206654
31	0x3d6a9299	0.057268713
32	0x3b38c6a5	0.0028194573
33	0xbd496bd1	-0.049175087
34	0xbc81358a	-0.0157726
35	0x3c6b85df	0.014375179
36	0x3bb87857	0.00562958
37	0x3b81eb83	0.0039648428
38	0xbbb1b770	-0.005423479
39	0x3bcc0c7b	0.0062270737
40	0xbc2f1aa5	-0.010687505
41	0xbbb8797c	-0.0056297164
42	0xbbe08fd7	-0.0068530845
43	0x3b653272	0.0034972695
44	0xba32d044	-0.0006821195
45	0xbc0b0568	-0.008485176
46	0xbc133579	-0.008984917
47	0x3b6dc162	0.0036278595
48	0x3b2af4ca	0.0026085847
49	0xbd7ddd6a	-0.061978735
50	0xbe151b5a	-0.14561215
51	0xbc1161e9	-0.008873441
52	0x3d8204df	0.06348585
53	0x3bb90e7c	0.0056474786
54	0xbdb39c3c	-0.08770034
55	0xbd3f21b0	-0.046662986

exp_avg_sq f4 [8, 7]
0	0x393750a0	0.00017482275
1	0x3a073ef9	0.0005159225
2	0x36cf6c46	6.1816854e-06
3	0x3897b8c7	7.2346586e-05
4	0x36968db2	4.486844e-06
5	0x3948f3f1	0.00019164362
6	0x383abc6c	4.4521337e-05
7	0x37c78961	2.378662e-05
8	0x37226302	9.6790045e-06
9	0x350d3056	5.259693e-07
10	0x38ff83eb	0.00012183919
11	0x388a8829	6.6057146e-05
12	0x37e26396	2.6987673e-05
13	0x36ab67dd	5.1082884e-06
14	0x3715d593	8.930819e-06
15	0x36a7aea3	4.9973182e-06
16	0x347f42e3	2.3773059e-07
17	0x35a84372	1.2536605e-06
18	0x3666d599	3.4397e-06
19	0x35d14829	1.5592715e-06
20	0x361d10c9	2.3404593e-06
21	0x35adfd7b	1.2963277e-06
22	0x359a3200	1.1488446e-06
23	0x35180903	5.6637526e-07
24	0x3740c944	1.1490953e-05
25	0x35ad8473	1.2928052e-06
26	0x361dde73	2.3524306e-06
27	0x34f98efb	4.6483896e-07
28	0x389b4928	7.4046024e-05
29	0x39782e94	0.00023668475
30	0x36968287	4.4855437e-06
31	0x389d3b83	7.497428e-05
32	0x35ee3e80	1.7750572e-06
33	0x3894e450	7.0997165e-05
34	0x37a0001d	1.9073539e-05
35	0x36a85274	5.016389e-06
36	0x35771be5	9.205526e-07
37	0x34e35b16	4.234832e-07
38	0x35589588	8.0683867e-07
39	0x3578c62e	9.267559e-07
40	0x3654e7fa	3.172549e-06
41	0x354ecfc0	7.7043296e-07
42	0x35bba1dc	1.3979693e-06
43	0x35809fca	9.583248e-07
44	0x325ead52	1.2961509e-08
45	0x364bd243	3.0371746e-06
46	0x363ef9c1	2.8457582e-06
47	0x350c7f4b	5.23393e-07
48	0x34bac14d	3.4785845e-07
49	0x38d0bc2e	9.953264e-05
50	0x3a09e6ce	0.0005260528
51	0x363ff131	2.860161e-06
52	0x38bdc74e	9.049346e-05
53	0x3612d2d9	2.1878425e-06
54	0x39540074	0.00020218064
55	0x38a3a9d4	7.8040786e-05

exp_avg f4 [8]
0	0xbd6afdfc	-0.057371125
1	0xbdbac1c0	-0.09118986
2	0xbd347be3	-0.04406346
3	0x3c9b5fb1	0.018966528
4	0x3d06f06e	0.032944135
5	0x3c81fc3e	0.015867349
6	0x3c07d5b0	0.008290693
7	0x3dc86500	0.09784889

exp_avg_sq f4 [8]
0	0x391eb0a8	0.00015133864
1	0x3962cb30	0.00021628733
2	0x3885c457	6.378505e-05
3	0x372e65e6	1.0394933e-05
4	0x3887607a	6.455272e-05
5	0x36c3fdda	5.841005e-06
6	0x362d0da2	2.5786944e-06
7	0x39c378cc	0.000372833

exp_avg f4 [1, 8]
0	0x3d1b0b34	0.03785248
1	0xbd98ae82	-0.0745516
2	0xbe06b8f6	-0.13156494
3	0xbd9b28bc	-0.07576129
4	0xbd2afecb	-0.041746896
5	0x3e0a16fd	0.13485332
6	0x3e2dfb9f	0.16990517
7	0xbcb576f7	-0.022151453

exp_avg_sq f4 [1, 8]
0	0x382c1b7c	4.1033592e-05
1	0x38ff6e6f	0.000121799174
2	0x3a05b499	0.00051004585
3	0x391b8dac	0.00014834729
4	0x38812940	6.158883e-05
5	0x39e6a68c	0.00043993106
6	0x3a409fe2	0.0007348043
7	0x376366fd	1.3554233e-05

exp_avg f4 [8]
0	0x3ce796ca	0.028270144
1	0xbd9879f7	-0.07445138
2	0xbcf2fad2	-0.029660616
3	0xba8650ed	-0.0010247506
4	0x3c8206c8	0.015872374
5	0x3c98e46a	0.018663604
6	0x3cf91bf7	0.030408842
7	0x3c5189a2	0.012789162

exp_avg_sq f4 [8]
0	0x37bfbc86	2.2856762e-05
1	0x38fec5ab	0.00012148482
2	0x37d7fb43	2.5747e-05
3	0x32dcb68c	2.5694384e-08
4	0x37155cdd	8.9027135e-06
5	0x370eceaa	8.511977e-06
6	0x37c7377b	2.3748484e-05
7	0x3697a6e5	4.5195798e-06

exp_avg f4 [8]
0	0xbc84f7ea	-0.016231496
1	0xbcb32252	-0.021866951
2	0xbba0f74e	-0.0049122935
3	0xb983c51e	-0.0002513313
4	0x3c079524	0.008275304
5	0xbb475bfd	-0.003041982
6	0xbb806225	-0.0039179497
7	0x3c4d2f13	0.01252343

exp_avg_sq f4 [8]
0	0x375b9244	1.3087472e-05
1	0x37c656ed	2.3643917e-05
2	0x359eac2b	1.1822025e-06
3	0x312dc317	2.528571e-09
4	0x36653ddb	3.4159664e-06
5	0x34fb54f2	4.68142e-07
6	0x354f84bd	7.730667e-07
7	0x3703133e	7.812689e-06
