saved/gan/38l2nugt/checkpoints/epoch=0-step=14-v8.ckpt (torch, 21906 bytes, 39 tensors)

generator.fc1.weight f4 [16, 7]
000000 84 b2 98 bf c4 f2 4b 3c bc 52 59 bf 39 c1 80 3e
       -1.1929479 0.012448017 -0.8489187 0.25147417
000010 2a 7d c6 bc 84 98 b7 be f7 59 c9 be 22 65 98 be
       -0.024229605 -0.35858548 -0.3932645 -0.29764658
000020 50 4d c3 be 61 de ec 3d 05 92 fb 3c 84 85 71 3f
       -0.38144922 0.11565853 0.030709276 0.94344354
000030 5c 31 d8 bc f1 07 d3 be d8 ad d7 be d5 ec 1d 3e
       -0.026390724 -0.41216996 -0.4212482 0.15422376
000040 a0 3d cd 3e d9 5e 80 3e 34 5e a4 be 98 32 64 3b
       0.4008608 0.25072363 -0.3210312 0.0034820195
000050 1a 70 0f 3f 91 84 83 bf 4e 83 88 be f0 7a 3a bf
       0.5603043 -1.0274831 -0.26662678 -0.7284384
000060 26 fe 91 be 0d 3c 58 3f 2b 31 15 3e c3 19 38 bf
       -0.28514212 0.8446663 0.14569537 -0.7191431
000070 ed 0e 83 be 5a 39 4e 3f ad 9c 89 bf 75 78 aa 3e
       -0.25597325 0.8055626 -1.0750939 0.33295026
000080 8a 16 37 3e 90 3a 27 bf 8c 27 2c bc 15 1e 62 3e
       0.17879692 -0.65323734 -0.010507476 0.22081788
000090 73 9b de 3d fd 8a cd be dd fa bf 3d 8b 4b c0 3e
       0.10869493 -0.40145102 0.0937402 0.37557635
0000a0 f8 a8 2f bd 40 70 bf be db e8 aa be cd 17 40 be
       -0.04288575 -0.37390327 -0.3338078 -0.1875908
0000b0 36 18 fb bd 87 56 4b bf f4 f5 80 bf 4e 10 b6 be
       -0.12260477 -0.79428905 -1.0075059 -0.35559314
0000c0 ca af b8 be c1 be 0a 3e 79 ea 0d bf 18 8d 15 3e
       -0.36071616 0.1354933 -0.554359 0.14604604
0000d0 fe 51 14 3e fd 12 09 bd 7b 55 da bb 94 bb 3c bf
       0.14484403 -0.033465374 -0.006663022 -0.7372372
0000e0 15 59 51 be b2 de 12 3e 78 e3 9e bd a6 a5 36 bf
       -0.20444138 0.14342764 -0.0775823 -0.7134651
0000f0 fc 5a 55 bf 18 be 9f 3f f1 89 50 be 5f a1 92 3e
       -0.83341956 1.2479887 -0.2036512 0.2863874
000100 1f 95 8d 3e e7 25 54 be cc fa 56 3f af 96 a1 3e
       0.27652833 -0.20717584 0.83976436 0.31560275
000110 b4 db 6d bb f8 24 7a bd 6c 54 3f bf 5a 13 12 be
       -0.0036294283 -0.061070412 -0.7473819 -0.14265195
000120 13 84 70 be 24 31 44 3f fe 9d 09 be d6 69 0e bf
       -0.23487882 0.7663748 -0.13439175 -0.5563024
000130 08 64 34 be 4b 80 b6 bd 82 87 b7 3d 40 9c 72 3e
       -0.17616284 -0.08911189 0.08961393 0.23692417
000140 83 40 95 3f db b9 4a be cf 99 85 be 45 88 c7 be
       1.1660312 -0.1979746 -0.2609391 -0.38971153
000150 48 bc 38 be a5 c4 be be d9 31 eb 3d 70 d9 10 be
       -0.18040574 -0.37259403 0.11484117 -0.14145446
000160 a9 d9 94 bc a3 1a 01 3f 91 ed 3b bf b9 c5 5b be
       -0.018170195 0.5043127 -0.7340937 -0.21462144
000170 60 6b 85 3e 1f 72 ef be 75 66 c4 3e 09 fc 26 be
       0.26058483 -0.46766755 0.3835942 -0.16307081
000180 06 4b 0b bf 98 e3 be bd cb 36 ab 3d 9c 3b 2b 3e
       -0.5441135 -0.09320754 0.0836006 0.16721958
000190 85 db 40 3c ba 46 0b 3e bd 9e 89 be b7 a2 c9 be
       0.011771088 0.13601199 -0.2687892 -0.39381954
0001a0 84 a4 3d bf 81 9c ec be 1e 92 6a be 2a a7 43 3f
       -0.74079156 -0.46213153 -0.22907302 0.7642695
0001b0 9b 16 65 3e 54 a8 1a 3f 9a c5 76 3c 00 b3 3b bf
       0.22371905 0.604131 0.01506176 -0.7332001

generator.fc1.bias f4 [16]
000000 77 bb 5f 3e bc ae ce bb 96 e9 b1 bd 29 83 b7 3c
       0.21848856 -0.006307451 -0.08687131 0.02240141
000010 3a 2c ea bd cb 45 8e 3e 79 0a 07 3e 46 82 aa 3d
       -0.11434217 0.27787623 0.13187589 0.08325629
000020 5a f4 c5 3d 4b ff a6 3e c9 2a 1d be a3 a5 18 3e
       0.09665747 0.32616648 -0.15348352 0.14906935
000030 67 02 58 3e 7e d6 6d be 11 1c 8e 3e a9 39 be 3e
       0.21094666 -0.23226354 0.27755788 0.37153366

generator.fc2.weight f4 [8, 16]
000000 01 d3 75 3e 7c fa 3a bd 93 01 d2 3d 21 39 ed 3e
       0.24006273 -0.045649037 0.102542065 0.46332648
000010 c0 01 87 be 97 6e 96 be 51 cd d8 3e dc 36 a4 be
       -0.26368523 -0.29381248 0.42344144 -0.32073104
000020 97 08 05 be cd c7 25 bf 6d 29 57 be d2 32 8f 3e
       -0.12991558 -0.64757997 -0.21011896 0.2796846
000030 d3 53 32 3f 9e 32 02 bd 04 48 91 3d 73 bf 88 3e
       0.69659156 -0.031786554 0.07093814 0.26708564
000040 5c 75 a0 be 0a 44 50 3d 7c 98 ab bd 45 b8 fa be
       -0.31339538 0.050846137 -0.083786935 -0.48968711
000050 9f b3 be 3e 5c 5e fa bd ec f3 99 3e fa 42 68 3e
       0.37246415 -0.12225029 0.3006891 0.226818
000060 49 62 43 bc 18 5e e1 bd ab 24 c8 be ff 57 a8 3e
       -0.0119252885 -0.11004275 -0.39090475 0.32879636
000070 50 4b df 3d 6e 14 7e bf e4 ad 0c be 9e 81 69 3e
       0.109030366 -0.99249923 -0.13738209 0.22803351
000080 12 81 f4 3e 1e 44 f8 bb 48 27 87 3f 65 ea 8e bb
       0.47754723 -0.0075764796 1.0558863 -0.004361438
000090 b0 d1 32 3f f9 18 62 be 30 8f fd 3e 56 55 d6 be
       0.6985121 -0.22079839 0.49523306 -0.4186198
0000a0 29 cd 3a 3f 50 7c f4 bd 8a 0f fb bd 94 07 30 bc
       0.729693 -0.11937773 -0.12258823 -0.010743994
0000b0 bc b7 c7 bd bc c2 a8 be 66 52 2a 3f 49 81 af be
       -0.097518414 -0.3296107 0.6653198 -0.34278324
0000c0 50 78 4c bd 92 ad 29 bd b3 b6 ba 3d ca 8a 0c 3d
       -0.049919426 -0.041425295 0.09116878 0.034312047
0000d0 89 0f c3 be bb ba 19 3f 53 1b bc bd ab c6 e2 3d
       -0.3809779 0.60050553 -0.09184899 0.11073049
0000e0 32 58 37 bf 5d bb c9 be b7 c4 82 be 4c 14 7b be
       -0.7161895 -0.3940076 -0.25540707 -0.24519461
0000f0 5e f0 10 bc 8e 83 5d bb 5c 2a a2 3c 7c 2e 32 bc
       -0.0088463705 -0.0033800337 0.01979559 -0.010875341
000100 d8 b3 ac bc 62 a8 92 3d 4d ee 7d be b9 e2 4e be
       -0.02108185 0.07161023 -0.24797936 -0.20203675
000110 16 d5 ba be 88 55 3f bf e2 38 41 3d c7 53 d1 3c
       -0.36490697 -0.74739885 0.04717339 0.025552643
000120 77 b3 bb 3c 75 4c b8 be 7c 31 9f bd 29 5a cb be
       0.022912724 -0.35995832 -0.0777311 -0.39717224
000130 4c 5d 32 3d 48 e6 06 bd 20 9e 9c 3e 1c 25 69 be
       0.043546006 -0.032934457 0.3058939 -0.22768062
000140 34 c6 87 3e 0a 27 a3 be 0c 2d dd 3e a8 b8 64 3d
       0.26518404 -0.31865722 0.4319843 0.055840164
000150 92 a6 ec 3d 92 7a 81 3f 4c 06 b4 bd cb 6e a3 be
       0.11555208 1.011553 -0.087902635 -0.31920466
000160 e9 50 7d bd f0 d7 f6 be e2 5a 83 be df fa 10 3f
       -0.06184474 -0.48211622 -0.25655276 0.566328
000170 e1 09 0b be f5 f5 31 be 20 a3 d9 3d 2d 2b 47 bd
       -0.13577987 -0.17378981 0.10626817 -0.04862516
000180 d6 40 75 be db 41 e2 be cf 0f aa be bc f3 e8 3d
       -0.23950514 -0.4419087 -0.33215186 0.11374614
000190 14 bf 6f be 3a 1a c2 3e 60 6f 5a 3d 5c da e6 be
       -0.23412734 0.37910634 0.05332887 -0.4508847
0001a0 01 9b 8b 3e 27 eb fa 3e 78 67 85 bb c2 4a 3a bf
       0.27266696 0.49007532 -0.0040711723 -0.7277032
0001b0 f3 37 5e 3d ec d3 33 be 52 1d 15 3d ce de 72 3d
       0.054252576 -0.1756131 0.036404915 0.059294514
0001c0 c5 a2 e6 3e 79 5f c9 be 7c 3f 98 3d a3 d1 db be
       0.45046058 -0.39330652 0.07433984 -0.42933378
0001d0 b9 8a 26 3d a3 bb 64 be 2a 2e 27 be ff 22 1c bf
       0.04065964 -0.22337203 -0.16326204 -0.609909
0001e0 e3 73 b6 bd 49 4e 72 bf 82 25 0d 3f 9d 7c 0c 3e
       -0.089088224 -0.94650704 0.5513536 0.13719411
0001f0 f3 85 8e bd 91 ec ed ba 50 e7 0c 3f 14 c3 ca bd
       -0.069591425 -0.0018152167 0.55040455 -0.099004894

generator.fc2.bias f4 [8]
000000 f5 d6 28 3e 4e 9c a9 3d c3 36 6e be db 0b 00 be
       0.1648825 0.08281766 -0.23263077 -0.12504523
000010 8b 1c 4b 3e 61 6d 6e 3d 11 29 31 be 9b 7f 35 3d
       0.19835107 0.05820978 -0.17300822 0.044311147

generator.fc3.weight f4 [16, 8]
000000 c0 cc 3f be 8d ec 69 3f be 39 c5 be 6f 8d 2b 3f
       -0.1873045 0.9137657 -0.38520616 0.67012686
000010 59 f7 dd 3d 56 dc 0f bf 1d 6c 87 bf 9c 41 82 bf
       0.108381934 -0.5619558 -1.0579869 -1.0176272
000020 58 7b 40 3f 14 14 9c be 6f 9e 16 3f 0c 99 e4 3e
       0.7518821 -0.30484068 0.588355 0.44648015
000030 84 31 0c 3f 23 36 a5 be ba 26 0c bf 7c 4c 50 bf
       0.54763055 -0.32267866 -0.5474659 -0.81366706
000040 e6 97 73 3c 42 63 a3 3c 79 8e 2b bf 54 d2 58 be
       0.014867758 0.01994479 -0.6701427 -0.21173984
000050 7f d8 17 bf f9 9e 0d 3e d0 c2 3e be 4b 14 b4 3e
       -0.5931472 0.13830175 -0.18629003 0.35171732
000060 0d 8c 6f bf 72 b3 62 be b1 60 7c bd b4 e9 a7 be
       -0.93573076 -0.22138765 -0.06161565 -0.3279549
000070 9f 53 f1 3e a1 af 64 bf b1 d8 4b be aa fb 7b bd
       0.4713411 -0.8933049 -0.1990688 -0.061519302
000080 3b 2d 4a bf a3 0e b1 3c 37 36 05 bf 41 bd 94 be
       -0.78975266 0.021613425 -0.5203585 -0.2905064
000090 28 8d 20 3e c8 2d 75 3d 2d f3 08 be 8d 1f ee 3e
       0.15678847 0.059858114 -0.13374014 0.46508446
0000a0 d8 bd 4a 3f d4 2e 41 3f 54 be 52 bd 93 d4 95 3f
       0.7919593 0.7546208 -0.051451042 1.1705498
0000b0 2f 35 3b be a5 75 58 bf be e6 da bb d2 70 5c 3f
       -0.18282007 -0.8455451 -0.0066803386 0.8610965
0000c0 08 8d 0b be 1f 62 08 bf 6a 74 86 3d 02 fd 07 bf
       -0.13628018 -0.5327472 0.06565173 -0.53120434
0000d0 c1 cc 82 3f 50 5a 0f bf 6b 1d 7e 3d 88 44 2d 3f
       1.0218736 -0.5599718 0.062039774 0.67682695
0000e0 cf 64 c2 3e c4 79 cb bd 14 75 7a 3e 8e 96 39 bf
       0.37967536 -0.09935334 0.24458724 -0.72495353
0000f0 fc 7b 76 3e 87 a7 25 3f a4 3c 53 3f cb 2c b9 3e
       0.24070734 0.6470875 0.82514405 0.36166987
000100 18 2a 1a 3f 4f ed 9c bd bb a6 92 3e c1 9e f9 3c
       0.6022048 -0.076624505 0.2864283 0.030471208
000110 e2 6f 81 3f 97 12 35 bf 3c 86 16 3f 0f 2f 91 bd
       1.0112269 -0.7073149 0.58798575 -0.07089054
000120 fb 98 9f 3e 4d ac bc 3e ed a0 09 3f 62 86 01 3f
       0.31171402 0.36850205 0.5376118 0.50595677
000130 46 a4 6b 3f bc a2 db 3e 17 2c 42 3f 35 78 f2 be
       0.92047536 0.42897594 0.75848526 -0.47357336
000140 e2 63 c8 be 80 18 ad 37 b8 77 ab 3e ea dd a5 be
       -0.39138705 2.0634616e-05 0.33489776 -0.3239587
000150 36 4e d2 be bf 3c 8b bf b2 1e e7 bc 65 50 a6 bd
       -0.41075295 -1.0877913 -0.028212879 -0.08120803
000160 bb 12 ef 3e 37 6d d8 be a9 72 67 bf c3 b3 7b be
       0.46693978 -0.42270824 -0.9040933 -0.24580292
000170 32 23 52 3f ca db 8e 3e 76 98 ca 3d 5f 38 3c bf
       0.82084954 0.2790206 0.09892361 -0.73523515
000180 19 f9 a6 be b3 dc 38 bf e6 00 72 bf 1c 81 c4 3d
       -0.3261192 -0.7221176 -0.9453262 0.09594938
000190 bb 68 f8 3d 03 16 07 be f4 03 2e be 38 2d a6 be
       0.12129351 -0.1319199 -0.16993695 -0.32456374
0001a0 05 24 23 bf 5f 24 a6 3e f1 0c 5d bf 7b 00 29 3f
       -0.63726836 0.32449624 -0.8634787 0.6601636
0001b0 fb f0 a2 3e 72 bc 60 3f 21 d5 35 3f 14 22 95 bf
       0.31824479 0.87787545 0.71028334 -1.1651025
0001c0 86 05 7f bd 23 18 14 be 07 0e 94 bd b1 5f 40 bf
       -0.062261127 -0.14462332 -0.07229238 -0.75146013
0001d0 ec 19 97 3f 91 5f 52 be 53 75 83 bf 68 46 07 b9
       1.1804786 -0.20544268 -1.027018 -0.00012900832
0001e0 bb 55 e0 be d8 e6 86 be a7 cb 9b bd 1a fc 86 be
       -0.43815407 -0.26347995 -0.07607203 -0.26364213
0001f0 2f d8 b8 3d e7 b5 35 be dc c6 02 bf 38 99 99 3e
       0.09025609 -0.17745171 -0.51084685 0.2999971

generator.fc3.bias f4 [16]
000000 e9 f2 74 3e d3 63 77 be fd 27 50 be ad 4e 99 3e
       0.23920788 -0.24159174 -0.20327754 0.29942837
000010 36 37 eb 3d 5d 1e 09 be 57 b7 61 3e 07 80 ad 3e
       0.1148514 -0.13390489 0.22042595 0.3388674
000020 a1 92 9e 3c cb 87 11 bd 4e 33 ba 3d 73 77 a3 3e
       0.019357027 -0.035529893 0.09091817 0.3192707
000030 21 2f a4 3e e1 06 89 3e 4d 04 64 bd 8c a1 43 be
       0.32067207 0.2676306 -0.055668164 -0.19104594

generator.fc4.weight f4 [7, 16]
000000 20 34 cc be 9f 3e 8a 3d ae aa 48 3d b9 ce 80 3e
       -0.39883518 0.06750225 0.048990898 0.25157717
000010 ac 8e 24 3f 31 c5 b0 be a2 81 de bd 5e 9d 14 bc
       0.642802 -0.34525445 -0.10864569 -0.009070722
000020 57 06 22 bf f2 ce 8e be bf 0e b4 3d 9d 13 86 be
       -0.63290924 -0.27892262 0.08791875 -0.2618684
000030 86 52 bc bd f6 fb 54 3c 44 73 96 be 19 59 ad bd
       -0.091954276 0.012999525 -0.29384816 -0.0846426
000040 fb a0 20 3f fd 19 06 bd 7b 86 1d 3e 69 1a 8c 3e
       0.62745637 -0.032739628 0.15383331 0.273639
000050 06 7d 04 3e ce 96 e9 be 83 f3 aa be 44 a7 09 bf
       0.12938318 -0.45622867 -0.3338891 -0.5377085
000060 69 bd 16 be 29 93 41 3e 08 29 4e 3e 5b 7a be be
       -0.14720692 0.18903793 0.2013284 -0.37202725
000070 46 4c b7 3d 34 39 28 3d 15 24 9e be dc 1f 37 be
       0.08950095 0.04107018 -0.30886903 -0.17883247
000080 5a 5e f5 be bd 92 3a be 96 b2 50 3f 2e 98 5c 3e
       -0.47923547 -0.18220039 0.815225 0.21542427
000090 ee 7b c3 3d 83 a6 9e 3e dd 07 07 be 9d c2 a8 3e
       0.09545122 0.30986413 -0.13186593 0.32960978
0000a0 7c 8d 9a be 09 2c 94 be 4f 06 96 3e 7b a1 fc 3e
       -0.3018607 -0.28939846 0.29301688 0.4934195
0000b0 a5 d6 11 bf 9d fc b8 3e eb 15 9d be 57 26 be be
       -0.56968147 0.3613023 -0.30680785 -0.37138626
0000c0 3d e0 33 bd bc ab d0 be b3 f4 b7 bc 74 7f c0 3d
       -0.043915022 -0.40756023 -0.022455549 0.0939931
0000d0 16 90 95 3d b5 9d a6 3e 2b e5 27 3f 43 4e 04 3e
       0.07302873 0.32542196 0.6558406 0.1292048
0000e0 f0 55 9f be 59 c8 8c be 37 a4 ad 3e b3 4f ac 3e
       -0.31120253 -0.27496603 0.33914348 0.33654556
0000f0 97 2b 78 be 97 48 5b 3f 1a c4 ff 3e f8 05 5e be
       -0.24235378 0.8565764 0.499543 -0.21681964
000100 e3 c2 a4 bd 54 5c 93 be 84 22 b5 be 7c f4 bf bd
       -0.08044984 -0.28781378 -0.35377896 -0.093728036
000110 7a 50 a9 3e ba 2c 64 3e cd f7 0d 3f f7 1c c8 bc
       0.3306921 0.22282687 0.5545624 -0.024427874
000120 f9 c8 76 be 03 56 1d 3d ea da 06 3f f3 c2 6c bf
       -0.24100102 0.038412105 0.52677786 -0.9248497
000130 84 41 a0 bf 99 8f 23 3e 87 65 17 3d 39 b9 0e bd
       -1.2519994 0.15972747 0.03696206 -0.03484461
000140 e5 3c 18 3e 4f c2 93 3e b6 a5 de 3d 8b 7f 6a 3e
       0.1486698 0.28859183 0.108714506 0.22900216
000150 52 cb d4 3e 08 60 1c 3f 56 56 76 3e 7f 28 40 be
       0.4156137 0.6108403 0.24056372 -0.18765448
000160 55 43 14 bf 77 ff 80 bd 62 a9 ad 3d ed ed 13 be
       -0.5791524 -0.06298726 0.08479573 -0.1444623
000170 05 9e ad 3e 7b 98 a3 3e a4 12 0d 3e 55 51 bf bd
       0.33909622 0.3195227 0.13776642 -0.09341685
000180 5c 52 31 be 13 19 8d 3d 62 6b b1 be 77 02 18 3f
       -0.17316574 0.06889548 -0.3465224 0.5937876
000190 c2 20 c6 3e ab 9e 6b 3e ef 2d 3f be d7 b3 bf be
       0.38696867 0.23009746 -0.18669866 -0.37441894
0001a0 22 41 de bd 55 b4 7a 3e aa 6a fa 3e 08 45 0d 3e
       -0.10852267 0.24482854 0.48909503 0.13795865
0001b0 8c 42 5b 3d 25 4a 09 be 81 50 e9 3e b5 02 10 3e
       0.05353026 -0.1340719 0.45569232 0.14063533

generator.fc4.bias f4 [7]
000000 b2 18 90 bd de c0 a1 bd 66 d6 c8 3d 27 b9 32 be
       -0.0703596 -0.078981146 0.09806518 -0.17453443
000010 12 a2 df 3d 5b c1 0d be c5 a9 7b 3e
       0.10919584 -0.1384329 0.2457648

generator.layer_norm_hidden_0.weight f4 [16]
000000 41 35 7e 3f 41 35 7e 3f 41 35 7e 3f 63 e5 80 3f
       0.9930001 0.9930001 0.9930001 1.0070003
000010 c5 20 80 3f 41 35 7e 3f 41 35 7e 3f 41 35 7e 3f
       1.001 0.9930001 0.9930001 0.9930001
000020 53 b8 7e 3f 63 e5 80 3f 4f 62 80 3f 41 35 7e 3f
       0.99500006 1.0070003 1.0030001 0.9930001
000030 77 be 7f 3f 41 35 7e 3f 41 35 7e 3f 41 35 7e 3f
       0.999 0.9930001 0.9930001 0.9930001

generator.layer_norm_hidden_0.bias f4 [16]
000000 a6 9b 44 3b 43 60 e5 3b 43 60 e5 bb 43 60 e5 3b
       0.003 0.0070000007 -0.0070000007 0.0070000007
000010 43 60 e5 3b 43 60 e5 bb 43 60 e5 bb a6 9b 44 3b
       0.0070000007 -0.0070000007 -0.0070000007 0.003
000020 43 60 e5 bb 43 60 e5 3b 43 60 e5 bb 43 60 e5 bb
       -0.0070000007 0.0070000007 -0.0070000007 -0.0070000007
000030 43 60 e5 3b 43 60 e5 bb 43 60 e5 bb 43 60 e5 3b
       0.0070000007 -0.0070000007 -0.0070000007 0.0070000007

generator.layer_norm_hidden_1.weight f4 [8]
000000 63 e5 80 3f 63 e5 80 3f 41 35 7e 3f 41 35 7e 3f
       1.0070003 1.0070003 0.9930001 0.9930001
000010 53 b8 7e 3f 53 b8 7e 3f 41 35 7e 3f 77 be 7f 3f
       0.99500006 0.99500006 0.9930001 0.999

generator.layer_norm_hidden_1.bias f4 [8]
000000 43 60 e5 bb 43 60 e5 3b 43 60 e5 3b 43 60 e5 3b
       -0.0070000007 0.0070000007 0.0070000007 0.0070000007
000010 43 60 e5 3b 43 60 e5 bb 43 60 e5 bb 43 60 e5 bb
       0.0070000007 -0.0070000007 -0.0070000007 -0.0070000007

discriminator.fc1.weight f4 [8, 7]
000000 df 51 d1 3d 85 0a 48 3f 90 6f 98 3f 89 eb 06 3e
       0.10220694 0.7814105 1.1909046 0.13175787
000010 9e 42 31 3f 85 5c bf 3e ca e9 23 3f 3a 7b 60 3e
       0.69242275 0.37375274 0.6402861 0.21922007
000020 42 1b 08 be 37 d7 59 3f 25 43 aa 3e 61 33 a3 be
       -0.13291648 0.85094017 0.33254352 -0.31875136
000030 af 9f 15 bf 6a 3f 27 3e df 28 58 3f 2c 14 5c be
       -0.5844678 0.16332784 0.84437364 -0.2149207
000040 9e 71 d3 be 6d e2 eb be e1 a9 e9 3c a1 a2 88 3e
       -0.4129762 -0.46071187 0.028523387 0.26686576
000050 04 47 41 be 30 12 4d 3e ae c9 0b bf 31 eb ff be
       -0.18874747 0.20026469 -0.54604614 -0.49984124
000060 f2 47 5e bf 6f 9b 74 bf 5b 0c 0a be cb d1 ef 3e
       -0.8682853 -0.9554967 -0.13481276 0.46839747
000070 d5 1e 82 3f aa 0e d3 bd 44 b2 6b 3e e5 77 aa bf
       1.0165659 -0.10305531 0.23017222 -1.3317839
000080 19 1c e2 be 11 65 8f 3e d0 0b 01 3c d1 75 ef 3e
       -0.44162062 0.28006795 0.0078763515 0.46769574
000090 3d fd 59 bf ff 86 93 3f 1c 00 9d bc dc af 16 bf
       -0.85152036 1.1525573 -0.019165091 -0.5886209
0000a0 6e b9 9e be 93 dd 86 be 4e da 4b 3d dd 36 ed bc
       -0.31000847 -0.26340923 0.04976874 -0.028956825
0000b0 36 b3 24 bf 2b bc 45 3e 14 10 68 3f 7c 2a 16 3f
       -0.64335954 0.19310062 0.90649533 0.58658576
0000c0 89 a0 84 be fa 05 69 3e 7f 7e dc 3c 63 95 7f 3e
       -0.2590373 0.22756186 0.026915787 0.2495933
0000d0 b2 36 ec bd 85 04 71 bf 60 28 77 be be 50 a6 bf
       -0.1153387 -0.9414752 -0.24136496 -1.299339

discriminator.fc1.bias f4 [8]
000000 da 5c 39 3e fd f5 17 3e a9 98 70 3e b0 0c 79 3e
       0.18101826 0.14839931 0.23495735 0.24321246
000010 7f 0d be bd 9c 76 9c be 17 cc 6f be 71 9b 28 be
       -0.09279918 -0.30559242 -0.23417698 -0.16465546

discriminator.fc2.weight f4 [1, 8]
000000 84 20 2d 3f a1 2c af 3d 28 0d 97 3e 4e ea 6b 3f
       0.6762774 0.08553434 0.29502225 0.92154396
000010 a0 ec 00 bd 8a 44 19 bc 33 9d 5d be 2d a1 5d 3e
       -0.031475663 -0.00935472 -0.21641998 0.21643515

discriminator.layer_norm_hidden_0.weight f4 [8]
000000 fe df 80 3f a3 40 7e 3f a7 e5 80 3f 18 3b 7e 3f
       1.0068357 0.9931738 1.0070084 0.9930892
000010 61 39 7e 3f 69 e6 80 3f 8d 50 7e 3f e8 5b 80 3f
       0.99306303 1.0070316 0.9934166 1.0028048

discriminator.layer_norm_hidden_0.bias f4 [8]
000000 aa 2a e4 bb 27 2a e4 bb 01 2a e4 bb 5e 2b e4 bb
       -0.0069630938 -0.0069630328 -0.006963015 -0.0069631776
000010 e7 13 e4 3b d5 55 de 3b 18 2c e4 3b d8 3a e4 bb
       0.0069603804 0.0067851343 0.006963264 -0.0069650225

exp_avg f4 [16, 7]
000000 9b 3d 3b bb b1 95 3b bb 7b 4a 09 a2 56 a9 3b bb
       -0.0028570655 -0.0028623159 -1.8606392e-18 -0.0028634868
000010 34 9f 3b bb 8a ba 3b bb 10 43 39 bb 1a 9a 0a 3b
       -0.0028628828 -0.0028645121 -0.0028268732 0.002114898
000020 2c b4 0a 3b f7 61 1a 22 29 d2 0a 3b 2c bf 0a 3b
       0.002116452 2.0922754e-18 0.0021182394 0.0021171076
000030 ac b8 0a 3b d4 95 09 3b e3 31 5f 3a 5b f7 5e 3a
       0.0021167202 0.0020993846 0.00085142086 0.0008505487
000040 24 ea fd 1f 1a fc 5e 3a 76 f6 5e 3a ec db 5e 3a
       1.0753702e-19 0.0008506194 0.00085053535 0.0008501399
000050 bc 4e 5f 3a 9c 05 1e 3c ae 0d 1e 3c f2 f6 09 a1
       0.0008518507 0.009644892 0.009646816 -4.6744235e-19
000060 4c 0f 1e 3c a0 10 1e 3c 32 12 1e 3c 7e 77 1e 3c
       0.009647202 0.009647518 0.009647893 0.009672044
000070 40 5f 36 bc a7 6d 36 bc 3b 7c 95 21 d3 6a 36 bc
       -0.011131108 -0.011134542 1.0129516e-18 -0.011133867
000080 f2 6c 36 bc 99 6c 36 bc 47 6b 36 bc 23 be 8f 3c
       -0.011134373 -0.01113429 -0.011133975 0.017546719
000090 74 b9 8f 3c 68 ec 3a a2 01 b6 8f 3c b8 b8 8f 3c
       0.017544486 -2.5332853e-18 0.01754284 0.017544135
0000a0 1c b7 8f 3c ec da 8f 3c fd 91 94 3a cb 77 94 3a
       0.017543368 0.017560445 0.0011335012 0.0011327205
0000b0 59 25 ab 21 f6 98 94 3a 34 83 94 3a aa 8e 94 3a
       1.1597297e-18 0.001133709 0.0011330605 0.0011334021
0000c0 4a 25 92 3a 95 e7 49 3b 11 4b 4a 3b 57 9d 9c 22
       0.0011150029 0.00308082 0.0030867497 4.2450475e-18
0000d0 c1 6a 4a 3b c9 52 4a 3b d1 7c 4a 3b 71 9d 44 3b
       0.0030886384 0.0030872098 0.003089715 0.003000107
0000e0 30 78 84 bb a2 7a 84 bb a6 44 33 a2 5d 8c 84 bb
       -0.004042648 -0.0040429393 -2.4295366e-18 -0.004045053
0000f0 ee 7e 84 bb 7b 7b 84 bb 2f f3 83 bb 63 d6 8d bb
       -0.0040434515 -0.0040430403 -0.0040267925 -0.0043285354
000100 82 c3 8d bb 1a 3f dd 21 fc c5 8d bb 2a c2 8d bb
       -0.004326285 1.4992245e-18 -0.00432658 -0.0043261247
000110 a1 ae 8d bb 09 eb 8e bb 1b dc 10 bc bf c5 10 bc
       -0.004323796 -0.0043615145 -0.00884154 -0.008836209
000120 21 eb eb a1 f1 c9 10 bc 08 c8 10 bc 25 c8 10 bc
       -1.5986458e-18 -0.008837209 -0.008836754 -0.008836781
000130 e0 ad 10 bc 4b f0 1b 3a c6 74 1b 3a 42 0b 9c a1
       -0.0088305175 0.0005948587 0.00059301814 -1.0573951e-18
000140 8e a1 1b 3a 96 96 1b 3a b4 6b 1b 3a 7f de 1d 3a
       0.0005936854 0.000593522 0.000592883 0.0006022229
000150 8a 3c 39 3b 91 6a 39 3b af 95 5c 20 c8 7e 39 3b
       0.0028264844 0.0028292278 1.8684251e-19 0.0028304327
000160 1b 75 39 3b 2e 75 39 3b ab f6 39 3b 2b 3d a9 3b
       0.002829856 0.0028298604 0.0028375785 0.0051647625
000170 ee 59 a9 3b 1d 5e eb a0 8c 55 a9 3b 25 59 a9 3b
       0.005168191 -3.9872827e-19 0.0051676687 0.0051680976
000180 e8 58 a9 3b 8d 90 a9 3b f4 8d ab bb c3 ac ab bb
       0.005168069 0.0051747025 -0.005235428 -0.0052391007
000190 ee c0 91 a1 2b b6 ab bb 46 b3 ab bb dc be ab bb
       -9.87665e-19 -0.005240222 -0.005239877 -0.005241258
0001a0 14 07 ab bb 0c 65 9c b9 27 0f 9a b9 76 de 29 20
       -0.0052193496 -0.00029829924 -0.00029384458 1.4388463e-19
0001b0 3a 92 99 b9 72 d5 99 b9 30 bf 99 b9 64 cc 99 b9
       -0.0002929138 -0.00029341463 -0.0002932488 -0.00029334717

exp_avg f4 [16]
000000 7b 4a 89 3c f7 61 9a bc 24 ea 7d ba f2 f6 89 3b
       0.016759148 -0.018845541 -0.0009686074 0.0042103464
000010 3a 7c 15 bc 67 ec ba 3c 5a 25 2b bc 58 9d 1c bd
       -0.009123856 0.022817804 -0.010445917 -0.038235992
000020 a6 44 b3 3c 1a 3f 5d bc 21 eb 6b 3c 42 0b 1c 3c
       0.02188332 -0.013503814 0.014399321 0.009524168
000030 ae 95 dc ba 1c 5e 6b 3b ee c0 11 3c 76 de a9 ba
       -0.0016829276 0.0035914248 0.008896096 -0.0012959975

exp_avg f4 [8, 16]
000000 fd 42 e8 bb f4 05 f1 39 b5 a9 1e 3b 0a 81 c3 bb
       -0.0070880638 0.00045971537 0.002421004 -0.0059663104
000010 4a e7 57 3b 7b 68 1e 3c f2 14 78 bc 40 49 87 bb
       0.0032944256 0.009668465 -0.0151417125 -0.004128605
000020 4b d8 b9 ba f5 44 ac 3c 86 df a7 bb 1b 28 de 3b
       -0.001417884 0.021028975 -0.0051230816 0.0067796833
000030 77 fa 1c bb 43 e2 91 ba 3f a0 1f bb 00 03 9f 3a
       -0.0023953 -0.0011130053 -0.0024356989 0.0012131631
000040 dd e4 f4 3b da 1b 46 3b 4a a6 3d b9 85 3f 10 3c
       0.0074735717 0.0030229003 -0.00018086392 0.008804207
000050 8c dd 00 bb 4c f0 75 bc 55 77 85 3c f0 98 d2 3b
       -0.0019663302 -0.0150109045 0.016292254 0.006426923
000060 08 c1 62 3b b6 a3 19 bd 49 5b 26 3c 7e a0 14 bc
       0.003459992 -0.037509643 0.0101536 -0.009071467
000070 fb 89 41 3b bc 9d c7 3b 3a 71 01 3b d7 2a 43 bb
       0.0029531706 0.0060918014 0.0019751326 -0.0029780173
000080 9a 96 84 b9 2c eb 04 3b b7 e6 d4 3a f2 6c cb 3a
       -0.0002528921 0.0020281775 0.0016243075 0.0015520139
000090 56 c6 ad 3a 62 39 48 bb fa 3a fb 39 cb 2c 95 3a
       0.0013257961 -0.003055178 0.00047918392 0.0011381147
0000a0 4e e2 80 3a 99 e3 00 bc 43 2b 49 3b 33 7e 8c ba
       0.0009833069 -0.0078667635 0.0030695952 -0.0010718763
0000b0 26 2d 3f b9 16 71 4e 3b 34 fc 6a ba 50 14 04 bb
       -0.00018231999 0.003150051 -0.0008963973 -0.0020153709
0000c0 61 a7 07 bc c3 a9 1f 3c bb 0e 2d 3c 25 7b d4 3a
       -0.008279652 0.009745064 0.010562594 0.0016211016
0000d0 bb 67 28 3c 0e 88 9b bb 9f d8 49 bc 1c a3 a1 3a
       0.0102786375 -0.0047464436 -0.012319713 0.0012331936
0000e0 6a 07 40 3b e1 ad 52 bc fb e8 05 3c 89 91 d8 3a
       0.0029301294 -0.012858839 0.008173223 0.0016522865
0000f0 d6 d8 6c bb 3a ee 4e 3c 6a 5b f1 bb 9e b4 1c bc
       -0.0036139986 0.01263004 -0.0073656337 -0.009564547
000100 ca 7b 5a bb da 80 21 3b 0c 4b 41 3b 4a 82 5e ba
       -0.0033337944 0.0024643452 0.0029494194 -0.00084880425
000110 5f 59 43 3b ab f9 76 3a 05 74 ca bb 9d db 03 ba
       0.0029807908 0.00094213587 -0.0061783814 -0.00050299783
000120 c0 80 07 3a df dc 98 39 cd b0 2e 3a 36 e1 e6 3a
       0.00051690266 0.0002915626 0.00066639186 0.0017614726
000130 3d 31 90 ba 35 b2 3b 3b 9a 0c 00 bb ec 77 c4 ba
       -0.0011001002 0.0028640155 -0.001953876 -0.0014989353
000140 68 00 ac bb 73 63 9e bb 71 0f 02 bb f0 bc 05 bc
       -0.005249072 -0.0048336326 -0.001984563 -0.008162722
000150 0a 95 4b b9 50 46 69 3c 40 45 39 bc 82 9b c4 bb
       -0.0001941511 0.014237955 -0.011308014 -0.0059999833
000160 21 49 82 bb 69 bb 1a 3d a9 c0 28 bc 46 de ff 3b
       -0.003976003 0.037776385 -0.01029984 0.0078084795
000170 1f bb 1b bb f9 90 03 bc f7 86 6e ba 32 56 69 3b
       -0.0023762656 -0.00803017 -0.0009099091 0.0035604355
000180 45 e6 6d b9 11 72 83 bb dd 06 38 bb d1 5f 72 bb
       -0.00022687863 -0.0040114005 -0.0028080263 -0.003698338
000190 b6 78 fe ba 6b 4f dc 3b f6 49 03 bb dc 08 30 bb
       -0.0019414637 0.0067233345 -0.0020033098 -0.002686075
0001a0 b6 f3 0c bb c6 88 94 3c c8 49 d3 bb 1f 10 35 3b
       -0.0021507568 0.018131625 -0.0064480044 0.0027628017
0001b0 01 48 1e b9 67 db c7 bb 90 c8 a6 3a d2 a1 5a 3b
       -0.00015094878 -0.006099153 0.0012724567 0.0033360613
0001c0 ec 0b 80 3c 70 0f 20 bc fd 60 49 bc fa 0a b4 3b
       0.015630685 -0.009769306 -0.01229119 0.0054944726
0001d0 10 c4 4f bc dd 43 e6 bb 94 d0 ef 3c 7a a4 64 3b
       -0.012681022 -0.007027133 0.029274262 0.0034888075
0001e0 ac 8e be ba 61 47 15 bc da 54 a2 ba f9 52 17 bc
       -0.0014538369 -0.009111256 -0.0012384907 -0.009236091
0001f0 ff 28 ae 3b 13 01 2c bc d5 12 0c 3c 38 f7 b1 3b
       0.0053149457 -0.010498303 0.008549412 0.005431082

exp_avg f4 [8]
000000 91 6a 23 3b f5 98 35 bc 38 1a 8e bb a2 fd 7e bc
       0.0024935345 -0.011083831 -0.0043366216 -0.0155634
000010 b6 fd 74 bb 7e 30 69 3c b9 04 16 3c d8 c0 5b 3c
       -0.0037382669 0.014232753 0.009156399 0.013412677

exp_avg f4 [16, 8]
000000 a0 ce 8c bb ad e3 af ba 32 1c 5c 3b 41 6f 1e 3b
       -0.0042970926 -0.0013419293 0.0033586142 0.00241752
000010 0e f4 82 ba 78 92 00 3b 13 cb 27 bb 72 a1 ba 3a
       -0.0009990947 0.0019618552 -0.002560322 0.0014238788
000020 fa 0e 4c bc d5 78 07 3b 75 c4 3b 3b bf d6 b6 3b
       -0.012454743 0.0020671387 0.0028651033 0.005579799
000030 ea b7 e1 bb 1b bd f5 3b 36 c2 5c 3b 65 ee 09 bb
       -0.0068883793 0.00749935 0.0033685095 -0.0021046635
000040 19 45 f6 bb 29 56 dd 3b 47 f2 cd bb 3b a8 18 ba
       -0.0075155613 0.006754656 -0.006284985 -0.0005823408
000050 19 e9 f6 bb af e7 d0 3b 57 78 89 3c fd 1e 03 bc
       -0.0075351116 0.006375275 0.016781015 -0.008002994
000060 59 13 d8 ba e5 ca a2 ba 3a 3e 09 3b d1 e5 19 3b
       -0.0016485258 -0.0012420086 0.002094163 0.0023482929
000070 29 97 1a ba 95 1e 90 3a de 99 7a bb 2f a3 e4 3a
       -0.00058971584 0.0010995442 -0.0038238685 0.0017443652
000080 44 a0 a6 3b ce e7 90 bb 3e 76 79 3b e4 b8 cf 3a
       0.005085023 -0.0044221645 0.0038064863 0.0015847948
000090 71 10 90 3b ee df 76 bb d7 99 53 bc 79 5e cc 3b
       0.004396491 -0.0037670094 -0.012915096 0.006236848
0000a0 b3 96 de 3b 16 bd f7 ba ac 6f 6f ba 33 f3 6a bb
       0.006792867 -0.0018900956 -0.0009133767 -0.0035850524
0000b0 9a 1d 95 3b 75 9c 90 bb af e4 12 bb 32 98 e2 3a
       0.004550648 -0.0044131824 -0.0022414138 0.0017287789
0000c0 d2 d2 38 3b 1e 7b bc b9 4b eb 8b ba 0f c4 05 bb
       0.002820183 -0.00035949884 -0.0010674981 -0.002041105
0000d0 6b e6 df 3a 29 0c df ba 6a f3 16 3a da 49 a2 38
       0.001708222 -0.0017017174 0.00057583174 7.738518e-05
0000e0 29 cf 44 bb 0b 69 d4 3b 23 59 e6 bb 92 c1 72 bb
       -0.0030030704 0.0064822487 -0.007029669 -0.0037041646
0000f0 a3 fa 9b bb ad 75 4a 3b 63 b9 90 3c 5d f6 0e bc
       -0.004760103 0.0030892894 0.017666524 -0.00872573
000100 df 14 97 bb f5 bf ea 3a 0c d4 a1 38 be 1d e3 3a
       -0.0046106423 0.0017909991 7.716575e-05 0.001732759
000110 c0 f5 54 bb bb 75 42 3b bd 8c 58 3b 7c e0 04 bb
       -0.0032495111 0.0029672224 0.003304287 -0.0020275405
000120 ea 40 fe 3b 5a 18 d9 bb 6d c8 bc 3b 6f 5f b6 3a
       0.007759203 -0.0066252174 0.0057611973 0.001391394
000130 22 9d e3 3b f9 36 c7 bb 81 24 91 bc 8d 94 0c 3c
       0.006946222 -0.0060795513 -0.017717602 0.008580339
000140 85 fe c6 3b 83 08 45 bb cc c9 22 3a d9 e2 b4 ba
       0.0060728216 -0.0030064888 0.00062098796 -0.0013800516
000150 f4 35 91 3b 23 bb 79 bb 9a db d7 bb 02 1e 71 3b
       0.0044314805 -0.0038105927 -0.006587458 0.0036791568
000160 1c 3d 2e bc f2 a9 04 3c bf 5c cb bb 3d 2b a0 ba
       -0.010634687 0.008097159 -0.0062061246 -0.0012219917
000170 ad 83 14 bc ab d2 01 3c 0f a3 b4 3c fc a9 33 bc
       -0.009064597 0.007923762 0.022050409 -0.01096582
000180 92 b7 1c bb 7a 21 85 b9 e0 df fe 3a 0c 22 4e 3b
       -0.0023913127 -0.0002539268 0.0019445382 0.00314534
000190 0c 9a d7 ba 1b 14 d3 3a 3d 9c 3f bb ae c1 05 3a
       -0.0016449108 0.0016104014 -0.0029237412 0.0005102408
0001a0 ad 77 89 3b 38 f5 09 bb f3 f8 86 3a fb 9a 2d ba
       0.0041951747 -0.0021050703 0.0010297581 -0.000662252
0001b0 34 92 56 3b 40 7e 49 bb ab fe b5 bb 03 b2 3e 3b
       0.0032740952 -0.0030745417 -0.0055540404 0.0029097802
0001c0 3f ca 01 3c 08 4d ef ba 38 7a af ba 24 69 5b bb
       0.007921754 -0.001825721 -0.0013387864 -0.0033479417
0001d0 e2 69 99 3b 77 e2 9d bb 08 a4 4a bb c6 cd f3 3a
       0.0046818117 -0.0048182565 -0.0030920524 0.0018600754
0001e0 35 75 b2 3b 44 b5 ab ba 9f ff 23 ba a4 a3 06 bb
       0.005446101 -0.0013100286 -0.0006256047 -0.0020544315
0001f0 b4 99 51 3b b4 e0 5c bb 43 56 2f bb c3 5b ba 3a
       0.0031982483 -0.003370327 -0.0026754297 0.0014218021

exp_avg f4 [16]
000000 a5 df 9d bb 86 df e7 bb 36 cc eb 3b 26 09 9e bb
       -0.0048179203 -0.0070762066 0.0071959747 -0.004822868
000010 88 a4 e2 bb ba b9 8b 3b c0 e8 4b 3b 78 f7 43 3c
       -0.0069165863 0.0042640837 0.0031114072 0.011960857
000020 f7 55 aa ba ae 25 0c bc 17 25 b3 b9 86 47 20 3c
       -0.001299559 -0.008553905 -0.00034169175 0.0097826775
000030 a8 46 b1 bb ad 7f 83 ba 53 5a 7c 3b 06 13 08 3b
       -0.005410034 -0.0010032557 0.0038505986 0.0020763292

exp_avg f4 [7, 16]
000000 40 9f 2e 3b bd 41 8e bb 50 35 b5 3b be 88 43 3b
       0.0026645213 -0.0043413327 0.005530037 0.0029836143
000010 a1 36 db 3b 95 45 70 bb 59 c3 04 bc ff dd 8b 3a
       0.006689862 -0.0036662568 -0.008103215 0.0010671018
000020 f1 e1 21 bc 1f 97 ae 3b 97 8b 6d 3b 29 de 0a bc
       -0.009880529 0.0053280736 0.0036246532 -0.008475819
000030 f4 ae 15 3b 31 22 0c 3c c3 26 18 bc 63 56 a8 3b
       0.0022839876 0.008553074 -0.009286585 0.005137251
000040 d4 4c 0a 3c 73 bd e6 ba d9 32 27 3c 7b ba c5 3b
       0.008441169 -0.0017604068 0.010204994 0.006034193
000050 80 09 1c 3c 47 ab 5f 38 64 03 24 bc e3 88 a6 bb
       0.009523749 5.3326858e-05 -0.010010574 -0.005082236
000060 68 05 44 bc 30 0a 92 3b 88 f1 f5 3b bf 26 5a bc
       -0.01196418 0.004456781 0.0075055994 -0.013314902
000070 d5 d8 5b 3b 68 63 13 bc 27 23 1d bc 37 7a 39 3c
       0.003354599 -0.008995868 -0.0095909005 0.011320642
000080 c5 09 22 b9 8b 7d 29 bc f5 21 06 3b c2 58 12 bb
       -0.00015453163 -0.010344873 0.0020467017 -0.0022330736
000090 ef a2 66 3b 38 b6 d6 bb 4b a3 4a bc e9 ae 18 3c
       0.003519233 -0.006552484 -0.012368034 0.009319046
0000a0 93 88 20 bc e4 dd 0c 3c 3b b2 8a ba 41 bb 14 ba
       -0.009798187 0.008597825 -0.0010581681 -0.0005673655
0000b0 ce e4 04 3b 3e 61 14 3d 1a be 7f bc ed c7 46 bb
       0.002027798 0.03622555 -0.015609289 -0.0030331567
0000c0 c4 9a ea bb ca 8a 23 b9 c2 b9 f2 bb 09 56 a3 bb
       -0.007159563 -0.00015596594 -0.007407398 -0.0049846214
0000d0 5b 52 e1 bb 44 08 ce ba d9 5f e1 3b 0c 0d a4 3b
       -0.0068762726 -0.0015719016 0.006877881 0.005006438
0000e0 38 ff 00 3c b9 8e 3d bb 84 0c d2 bb 6f 1e 2e 3c
       0.007873349 -0.002892418 -0.0064101834 0.010627373
0000f0 06 36 0b bb c6 da 4a 3c ab f6 c3 3b c4 71 18 bc
       -0.0021241917 0.012381261 0.005980333 -0.009304468
000100 d5 e4 4e ba dc b0 c5 3b ae e2 81 ba cc 4d 16 3b
       -0.0007892375 0.006033046 -0.0009909475 0.0022934554
000110 a4 a8 94 ba 37 10 39 3b 6f f8 05 3c 24 e8 b6 bb
       -0.0011341763 0.0028238425 0.008176907 -0.0055818725
000120 68 0c a5 3b b3 39 a4 bb b2 45 b0 3a d7 07 e0 ba
       0.0050368793 -0.005011761 0.0013448505 -0.001709218
000130 8e 18 b7 ba b2 6a b1 bc 61 e5 21 3c 31 0d 31 3b
       -0.001396911 -0.021657322 0.009881348 0.002701592
000140 b9 88 45 3b 27 d0 4a 3b f5 96 50 3b a7 d1 3d 3b
       0.0030141308 0.0030946822 0.0031828259 0.0028964074
000150 25 b4 12 3b b1 28 21 3b 16 59 90 3a 3b 88 b0 bb
       0.0022385207 0.0024590904 0.0011012878 -0.0053873337
000160 a1 b4 44 ba 0a 4a ff ba 72 5f 3c 3b 57 a3 8d bb
       -0.00075037224 -0.0019477021 0.0028743413 -0.00432245
000170 0f 93 2b 3a f4 ba 87 bc 04 f0 1b 3b 3d 50 a8 3b
       0.0006545046 -0.016568638 0.0023794184 0.0051365183
000180 10 66 63 3a ff 1c 62 3c 35 4b e9 ba 4b 50 50 3b
       0.0008674571 0.0138008585 -0.0017798903 0.003178614
000190 39 46 8c bb 16 c6 16 3c 3e 7a 85 3c 65 e1 58 bc
       -0.004280832 0.009202501 0.016293641 -0.013237332
0001a0 7e 8a 51 3c a4 1f 45 bc 62 eb cc 3a b9 11 4a 3a
       0.012789367 -0.0120314695 0.0015634114 0.00077083294
0001b0 cd e0 18 bb 0c 5f 4d bd 5a 98 a9 3c 8d 4d 97 3b
       -0.002332735 -0.050139472 0.02070253 0.004617399

exp_avg f4 [7]
000000 a4 82 d4 bb 80 9d 89 bc 38 dd b3 3b 84 3a 68 3c
       -0.0064853 -0.016798735 0.005489018 0.014174107
000010 10 12 80 bb 6f 2b 03 bc dc 4d 09 bc
       -0.003908403 -0.008005961 -0.0083803795

exp_avg f4 [16]
000000 89 6a f0 3b a9 bc 17 3c 08 31 da 3b 0c 4b c5 bb
       0.0073369187 0.009261289 0.006658677 -0.006020909
000010 2f 93 9a ba bd e9 93 3c 0e 34 0b 3c 5a a5 85 3c
       -0.0011793132 0.018055791 0.0084962975 0.016314197
000020 57 de ac 3b 96 49 10 bc 3a 74 07 bb 9e b5 47 3c
       0.0052755284 -0.008806607 -0.0020668642 0.012189297
000030 e2 57 53 38 d0 7b 90 3c c0 13 dd 3c 58 40 aa 3a
       5.0388167e-05 0.017637163 0.026986957 0.0012989147

exp_avg f4 [16]
000000 05 3d 9b b9 9b 02 bb bc 45 5e 95 3b ab dd f9 bb
       -0.00029609367 -0.02282839 0.004558357 -0.007625302
000010 bc 4c 5b bc 6f 02 97 3c 59 d3 cf 3b f7 81 2b bb
       -0.013384994 0.018433778 0.0063423333 -0.0026169994
000020 6b d7 74 3c c4 62 82 bc 1b bd f2 3b 65 ea cb 3c
       0.014943938 -0.015916236 0.007407797 0.024892041
000030 55 60 ed bb 24 d5 a0 3c e8 75 68 3c 85 c9 2f bb
       -0.0072441497 0.019632883 0.014188267 -0.0026822996

exp_avg f4 [8]
000000 f8 dc 9d bc d2 a5 14 bc 7f 41 f0 3b 1c 8a ed 3b
       -0.019270405 -0.009072738 0.0073320265 0.00724913
000010 ce 52 ce 3a c4 3b 64 3b 20 e8 f1 3b a8 e3 b4 b9
       0.001574123 0.0034825662 0.007382408 -0.00034501893

exp_avg f4 [8]
000000 16 05 80 3c b3 58 b0 bb 80 e4 13 bc ff 34 ae bc
       0.015627425 -0.0053816675 -0.009026647 -0.021265505
000010 21 0c 85 bb d8 ed 39 3c 50 88 0d 3c 9a ec a9 3c
       -0.004060284 0.01134821 0.008638456 0.020742703

exp_avg f4 [8, 7]
000000 b2 64 cb bc 13 3f 19 bd 43 32 98 3c 03 16 14 3d
       -0.024828289 -0.037413668 0.018578654 0.036153805
000010 a1 95 1f bc 5a ca b2 bc be 91 90 bc fa 74 b2 3c
       -0.009740264 -0.021825004 -0.01764762 0.021784294
000020 5b 76 f0 3c 72 c1 72 3b 2e b6 9e bc 66 6e 3c 3b
       0.029353311 0.0037041572 -0.01937398 0.0028752326
000030 61 b9 43 3c 20 e3 21 bb e1 c6 8e bb e1 35 b9 bb
       0.011946053 -0.0024702027 -0.0043572043 -0.005652175
000040 8f 20 19 bb e3 83 4f 3b 87 82 df b7 65 19 e5 ba
       -0.0023365354 0.0031664304 -2.6644453e-05 -0.0017478882
000050 d6 ca 04 3b 5f 48 0e bd 39 7f 3a bd e7 9d 4c bc
       0.0020262501 -0.034736987 -0.045531485 -0.012488819
000060 ca 1b 10 3d e6 e5 1b ba 49 ac 5b bc 31 be 72 3c
       0.03518275 -0.00059470383 -0.013407775 0.014815853
000070 9a 37 78 bb 27 59 e0 ba cf de f6 ba ea cf 75 bc
       -0.0037874938 -0.0017116413 -0.0018834713 -0.015003184
000080 0b dc e9 bb b3 a1 a9 bb db e1 e4 bb 7d e7 2f 3d
       -0.007136827 -0.0051767468 -0.006984932 0.042945374
000090 e4 f0 6a 3d 4a eb 39 3c 7a 95 1c bd 01 16 8a 3b
       0.057358637 0.011347601 -0.03822849 0.004214049
0000a0 08 8a ae 3c 1f 39 1d bc 7e 1d 07 3d 4e 1d 22 3d
       0.021306053 -0.009596138 0.03298711 0.03957873
0000b0 ab 99 29 ba eb ea 09 3b 5b 9c a3 3c 4c 77 e2 3c
       -0.00064697367 0.0021044563 0.019972017 0.027644776
0000c0 89 8e 9a 3c 40 93 02 bc 50 77 0a bc ae 02 9d ba
       0.018866794 -0.007969677 -0.008451298 -0.0011978948
0000d0 0d ba 10 bc b1 da f5 bb 5b fc 05 bc 9f 14 f4 bb
       -0.00883342 -0.0075028767 -0.008177842 -0.0074487473

exp_avg_sq f4 [8, 7]
000000 0b aa 92 37 60 67 2a 38 97 2e 22 37 be bb 0a 38
       1.7483739e-05 4.0627434e-05 9.6668e-06 3.3076612e-05
000010 47 50 36 36 70 88 61 37 39 24 14 37 1e 8f 7b 37
       2.716684e-06 1.3442812e-05 8.829921e-06 1.4994088e-05
000020 9a dc e5 37 00 f6 ba 35 98 62 23 37 a9 4d b1 34
       2.7401653e-05 1.3929675e-06 9.738513e-06 3.3025324e-07
000030 25 7a 92 36 3c 42 02 35 b8 62 1b 35 68 7c 81 35
       4.3653586e-06 4.852516e-07 5.7885654e-07 9.647456e-07
000040 68 44 31 34 a6 90 95 34 19 ac e9 32 b6 e8 fb 33
       1.6509296e-07 2.7858658e-07 2.7203031e-08 1.1730428e-07
000050 e8 2a 0f 34 35 b0 13 38 43 1b 85 38 92 f5 b6 36
       1.3333522e-07 3.5211637e-05 6.347012e-05 5.452611e-06
000060 dd 6b 0f 38 37 c3 8a 35 76 b7 bc 36 23 f4 ed 36
       3.4194312e-05 1.0338616e-06 5.6241943e-06 7.0915717e-06
000070 f0 01 d6 34 d1 bf a4 33 82 cf 2b 34 b0 f4 c7 36
       3.9862016e-07 7.671736e-08 1.6001107e-07 5.9591475e-06
000080 39 30 bc 35 dc 37 40 35 4e 96 b5 35 5e 02 60 38
       1.4021126e-06 7.160686e-07 1.3529295e-06 5.3407966e-05
000090 25 88 c9 38 6b ad ba 36 1c 10 20 38 86 b9 ab 35
       9.609786e-05 5.5634205e-06 3.8161976e-05 1.2794487e-06
0000a0 cc 5b 5a 37 84 12 61 36 4d 74 03 38 66 50 3d 38
       1.3015186e-05 3.353839e-06 3.1341147e-05 4.513599e-05
0000b0 06 c9 20 35 23 38 4e 35 eb c1 3c 37 25 da b4 37
       5.989717e-07 7.682267e-07 1.1250823e-05 2.1559254e-05
0000c0 98 ff 25 37 32 31 f9 35 f4 cf 07 36 c6 47 29 33
       9.894276e-06 1.8566263e-06 2.0237612e-06 3.9413656e-08
0000d0 81 22 06 36 a2 b6 d5 35 08 51 f4 35 41 eb c7 35
       1.998764e-06 1.592289e-06 1.8203e-06 1.4895123e-06

exp_avg f4 [8]
000000 06 c4 ee 3b c2 f3 39 3b 9d e7 94 3b 96 1e cc bc
       0.0072865514 0.002837405 0.004544212 -0.024916928
000010 c4 3b 3e 3c 24 a7 88 bc 84 2b 9c 3c ea ff f9 3b
       0.011610929 -0.016681261 0.019063719 0.0076293843

exp_avg_sq f4 [8]
000000 b2 19 e7 35 91 15 83 35 ae e5 67 35 6a b7 8f 37
       1.721832e-06 9.766537e-07 8.6388434e-07 1.7132337e-05
000010 13 a3 76 36 44 5b f1 36 ab b4 25 37 1f d5 fb 35
       3.6751778e-06 7.1929844e-06 9.876831e-06 1.8762984e-06

exp_avg f4 [1, 8]
000000 19 70 b7 bd 11 35 ac 3d 92 ee 84 bd b6 d7 00 3e
       -0.08956928 0.08408559 -0.06490816 0.12582287
000010 92 30 b3 bd 87 4a ba 3d 37 de 37 bd c8 28 73 bc
       -0.087494984 0.09096246 -0.044889655 -0.014841266

exp_avg_sq f4 [1, 8]
000000 ae 88 7d 39 17 93 46 39 ef d4 dd 38 17 e0 e9 39
       0.00024178877 0.00018937547 0.00010577763 0.00044608183
000010 02 bf 53 39 7c af 67 39 cb 48 6c 38 a1 44 80 37
       0.00020193684 0.0002209525 5.633458e-05 1.5290747e-05

exp_avg f4 [8]
000000 cb 69 75 bd 74 de f6 3b 5f 06 9a bc 0d 90 ef 3d
       -0.059915345 0.0075338427 -0.018801866 0.116973974
000010 42 76 4a 3b 68 bf 07 ba 64 e2 22 3c 0b 36 4d bb
       0.003089324 -0.0005178363 0.009941671 -0.003131273

exp_avg_sq f4 [8]
000000 ab 0f e3 38 ae 77 ce 35 92 ca 14 37 14 04 ca 39
       0.00010827122 1.5383027e-06 8.868652e-06 0.0003853148
000010 06 08 8b 34 eb f8 e5 31 b8 df 39 36 d4 cd 39 35
       2.5896605e-07 6.693076e-09 2.769737e-06 6.921739e-07

exp_avg f4 [8]
000000 ee 4a 17 3d 89 c8 9f 3b ca 1a 83 3c e8 e9 4f 3d
       0.036936693 0.0048762006 0.016003985 0.05076018
000010 82 b6 fa ba 8b 21 ad b9 6c 7d 45 bc 9b c4 40 3c
       -0.0019127878 -0.00033022123 -0.012053829 0.011765624

exp_avg_sq f4 [8]
000000 29 ad 12 38 8e 8a 24 35 58 1a dc 36 fb a7 8a 38
       3.497038e-05 6.1296385e-07 6.5595777e-06 6.6116416e-05
000010 55 89 cc 33 9b f4 41 31 ab 8e 7a 36 ea e2 6d 36
       9.524471e-08 2.8224239e-09 3.7335947e-06 3.5447833e-06
